SARSA/dsqn/1000_model_weights.pth (torch, 75929 bytes, 6 tensors)

net.0.weight f4 [128, 8]
0	0x3f67f10a	0.9060217
1	0xbe8247cd	-0.25445405
2	0x3ef69fa3	0.48168668
3	0xbea29d04	-0.31760418
4	0xbf1fd698	-0.6243682
5	0x3e9d291c	0.30695426
6	0xbdc1aefd	-0.094572045
7	0xbda32c84	-0.07967475
8	0x3fc7d1d4	1.561091
9	0x3cdad305	0.02671195
10	0x3f35b313	0.7097637
11	0x3dfdef8c	0.123992056
12	0xbeb22e32	-0.3480087
13	0x3e0a9ba4	0.13535935
14	0x3cf51ac1	0.029919984
15	0xbeaa9d7d	-0.3332328
16	0xbfb0a033	-1.3798889
17	0x3fa60d0f	1.2972735
18	0xbe5b1967	-0.21396409
19	0xbf0c05a5	-0.5469611
20	0x3e46166a	0.19344488
21	0x3e690ef0	0.22759604
22	0x3dc8858e	0.097910985
23	0xbeb648e3	-0.35602483
24	0x3ed84619	0.4224098
25	0x3f976d26	1.1830184
26	0x3e886ec3	0.26647004
27	0xbf3a5564	-0.72786546
28	0xbd718143	-0.058961164
29	0x3d6fc609	0.05853847
30	0xbd947975	-0.072497286
31	0xbd3eb777	-0.046561684
32	0xbefc6b4c	-0.4930061
33	0x3d322d3c	0.04350017
34	0x3c416358	0.011803471
35	0xbe924461	-0.28567794
36	0x3f2e1c4a	0.68011916
37	0x3f8439f1	1.0330182
38	0x3f396056	0.7241262
39	0x3ea44185	0.32081237
40	0xbf8e00a6	-1.1093948
41	0xbe99d391	-0.30044225
42	0x3f5c697e	0.8609847
43	0xbf346e02	-0.7048036
44	0xbf0bb360	-0.5457058
45	0xbf73deed	-0.9526203
46	0x3ede12be	0.43373674
47	0xbdc07d2e	-0.09398876
48	0xbebdea7d	-0.37092963
49	0xbde1430f	-0.109991185
50	0xbe07564a	-0.1321651
51	0xbeae7d7e	-0.34080118
52	0xc0064d85	-2.0984814
53	0x3e3e93b8	0.18611038
54	0x3d869cdd	0.06572888
55	0xbdfb24ca	-0.12262876
56	0xbf87b016	-1.0600612
57	0x3e9c775b	0.3055981
58	0x3e854fea	0.26037532
59	0x3fa3319e	1.2749517
60	0xbe8b548f	-0.2721295
61	0x3e1c86d2	0.15285805
62	0x3d9ab8b3	0.0755476
63	0x3dc41a50	0.09575331
64	0xbbb43045	-0.0054989182
65	0xbd70e7f8	-0.058814973
66	0xbebc5bae	-0.36788696
67	0xbf22e2bd	-0.63627225
68	0x3f76af47	0.963612
69	0x3f4de808	0.80432177
70	0x3e2c39f6	0.16818985
71	0x3eb9e3b6	0.36306542
72	0xbf924caa	-1.1429646
73	0xbf5dd2e2	-0.86649907
74	0x3fa0c9fc	1.2561641
75	0x3f558181	0.8340073
76	0xbd87fef9	-0.06640429
77	0x3f0cc13b	0.54982346
78	0x3ea5d3ff	0.32388303
79	0xbf052c9e	-0.52021205
80	0x3f7ab7f1	0.9793692
81	0x3e5ba42d	0.21449347
82	0xbef56396	-0.4792754
83	0x3f7def4a	0.9919325
84	0xbe2c508a	-0.16827598
85	0xbe80eeb9	-0.2518213
86	0x3da44c7e	0.08022402
87	0xbec2d6f6	-0.38054627
88	0xbfae9512	-1.3639243
89	0xbf037268	-0.51346445
90	0xbfb7a114	-1.4346032
91	0x3f39865e	0.72470653
92	0xbeae6ec9	-0.34068897
93	0xbe819ec6	-0.25316447
94	0x3f163554	0.5867512
95	0x3ed82321	0.422143
96	0xbf606a3e	-0.8766211
97	0x3f0a2bb4	0.53972936
98	0x3d6c2c5d	0.057659496
99	0x3f66342a	0.89923346
100	0xbdec7685	-0.11546043
101	0x3f4952e4	0.78642106
102	0x3e917547	0.28409788
103	0x3edb21b5	0.42799154
104	0xbea8443c	-0.3286456
105	0xbde6f14f	-0.11276495
106	0xbf05dd25	-0.52290565
107	0x3de7f475	0.11325923
108	0x3f6b02cb	0.91801137
109	0x3f0ed207	0.55789226
110	0x3f168869	0.58801895
111	0xbe60d20a	-0.21955124
112	0xbf0352d7	-0.5129828
113	0x3cfa1cc8	0.030531302
114	0x3edd4098	0.43213344
115	0xbf1ef9df	-0.62100023
116	0x3ee726f5	0.4514691
117	0x3f90d279	1.1314231
118	0x3ebec627	0.37260553
119	0x3d2a39d0	0.04155904
120	0xbf58b69e	-0.8465365
121	0x3e079c55	0.1324323
122	0xbe477375	-0.19477637
123	0x3f49825f	0.78714556
124	0xbf399bbf	-0.72503275
125	0x3dbb34dd	0.09140942
126	0x3ed16d95	0.40903917
127	0x3d7fd5bf	0.062459704
128	0xbf7e39ff	-0.99307245
129	0xbeff89dc	-0.49909866
130	0xbe8c8ba0	-0.27450275
131	0xbec48817	-0.38385078
132	0xbf03db06	-0.5150608
133	0x3e8f2e84	0.27965176
134	0x3e984406	0.29739398
135	0xbf13334b	-0.5750014
136	0x3ec21747	0.37908384
137	0x3e21ef83	0.15814023
138	0x3c39faec	0.011351328
139	0x3efdf672	0.49602085
140	0xbda8e472	-0.082466975
141	0xbd9818a8	-0.07426578
142	0x3f10a960	0.56508446
143	0x3f4759bd	0.77871305
144	0x3e634a01	0.22196199
145	0x3f27c68b	0.6553733
146	0xbf303315	-0.68827945
147	0xbecbcf9c	-0.3980683
148	0xbef4ed4a	-0.47837287
149	0x3fdfaadb	1.7474016
150	0x3e8dfaf9	0.2773054
151	0xbf3dc051	-0.74121577
152	0x3ef823b6	0.48464745
153	0x3f843d7e	1.0331266
154	0xbef0e0b9	-0.4704645
155	0x3ee1c8dc	0.44098556
156	0xbf90483a	-1.1272042
157	0xbf527963	-0.8221647
158	0xbe1a6aa5	-0.15079744
159	0xbf9a47b8	-1.2053137
160	0xbf045cdb	-0.51704186
161	0xbd9cd3d2	-0.07657589
162	0x3ee398a1	0.44452384
163	0xbea491d6	-0.32142514
164	0x3f09b6bc	0.53794456
165	0x3fc392ff	1.5279235
166	0x3df98853	0.12184205
167	0xbe0e20f7	-0.13879763
168	0x3eb73e0b	0.35789523
169	0xbedd3819	-0.43206862
170	0xbdaa54e0	-0.0831697
171	0x3ffdf39f	1.9839972
172	0x3f32c3b4	0.6982987
173	0x3f899ffc	1.0751948
174	0x3ef18ad1	0.4717622
175	0x3e95794e	0.2919411
176	0xbeb7cd13	-0.35898647
177	0x3ed60a71	0.4180484
178	0xbe9df7a3	-0.30852994
179	0x3c3c9904	0.011511091
180	0x3f6937bf	0.91100687
181	0x3f06f8b1	0.5272322
182	0x3f088291	0.5332423
183	0x3ea827ae	0.32842773
184	0xbf18334a	-0.5945326
185	0xbe0b8b1a	-0.13627282
186	0xbe1b403f	-0.15161227
187	0xbf3c6562	-0.735922
188	0xbe0c4c33	-0.13700943
189	0x3f39f250	0.72635365
190	0x3e409616	0.18807253
191	0xbdae013d	-0.0849633
192	0xbf538ba5	-0.82634956
193	0x3e44fdc8	0.19237435
194	0xbfe86f1a	-1.8158906
195	0x3ef2c486	0.4741556
196	0xbe921211	-0.2852941
197	0xbe73c530	-0.2380569
198	0x3eb7396b	0.35785994
199	0xbdbe1ace	-0.09282456
200	0x3e7c7aa0	0.24656153
201	0x3c82e86a	0.015979964
202	0x3e5b9c8b	0.21446435
203	0xbf1e5f31	-0.61864
204	0x3eecb547	0.46232054
205	0x3f4409c1	0.76577383
206	0x3edf1a8b	0.43574938
207	0x3d9a5ba8	0.07537013
208	0xbf533f8c	-0.8251884
209	0xc0219d10	-2.5252113
210	0xbf3ddadd	-0.74162084
211	0x3ea79286	0.32728976
212	0x3fcfb51b	1.6227144
213	0x3f462c81	0.7741166
214	0x3e81ff1d	0.25389948
215	0xbf4c6761	-0.79845244
216	0x3cd12cfb	0.025534144
217	0x3e1db6d2	0.15401772
218	0xbe35668d	-0.17714901
219	0x3ea3c74c	0.3198799
220	0x3f393b3d	0.72356015
221	0xbf68dbfa	-0.9096066
222	0xbd2426af	-0.040075954
223	0x3e282cd7	0.16423355
224	0x3ccc9dd8	0.02497761
225	0xbdea0283	-0.1142626
226	0x3efd4b65	0.49471584
227	0x3dd54207	0.10412984
228	0x3f917116	1.1362636
229	0x3fe28860	1.7697868
230	0xbf272808	-0.6529546
231	0xbfcba9b0	-1.591116
232	0xbf0011bf	-0.5002708
233	0x3a37968d	0.000700333
234	0xbe0063be	-0.12538049
235	0xbf6384b3	-0.8887436
236	0x3da819de	0.08208059
237	0x3f2e7f41	0.68162924
238	0x3eb1040b	0.34573397
239	0xbdc02e8c	-0.09383878
240	0xbedeee39	-0.43541124
241	0xbeb35cf6	-0.3503186
242	0xbf47fd92	-0.7812129
243	0xbe94c8c6	-0.29059428
244	0xbf2a0d5b	-0.6642663
245	0xbfb9ed6f	-1.4525584
246	0x3e16fbb3	0.14744453
247	0x3f581b5b	0.8441674
248	0x3fee0bca	1.8597348
249	0xbe0793a5	-0.13239916
250	0x3f304fb0	0.68871593
251	0x3e7a6989	0.24454321
252	0xbe812c19	-0.25228956
253	0x3db3fb7a	0.087882
254	0x3c05b772	0.008161413
255	0xbc97f2e9	-0.018548446

net.0.bias f4 [128]
0	0x3ee8c1ce	0.4546036
1	0xbda4d24b	-0.08047923
2	0x3e04e27e	0.12977025
3	0x3e256058	0.16150033
4	0x3e9dfed5	0.30858484
5	0x3d57da4a	0.05269841
6	0xbd8ad735	-0.06779329
7	0x3e42b7b6	0.19015393
8	0xbf080852	-0.53137696
9	0xbcc26965	-0.023731897
10	0x3f2a57ca	0.66540205
11	0xbd14a081	-0.03628588
12	0xbe6e9431	-0.23298718
13	0x3e93a174	0.28834116
14	0x3ed51191	0.41614965
15	0xbe557ea0	-0.20849085
16	0xbee415f5	-0.44548002
17	0x3e9c2d1c	0.30503166
18	0x3f0783a2	0.5293523
19	0xbf463e9b	-0.7743928
20	0x3ef87571	0.485271
21	0x3f095016	0.53637826
22	0x3f42c3f0	0.76080227
23	0x3f47e3dc	0.7808206
24	0x3e95bb80	0.29244614
25	0x3edbb392	0.4291044
26	0xbeca16dd	-0.39470568
27	0xbea39ffd	-0.31958
28	0x3e79d414	0.24397308
29	0x3f2a6dfe	0.66574085
30	0x3ed478de	0.41498464
31	0x3cd8ceba	0.026465762
32	0xbefd88fd	-0.49518576
33	0xbec572e7	-0.38564226
34	0x3f2dbe2c	0.67868304
35	0xbf015f83	-0.50536364
36	0x3def91c6	0.11697726
37	0xbe0019c9	-0.12509836
38	0x3ea57797	0.32317802
39	0x3e958164	0.2920028
40	0xbec804ee	-0.3906626
41	0xbed2fc45	-0.4120809
42	0x3e3e3e38	0.18578422
43	0xbefe377f	-0.49651715
44	0x3f2454e5	0.6419204
45	0xbd6edfcc	-0.058318898
46	0x3f0de62e	0.5542935
47	0x3f3c9860	0.73670006
48	0x3d9e9b1f	0.07744431
49	0x3ee4d496	0.4469344
50	0x3e8b54b9	0.27213076
51	0x3e30a505	0.1725045
52	0x3f8b2b06	1.0872505
53	0x3c755ab4	0.014975239
54	0xbe086ed4	-0.13323528
55	0xbf356bf2	-0.70867836
56	0x3f5250b3	0.8215439
57	0x3eceb26a	0.40370494
58	0x3f27d0ab	0.6555278
59	0xbeffb16f	-0.4994006
60	0x3f56037e	0.8359908
61	0x3ee149f6	0.4400174
62	0x3f2ba208	0.67044115
63	0x3f730b53	0.94939154
64	0x3e8eee81	0.2791634
65	0x3e196054	0.14978153
66	0xbe6e8f94	-0.23296958
67	0x3e8ae1e2	0.2712546
68	0xbf5f89a7	-0.87319416
69	0xbedb999a	-0.42890626
70	0xbee6ba57	-0.4506404
71	0x3ec5623f	0.38551518
72	0x3f58e0e0	0.8471813
73	0xbe838aee	-0.25691932
74	0x3e77e899	0.24209823
75	0x3e7da896	0.24771342
76	0xbe8a4cb8	-0.27011657
77	0xbdfc838d	-0.12329779
78	0x3f0ec959	0.5577598
79	0x3de92537	0.11384051
80	0x3f1c2435	0.6099275
81	0xbeeeab29	-0.4661496
82	0xbefd17a3	-0.49432096
83	0x3e69da52	0.22837189
84	0x3eb08078	0.34473014
85	0x3da61446	0.081093356
86	0x3f1fe8c4	0.6246455
87	0x3e9e9a00	0.30976868
88	0x3e363f1a	0.17797509
89	0xbf3a50dc	-0.7277963
90	0x3e8498b5	0.25897756
91	0xbf693d26	-0.9110893
92	0x3ec91a01	0.39277652
93	0x3ef46280	0.477314
94	0x3eadd6d3	0.3395296
95	0x3e1eae81	0.15496255
96	0xbe454795	-0.19265588
97	0x3f6e4baf	0.93084234
98	0xbf121a42	-0.57071316
99	0xbe7d980e	-0.24765036
100	0x3f15acd9	0.5846687
101	0x3d940826	0.07228117
102	0xbe99e1c4	-0.30055058
103	0xbe088a7f	-0.13334082
104	0x3f27cf04	0.65550256
105	0x3ee4aa39	0.4466112
106	0xbfa1a842	-1.2629473
107	0x3f10cbec	0.5656116
108	0xbf635d00	-0.8881378
109	0xbeb8bda5	-0.36082187
110	0x3fa8032b	1.3125967
111	0xbf0ec9ea	-0.55776846
112	0x3db8f4f8	0.09031099
113	0x3eba092b	0.3633512
114	0x3f0748fe	0.5284575
115	0x3ed2de9b	0.4118546
116	0xbedff1bf	-0.43739125
117	0xbed097ad	-0.4074072
118	0x3f5f1797	0.8714537
119	0x3f534663	0.82529277
120	0x3f71085c	0.9415338
121	0x3ed9a896	0.42511433
122	0xbf381647	-0.7190899
123	0x3f70c576	0.940513
124	0x3db9e4aa	0.09076817
125	0xbe940df3	-0.28916892
126	0x3d05168c	0.032492206
127	0xbe51f4c6	-0.2050353

net.2.weight f4 [128, 128]
0	0x3d60dd5d	0.05489861
1	0xbd715ead	-0.05892818
2	0xbd855923	-0.06511142
3	0xbd9e6aff	-0.07735252
4	0xbda9103f	-0.08255052
5	0xbd5d7dda	-0.0540751
6	0xbd920b0d	-0.07131014
7	0x3c56977a	0.013097638
8	0x3cb8d2a8	0.022561386
9	0x3bb1e640	0.0054290593
10	0x3cebda30	0.028790563
11	0x3c53a7f2	0.012918459
12	0x3d3e3fd7	0.0464476
13	0x3d459ef1	0.04824728
14	0xbdb7f9c7	-0.08983188
15	0x3d866551	0.06562293
16	0x3d298862	0.04138983
17	0x3d45c907	0.048287418
18	0xbcbf7b26	-0.023374151
19	0x3d993c80	0.074822426
20	0x3cc7845c	0.024355106
21	0x3d3f79b1	0.046746913
22	0x3a8bf20a	0.0010676992
23	0xbd1d133d	-0.038348425
24	0xbd8fb279	-0.07016463
25	0x3cb1e228	0.021714285
26	0xbd9d012e	-0.07666241
27	0xbd9e2ff6	-0.077239916
28	0x3d8dbc89	0.06920726
29	0xbc9fd131	-0.01950893
30	0xbc06be0f	-0.008224024
31	0x3d8d1b9d	0.068900324
32	0x3bd47c8c	0.0064845737
33	0xbd2bd80e	-0.041954093
34	0x3c2dd43c	0.010609683
35	0x3d9835f9	0.074321695
36	0xbd1e45ae	-0.03864067
37	0xbd3ef668	-0.04662171
38	0xbcfec348	-0.031098977
39	0x3c8cb973	0.017178273
40	0xbd884e52	-0.066555634
41	0xbd6feb07	-0.05857375
42	0x3d85c329	0.065313645
43	0xbd817454	-0.06321016
44	0xbd9be19a	-0.076113895
45	0x3c99607f	0.01872277
46	0xbd7190d4	-0.05897601
47	0x3d770945	0.060311574
48	0xbc4eb79c	-0.012617018
49	0xbd6bfd8d	-0.05761485
50	0x3d6dbf8d	0.058044005
51	0x3d37de54	0.044889763
52	0xbdc4d943	-0.09611752
53	0xbcf077b8	-0.029353961
54	0x3d81f31a	0.06345196
55	0x3cf33e20	0.02969271
56	0xbd728a52	-0.059213944
57	0x3c831e12	0.01600555
58	0x3c59a75f	0.013284533
59	0xbdb4b4f2	-0.08823575
60	0x3a6d3680	0.00090489537
61	0x3c24f9f0	0.010069355
62	0xbd95834a	-0.07300432
63	0xbcfe1c8e	-0.031019475
64	0x3ce033af	0.027368395
65	0xbc77286d	-0.015085322
66	0x3d6c85c4	0.057744756
67	0x3cc4df6c	0.024032317
68	0x3d2e3996	0.042535387
69	0xbdc4387f	-0.09581088
70	0xbd355f3f	-0.044280287
71	0x3d1c47b3	0.038154315
72	0xbaed4eab	-0.001810511
73	0x3cf335fd	0.02968883
74	0xbcc78ed0	-0.02436009
75	0x3d2cfcbd	0.042233218
76	0x3d153616	0.036428533
77	0xbce66b46	-0.028127324
78	0xbd86101b	-0.065460406
79	0xbc1dbbbb	-0.009627278
80	0x3cbe5bd8	0.023237154
81	0xbdaa8044	-0.08325246
82	0xbc6ee6ca	-0.014581392
83	0xbd995a45	-0.07487921
84	0x3c0a2c70	0.008433446
85	0xbd9074ca	-0.07053526
86	0x3d42e4a0	0.047581315
87	0xbbc94184	-0.0061418433
88	0xba5cf680	-0.00084290653
89	0xbdab7939	-0.08372731
90	0x3cecfeb3	0.028930044
91	0xbd4e0f00	-0.050307274
92	0xbc079544	-0.008275334
93	0xbc8c9c4f	-0.017164377
94	0x3d2dad29	0.042401467
95	0x3d03a626	0.032140873
96	0xbc85031e	-0.016236838
97	0x3d950050	0.0727545
98	0xbd1d164a	-0.038351335
99	0x3d99320d	0.074802496
100	0xbda9d82b	-0.08293184
101	0xbd434172	-0.047669835
102	0x3d1a9386	0.037738346
103	0x3d978db5	0.07400075
104	0x3d4d9d18	0.050198644
105	0xbc0407d4	-0.008058507
106	0xbd8ecae9	-0.06972296
107	0xbd4e3d9c	-0.050351724
108	0x3d64370b	0.055716556
109	0x3d5bcce3	0.053662192
110	0xbd0216fc	-0.0317602
111	0xbdb82650	-0.089916825
112	0xbd1b21c3	-0.037873995
113	0xbd5c8345	-0.053836126
114	0x3d49c100	0.049256325
115	0x3d6b9e67	0.05752411
116	0xbd809919	-0.06279201
117	0x3d17b209	0.037035022
118	0xbd66d958	-0.05635962
119	0x3c847164	0.01616735
120	0xbcbb882f	-0.022892086
121	0xbd827669	-0.06370241
122	0x3c2ebfc8	0.010665841
123	0x3d736195	0.059419233
124	0x3cfd5bdf	0.030927597
125	0x3b8eb5e5	0.0043551796
126	0xbd30757e	-0.0430808
127	0xbd700396	-0.05859717
128	0xbff8979d	-1.9421269
129	0xc0013933	-2.0191162
130	0xbec3ee5d	-0.38267794
131	0xbe561d58	-0.20909631
132	0x3e9f525c	0.31117523
133	0xbe4d4cda	-0.20048848
134	0x3f3aa21e	0.7290362
135	0xbf94c773	-1.1623367
136	0x3f0fa60c	0.5611274
137	0x3e135a4f	0.14389919
138	0xbfc8306f	-1.5639781
139	0xbf0b2806	-0.54357946
140	0xbeee755c	-0.46573913
141	0x3e0bec8e	0.13664457
142	0x3eb05b93	0.34444866
143	0xbc9388ba	-0.018009532
144	0x3e478c01	0.19487001
145	0xbf1d4c68	-0.6144471
146	0x3ca03653	0.019557154
147	0xbf9415bf	-1.1569136
148	0x3ed4faf8	0.41597724
149	0xbd38cd51	-0.04511768
150	0xbd1a7c8b	-0.03771643
151	0x3e981f90	0.2971158
152	0xbf254151	-0.6455279
153	0x3e2e2a74	0.17008382
154	0x3f5a8013	0.85351676
155	0xbdbd44d3	-0.09241643
156	0x3d68ae17	0.05680665
157	0x3dcea289	0.10089595
158	0xbfae4e59	-1.361766
159	0xc0033d5f	-2.0506208
160	0x3ecf24d3	0.40457782
161	0x3f3d75a7	0.7400765
162	0xbf45f748	-0.77330446
163	0x3f167d3b	0.58784837
164	0xc010f6b8	-2.2650585
165	0xc00ab976	-2.1675696
166	0xbe7c97b9	-0.24667253
167	0xbe6984c1	-0.22804548
168	0xbeccda08	-0.40010095
169	0x3e6487ac	0.2231738
170	0xbd906d6d	-0.07052121
171	0x3f2faabd	0.686199
172	0xbec51d89	-0.38499096
173	0x3e5b3521	0.21406986
174	0x3ce9960a	0.028513927
175	0x3dfe03e9	0.124030896
176	0x3e3a6df5	0.18206008
177	0x3d4342b0	0.04767102
178	0xbfb2b6e7	-1.3962067
179	0xbffda2dd	-1.9815327
180	0xc031029b	-2.765784
181	0x3efdbe33	0.49559173
182	0xbd2743d5	-0.040836174
183	0xbfdaa592	-1.7081778
184	0x3da0720b	0.07834252
185	0xbf415e61	-0.75534636
186	0xbd8f4704	-0.06995967
187	0x3e604ab4	0.21903497
188	0xbf0b57f9	-0.5443111
189	0x3e8ade98	0.2712295
190	0xbfc1b400	-1.5133057
191	0xbffe23f5	-1.9854723
192	0xbbdbc585	-0.006706896
193	0xc018314d	-2.378009
194	0xbfe2d6bc	-1.7721782
195	0xbf0cf385	-0.5505908
196	0xbf9006b1	-1.1252042
197	0xbf36968f	-0.71323484
198	0xbfbe7852	-1.4880469
199	0xbecb5e7e	-0.3972053
200	0xbf69d839	-0.91345555
201	0xc000680b	-2.0063503
202	0xbe8b2778	-0.2717855
203	0x3ed1da21	0.40986732
204	0x3dbeb4e8	0.09311849
205	0xbf16f9a7	-0.5897469
206	0xbfa1dc6f	-1.2645396
207	0x3f26e928	0.6519952
208	0x3d849e61	0.06475521
209	0x3f884678	1.0646505
210	0x3f265ce4	0.6498549
211	0xc02ee6e4	-2.7328424
212	0x3d9da854	0.07698122
213	0xbdd46137	-0.10370105
214	0x3dc72ee9	0.09725744
215	0xbf15ae91	-0.5846949
216	0x3f11a094	0.5688565
217	0x3eab8624	0.3350078
218	0xbf4d561a	-0.80209506
219	0x3dc83827	0.09776335
220	0xbf56b171	-0.83864504
221	0xbde3af11	-0.11117376
222	0xbe9ab79b	-0.30218205
223	0xbf3fd354	-0.74931836
224	0xc0124a4e	-2.2857852
225	0xbe99ae36	-0.30015725
226	0x3f0185e1	0.5059491
227	0x3ee711a3	0.45130643
228	0xbd079649	-0.033102307
229	0xbe2bda44	-0.1678248
230	0x3ea19453	0.31558475
231	0xbe562c9f	-0.20915459
232	0x3e58242a	0.21107545
233	0xbe0139a7	-0.12619649
234	0xbfbf146d	-1.4928108
235	0x3e3dd57d	0.1853847
236	0xbe4ed162	-0.2019706
237	0xbfdf1e4c	-1.7431121
238	0xbfde64b6	-1.7374485
239	0x3ed88bfb	0.42294297
240	0xbd9502e6	-0.072759435
241	0x3f17f6a0	0.59360695
242	0x3ebc9b79	0.36837366
243	0xbefc37c9	-0.4926131
244	0x3ea05267	0.31312868
245	0x3f55982b	0.83435315
246	0xbfc5cc83	-1.5453037
247	0x3f28ac56	0.65887964
248	0xbe124656	-0.14284644
249	0xbe1b3d76	-0.15160164
250	0x3e1833e9	0.14863552
251	0xbeef73db	-0.46768078
252	0xbd709a76	-0.058741055
253	0x3e4c9870	0.19980025
254	0x3ef3c41b	0.47610554
255	0x3eb9aced	0.36264744

net.2.bias f4 [128]
0	0xbdb444de	-0.08802198
1	0xbf88017a	-1.0625451
2	0xbd070f2f	-0.032973465
3	0xbd88b1ad	-0.06674514
4	0x3dbe5995	0.0929443
5	0x3cdd9ef8	0.027053341
6	0x3f5423d7	0.8286719
7	0x3c83c000	0.016082764
8	0xbf07504d	-0.52856904
9	0xbd0455b8	-0.03230831
10	0x3d7fc9ae	0.062448196
11	0x3d4399ba	0.047754027
12	0xbc54a084	-0.012977723
13	0x3ceb690d	0.028736616
14	0xbd72e754	-0.059302643
15	0x3d7da9cd	0.061929513
16	0x3d841297	0.06448858
17	0xbc6ab77f	-0.014325975
18	0x3c31d8e5	0.010854934
19	0xbd76b870	-0.060234487
20	0xbe3fe318	-0.18738973
21	0xbcb7f2a6	-0.022454571
22	0x3f6cdaa4	0.9252112
23	0x3e28fd80	0.16502953
24	0xbd6b5823	-0.0574571
25	0xbdbe9210	-0.09305203
26	0x3d434620	0.0476743
27	0xbd5faf7e	-0.05461072
28	0xbe62ccfd	-0.2214851
29	0xbde771ad	-0.11300979
30	0x3f3557d9	0.7083717
31	0x3d13dfd5	0.036102135
32	0x3ce6e6e6	0.028186273
33	0xbe9a7974	-0.30170786
34	0xbcdaedc6	-0.026724707
35	0x3e199fad	0.15002318
36	0xbe9bf295	-0.30458513
37	0xba4c7f2f	-0.0007800934
38	0x3d20a678	0.039221257
39	0xbe0875cd	-0.13326187
40	0x3d232304	0.039828315
41	0x3c145e29	0.009055653
42	0xbe168e67	-0.1470276
43	0xbc057f78	-0.008148067
44	0x3d23d068	0.039993674
45	0x3f0b6b31	0.54460436
46	0x3c41af27	0.011821545
47	0x3ce56d0a	0.028006095
48	0xbb0c1be2	-0.0021378924
49	0x3f49c514	0.7881634
50	0xbe6d6c55	-0.23185857
51	0xbcb940c8	-0.022613898
52	0x3c9bcf3b	0.019019714
53	0x3f21bf18	0.6318221
54	0x3d04ba1e	0.032404058
55	0x3d79cac8	0.060984403
56	0x3f0d584f	0.55212873
57	0x3d6e33c3	0.058154833
58	0x3ba86101	0.005138517
59	0x3d82b6ac	0.06382498
60	0xbe766bad	-0.24064513
61	0x3d2408f3	0.040047597
62	0x3c7637f4	0.015027989
63	0x3dd39c46	0.10332541
64	0x3e85cfb8	0.2613504
65	0xbc628b02	-0.013827087
66	0xbd24fae5	-0.040278334
67	0xbdeac9e8	-0.11464292
68	0xbd6f8272	-0.05847401
69	0x3d66b6f3	0.056326818
70	0xbdabb011	-0.083831914
71	0xbb473c3c	-0.0030400893
72	0x3c165b87	0.009177095
73	0xbc8e7b4a	-0.017392773
74	0x3dbfb4bf	0.093606465
75	0xbcd7d79e	-0.026347931
76	0x3e26d8d0	0.16293645
77	0x3d2076e4	0.039175883
78	0x3f3ed554	0.7454426
79	0x3d364491	0.044498984
80	0x3c4497a9	0.011999049
81	0x3c5c7e69	0.013457873
82	0xbda28bc2	-0.07936813
83	0x3e7ae14b	0.24500005
84	0x3dcfcee7	0.10146885
85	0x3cdae0cd	0.026718521
86	0xbbb56f10	-0.0055369213
87	0x3d460732	0.048346706
88	0xbdacd937	-0.08439868
89	0xbdbb305b	-0.091400824
90	0xbdb9ed52	-0.090784684
91	0x3c873a73	0.016507363
92	0xbe2ec497	-0.1706718
93	0xbdb66b7e	-0.08907221
94	0x3ea06b73	0.31331977
95	0x3d93714e	0.071993455
96	0x3d4d2d6a	0.05009214
97	0xbdb4f9c6	-0.08836703
98	0x3da33adf	0.07970213
99	0x3ea1d744	0.31609547
100	0xbd295f7d	-0.04135083
101	0x3e92cc67	0.28671572
102	0x3d9a4d7b	0.075343095
103	0xbce0024e	-0.027344849
104	0x3c7ee722	0.015558036
105	0x3d653392	0.055957384
106	0x3d8ecec6	0.06973033
107	0x3d2715bd	0.040792216
108	0x3d4cf249	0.05003575
109	0x3e4e2289	0.20130362
110	0xbdab573c	-0.08366248
111	0xbcf27c1f	-0.029600201
112	0xbccd27d6	-0.02504341
113	0xbd786229	-0.060640488
114	0xbbeb69ad	-0.0071842284
115	0xbd8009fa	-0.06251903
116	0x3973b204	0.00023240602
117	0x3d69c130	0.057069004
118	0xbd87456e	-0.066050395
119	0xbdbe9d78	-0.093073785
120	0x3c9f70ec	0.019463025
121	0xbdbfc0ff	-0.09362983
122	0x3bf3af60	0.007436678
123	0x3dd04096	0.10168569
124	0x3d197361	0.03746355
125	0xbd2a23ed	-0.041538168
126	0xbaf51c2f	-0.0018700416
127	0x3e215b30	0.15757442

net.4.weight f4 [4, 128]
0	0xbb80b02f	-0.0039272527
1	0xbec21cc8	-0.37912583
2	0xbf0247b5	-0.50890666
3	0xbd404c9f	-0.04694807
4	0xbf02af20	-0.5104847
5	0xbed3db81	-0.41378406
6	0x3fb3a28c	1.403398
7	0x3dacbb64	0.084341794
8	0x4007196b	2.1109264
9	0xbeb5dd83	-0.35520563
10	0xbec40d01	-0.3829117
11	0xbecc9d7d	-0.39963904
12	0xbea9e775	-0.331844
13	0x401d65de	2.4593425
14	0xbf119c37	-0.5687899
15	0xbec3bcb7	-0.38229915
16	0xbeb2f317	-0.34951088
17	0x3ca7882c	0.020450674
18	0xbee843ed	-0.45364323
19	0xbec0ffde	-0.3769521
20	0x3ff07a47	1.8787316
21	0xbf0973e9	-0.5369249
22	0x3fe342f3	1.7754806
23	0xbffbb76e	-1.9665353
24	0xbf88bb2c	-1.068212
25	0x3c6cb686	0.014447814
26	0xbf06f2f8	-0.5271449
27	0xc00cc2f8	-2.1994
28	0x4004eb8b	2.0768764
29	0xbeef5348	-0.46743226
30	0x3fb8a79f	1.4426154
31	0xbe8f6a80	-0.2801094
32	0xbec87452	-0.39151245
33	0xc0403723	-3.0033653
34	0xbeeab629	-0.45842102
35	0xbe58f7cd	-0.21188278
36	0xbfac940c	-1.348268
37	0xbebb128b	-0.36537585
38	0xbed22b57	-0.4104869
39	0xbefcd10a	-0.49378234
40	0xbed3946e	-0.4132418
41	0x3fa3a088	1.2783365
42	0xbf96f0f9	-1.1792289
43	0x3fa05e18	1.2528715
44	0xbf244250	-0.64163685
45	0x3fd156df	1.6354636
46	0xbef258ba	-0.47333318
47	0xbe59d052	-0.21270874
48	0xbf03e7a7	-0.5152535
49	0x3fb443ef	1.4083232
50	0x3fe5a715	1.7941614
51	0xbec85e61	-0.39134505
52	0xbed05c4c	-0.40695417
53	0x3f093e63	0.5361082
54	0xbef3ec60	-0.47641277
55	0xbe9540bd	-0.29150954
56	0x3ec36d91	0.3816953
57	0x3e95cbd4	0.2925707
58	0xbed54b4b	-0.41659006
59	0xbef37482	-0.47549826
60	0x401abb08	2.4176655
61	0xbcbf3e43	-0.023345118
62	0xbf06c00f	-0.5263681
63	0xbec0f65b	-0.37687954
64	0xbec2aa19	-0.380204
65	0xbeee9643	-0.46599016
66	0xbef57b57	-0.47945663
67	0xbfa0a4e4	-1.2550321
68	0xbef5cbb7	-0.48006985
69	0xbf030cc9	-0.51191384
70	0xbee250b8	-0.4420221
71	0xbda8c9ea	-0.08241637
72	0xbf2a65b2	-0.66561425
73	0xbecdb09a	-0.401738
74	0xbe8b1525	-0.2716457
75	0xbeef7b5c	-0.46773803
76	0x3f6449b1	0.89174944
77	0xbe9c7346	-0.30556697
78	0x3fcefc64	1.6170774
79	0xbec22053	-0.37915286
80	0xbebabe8e	-0.36473507
81	0xbd078bca	-0.033092298
82	0xbecad488	-0.39615273
83	0xbf6ca77a	-0.9244305
84	0xbe42b1f6	-0.19013199
85	0xbf06f1c8	-0.5271268
86	0xbec26f26	-0.37975425
87	0xbf0187b6	-0.50597703
88	0xbef69ed9	-0.48168066
89	0x3d6b2f22	0.057417996
90	0x3ada66f5	0.0016662764
91	0xbeb78ba8	-0.35848737
92	0x400a7d92	2.1639142
93	0xbf3627fb	-0.71154755
94	0x3e654809	0.2239076
95	0xbee9e962	-0.4568587
96	0xbf0c4a1d	-0.5480059
97	0xbc9765b5	-0.018481115
98	0xbe96b0ec	-0.29431856
99	0x3e727adb	0.23679678
100	0xc025056e	-2.5784564
101	0x3fc838c0	1.5642319
102	0xbee8cdcf	-0.4546952
103	0xbf91a6ee	-1.1379068
104	0xbd8c795b	-0.06859084
105	0xbe773356	-0.24140677
106	0xbec88232	-0.3916183
107	0xbefc137c	-0.49233615
108	0xbeae5b97	-0.34054253
109	0x3f9b6c8a	1.2142498
110	0xbfa9cf7f	-1.3266448
111	0xbebc039d	-0.36721507
112	0xbeff5a20	-0.49873447
113	0xbd80740b	-0.062721334
114	0xbee96a50	-0.45588923
115	0x3d29e936	0.041482173
116	0xbedec35b	-0.4350842
117	0xbed302ac	-0.41212976
118	0x3d225541	0.039632086
119	0x3c375dda	0.01119181
120	0xbef2e37c	-0.47439182
121	0xbef8e41a	-0.48611528
122	0xbedf1600	-0.43571472
123	0x3fd63467	1.6734742
124	0xbef76daa	-0.48325855
125	0xbf432921	-0.7623463
126	0xbeee5dde	-0.4655599
127	0xbd1515d0	-0.036397755
128	0xbd5df36f	-0.054187234
129	0x3f588fc5	0.84594375
130	0xbf07a939	-0.5299259
131	0x3cd6df02	0.026229385
132	0xbf04c33e	-0.51860416
133	0xbef20bc7	-0.4727461
134	0x3f8399ab	1.0281271
135	0xbd821d77	-0.06353276
136	0x40147cef	2.3201253
137	0xbee8d0f3	-0.45471916
138	0xbe93edd1	-0.28892377
139	0xbf36bee6	-0.7138504
140	0xbeebd746	-0.46062678
141	0x401256c9	2.286547
142	0xbefb3571	-0.4906421
143	0xbd1b8b9e	-0.037974946
144	0xbe793723	-0.24337439
145	0xbd6f7a91	-0.058466498
146	0xbf0eb45a	-0.55743945
147	0xbf1af65a	-0.6053215
148	0x3fe22f88	1.7670755
149	0xbf0cc462	-0.54987156
150	0x4001f21e	2.0304027
151	0x3e8a00d5	0.2695376
152	0xbed0e492	-0.40799385
153	0x3d4d44d8	0.050114483
154	0xbf5692cc	-0.83817744
155	0xbf8ee3f7	-1.1163319
156	0x4007dc79	2.1228316
157	0xbea98156	-0.33106488
158	0x3fcf89a4	1.621388
159	0xbf0354c4	-0.5130122
160	0xbeaf83e1	-0.34280303
161	0xc008d02f	-2.1377065
162	0xbf1f4d53	-0.6222736
163	0x3e1738bf	0.1476774
164	0xbf29ea81	-0.6637345
165	0xbedeb3b2	-0.43496472
166	0xbea73e85	-0.32664886
167	0xbfcfd67f	-1.6237334
168	0xbe76513e	-0.24054429
169	0x3fcf9f25	1.6220442
170	0xbfdb0408	-1.7110605
171	0x3fb3c26e	1.404371
172	0xbfa7521b	-1.3071932
173	0x3fa4f05d	1.2885853
174	0xbf031c30	-0.51214886
175	0xbef11eb4	-0.47093737
176	0xbf43ce94	-0.7648709
177	0x3fbb09ed	1.4612404
178	0x400a948b	2.1653163
179	0xbf7bd68a	-0.98374236
180	0xbef2a256	-0.47389477
181	0x3f5f2315	0.87162906
182	0xbf596a65	-0.8492797
183	0xbf4b3e13	-0.7939159
184	0x3fd399cb	1.6531309
185	0xbf119fcf	-0.56884474
186	0xbf0c2656	-0.54745996
187	0xbec07dd3	-0.37595996
188	0x4025fdb8	2.5936108
189	0x3eea08d1	0.4570985
190	0xbed38272	-0.4131046
191	0xbf11f4e9	-0.5701433
192	0x3f02281a	0.5084244
193	0xbf1d8466	-0.6153015
194	0xbf176401	-0.5913697
195	0xbf198225	-0.5996421
196	0xbf25a8e4	-0.6471083
197	0xbf2cd4bc	-0.67512107
198	0xbf0f89d6	-0.56069696
199	0x3cfb305c	0.030662708
200	0xbf7c9bd6	-0.98675287
201	0xbe7c67ea	-0.24649015
202	0xbd78b893	-0.0607229
203	0xbeb96138	-0.36206985
204	0x3d4a4661	0.049383525
205	0xbf2d6e88	-0.6774678
206	0x3fb68bc5	1.4261404
207	0xbebe31ce	-0.37147373
208	0xbf35c46a	-0.7100283
209	0x3d8d1e3e	0.06890534
210	0xbf08c808	-0.53430223
211	0xbf9c0152	-1.2187903
212	0xbf0f8cf9	-0.5607448
213	0xbf0fa4f2	-0.5611106
214	0xbf24466f	-0.64169973
215	0xbf2370df	-0.638441
216	0xbf075dbb	-0.52877396
217	0x3dae2959	0.0850398
218	0x3ca0d99c	0.019635014
219	0xbea1d8ae	-0.31610626
220	0x40166f0f	2.3505285
221	0x3eb9a4a9	0.36258438
222	0x3f039c69	0.5141054
223	0xbf1ae414	-0.6050427
224	0xbe76a1e7	-0.24085198
225	0x3d18110f	0.037125643
226	0xbe80da6d	-0.25166646
227	0x3ef9c460	0.48782635
228	0xc0075795	-2.1147206
229	0x3f8af3f8	1.0855703
230	0xbeff9041	-0.49914744
231	0xbf5531d2	-0.83279145
232	0xbc8d5182	-0.01725078
233	0xbf3a1768	-0.72691965
234	0xbec15cf6	-0.37766236
235	0xbe773de3	-0.24144702
236	0xbed1d8a4	-0.40985596
237	0x3f75e4ac	0.9605205
238	0xc011db4f	-2.2790105
239	0xbee17e61	-0.44041732
240	0xbe163443	-0.14668374
241	0x3da4289c	0.08015558
242	0xbe6592eb	-0.22419326
243	0xbc1b829f	-0.009491592
244	0xbea25e74	-0.31712687
245	0xbe400c1d	-0.18754621
246	0x3d0a922f	0.033830818
247	0x3c1c95c8	0.009557195
248	0xbe98a507	-0.29813406
249	0xbed81c63	-0.42209157
250	0xbf18b200	-0.59646606
251	0x3fea5a44	1.8308797
252	0xbe3f53ce	-0.18684313
253	0xbeab11fc	-0.33412158
254	0xbef5e2cc	-0.48024595
255	0x3e58cd77	0.21172129

net.4.bias f4 [4]
0	0xbda188f8	-0.07887453
1	0x3eb20110	0.34766436
2	0x3c93af66	0.018027972
3	0xbceda1bc	-0.029007785
