SARSA/dsqn/100_model_weights.pth (torch, 75917 bytes, 6 tensors)

net.0.weight f4 [128, 8]
0.5261413 -0.19724376 0.42097166 -0.034141745 -0.5954822 -0.028459163 0.0054305447 0.3240474
0.41040087 -0.08655935 0.68837196 -0.28446305 -0.5987544 0.18139084 -0.21989666 0.0631436
-0.3554494 0.9775741 -0.18274747 -0.3460535 -0.10846922 -0.10478497 -0.08603211 0.09165147
0.049174443 0.73995435 -0.029672427 -0.40570578 0.1095536 0.08046163 0.059585795 -0.21901967
0.0076419218 -0.086557016 -0.098595686 0.11711084 0.7722405 0.8681762 0.46458796 0.27139655
0.14594558 -0.24695124 -0.10241111 -0.130167 0.015926922 -0.42595392 0.3949472 -0.27495292
-0.35031602 -0.50254416 -0.047288474 0.23953032 -0.13969675 0.6320733 -0.41437805 0.106530204
-0.07110089 0.82680184 0.054294698 0.39973226 -0.049316432 -0.124194406 -0.05866441 0.20118554
-0.39376533 0.11466913 -0.17269008 0.06745758 0.4959487 0.4434599 0.0122652855 0.16807716
0.48885843 0.28816822 0.5238978 -0.096062124 0.5575188 0.9183815 -0.13153118 0.29047632
0.38572592 0.6948803 -0.25779194 0.15262313 0.027195297 0.024101071 0.30163425 -0.22180858
-0.90767395 -0.24494806 -0.6134367 -0.10404293 -0.12690347 -0.19722107 0.4878835 0.1708513
-0.04539861 0.7425542 -0.008275888 -0.09868868 -0.16628323 -0.018656854 0.22184671 0.30767736
0.033502374 -0.18321823 -0.24633765 0.1082826 0.7777935 0.2734381 0.47567016 0.097960286
0.31666854 -0.18003702 0.031598836 -0.1189333 0.7261017 1.0412954 0.4008311 -0.017949691
-0.01782968 0.13303623 0.10258923 0.0969498 -0.013094994 0.026567534 0.25827238 -0.089720905
0.21942505 0.1624377 -0.11976724 0.08638889 0.61693496 0.345792 0.02637302 -0.15433133
-0.25760826 0.69438875 0.3305711 0.054664224 -0.020471826 0.038076404 0.51001734 0.43250823
0.21131596 0.44050297 -0.32790264 -0.38978294 0.026212607 0.74679774 0.52337164 -0.4678579
0.051403716 0.3516797 -0.07428424 -0.5663946 -0.4071476 -0.6147708 -0.47919497 -0.36662152
-0.47091937 -0.22106032 0.16884203 -0.089921385 0.89810795 1.0155522 -0.0239233 -0.11941301
0.20724529 0.3872958 0.021325778 0.25080764 0.49596316 0.9086729 0.61940515 0.03590449
0.13631119 0.290984 -0.41635805 -0.3375556 0.4059684 0.5211889 0.5643924 -0.0032216741
-0.15104392 -0.34824586 0.10648715 -0.03265566 0.5231111 0.69936264 0.13598728 0.20717259
-0.4181819 0.05773897 -0.473601 -0.04791294 -0.059874814 -0.10045934 0.40743914 -0.30635524
0.37028256 -0.05090586 -0.0724156 -0.29758132 0.56990355 0.9531942 0.33168972 -0.19148616
-0.09025746 -0.5443792 -0.4793822 0.1964121 0.08712173 0.54769194 -0.10054686 -0.049253795
0.22519578 0.030585459 -0.06592452 0.03346162 -0.5661147 -1.1106623 -0.18480465 0.22795534
0.46143216 -0.027875157 0.017531296 -0.19032313 0.80221534 1.0036999 -0.30339226 0.5459431
-0.2637106 -0.23937607 0.12978041 -0.088788934 0.68450606 0.64331317 0.347431 0.17256612
-0.3449882 -0.23419006 0.246949 -0.24698542 -0.43167752 -0.28923115 0.30585536 0.5002107
0.63574404 0.09354706 0.7055553 -0.35221267 -0.43610322 0.23344667 0.070574105 0.016125644
00000000: 32b1 063f 45fa 49be 9989 d73e 37d8 0bbd
00000010: 8571 18bf 3123 e9bc b6f2 b13b 8ae9 a53e
00000020: 1020 d23e 0746 b1bd 2539 303f 24a5 91be
00000030: f847 19bf 85be 393e 972c 61be 6f51 813d
00000040: 77fd b5be 4c42 7a3f 2722 3bbe ed2d b1be
00000050: 1c25 debd 8199 d6bd 9a31 b0bd c4b3 bb3d
00000060: 246b 493d a66d 3d3f 9713 f3bc abb8 cfbe
00000070: a35d e03d 11c9 a43d 3c10 743d b146 60be
00000080: 1669 fa3b ce44 b1bd 89ec c9bd cfd7 ef3d
00000090: 8eb1 453f cc40 5e3f 79de ed3e 7df4 8a3e
000000a0: c272 153e c9e0 7cbe ebbc d1bd 804a 05be
000000b0: 2d79 823c a216 dabe 8536 ca3e a1c6 8cbe
000000c0: 9f5c b3be bca6 00bf 8fb1 41bd 7047 753e
000000d0: aa0c 0fbe 8ecf 213f 5c29 d4be 822c da3d
000000e0: 589d 91bd 49a9 533f 1e64 5e3d b5a9 cc3e
000000f0: 0700 4abd a359 febd 184a 70bd 9503 4e3e
00000100: 9c9b c9be a6d7 ea3d abd5 30be 3327 8a3d
00000110: fdec fd3e 2d0d e33e 56f4 483c 6b1c 2c3e
00000120: a74b fa3e c98a 933e 2b1e 063f 38bc c4bd
00000130: 8db9 0e3f 0d1b 6b3f 1cb0 06be 50b9 943e
00000140: de7d c53e ade3 313f 4efd 83be 3d49 1c3e
00000150: acc8 de3c 9c6f c53c ce6f 9a3e ca21 63be
00000160: 525d 68bf aad3 7abe 300a 1dbf 7614 d5bd
00000170: fcf2 01be 52f4 49be decb f93e a5f3 2e3e
00000180: e5f3 39bd 0818 3e3f 9797 07bc 4a1d cabd
00000190: 2746 2abe 42d6 98bc c92b 633e e387 9d3e
000001a0: c939 093d 8f9d 3bbe f03f 7cbe 45c3 dd3d
000001b0: 7a1d 473f 1400 8c3e 0a8b f33e 679f c83d
000001c0: 6122 a23e a05b 38be c86d 013d 4d93 f3bd
000001d0: cde1 393f 2b49 853f bc39 cd3e 3b0b 93bc
000001e0: 8d0f 92bc a63a 083e 4d1a d23d 9e8d c63d
000001f0: 638c 56bc 28a4 d93c 473c 843e 98bf b7bd
00000200: f6b0 603e 1256 263e 8748 f5bd a9ec b03d
00000210: 73ef 1d3f a60b b13e 3b0c d83c 0809 1ebe
00000220: 3be5 83be 76c3 313f 9d40 a93e 98e7 5f3d
00000230: 88b4 a7bc 01f6 1b3d 7f90 023f b871 dd3e
00000240: 3663 583e 9b89 e13e dbe2 a7be a191 c7be
00000250: d2bb d63c 232e 3f3f affb 053f 128b efbe
00000260: b48c 523d 5d0f b43e 5622 98bd 3dff 10bf
00000270: a675 d0be 9f61 1dbf 0b59 f5be d1b5 bbbe
00000280: 581c f1be a35d 62be ede4 2c3e b428 b8bd
00000290: 67ea 653f 9dfd 813f ccfa c3bc cf8e f4bd
000002a0: 1c38 543e a34b c63e 66b3 ae3c dc69 803e
000002b0: e2ee fd3e ca9e 683f 5691 1e3f 9610 133d
000002c0: 2995 0b3e dbfb 943e e22c d5be 16d4 acbe
000002d0: 17db cf3e a36c 053f 057c 103f b922 53bb
000002e0: 42ab 1abe 484d b2be ef15 da3d f1c1 05bd
000002f0: 9cea 053f 6e09 333f 4040 0b3e 0d25 543e
00000300: f01b d6be b37f 6c3d d57b f2be 5c40 44bd
00000310: 4b3f 75bd a0bd cdbd dd9b d03e 98da 9cbe
00000320: ad95 bd3e aa82 50bd a14e 94bd 945c 98be
00000330: 33e5 113f 8904 743f 3cd3 a93e f314 44be
00000340: e7d8 b8bd 6f5c 0bbf 9571 f5be 4120 493e
00000350: e16c b23d 8a35 0c3f 83eb cdbd 59be 49bd
00000360: b999 663e 5b8e fa3c 6f03 87bd 0d0f 093d
00000370: e5ec 10bf 2f2a 8ebf 6e3d 3dbe 206d 693e
00000380: d640 ec3e 715a e4bc cb9d 8f3c 11e4 42be
00000390: fc5d 4d3f 3d79 803f 3b56 9bbe edc2 0b3f
000003a0: 1305 87be 001f 75be 28e5 043e f9d6 b5bd
000003b0: ca3b 2f3f 2cb0 243f 7ae2 b13e 2cb5 303e
000003c0: 4ba2 b0be 85cf 6fbe 33e0 7c3e bfe9 7cbe
000003d0: d604 ddbe 1b16 94be 1399 9c3e cf0d 003f
000003e0: 1fc0 223f 9a95 bf3d 469f 343f 3855 b4be
000003f0: ec48 dfbe a50c 6f3e 2889 903d ed19 843c

net.0.bias f4 [128]
0.3979891 0.23098409 -0.0015526621 0.37199032 0.17152423 -0.31880948 -0.14386337 -0.29489747
-0.12488131 0.14115185 0.6151535 0.18900092 0.15602861 0.21533066 0.28100467 -0.3409212
-0.21044393 0.014262038 0.42897147 -0.11177307 0.3059308 0.458694 0.46514693 0.50245464
0.37025106 0.12883466 -0.36021897 0.02473857 0.07305832 0.35115287 0.23593132 0.0039373892
-0.1517437 -0.33043283 0.6363026 0.10017396 0.2918011 0.3114681 0.46511716 0.2052691
-0.2864939 -0.24852455 0.2375176 -0.18409802 0.577664 -0.15711093 0.34643373 -0.16397607
0.41389087 0.32201645 0.3536106 0.16112626 0.48424524 -0.062197093 0.23902406 -0.016448217
0.6054939 0.267799 0.50651264 -0.20638423 0.4758496 -0.28833202 0.46826005 0.41938594
0.10564132 0.21965878 -0.1780292 0.5342904 -0.35982206 0.020024667 -0.42628106 0.48808724
0.53017056 -0.1807294 0.24870026 -0.0753688 -0.2001375 0.23662873 0.44695637 0.35076004
0.4838824 -0.35600153 -0.33874744 0.24985701 0.2407498 0.0010796172 0.4203268 -0.02976374
-0.19322713 -0.08621222 0.3246035 -0.139151 0.5099005 0.41609693 0.115546376 0.36472827
-0.123285115 0.6585302 -0.47369707 0.12788023 0.55998135 0.26293948 -0.061019327 -0.22091353
0.4022383 0.31895506 -0.08418981 0.2683959 -0.36788952 -0.28628898 0.51045513 0.07778692
0.046681557 -0.11644244 0.3784212 0.3701251 -0.15578747 -0.039915286 0.5531138 -0.22261877
0.49042848 0.43876526 -0.36466244 0.5027213 0.3527387 -0.06920032 0.049213115 -0.18138383
00000000: 3ac5 cb3e 1887 6c3e b282 cbba 8475 be3e
00000010: 0ca4 2f3e ff3a a3be eb50 13be cdfc 96be
00000020: c6c1 ffbd 1c8a 103e b37a 1d3f 7589 413e
00000030: f7c5 1f3e a47f 5c3e d8df 8f3e 398d aebe
00000040: 9d7e 57be 53ab 693c 26a2 db3e 48e9 e4bd
00000050: f6a2 9c3e f1d9 ea3e bd27 ee3e dea0 003f
00000060: 8c91 bd3e 3ced 033e 9f6e b8be 8ba8 ca3c
00000070: 9a9f 953d 4fca b33e fb97 713e 3705 813b
00000080: b362 1bbe 7e2e a9be bae4 223f 0128 cd3d
00000090: f466 953e bf78 9f3e d623 ee3e 1032 523e
000000a0: 54af 92be 387d 7ebe d037 733e 3184 3cbe
000000b0: cae1 133f b0e1 20be c35f b13e 58e9 27be
000000c0: 81e9 d33e 57df a43e 730c b53e 48fe 243e
000000d0: feee f73e 61c2 7ebd b9c2 743e 69be 86bc
000000e0: a601 1b3f f31c 893e d0aa 013f 6356 53be
000000f0: 8fa2 f33e 41a0 93be c8bf ef3e c1b9 d63e
00000100: 7a5a d83d 3bee 603e 494d 36be 41c7 083f
00000110: 993a b8be c50a a43c 8341 dabe 92e6 f93e
00000120: 42b9 073f 2111 39be 48ab 7e3e f55a 9abd
00000130: d8f0 4cbe cd4e 723e 77d7 e43e d296 b33e
00000140: 6fbf f73e d545 b6be 4e70 adbe 84da 7f3e
00000150: 1e87 763e f181 8d3a 1335 d73e 16d3 f3bc
00000160: 55dd 45be 0890 b0bd 6e32 a63e 9a7d 0ebe
00000170: d788 023f a80a d53e 94a3 ec3d aabd ba3e
00000180: e87c fcbd 6f95 283f 6c88 f2be 09f3 023e
00000190: f05a 0f3f 01a0 863e 67ef 79bd 2837 62be
000001a0: 2ef2 cd3e 144e a33e b56b acbd 306b 893e
000001b0: 045c bcbe 7894 92be 30ad 023f c04e 9f3d
000001c0: 2935 3f3d 6079 eebd 6cc0 c13e 0981 bd3e
000001d0: c086 1fbe 367e 23bd de98 0d3f 2df6 63be
000001e0: 7119 fb3e d7a5 e03e 09b5 babe 58b2 003f
000001f0: 2b9a b43e e6b8 8dbd b193 493d afbc 39be

net.2.weight f4 [128, 128]
0.05489861 -0.05892818 -0.06511142 -0.07735252 -0.08255052 -0.0540751 -0.07131014 0.013097638
0.022561386 0.0054290593 0.028790563 0.012918459 0.0464476 0.04824728 -0.08983188 0.06562293
0.04138983 0.048287418 -0.023374151 0.074822426 0.024355106 0.046746913 0.0010676992 -0.038348425
-0.07016463 0.021714285 -0.07666241 -0.077239916 0.06920726 -0.01950893 -0.008224024 0.068900324
0.0064845737 -0.041954093 0.010609683 0.074321695 -0.03864067 -0.04662171 -0.031098977 0.017178273
-0.066555634 -0.05857375 0.065313645 -0.06321016 -0.076113895 0.01872277 -0.05897601 0.060311574
-0.012617018 -0.05761485 0.058044005 0.044889763 -0.09611752 -0.029353961 0.06345196 0.02969271
-0.059213944 0.01600555 0.013284533 -0.08823575 0.00090489537 0.010069355 -0.07300432 -0.031019475
0.027368395 -0.015085322 0.057744756 0.024032317 0.042535387 -0.09581088 -0.044280287 0.038154315
-0.001810511 0.02968883 -0.02436009 0.042233218 0.036428533 -0.028127324 -0.065460406 -0.009627278
0.023237154 -0.08325246 -0.014581392 -0.07487921 0.008433446 -0.07053526 0.047581315 -0.0061418433
-0.00084290653 -0.08372731 0.028930044 -0.050307274 -0.008275334 -0.017164377 0.042401467 0.032140873
-0.016236838 0.0727545 -0.038351335 0.074802496 -0.08293184 -0.047669835 0.037738346 0.07400075
0.050198644 -0.008058507 -0.06972296 -0.050351724 0.055716556 0.053662192 -0.0317602 -0.089916825
-0.037873995 -0.053836126 0.049256325 0.05752411 -0.06279201 0.037035022 -0.05635962 0.01616735
-0.022892086 -0.06370241 0.010665841 0.059419233 0.030927597 0.0043551796 -0.0430808 -0.05859717
-0.51950383 -0.51673645 -0.39921895 -0.10146318 0.25243914 0.009473582 0.40552956 -0.16344015
0.35056487 0.1325938 -0.7291467 -0.11361488 -0.4319178 0.062295977 0.33161667 0.020449184
0.13641359 -0.016362328 0.030651921 -0.72827125 0.36391652 -0.03202361 -0.024929293 0.31295258
-0.0730215 0.1445417 0.3635812 -0.111656874 -0.01653416 0.09267608 -0.4354962 -0.5491669
0.28349516 0.26973912 -0.366898 0.5201296 -0.85324466 -0.48965484 -0.16405752 0.08910639
-0.40010095 0.2231738 -0.03295293 0.3046072 -0.22811809 0.11106544 -0.0064602387 0.20318724
0.1568601 0.04767102 -0.28152233 -0.87462634 -0.7658086 0.16963974 -0.10589991 -0.49166566
0.11261915 -0.42455155 -0.03513457 0.07705948 -0.10722473 -0.038843192 0.020500064 -0.50603855
-0.006706896 -0.35902703 -0.33932868 -0.29365698 -0.18501955 -0.29371887 -0.04583415 -0.24422199
-0.4459074 -0.0580939 -0.3440803 0.14779001 -0.03892164 -0.41155523 -0.34423035 0.45257673
0.07229932 0.6035746 0.18284847 -0.5002826 0.03702588 -0.12468118 0.16592638 0.24501827
0.16707045 0.21615149 -0.5476427 -0.03682108 -0.5767697 -0.079703614 -0.09602434 -0.10228784
-0.2274765 -0.04435718 0.063923866 0.17629865 -0.017813986 0.086539015 0.19527839 -0.15508062
0.2667706 0.111205235 -0.4526691 0.15240428 -0.2019706 -0.6174076 -0.5643657 0.32972723
0.27092367 0.5120412 0.33331898 -0.28872487 0.23445025 0.22897796 -0.88354284 0.1421827
-0.038087223 0.018478835 -0.087799564 -0.09023554 -0.026849 0.088384114 0.19395934 0.05235039
00000000: 5ddd 603d ad5e 71bd 2359 85bd ff6a 9ebd
00000010: 3f10 a9bd da7d 5dbd 0d0b 92bd 7a97 563c
00000020: a8d2 b83c 40e6 b13b 30da eb3c f2a7 533c
00000030: d73f 3e3d f19e 453d c7f9 b7bd 5165 863d
00000040: 6288 293d 07c9 453d 267b bfbc 803c 993d
00000050: 5c84 c73c b179 3f3d 0af2 8b3a 3d13 1dbd
00000060: 79b2 8fbd 28e2 b13c 2e01 9dbd f62f 9ebd
00000070: 89bc 8d3d 31d1 9fbc 0fbe 06bc 9d1b 8d3d
00000080: 8c7c d43b 0ed8 2bbd 3cd4 2d3c f935 983d
00000090: ae45 1ebd 68f6 3ebd 48c3 febc 73b9 8c3c
000000a0: 524e 88bd 07eb 6fbd 29c3 853d 5474 81bd
000000b0: 9ae1 9bbd 7f60 993c d490 71bd 4509 773d
000000c0: 9cb7 4ebc 8dfd 6bbd 8dbf 6d3d 54de 373d
000000d0: 43d9 c4bd b877 f0bc 1af3 813d 203e f33c
000000e0: 528a 72bd 121e 833c 5fa7 593c f2b4 b4bd
000000f0: 8036 6d3a f0f9 243c 4a83 95bd 8e1c febc
00000100: af33 e03c 6d28 77bc c485 6c3d 6cdf c43c
00000110: 9639 2e3d 7f38 c4bd 3f5f 35bd b347 1c3d
00000120: ab4e edba fd35 f33c d08e c7bc bdfc 2c3d
00000130: 1636 153d 466b e6bc 1b10 86bd bbbb 1dbc
00000140: d85b be3c 4480 aabd cae6 6ebc 455a 99bd
00000150: 702c 0a3c ca74 90bd a0e4 423d 8441 c9bb
00000160: 80f6 5cba 3979 abbd b3fe ec3c 000f 4ebd
00000170: 4495 07bc 4f9c 8cbc 29ad 2d3d 26a6 033d
00000180: 1e03 85bc 5000 953d 4a16 1dbd 0d32 993d
00000190: 2bd8 a9bd 7241 43bd 8693 1a3d b58d 973d
000001a0: 189d 4d3d d407 04bc e9ca 8ebd 9c3d 4ebd
000001b0: 0b37 643d e3cc 5b3d fc16 02bd 5026 b8bd
000001c0: c321 1bbd 4583 5cbd 00c1 493d 679e 6b3d
000001d0: 1999 80bd 09b2 173d 58d9 66bd 6471 843c
000001e0: 2f88 bbbc 6976 82bd c8bf 2e3c 9561 733d
000001f0: df5b fd3c e5b5 8e3b 7e75 30bd 9603 70bd
00000200: 34fe 04bf d748 04bf 6d66 ccbe edcb cfbd
00000210: b43f 813e 1537 1b3c 92a1 cf3e db5c 27be
00000220: 3d7d b33e abc6 073e 5ca9 3abf ebae e8bd
00000230: 5424 ddbe 112a 7f3d a9c9 a93e 0c85 a73c
00000240: 01b0 0b3e 4a0a 86bc bd19 fb3c fc6f 3abf
00000250: 4453 ba3e 302b 03bd 8438 ccbc 523b a03e
00000260: 4c8c 95bd bd02 143e 5127 ba3e 5cac e4bd
00000270: a672 87bc f5cc bd3d 5cf9 debe 3496 0cbf
00000280: 4726 913e 3f1b 8a3e 0eda bbbe 3727 053f
00000290: 3e6e 5abf 0ab4 fabe b2fe 27be 697d b63d
000002a0: 08da ccbe ac87 643e a7f9 06bd 7af5 9b3e
000002b0: ca97 69be 4776 e33d 69b0 d3bb 5110 503e
000002c0: ef9f 203e b042 433d b223 90be 83e7 5fbf
000002d0: 080c 44bf 0ab6 2d3e 0de2 d8bd 9abb fbbe
000002e0: dea4 e63d d25e d9be 44e9 0fbd 5cd1 9d3d
000002f0: a498 dbbd 0a1a 1fbd c0ef a73c be8b 01bf
00000300: 85c5 dbbb 64d2 b7be 7dbc adbe 355a 96be
00000310: c475 3dbe 5262 96be 97bc 3bbd 5415 7abe
00000320: fa4d e4be dff3 6dbd 4b2b b0be 4456 173e
00000330: 4c6c 1fbd 5eb7 d2be f63e b0be 23b8 e73e
00000340: aa11 943d dd83 1a3f a13c 3b3e 8512 00bf
00000350: 73a8 173d d958 ffbd 9be8 293e 12e6 7a3e
00000360: 8414 2b3e d156 5d3e 5032 0cbf b3d1 16bd
00000370: 2ea7 13bf a63b a3bd 69a8 c4bd 497c d1bd
00000380: 9aef 68be e0af 35bd 84ea 823d a287 343e
00000390: a3ee 91bc 5e3b b13d 0ff7 473e 74cd 1ebe
000003a0: 2896 883e 92bf e33d 3fc4 e7be de0f 1c3e
000003b0: 62d1 4ebe 6d0e 1ebf 457a 10bf 02d2 a83e
000003c0: 82b6 8a3e 2215 033f c9a8 aa3e bfd3 93be
000003d0: ba13 703e 3379 6a3e dd2f 62bf 5798 113e
000003e0: 5901 1cbd ed60 973c 42d0 b3bd 69cd b8bd
000003f0: 6ff2 dbbc bb02 b53d 479d 463e 5d6d 563d

net.2.bias f4 [128]
-0.08802198 -0.39644492 0.16804193 -0.05721613 0.21218129 0.22447407 0.12666698 0.025610337
-0.1333991 0.11173615 0.21954586 0.22882728 0.16336462 0.13573256 0.14776711 0.22674838
-0.02552785 -0.0048030987 0.23484538 0.09854338 0.11082853 0.10900962 0.27012932 0.11339003
-0.025319645 -0.09305203 0.18733375 -0.11152577 0.12489114 0.10452104 0.13414988 0.20025273
0.06888685 -0.05184867 0.11597594 0.1871671 0.0059302007 0.15849681 0.20888625 -0.022436783
0.2424056 0.10404138 -0.044770494 -0.1803267 0.09391771 -0.018712662 0.20349154 0.16525309
0.17836213 0.056255933 0.06811225 0.03703487 0.22031581 0.16966109 0.045020312 0.18702142
0.1549332 0.15073602 0.13735825 0.2368542 0.16567734 0.17824066 0.20649189 0.26268575
0.100476444 0.12953305 0.12635039 0.051617812 0.16606113 0.1874946 0.08138259 -0.0030400893
0.1536141 0.08365899 0.14661607 0.14197682 -0.042066496 0.20305559 0.22777928 0.22351618
0.083825275 0.013457873 0.068512075 0.0016612938 0.20838298 0.18524292 0.23269069 0.2446481
0.122016236 -0.091400824 -0.090784684 0.13575153 0.15002887 0.05423643 0.083474085 0.19841567
0.21978727 -0.07883746 0.2110999 0.13054504 0.08779015 0.021715999 0.25480032 -0.012102317
0.034612656 0.18644397 0.16606046 0.21669772 0.09946763 0.06966741 0.07719304 0.18417224
0.16620503 -0.060640488 0.1231146 -0.05327219 0.10444301 0.21096861 -0.05652086 -0.083546564
0.19770437 0.032326598 0.17825142 0.24279046 0.1872674 0.12666541 0.19311091 0.13489544
00000000: de44 b4bd d4fa cabe 2f13 2c3e 765b 6abd
00000010: 0d46 593e 88dc 653e fdb4 013e c5cc d13c
00000020: c699 08be ecd5 e43d a1d0 603e b351 6a3e
00000030: 0e49 273e 7afd 0a3e 4350 173e ba30 683e
00000040: c81f d1bc 5063 9dbb 4f7b 703e 1dd1 c93d
00000050: 11fa e23d 7040 df3d 644e 8a3e 0839 e83d
00000060: 256b cfbc 1092 bebd 6bd4 3f3e 9f67 e4bd
00000070: edc6 ff3d 210f d63d 965e 093e 0d0f 4d3e
00000080: 8c14 8d3d 455f 54bd cb84 ed3d bba8 3f3e
00000090: 2152 c23b fd4c 223e 47e6 553e 58cd b7bc
000000a0: 2c39 783e a613 d53d 4461 37bd 90a7 38be
000000b0: ee57 c03d 4c4b 99bc 1660 503e 1b38 293e
000000c0: 90a4 363e 9f6c 663d 6f7e 8b3d e0b1 173d
000000d0: 789a 613e a3bb 2d3e 3867 383d 8b82 3f3e
000000e0: cfa6 1e3e 8b5a 1a3e a4a7 0c3e e889 723e
000000f0: 52a7 293e b884 363e 9c72 533e bf7e 863e
00000100: 98c6 cd3d 50a4 043e ff61 013e 336d 533d
00000110: ee0b 2a3e 96fe 3f3e eaab a63d 3c3c 47bb
00000120: 044d 1d3e 6855 ab3d 8622 163e 5f62 113e
00000130: eb4d 2cbd ceed 4f3e f93e 693e 6de1 643e
00000140: 96ac ab3d 697e 5c3c 0f50 8c3d c5bf d93a
00000150: 5962 553e 52b0 3d3e 7846 6e3e 0885 7a3e
00000160: a6e3 f93d 5b30 bbbd 52ed b9bd 7302 0b3e
00000170: 2ba1 193e 0527 5e3d 76f4 aa3d 7a2d 4b3e
00000180: ea0f 613e 8975 a1bd 922a 583e 99ad 053e
00000190: 52cb b33d c0e5 b13c 3075 823e cc48 46bc
000001a0: 00c6 0d3d 2beb 3e3e c10b 2a3e 02e6 5d3e
000001b0: afb5 cb3d c9ad 8e3d 6217 9e3d a697 3c3e
000001c0: a731 2a3e 2962 78bd 8223 fc3d f133 5abd
000001d0: 38e6 d53d 2808 583e 6b82 67bd 761a abbd
000001e0: 0473 4a3e e568 043d 8a87 363e 109e 783e
000001f0: 06c3 3f3e 94b4 013e debe 453e 0822 0a3e

net.4.weight f4 [4, 128]
-0.0039272527 -0.34962133 -0.12710354 -0.04694807 -0.25066414 -0.23943779 0.9877651 0.084341794
0.61081946 -0.13480264 -0.1697393 -0.22152321 -0.18578833 1.1935333 -0.2813001 -0.13467237
-0.06609474 0.020450674 -0.31625754 -0.2243793 1.2418587 -0.26990578 1.3353909 -0.2030593
-0.1466407 0.014447814 -0.29421794 -0.22434688 1.2958426 -0.23362054 1.0979987 -0.1164183
-0.14758788 -0.39372042 -0.22013763 0.030426407 -0.08038077 -0.17145996 -0.20370612 -0.19144374
-0.23642224 0.060802482 -0.4272364 -0.32158312 -0.19243927 -0.0057920814 -0.29196396 -0.02944763
-0.2825824 0.1519008 1.2643485 -0.19375682 -0.2404338 0.18280612 -0.044113807 -0.16040887
0.29743078 -0.117176026 -0.19657251 -0.29513308 1.3862109 -0.003629021 -0.1448513 -0.24049519
-0.43012685 -0.18673459 -0.27304202 -0.40385747 -0.21968153 -0.1757708 -0.24950014 -0.08241637
-0.3190626 -0.09842815 -0.003010811 -0.26392612 0.002082366 -0.14607807 1.0121442 -0.14052077
-0.121621005 -0.033092298 -0.15931666 -0.017258981 -0.019954555 -0.32794657 -0.22625197 -0.2571708
-0.23451017 0.057417996 0.0016662764 -0.12611605 1.2718836 -0.378149 0.040285584 -0.23145066
-0.323389 -0.018481115 -0.05729977 0.060773615 -0.55311644 0.81174815 -0.17403981 -0.18662417
-0.06859084 -0.10733955 -0.09707508 -0.29434735 -0.041442122 0.024679452 -0.46334866 -0.2165581
-0.30542043 -0.062721334 -0.21400093 0.041482173 -0.24116203 -0.18936488 0.039632086 0.020666368
-0.24207611 -0.24851605 -0.26308706 1.0274857 -0.28684625 -0.25770834 -0.2938856 -0.27133134
-0.054187234 0.20630763 -0.27578536 0.035746258 -0.14067441 -0.24221446 0.50949913 -0.06353276
0.5177861 -0.2271927 -0.1668799 -0.22176324 -0.21562761 1.0609673 -0.15415482 -0.105764136
-0.03991451 -0.058466498 -0.2581837 -0.2866466 1.5647091 -0.19334424 1.2836941 -0.19606172
-0.21888459 0.050114483 -0.29507652 -0.7163371 1.1380352 -0.12722866 0.6578516 -0.27214444
-0.17089367 -0.8376189 -0.2528068 -0.09781186 -0.14841922 -0.20830043 -0.13185945 -0.48746935
-0.14489153 0.822118 -0.6285953 0.44981736 -0.25738934 -0.03388203 -0.29845643 -0.2155291
-0.28271106 0.36829668 1.148815 -0.27308425 -0.20399871 0.48296428 -0.24247895 -0.22077392
0.3828122 -0.45019734 -0.25459358 -0.17455386 1.425475 0.011021067 -0.19815393 -0.20295382
-0.013347097 -0.2321639 -0.2550572 -0.19605991 -0.29505154 -0.23830068 -0.2598916 0.030662708
-0.12566851 -0.14135964 -0.086016 -0.18225804 -0.08632821 -0.2924458 0.75469846 -0.18884638
-0.27634656 0.06890534 -0.26417574 -0.40104502 -0.25265127 -0.2351605 -0.28464687 -0.30608773
-0.19017331 0.0850398 0.019635014 -0.16992915 1.4696293 0.048563853 0.19002673 -0.26372796
-0.1555302 0.046652146 -0.15834703 0.18224251 -0.74860376 0.2562678 -0.19054508 -0.21097286
-0.026754282 -0.2887347 -0.1366344 -0.15600684 -0.16253273 0.05558965 -0.7438635 -0.16365494
-0.12890616 0.08015558 -0.1280413 3.5107136e-05 -0.14591022 -0.15368187 0.033830818 0.009557195
-0.15255468 -0.17185494 -0.2507291 0.5387883 -0.12010972 -0.08016545 -0.2509323 -0.0013886298
00000000: 2fb0 80bb 9101 b3be 6e27 02be 9f4c 40bd
00000010: 0d57 80be 2e2f 75be 2cde 7c3f 64bb ac3d
00000020: aa5e 1c3f b409 0abe 24d0 2dbe fbd6 62be
00000030: 4c3f 3ebe b3c5 983f 9106 90be 8ee7 09be
00000040: ae5c 87bd 2c88 a73c 82ec a1be b0c3 65be
00000050: 3af5 9e3f 1731 8abe 17ee aa3f c7ee 4fbe
00000060: fb28 16be 86b6 6c3c bca3 96be 30bb 65be
00000070: 2cde a53f 393a 6fbe 398b 8c3f b86c eebd
00000080: 4721 17be b995 c9be c26b 61be cd40 f93c
00000090: ac9e a4bd 3393 2fbe 5698 50be d409 44be
000000a0: ac18 72be 060c 793d bbbe dabe 8ba6 a4be
000000b0: cd0e 45be 80cb bdbb 4d7c 95be 283c f1bc
000000c0: a4ae 90be e28b 1b3e 2cd6 a13f 3068 46be
000000d0: 4734 76be 8731 3b3e aeb0 34bd 3942 24be
000000e0: d948 983e fcf9 efbd 4e4a 49be af1b 97be
000000f0: 5c6f b13f dfd4 6dbb e653 14be 5f44 76be
00000100: 9639 dcbe 5a37 3fbe 2acc 8bbe 68c6 cebe
00000110: 32f4 60be 43fd 33be f77c 7fbe eac9 a8bd
00000120: 2c5c a3be b394 c9bd 0751 45bb 5321 87be
00000130: 4e78 083b 7d95 15be f18d 813f ade4 0fbe
00000140: 6f14 f9bd ca8b 07bd e823 23be b562 8dbc
00000150: bc77 a3bc 9de8 a7be 99ae 67be e4ab 83be
00000160: 6f23 70be 222f 6b3d f566 da3a 9124 01be
00000170: 15cd a23f bf9c c1be 7f02 253d 6701 6dbe
00000180: 3e93 a5be b565 97bc 2ab3 6abd c1ed 783d
00000190: 0a99 0dbf bace 4f3f 7e37 32be 681a 3fbe
000001a0: 5b79 8cbd d7d4 dbbd 4dcf c6bd b2b4 96be
000001b0: 37bf 29bd 902c ca3c 093c edbe 68c1 5dbe
000001c0: 1160 9cbe 0b74 80bd 0f23 5bbe 36e9 293d
000001d0: 2ef3 76be dee8 41be 4155 223d 844c a93c
000001e0: cde2 77be fe7a 7ebe 59b3 86be a784 833f
000001f0: 83dd 92be 59f2 83be 2c78 96be f1eb 8abe
00000200: 6ff3 5dbd 4f42 533e bd33 8dbe ab6a 123d
00000210: f40c 10be 1107 78be 896e 023f 771d 82bd
00000220: a18d 043f 34a5 68be 91e2 2abe e715 63be
00000230: 7ccd 5cbe c7cd 873f c3da 1dbe de9a d8bd
00000240: 667d 23bd 917a 6fbd a730 84be 58c3 92be
00000250: 6348 c83f 08fc 45be 1750 a43f 67c4 48be
00000260: 4823 60be d844 4d3d 4514 97be de61 37bf
00000270: 23ab 913f 3b48 02be f668 283f 8456 8bbe
00000280: c0fe 2ebe 316e 56bf e56f 81be 9651 c8bd
00000290: 35fb 17be b54c 55be 2a06 07be 9595 f9be
000002a0: 725e 14be 5376 523f 9feb 20bf 764e e63e
000002b0: 89c8 83be e2c7 0abd 48cf 98be a9b3 5cbe
000002c0: 81bf 90be 6291 bc3e 5f0c 933f b3d1 8bbe
000002d0: 0ae5 50be 1847 f73e 674c 78be 8f12 62be
000002e0: f6ff c33e 4480 e6be 175a 82be 3fbe 32be
000002f0: f775 b63f b591 343c dde8 4abe 20d3 4fbe
00000300: c8ad 5abc 60bc 6dbe db96 82be eec3 48be
00000310: ff10 97be 1805 74be 8310 85be 5c30 fb3c
00000320: 3faf 00be 95c0 10be 2829 b0bd daa1 3abe
00000330: d8cc b0bd 75bb 95be eb33 413f f260 41be
00000340: 4c7d 8dbe 3e1e 8d3d 0b42 87be c655 cdbe
00000350: 825b 81be eacd 70be 3cbd 91be 88b7 9cbe
00000360: cbbc 42be 5929 ae3d 9cd9 a03c e801 2ebe
00000370: d01c bc3f e4ea 463d 5e96 423e 5a07 87be
00000380: 4f43 1fbe 5216 3f3d b925 22be c89d 3a3e
00000390: 7fa4 3fbf 8835 833e 401e 43be 4509 58be
000003a0: cc2b dbbc 09d5 93be e3e9 0bbe 42c0 1fbe
000003b0: fb6e 26be f9b1 633d d76d 3ebf 2995 27be
000003c0: faff 03be 9c28 a43d 421d 03be 0040 1338
000003d0: 7d69 15be c85e 1dbe 2f92 0a3d c895 1c3c
000003e0: 4b37 1cbe befa 2fbe 915f 80be 08ee 093f
000003f0: 16fc f5bd c92d a4bd 337a 80be af02 b6ba

net.4.bias f4 [4]
-0.2323818 -0.0062556267 -0.1281126 -0.13505635
00000000: 7ff5 6dbe 00fc ccbb f32f 03be 364c 0abe
