SARSA/dsqn/1050_model_weights.pth (torch, 75929 bytes, 6 tensors)

net.0.weight f4 [128, 8]
000000 0a c8 58 3f 27 70 4e be 1e 8e 0c 3f a3 81 b9 be
       0.84680235 -0.2015997 0.54904354 -0.36231717
000010 b6 58 30 bf ca 5c a4 3e 4f 69 01 be 6a 5e d5 bd
       -0.6888536 0.32102042 -0.12637828 -0.10418399
000020 17 ea cb 3f 2f 21 8a 3d 99 d7 31 3f 88 8d aa 3d
       1.5930814 0.067446105 0.694696 0.08327776
000030 28 83 bb be de e6 02 3e e9 cc 49 3d ce 33 8a be
       -0.36623502 0.12783381 0.049267683 -0.2699265
000040 5c e1 af bf 50 92 a5 3f 87 d9 4d be e4 91 06 bf
       -1.3740649 1.2935276 -0.20102511 -0.5256636
000050 02 d2 36 3e 75 b2 3b 3e 91 48 d2 3d 2f 1e cb be
       0.17853549 0.18329795 0.10267747 -0.39671466
000060 ab ce eb 3e 14 9a 99 3f 59 af 6e 3e 0d c0 39 bf
       0.46056113 1.2000146 0.23309077 -0.7255867
000070 e2 35 22 bd e0 6b 0f 3d 17 85 7c bd 59 65 27 bd
       -0.039602168 0.035014987 -0.061650362 -0.040868137
000080 71 9d 00 bf 79 91 14 3d 55 46 05 bd 50 01 9c be
       -0.50240237 0.036271546 -0.032537777 -0.3046975
000090 88 3e 2b 3f b2 12 83 3f 44 5b 39 3f f3 8e a4 3e
       0.6689229 1.024008 0.72404885 0.32140312
0000a0 0e 7b 96 bf bf 64 9c be 4e 8f 3c 3f fc 32 27 bf
       -1.1756303 -0.30545613 0.73656166 -0.6531217
0000b0 4c 1a 11 bf d1 3d 80 bf 86 40 dd 3e cd 8f 60 bd
       -0.5668075 -1.0018865 0.4321329 -0.05482464
0000c0 03 7f d3 be e0 ba 96 bd cc a9 1b be fa 35 97 be
       -0.4130784 -0.07359862 -0.15201491 -0.29533368
0000d0 be 48 09 c0 56 69 12 3e b9 8f 66 3d 1d 67 c9 bd
       -2.1450648 0.14297995 0.05628941 -0.098341204
0000e0 ea 4a 91 bf 15 a4 9a 3d 71 c4 14 3e ae 18 98 3f
       -1.1350987 0.075508274 0.14528061 1.1882532
0000f0 ac 91 8d be 91 1d 13 3e a0 43 b6 3d 56 1c be 3d
       -0.276502 0.14366747 0.08899617 0.092827484
000100 22 9e 01 3c 13 0e 26 bd fc b5 a7 be d9 23 fc be
       0.007911237 -0.040540766 -0.3275603 -0.492461
000110 ed a3 79 3f 41 89 52 3f 82 c8 39 3e b9 00 b8 3e
       0.97515756 0.8224068 0.18142894 0.3593805
000120 7f 30 8c bf 5d c3 84 bf 6a 63 a2 3f e1 2f 35 3f
       -1.09523 -1.037212 1.2686589 0.7077618
000130 33 8a 4b be 06 64 0e 3f e3 33 b5 3e a6 ca 0f bf
       -0.19876938 0.55621374 0.3539115 -0.5616859
000140 9b 40 92 3f c7 04 bb 3d 67 13 cf be a6 1c 99 3f
       1.1425966 0.091317706 -0.4044449 1.1961868
000150 45 96 0a be 00 f9 1d be ec 21 83 3c 15 bb c8 be
       -0.13533886 -0.15427017 0.016007386 -0.39205232
000160 aa 3c 9e bf 48 d1 00 bf 52 9b c5 bf 42 23 48 3f
       -1.2362263 -0.5031934 -1.5438025 0.781788
000170 1b a6 b7 be f3 3f 78 be 82 bb 17 3f b1 5b d8 3e
       -0.35868916 -0.24243145 0.5927049 0.42257455
000180 c4 24 60 bf 80 d6 9a 3e 22 d0 c5 3d 60 64 87 3f
       -0.875561 0.30241776 0.09658839 1.0577507
000190 aa 88 58 be 16 a1 46 3f 90 d1 96 3e 36 08 d9 3e
       -0.21145883 0.7758955 0.29456758 0.42389077
0001a0 83 71 9e be b8 95 1c be e9 b2 0c bf 0e 7d 21 3e
       -0.30945978 -0.15291488 -0.54960495 0.15770361
0001b0 07 0f 6b 3f c7 b2 0c 3f 9b 52 16 3f 01 45 63 be
       0.91819805 0.5496029 0.58719796 -0.22194292
0001c0 03 c3 0a bf 22 9b 9d 3c a1 73 d1 3e e2 db 1f bf
       -0.54203814 0.019239012 0.4090853 -0.6244489
0001d0 7b e2 e2 3e 4e 7b 8f 3f fb 36 bf 3e ed 1c fb 3c
       0.44313416 1.1209505 0.37346634 0.030653441
0001e0 8b 41 4b bf 97 a9 b0 3d b2 c3 8c be 91 5f 65 3f
       -0.79396886 0.08626097 -0.27493054 0.8959895
0001f0 65 b7 2a bf 62 e8 ba 3d a6 d2 d9 3e d0 3e 8f 3d
       -0.6668609 0.09126355 0.42543525 0.069944024
000200 f5 47 80 bf 89 7c 0d bf 89 3a 6b be aa a2 c3 be
       -1.002196 -0.5526815 -0.22971548 -0.3821004
000210 f9 0d 16 bf e2 a7 8c 3e ee 95 a7 3e 4b 33 13 bf
       -0.5861507 0.27471834 0.32731575 -0.5750014
000220 e7 ab d0 3e 4f a1 80 3e f4 ea 10 3d 62 58 ea 3e
       0.4075615 0.2512307 0.03538032 0.45770556
000230 a2 53 90 bd 18 5a 86 bc 2b a9 04 3f 9e 33 37 3f
       -0.07047202 -0.016400382 0.5182063 0.71563137
000240 27 c2 87 3e f5 98 26 3f be ad 2d bf fe 6f c2 be
       0.26515314 0.65077144 -0.67843235 -0.37976068
000250 79 66 f8 be 10 ef e0 3f 85 14 92 3e 5f 9d 3d bf
       -0.4851568 1.7572956 0.2853128 -0.74068254
000260 c4 58 0d 3f 52 99 40 3f e9 fe b4 be df 39 5c 3f
       0.5521357 0.7523395 -0.3535073 0.86025804
000270 64 25 87 bf d1 b1 42 bf 0d ff 6e be b8 47 9a bf
       -1.0558286 -0.76052576 -0.23339482 -1.2053137
000280 2c a5 0b bf a3 70 ee bd 3c f9 e3 3e 1a 7c a0 be
       -0.5454891 -0.116425775 0.44526088 -0.31344682
000290 2c 99 05 3f aa b9 c3 3f 80 a1 08 3e 8e dc 09 be
       0.52186847 1.5291035 0.13342857 -0.13463041
0002a0 5f e8 a5 3e 6b 15 44 bf 06 68 03 be 3d c3 f7 3f
       0.32403848 -0.7659518 -0.1283265 1.9356457
0002b0 a7 f1 25 3f be 25 89 3f 95 f7 eb 3e d1 7e 97 3e
       0.6482186 1.0714643 0.46087328 0.2958894
0002c0 f3 73 c8 be 2a 23 d5 3e a7 6e b0 be aa ff f0 ba
       -0.39150962 0.4162839 -0.3445942 -0.0018386741
0002d0 fc b6 6d 3f 11 9a 02 3f 6f 75 07 3f 19 f9 a5 3e
       0.92857337 0.51016337 0.52913564 0.3241661
0002e0 f2 39 16 bf 57 9b 0e be e6 54 05 be 4a 17 3b bf
       -0.5868217 -0.13926445 -0.13020667 -0.7308241
0002f0 60 ad 14 be f8 31 38 3f 30 4d 45 3e 59 2a a4 bd
       -0.14519262 0.71951246 0.19267726 -0.0801589
000300 50 b8 37 bf 84 98 16 3e 3d 07 e9 bf 6a 0b 1a 3f
       -0.71765614 0.14706618 -1.8205334 0.60173666
000310 65 4a dc be 3b 0b 96 be d3 3f a2 3e 77 e9 ae bd
       -0.4302551 -0.29305443 0.3168932 -0.08540624
000320 18 9c 66 3e b6 6a f3 bb 38 5b 4e 3e f7 04 1b bf
       0.22520483 -0.0074284924 0.20151985 -0.6055445
000330 c1 9c ec 3e fa 71 44 3f bd df e1 3e 2f e2 88 3d
       0.46213344 0.76736414 0.4411601 0.06683766
000340 65 ac 4a bf ad 19 33 c0 57 7f 3f bf dd 9b 82 3e
       -0.79169303 -2.7984421 -0.7480368 0.2550954
000350 ae 5a ca 3f 7e 7c 44 3f 84 ec 92 3e 56 89 57 bf
       1.5808923 0.7675246 0.28696072 -0.84193933
000360 f8 ea b6 3c 7a 53 45 3d eb 2a 01 be 51 51 ef 3e
       0.022328839 0.048175313 -0.12614028 0.46741727
000370 fc c5 26 3f d4 5a 62 bf c7 ae 27 bd 22 f4 62 3e
       0.6514585 -0.8841984 -0.040938165 0.22163442
000380 b5 ca 3c be ea 96 dc bd a8 7a 10 3f 27 71 fd 3d
       -0.18436702 -0.10770972 0.5643716 0.12375098
000390 93 c1 87 3f a3 5b e7 3f 3f 39 21 bf 73 de e2 bf
       1.0605949 1.807484 -0.62977976 -1.7724136
0003a0 76 b3 02 bf 60 ac 97 bb 47 b8 ca bd 3b 56 64 bf
       -0.51055086 -0.004628703 -0.09898429 -0.8919408
0003b0 62 fd 96 3d 95 12 2d 3f 1b a3 b4 3e 75 bf be bd
       0.07372548 0.6760648 0.3528069 -0.09313861
0003c0 32 c0 e4 be 94 b4 ba be 14 ad 3e bf dc 1d a0 be
       -0.44677883 -0.36465895 -0.74482846 -0.3127278
0003d0 1d dc 23 bf 8e bb bd bf d6 12 0b 3e c4 58 50 3f
       -0.6400774 -1.4822862 0.13581404 0.81385446
0003e0 22 c1 f1 3f 5c 64 ee bd ff 3f 24 3f c0 85 a3 3e
       1.8887064 -0.11640236 0.6416015 0.3193798
0003f0 a7 ac 7c be f3 5b d4 3d 1a 5e f5 3a 1b 77 9f ba
       -0.24675237 0.103691004 0.0018720061 -0.0012166234

net.0.bias f4 [128]
000000 7e 25 f7 3e 72 5d b9 bd 87 8a 01 3e a7 c3 19 3e
       0.48270792 -0.090510264 0.126505 0.15016042
000010 bc 4b a8 3e 27 b7 83 3d 2a 58 ac bd 8f da 44 3e
       0.3287028 0.06431418 -0.084152535 0.19223998
000020 b4 8a 0a bf 75 3f e9 3c 3a e9 18 3f 85 4a 80 bd
       -0.54117894 0.028472641 0.59730875 -0.062642135
000030 a0 71 8e be 86 48 98 3e 77 38 d9 3e 25 10 54 be
       -0.27821064 0.2974283 0.42425892 -0.20709284
000040 e6 ea f1 be 8e c8 9c 3e f2 ac 04 3f ca 37 84 bf
       -0.47249526 0.3062176 0.51826394 -1.0329525
000050 e7 8e f9 3e 98 a9 09 3f 2d a2 43 3f 84 3d 49 3f
       0.48741838 0.53774405 0.76419336 0.7860949
000060 7f 2c 86 3e 6a 26 d9 3e 42 6d c3 be bc 58 a5 be
       0.26205823 0.4241212 -0.38169295 -0.3229426
000070 69 8c 21 3e d6 35 2b 3f 05 f1 d5 3e 6c 83 0d bb
       0.15776218 0.6687902 0.41785446 -0.0021593226
000080 bf fd fb be 59 b2 c1 be 43 b4 2f 3f 42 d3 01 bf
       -0.4921703 -0.3783138 0.6863443 -0.5071298
000090 7a 94 00 3e af 50 16 be 0b 17 9d 3e 21 e3 94 3e
       0.1255664 -0.14679216 0.30681643 0.29079536
0000a0 6c 21 cd be 52 c5 d9 be c6 71 44 3e a9 ea 01 bf
       -0.4006456 -0.42533356 0.19184026 -0.5074869
0000b0 31 a8 1e 3f 9f 84 ae bc 13 52 0f 3f 4d 35 42 3f
       0.6197539 -0.021303473 0.5598461 0.7586258
0000c0 c8 c3 a0 3c 30 7b eb 3e a8 7c 8a 3e df 78 36 3e
       0.019624606 0.45992422 0.2704823 0.17819546
0000d0 4e 30 8c 3f ef 28 b8 3b fe 4e 2c be f2 6b 35 bf
       1.0952241 0.005620114 -0.16827008 -0.70867836
0000e0 d3 e9 4f 3f 21 b4 d6 3e b3 f7 22 3f bf 9a fb be
       0.8121616 0.41934302 0.6365921 -0.491415
0000f0 66 cb 54 3f f6 14 f1 3e 08 91 2c 3f dd 96 71 3f
       0.8312286 0.47086304 0.674088 0.94370824
000100 84 5c 97 3e 19 7c 32 3e b8 36 61 be 45 e4 82 3e
       0.2956277 0.17430152 -0.2199353 0.2556478
000110 39 b0 35 bf 9d 21 d0 be 2a db f5 be ed d7 b2 3e
       -0.7097202 -0.40650645 -0.4801877 0.34930363
000120 4f 97 56 3f 2d 8e 88 be 95 8d 77 3e 2d 08 8b 3e
       0.8382463 -0.26670972 0.24175103 0.27154675
000130 5e 18 8d be 6f 22 11 be e6 21 17 3f 23 97 0b 3e
       -0.27557653 -0.14173292 0.590361 0.13631873
000140 97 2a 1d 3f 2e dd f8 be d1 86 f5 be 04 4e 64 3e
       0.6139311 -0.48606247 -0.4795442 0.22295386
000150 29 b6 b0 3e ea b0 a6 3d 0d b2 18 3f b3 92 a4 3e
       0.34513977 0.081392124 0.59646684 0.32143173
000160 58 86 3b 3e 33 a3 3e bf 01 97 67 3e 26 3d 69 bf
       0.18312967 -0.7446777 0.22616197 -0.9110893
000170 c8 ab b8 3e 6f d1 e9 3e c3 53 bc 3e ab 83 ed 3d
       0.3606856 0.45667598 0.36782655 0.11597379
000180 1b a8 03 be a4 18 6c 3f 08 2e 18 bf e5 da 9a be
       -0.12857096 0.922251 -0.5944524 -0.30245128
000190 fd c4 18 3f cf 79 8e 3d ac 25 92 be f1 33 ef bd
       0.5967558 0.06956827 -0.28544366 -0.11679829
0001a0 c4 66 2b 3f c9 42 dd 3e 80 b5 a1 bf f9 8e 0a 3f
       0.6695368 0.43215016 -1.2633514 0.5412441
0001b0 de 62 65 bf 8e 62 bc be 09 a8 aa 3f 42 0a 18 bf
       -0.89603984 -0.3679394 1.333253 -0.5939065
0001c0 1b 4d c9 3d 00 d9 c4 3e 39 62 07 3f 21 b2 cf 3e
       0.0982916 0.38446808 0.5288425 0.4056559
0001d0 9e 8d e7 be ae d7 de be 6d 0f 5c 3f 08 2f 56 3f
       -0.45225233 -0.43523926 0.8596104 0.83665514
0001e0 af ac 70 3f 01 57 df 3e ba 9f 2c bf 6b 6d 6e 3f
       0.94013494 0.43621066 -0.67431223 0.9313571
0001f0 91 05 ff 3d 83 af 9d be 93 39 04 3d ae f0 56 be
       0.124522336 -0.30797967 0.03228147 -0.2099025

net.2.weight f4 [128, 128]
000000 5d dd 60 3d ad 5e 71 bd 23 59 85 bd ff 6a 9e bd
       0.05489861 -0.05892818 -0.06511142 -0.07735252
000010 3f 10 a9 bd da 7d 5d bd 0d 0b 92 bd 7a 97 56 3c
       -0.08255052 -0.0540751 -0.07131014 0.013097638
000020 a8 d2 b8 3c 40 e6 b1 3b 30 da eb 3c f2 a7 53 3c
       0.022561386 0.0054290593 0.028790563 0.012918459
000030 d7 3f 3e 3d f1 9e 45 3d c7 f9 b7 bd 51 65 86 3d
       0.0464476 0.04824728 -0.08983188 0.06562293
000040 62 88 29 3d 07 c9 45 3d 26 7b bf bc 80 3c 99 3d
       0.04138983 0.048287418 -0.023374151 0.074822426
000050 5c 84 c7 3c b1 79 3f 3d 0a f2 8b 3a 3d 13 1d bd
       0.024355106 0.046746913 0.0010676992 -0.038348425
000060 79 b2 8f bd 28 e2 b1 3c 2e 01 9d bd f6 2f 9e bd
       -0.07016463 0.021714285 -0.07666241 -0.077239916
000070 89 bc 8d 3d 31 d1 9f bc 0f be 06 bc 9d 1b 8d 3d
       0.06920726 -0.01950893 -0.008224024 0.068900324
000080 8c 7c d4 3b 0e d8 2b bd 3c d4 2d 3c f9 35 98 3d
       0.0064845737 -0.041954093 0.010609683 0.074321695
000090 ae 45 1e bd 68 f6 3e bd 48 c3 fe bc 73 b9 8c 3c
       -0.03864067 -0.04662171 -0.031098977 0.017178273
0000a0 52 4e 88 bd 07 eb 6f bd 29 c3 85 3d 54 74 81 bd
       -0.066555634 -0.05857375 0.065313645 -0.06321016
0000b0 9a e1 9b bd 7f 60 99 3c d4 90 71 bd 45 09 77 3d
       -0.076113895 0.01872277 -0.05897601 0.060311574
0000c0 9c b7 4e bc 8d fd 6b bd 8d bf 6d 3d 54 de 37 3d
       -0.012617018 -0.05761485 0.058044005 0.044889763
0000d0 43 d9 c4 bd b8 77 f0 bc 1a f3 81 3d 20 3e f3 3c
       -0.09611752 -0.029353961 0.06345196 0.02969271
0000e0 52 8a 72 bd 12 1e 83 3c 5f a7 59 3c f2 b4 b4 bd
       -0.059213944 0.01600555 0.013284533 -0.08823575
0000f0 80 36 6d 3a f0 f9 24 3c 4a 83 95 bd 8e 1c fe bc
       0.00090489537 0.010069355 -0.07300432 -0.031019475
000100 af 33 e0 3c 6d 28 77 bc c4 85 6c 3d 6c df c4 3c
       0.027368395 -0.015085322 0.057744756 0.024032317
000110 96 39 2e 3d 7f 38 c4 bd 3f 5f 35 bd b3 47 1c 3d
       0.042535387 -0.09581088 -0.044280287 0.038154315
000120 ab 4e ed ba fd 35 f3 3c d0 8e c7 bc bd fc 2c 3d
       -0.001810511 0.02968883 -0.02436009 0.042233218
000130 16 36 15 3d 46 6b e6 bc 1b 10 86 bd bb bb 1d bc
       0.036428533 -0.028127324 -0.065460406 -0.009627278
000140 d8 5b be 3c 44 80 aa bd ca e6 6e bc 45 5a 99 bd
       0.023237154 -0.08325246 -0.014581392 -0.07487921
000150 70 2c 0a 3c ca 74 90 bd a0 e4 42 3d 84 41 c9 bb
       0.008433446 -0.07053526 0.047581315 -0.0061418433
000160 80 f6 5c ba 39 79 ab bd b3 fe ec 3c 00 0f 4e bd
       -0.00084290653 -0.08372731 0.028930044 -0.050307274
000170 44 95 07 bc 4f 9c 8c bc 29 ad 2d 3d 26 a6 03 3d
       -0.008275334 -0.017164377 0.042401467 0.032140873
000180 1e 03 85 bc 50 00 95 3d 4a 16 1d bd 0d 32 99 3d
       -0.016236838 0.0727545 -0.038351335 0.074802496
000190 2b d8 a9 bd 72 41 43 bd 86 93 1a 3d b5 8d 97 3d
       -0.08293184 -0.047669835 0.037738346 0.07400075
0001a0 18 9d 4d 3d d4 07 04 bc e9 ca 8e bd 9c 3d 4e bd
       0.050198644 -0.008058507 -0.06972296 -0.050351724
0001b0 0b 37 64 3d e3 cc 5b 3d fc 16 02 bd 50 26 b8 bd
       0.055716556 0.053662192 -0.0317602 -0.089916825
0001c0 c3 21 1b bd 45 83 5c bd 00 c1 49 3d 67 9e 6b 3d
       -0.037873995 -0.053836126 0.049256325 0.05752411
0001d0 19 99 80 bd 09 b2 17 3d 58 d9 66 bd 64 71 84 3c
       -0.06279201 0.037035022 -0.05635962 0.01616735
0001e0 2f 88 bb bc 69 76 82 bd c8 bf 2e 3c 95 61 73 3d
       -0.022892086 -0.06370241 0.010665841 0.059419233
0001f0 df 5b fd 3c e5 b5 8e 3b 7e 75 30 bd 96 03 70 bd
       0.030927597 0.0043551796 -0.0430808 -0.05859717
000200 da 86 f9 bf 33 39 01 c0 67 1f dc be 1a 73 81 be
       -1.9494278 -2.0191162 -0.42992708 -0.25283128
000210 c3 d7 8c 3e da 4c 4d be 1e a2 3a 3f 73 c7 94 bf
       0.27508363 -0.20048848 0.7290362 -1.1623367
000220 4c 8f 07 3f 9d 8d e4 3d f0 9f ca bf 06 28 0b bf
       0.5295303 0.11159823 -1.5830059 -0.54357946
000230 70 6d f5 be 85 b0 b9 3d cd 28 9e 3e ba 88 93 bc
       -0.47935057 0.090668716 0.30890504 -0.018009532
000240 01 8c 47 3e e4 d4 1b bf 9e 5b 81 bc bf 15 94 bf
       0.19487001 -0.6087172 -0.015790757 -1.1569136
000250 4e 37 c2 3e 8a 36 ba bd 68 52 a9 bd 5e ed 85 3e
       0.3793282 -0.09092434 -0.08267671 0.2615766
000260 51 41 25 bf ae 9b 07 3e 53 8b 4f 3f d3 44 bd bd
       -0.6455279 0.13242981 0.81071967 -0.09241643
000270 23 97 48 3c 70 b5 83 3d 59 4e ae bf 5f 3d 03 c0
       0.012243065 0.06431091 -1.361766 -2.0506208
000280 41 92 bb 3e b3 22 33 3f ef 79 55 bf 38 23 0b 3f
       0.3663502 0.6997482 -0.8338918 0.54350615
000290 b8 f6 10 c0 5e d4 08 c0 3d 74 9d be c7 f4 9a be
       -2.2650585 -2.1379619 -0.30752745 -0.30264875
0002a0 08 da cc be ac 87 64 3e 9c ad d4 bd 22 12 25 3f
       -0.40010095 0.2231738 -0.10384676 0.64480793
0002b0 27 9a ed be 17 ae 77 3e 60 c1 ec bb cd d9 90 3d
       -0.4640667 0.24187504 -0.0072252005 0.07072792
0002c0 b5 1c 24 3e b0 42 43 3d e7 b6 b2 bf 99 b4 02 c0
       0.16026576 0.04767102 -1.3962067 -2.0422728
0002d0 88 d6 32 c0 c5 51 e3 3e 15 33 44 bc 92 a5 da bf
       -2.794344 0.44398323 -0.0119750695 -1.7081778
0002e0 68 47 14 3d 61 5e 41 bf 9c 48 f7 bd 1a 55 3d 3e
       0.03620091 -0.75534636 -0.12074396 0.18489495
0002f0 03 a3 15 bf c8 b1 42 3e 00 b4 c1 bf 74 78 0d c0
       -0.5845186 0.1901313 -1.5133057 -2.2104769
000300 85 c5 db bb 4d 31 18 c0 bc d6 e2 bf a3 b9 2b bf
       -0.006706896 -2.378009 -1.7721782 -0.67080134
000310 64 14 96 bf 8f 96 36 bf 52 78 be bf bd e3 e9 be
       -1.1724973 -0.71323484 -1.4880469 -0.45681563
000320 a9 a4 79 bf cd 6e 00 c0 3b 3c a9 be 88 bc bb 3e
       -0.97516876 -2.0067627 -0.33053765 0.36667275
000330 e8 b4 be 3d 92 76 0f bf 0f 8b b5 bf f7 5d 18 3f
       0.09311849 -0.560403 -1.4183062 0.5951838
000340 7e ba c5 3c c3 c7 82 3f c2 3d 1e 3f 57 21 33 c0
       0.024136778 1.0217212 0.61812985 -2.79891
000350 6b 7a 1b 3d 37 61 d4 bd 36 21 75 3d 89 a9 4a bf
       0.037958544 -0.10370105 0.059846126 -0.7916494
000360 20 38 03 3f b6 16 9c 3e 42 d8 58 bf 27 38 c8 3d
       0.51257515 0.30486077 -0.84704983 0.09776335
000370 ef 6c 68 bf a2 50 16 be 4c c8 bb be 54 d3 3f bf
       -0.9079122 -0.14679196 -0.36676252 -0.74931836
000380 1b 14 11 c0 8e 68 b0 be e1 85 01 3f 88 c6 cf 3e
       -2.2668521 -0.3445477 0.5059491 0.40581155
000390 f2 01 8a bd cb 4c 5e be a6 02 8e 3e 9f 2c 56 be
       -0.06738652 -0.21708982 0.27736396 -0.20915459
0003a0 6f 74 32 3e aa fb 32 be 6d 14 bf bf 47 19 21 3e
       0.17427228 -0.17478815 -1.4928108 0.15732299
0003b0 62 d1 4e be 4c 1e df bf 84 96 f7 bf 46 8b c4 3e
       -0.2019706 -1.7431121 -1.9342809 0.38387507
0003c0 ef 10 9f be 73 13 ba 3e ca c6 aa 3e 37 70 0c bf
       -0.31067607 0.36342964 0.3335479 -0.54858726
0003d0 50 5b ad 3e 60 90 49 3f 44 f8 ce bf 01 59 1b 3f
       0.33858728 0.78735924 -1.6169515 0.60682684
0003e0 ed b9 47 be 01 dd 40 be 6e 6e ea 3d 81 2f 02 bf
       -0.19504519 -0.18834306 0.11446844 -0.50853735
0003f0 e3 a0 d0 bd cd 9c 30 3e 41 20 e2 3e 85 2d ac 3e
       -0.10186937 0.17247315 0.44165233 0.3362848

net.2.bias f4 [128]
000000 de 44 b4 bd 69 0e 90 bf 4b 72 bd bc ad b1 88 bd
       -0.08802198 -1.1254398 -0.023125788 -0.06674514
000010 5b 22 bc 3d d0 6f 00 3d 48 40 52 3f 00 c0 83 3c
       0.0918624 0.031356633 0.82129335 0.016082764
000020 f6 5e 11 bf d7 52 10 bd 52 ba 68 3d 82 6e 67 3d
       -0.56785524 -0.035235252 0.056818314 0.056501873
000030 25 63 53 ba 5a 69 d6 3c 0f 27 6c bd 8d 67 60 3d
       -0.0008063785 0.026173282 -0.057654437 0.054786254
000040 4b 7c 86 3d 7f b7 6a bc f8 bb ab 3c 9e 58 5d bd
       0.06566676 -0.014325975 0.020963654 -0.05403959
000050 39 a5 49 be 25 79 d7 bc 3a 80 6c 3f 70 4b 28 3e
       -0.19691934 -0.026302883 0.9238316 0.16435027
000060 25 14 73 bd 10 92 be bd 4d 0e 6b 3d 77 6b 77 bd
       -0.059345383 -0.09305203 0.057386685 -0.06040522
000070 fd cc 62 be 99 97 e3 bd 70 12 32 3f e3 2d 2e 3d
       -0.2214851 -0.11112899 0.69559383 0.04252423
000080 2d 65 b3 3c 30 a2 a0 be a4 be c3 bc d0 16 17 3e
       0.02189883 -0.3137374 -0.023894615 0.14754796
000090 f4 ed 99 be e8 94 1d 3c cc 41 d2 3c b4 c8 0d be
       -0.30064356 0.009618022 0.02566614 -0.13846093
0000a0 23 a1 4f 3d 34 6f 5d 3b d3 7a 2c be 81 17 ae bc
       0.05069078 0.0033788206 -0.16843729 -0.021251442
0000b0 62 f7 49 3d 46 e8 0a 3f da 7d 8f 3c bc 7a 19 3d
       0.04930819 0.5426067 0.017516065 0.037470564
0000c0 31 74 23 bb 4f 72 48 3f 55 6c 6d be c7 24 69 bc
       -0.0024941082 0.7829942 -0.23185857 -0.01422996
0000d0 fa 7c 0a 3d ca b8 1f 3f de 79 37 3d 08 9d 83 3d
       0.033810593 0.6239134 0.044793956 0.06426436
0000e0 5d 3a 10 3f 00 9d 53 3d d6 fb 5a 3c c3 cd 93 3d
       0.56339055 0.0516634 0.013365706 0.0721698
0000f0 ad 6b 76 be 7c 0f 2b 3d 18 e0 67 3c 34 2f df 3d
       -0.24064513 0.041762814 0.014152549 0.10897675
000100 5a 57 6b 3e 88 60 40 bc 96 91 03 bd 54 1e fc bd
       0.2298254 -0.011741765 -0.032121263 -0.12310472
000110 cd 42 56 bd 95 cf 74 3d 09 a5 96 bd 3c 3c 47 bb
       -0.0523098 0.05976828 -0.07355697 -0.0030400893
000120 22 c3 b7 3c f0 ea 7e bc 6f 8d a9 3d 9e f5 a9 bc
       0.022431914 -0.015558943 0.082789294 -0.020747002
000130 88 7d 31 3e 8c d4 39 3d 03 2a 3e 3f 9f 33 32 3d
       0.17333043 0.045368716 0.74282855 0.04350626
000140 81 12 8b 3c 69 7e 5c 3c b3 69 a7 bd e2 25 82 3e
       0.016976597 0.013457873 -0.081744574 0.25419527
000150 ef 2a de 3d c6 7d 0c 3d ad 16 58 bc c2 fa 51 3d
       0.10848033 0.034299634 -0.013189 0.051264532
000160 f8 6b b8 bd 5b 30 bb bd 52 ed b9 bd 1a f1 88 3b
       -0.090049684 -0.091400824 -0.090784684 0.004179132
000170 97 c4 2e be d7 5d b8 bd 46 6f 9c 3e 8c a4 8e 3d
       -0.1706718 -0.090022735 0.30553645 0.069649786
000180 c1 be 67 3d c6 f9 b4 bd 67 55 a4 3d 12 7a 9b 3e
       0.0565784 -0.08836703 0.08024102 0.3036657
000190 1e a8 72 bd 07 50 95 3e da ae 9d 3d 3e 17 0a bd
       -0.05924236 0.2916262 0.07699366 -0.03371357
0001a0 22 e7 7e 3c e5 45 83 3d ac fd 5b 3d 3b bc 18 3d
       0.015558036 0.06409816 0.053708717 0.037288886
0001b0 3f de 09 3d 6a a8 5a 3e 9d c3 ad bd f4 2f bc bc
       0.033659216 0.21353307 -0.08484576 -0.022972085
0001c0 80 35 89 bc 29 62 78 bd e5 56 fd bb fa 09 80 bd
       -0.016749144 -0.060640488 -0.007731306 -0.06251903
0001d0 f8 2b f1 3b 4a b6 63 3d 6e 45 87 bd 78 9d be bd
       0.007359978 0.055593766 -0.066050395 -0.093073785
0001e0 b5 b3 32 3c 1f 3b d8 bd 25 fb 88 3b 1b f6 71 3c
       0.010907103 -0.105581515 0.0041803294 0.014768149
0001f0 43 b3 36 3d 35 1a 34 bd 19 58 93 3b b0 6c 20 3e
       0.04460455 -0.043970305 0.004496586 0.15666461

net.4.weight f4 [4, 128]
000000 2f b0 80 bb c8 1c c2 be 6c 89 06 bf 9f 4c 40 bd
       -0.0039272527 -0.37912583 -0.5255344 -0.04694807
000010 1c d9 fd be 2a 05 c6 be b2 a8 b3 3f 64 bb ac 3d
       -0.49579704 -0.38675815 1.4035857 0.084341794
000020 44 71 fe 3f 32 1a a8 be 47 9f bf be 3d 45 cb be
       1.9878316 -0.32832485 -0.37426206 -0.39701262
000030 d1 da a2 be be 58 17 40 c5 a8 0f bf 74 a0 be be
       -0.3180757 2.3647914 -0.56116897 -0.3723179
000040 25 6f 96 be 2c 88 a7 3c e1 3f df be 82 ce b8 be
       -0.29381672 0.020450674 -0.43603423 -0.36095053
000050 47 7a f0 3f 39 9e 06 bf e1 9b e4 3f a0 2f 05 c0
       1.8787316 -0.5258518 1.786007 -2.0810318
000060 6c 7a 8c bf 86 b6 6c 3c 81 0f 01 bf 74 b4 0c c0
       -1.097486 0.014447814 -0.5041428 -2.198514
000070 8b eb 04 40 04 15 ea be 28 6b b8 3f d2 5a 8b be
       2.0768764 -0.4571916 1.4407701 -0.27217728
000080 03 36 c2 be 19 81 3c c0 36 23 e0 be 16 bb 4f be
       -0.37931833 -2.9453795 -0.43776864 -0.20286211
000090 ef db e5 bf 97 4a af be d1 f2 c9 be 5f 39 01 bf
       -1.7957743 -0.34236595 -0.39443067 -0.50478166
0000a0 80 35 cd be 88 a0 a3 3f f5 03 95 bf ee ae a3 3f
       -0.4007988 1.2783365 -1.1641833 1.2787759
0000b0 96 c5 16 bf 78 a8 db 3f 1f 2a ec be 20 49 4c be
       -0.5889524 1.7160788 -0.46125886 -0.1994977
0000c0 48 8a 00 bf 0a 51 b3 3f 15 a7 e5 3f bb 1d c5 be
       -0.50211 1.4009106 1.7941614 -0.38499245
0000d0 fe 8f c8 be 86 63 08 3f d4 7f ef be 5b 97 8f be
       -0.39172357 0.5327686 -0.46777213 -0.28045163
0000e0 91 6d c3 3e 7d e7 0e 3e 9d fe cf be 65 37 eb be
       0.3816953 0.13955493 -0.40623942 -0.459407
0000f0 08 bb 1a 40 80 5b 87 bc c7 35 0c bf cb 68 b5 be
       2.4176655 -0.016523123 -0.5476956 -0.35431513
000100 5d d6 c0 be 7c c8 e3 be 4c ea e6 be c1 d6 9d bf
       -0.37663546 -0.44488895 -0.4510063 -1.2331163
000110 e9 5a ef be 37 79 fa be 13 62 d9 be ea c9 a8 bd
       -0.46749046 -0.48920605 -0.42457637 -0.08241637
000120 ca 64 44 bf 93 8d c1 be 6d b9 8b be 7f f1 e9 be
       -0.7671629 -0.37803325 -0.27289906 -0.4569206
000130 19 28 65 3f 76 f1 91 be 16 34 cf 3f 44 d3 b6 be
       0.8951431 -0.28504533 1.618777 -0.35708058
000140 ad 50 b5 be ca 8b 07 bd 9e f2 c0 be ac dc 6a bf
       -0.35413113 -0.033092298 -0.37685102 -0.9174297
000150 23 c1 34 be da 10 03 bf 50 12 cc be b7 26 fe be
       -0.17651801 -0.5119759 -0.3985772 -0.49638912
000160 2b 00 f9 be 22 2f 6b 3d f5 66 da 3a 06 9c b4 be
       -0.4863294 0.057417996 0.0016662764 -0.35275286
000170 92 7d 0a 40 44 c2 33 bf 8b b9 60 3e f2 f8 de be
       2.1639142 -0.702183 0.21945779 -0.43549305
000180 a5 22 0a bf b5 65 97 bc 8a 44 8e be 93 f7 6e 3e
       -0.53959113 -0.018481115 -0.27786666 0.2333663
000190 70 fc 28 c0 fe 90 c7 3f 71 91 ed be fd 7e a1 bf
       -2.6404076 1.5591123 -0.46400025 -1.2616879
0001a0 5b 79 8c bd 73 23 6f be 90 4b bc be 8d d7 f4 be
       -0.06859084 -0.23353367 -0.367764 -0.47820702
0001b0 a5 ca c8 be 80 15 a7 3f ae 9b b2 bf a6 10 bc be
       -0.39217106 1.3053436 -1.395376 -0.36731452
0001c0 27 75 f9 be 0b 74 80 bd bb db e2 be 36 e9 29 3d
       -0.48722193 -0.062721334 -0.44308266 0.041482173
0001d0 19 67 de be d9 ca ca be 41 55 22 3d da 5d 37 3c
       -0.43438032 -0.39607885 0.039632086 0.01119181
0001e0 32 80 ea be a8 c4 f1 be 07 5e d8 be 31 b9 d7 3f
       -0.4580093 -0.4722035 -0.42259237 1.6853391
0001f0 37 0a f2 be 48 34 52 bf 06 fc e1 be 72 1e 10 bd
       -0.47273418 -0.82111025 -0.4413759 -0.035185285
000200 6f f3 5d bd 98 01 57 3f b6 5c 0b bf 02 df d6 3c
       -0.054187234 0.83986807 -0.5443834 0.026229385
000210 da ea 01 bf d3 9d ea be 84 18 84 3f 77 1d 82 bd
       -0.5074898 -0.45823535 1.0319982 -0.06353276
000220 62 a8 17 40 e6 de eb be 82 0f 92 be f5 9b 32 bf
       2.3696523 -0.46068496 -0.28527457 -0.6976922
000230 1c 87 dc be d3 09 15 40 06 11 fe be 26 0e 8c bc
       -0.4307183 2.3287246 -0.49622363 -0.01709659
000240 db ac ac be 91 7a 6f bd 14 57 09 bf 61 d9 14 bf
       -0.33725628 -0.058466498 -0.53648496 -0.58144194
000250 53 f7 e0 3f 52 5b 08 bf fe a9 01 40 d2 fa 9b 3e
       1.7575477 -0.53264344 2.0260005 0.30464798
000260 41 d9 db be d8 44 4d 3d 5c 3e 51 bf 1c 66 8e bf
       -0.4293919 0.050114483 -0.8173578 -1.1124911
000270 79 dc 07 40 f7 f8 a2 be 12 4b d0 3f 75 f4 fc be
       2.1228316 -0.3183057 1.627291 -0.49405256
000280 3f ae af be 2a 22 0b c0 65 8a 1d bf b3 46 20 3e
       -0.34312627 -2.1739602 -0.615393 0.1565197
000290 00 e0 2f bf a5 05 d1 be 4a c3 ab be 00 7f cf bf
       -0.6870117 -0.4082462 -0.3354743 -1.6210632
0002a0 18 82 61 be 9c d5 d4 3f 8e 24 de bf e6 66 b2 3f
       -0.22022283 1.6627688 -1.7354906 1.3937652
0002b0 bc a7 ad bf 63 54 b0 3f 12 85 fb be 64 e6 de be
       -1.3566813 1.3775753 -0.49124962 -0.4353515
0002c0 5f f7 3d bf 6b da bd 3f 8b 94 0a 40 e1 51 77 bf
       -0.74205583 1.4832281 2.1653163 -0.9660931
0002d0 f6 8e e4 be eb c9 5b 3f 4b ff 56 bf da 16 46 bf
       -0.4464032 0.8585498 -0.83983296 -0.7737862
0002e0 be d0 d5 3f f1 cd 16 bf d5 1b 09 bf 69 75 b6 be
       1.6704328 -0.5890799 -0.53558093 -0.35636452
0002f0 b8 fd 25 40 c5 7c e6 3e 45 8c db be cf 89 0c bf
       2.5936108 0.45017067 -0.42880455 -0.5489778
000300 3c dc 00 3f d6 78 1f bf a1 ec 12 bf 94 5b 1b bf
       0.5033605 -0.62293756 -0.5739232 -0.6068661
000310 75 63 24 bf 22 f2 2f bf 42 cd 0c bf 5c 30 fb 3c
       -0.6421426 -0.6872884 -0.550007 0.030662708
000320 15 08 85 bf 6c 76 82 be 3f 6c fd bb 5e a9 b3 be
       -1.0393091 -0.25480974 -0.007733851 -0.35090154
000330 43 1b 26 3d f1 ef 26 bf d2 94 b4 3f 3c 38 bd be
       0.040553343 -0.6520987 1.4107916 -0.36956966
000340 e0 b3 32 bf 3e 1e 8d 3d 01 78 04 bf aa 04 9d bf
       -0.6980572 0.06890534 -0.5174561 -1.2267048
000350 ca aa 05 bf ec 83 0b bf f6 07 22 bf 86 54 25 bf
       -0.5221373 -0.5449817 -0.632934 -0.645821
000360 e8 b3 07 bf 59 29 ae 3d 9c d9 a0 3c 60 20 a8 be
       -0.5300889 0.0850398 0.019635014 -0.328372
000370 0f 6f 16 40 87 4d bb 3e 58 10 00 3f b1 04 18 bf
       2.3505285 0.36582586 0.5002494 -0.5938216
000380 7c dd 64 be 0f 11 18 3d f1 00 88 be e4 f0 f3 3e
       -0.22350115 0.037125643 -0.26563218 0.47644722
000390 57 a6 09 c0 80 21 91 3f ba b3 03 bf 33 24 5b bf
       -2.1507776 1.1338348 -0.51446116 -0.8560211
0003a0 82 51 8d bc 75 96 35 bf 98 ca ca be 9a 2e 6a be
       -0.01725078 -0.70932704 -0.39607692 -0.2286934
0003b0 1f 9d df be 49 ae 80 3f 67 2c 14 c0 aa 4a d7 be
       -0.4367456 1.0053188 -2.31521 -0.42049152
0003c0 7f 6b 01 be 9c 28 a4 3d e1 6d 52 be 9f 82 1b bc
       -0.12638663 0.08015558 -0.20549728 -0.009491592
0003d0 64 79 9c be f1 92 2c be 2f 92 0a 3d c8 95 1c 3c
       -0.30561364 -0.16852929 0.033830818 0.009557195
0003e0 28 85 9c be e5 84 d0 be 62 19 13 bf b4 2f eb 3f
       -0.3057034 -0.4072639 -0.57460606 1.8373933
0003f0 9e 67 2e be fc 5c b1 be 78 01 ed be 1f d8 4e 3e
       -0.17031714 -0.34641254 -0.46290183 0.20199631

net.4.bias f4 [4]
000000 e4 b3 ad bd b3 4b af 3e 55 8c 84 3c 26 d9 d4 bc
       -0.08481577 0.3423744 0.016180197 -0.02598245
