SARSA/dsqn/1150_model_weights.pth (torch, 75929 bytes, 6 tensors)

net.0.weight f4 [128, 8]
000000 85 a3 70 3f ef b3 44 3d 2a d3 cc 3e 8e 4c e0 be
       0.9399951 0.04802316 0.40004855 -0.43808407
000010 15 37 43 bf e7 e9 a8 3e ec e6 44 be 3f 63 68 be
       -0.76255924 0.32990953 -0.19228715 -0.2269411
000020 b6 8b cf 3f 30 61 8d 3d 95 29 4e 3f 2a 25 ae 3d
       1.6214511 0.06903303 0.805322 0.08503182
000030 11 14 c0 be c1 e0 2d 3e ea 8e 8d 3d 47 ff 3f be
       -0.3751531 0.16980268 0.06912024 -0.18749724
000040 48 0f b8 bf d3 85 9f 3f 23 bb 53 bd 29 66 00 bf
       -1.4379663 1.2462715 -0.05169214 -0.50155884
000050 59 f7 18 3e c7 e1 07 3e e9 15 1e 3e 9b e8 be be
       0.14938106 0.13269721 0.15438046 -0.3728684
000060 ff f7 ff 3e 6d 82 9e 3f 7c fb 74 3e 0e 69 2b bf
       0.49993894 1.2383553 0.23924059 -0.66957176
000070 18 d5 08 3d 8c 1a 6f 3d 5e 20 9e bc 02 48 46 3b
       0.033406347 0.058374926 -0.019302543 0.0030255322
000080 eb 79 fb be b7 74 d9 3a 6a a5 3f bd 33 d9 97 be
       -0.49116454 0.001659057 -0.04678861 -0.29657897
000090 64 8b 23 3f a9 11 80 3f 8f 0a 38 3f 92 53 aa 3e
       0.6388457 1.000539 0.7189111 0.33266884
0000a0 ef 55 ac bf 73 ef 53 be 88 46 ee 3e c6 17 15 bf
       -1.3463725 -0.20696811 0.46538186 -0.582394
0000b0 f0 f4 01 bf 86 aa 8c bf 1e 1a d4 3e fd 5d 91 3c
       -0.5076437 -1.098954 0.41426176 0.017745012
0000c0 75 88 cf be ae c9 14 3c 7b 01 4c be ca 56 3e be
       -0.40533796 0.009081287 -0.1992244 -0.18587795
0000d0 24 91 0e c0 bb cf 76 3d 1d 1a 52 3d 02 5b e8 bd
       -2.2276087 0.0602567 0.051294435 -0.11345483
0000e0 c5 c4 9e bf 95 a5 36 be fb 6c d7 3d de 4c 71 3f
       -1.2403799 -0.17836602 0.10518833 0.94257915
0000f0 3e 11 b9 be ec 19 27 3e 4d 42 a5 3d 3e 12 49 3d
       -0.36145967 0.16318482 0.080692865 0.049089663
000100 a8 58 a0 bc 3e 84 08 bd 9b b4 59 be d6 3c af be
       -0.019573525 -0.03332924 -0.21260302 -0.34226102
000110 e1 72 82 3f a4 5c 55 3f 7a 20 3e 3e 33 20 b1 3e
       1.0191308 0.83344483 0.18567076 0.3459488
000120 c2 6f a0 bf e8 52 b5 bf e9 5f 9c 3f 51 b0 02 3f
       -1.2534106 -1.4165926 1.221677 0.5105029
000130 f0 28 ad be 21 62 07 3f 9a 81 d3 3e b9 b2 0f bf
       -0.33820295 0.5288411 0.41309816 -0.56132084
000140 ea f6 be 3f 7d 28 97 3c c1 aa 93 be 3c e9 9d 3f
       1.4919102 0.018451924 -0.28841212 1.2336802
000150 ee e8 d8 3d 14 68 e7 3d f9 68 55 bd 59 5c ec be
       0.10591303 0.11299148 -0.052102063 -0.46164206
000160 d1 e6 78 bf fb 67 2a bf 31 87 e9 bf fe 5e 47 3f
       -0.972272 -0.6656491 -1.8244382 0.7787932
000170 08 6e de be 35 48 3f be 15 8a 1d 3f 6a 6d d5 3e
       -0.43443322 -0.18679889 0.6153882 0.4168504
000180 38 ae 58 bf 4c 23 5b 3e 04 cc 7b 3d ed 3c 8b 3f
       -0.84640837 0.21400183 0.06147386 1.0877968
000190 72 a6 c2 be 23 db 42 3f a4 2a a9 3e cf 31 f4 3e
       -0.38017613 0.76115626 0.33040345 0.4769425
0001a0 0f da 6a be 72 c9 e0 bd 01 2f ff be 23 65 3e 3e
       -0.22934745 -0.10975923 -0.4984055 0.18593268
0001b0 bf f0 70 3f 5e 7e 0d 3f da d1 14 3f ca 98 84 be
       0.9411735 0.55270946 0.5813271 -0.2589782
0001c0 0d fd 10 bf 80 fd 0a 3b 1b 2c c9 3e 64 75 1c bf
       -0.56636125 0.0021208227 0.39291462 -0.61116624
0001d0 af b8 c9 3e 74 e2 8e 3f 68 b2 b9 3e c1 8d 11 bc
       0.39398715 1.1162858 0.36268926 -0.008883894
0001e0 e1 c3 46 bf 46 27 52 be 0c dc 5f be 81 52 73 3f
       -0.7764264 -0.20522794 -0.21861285 0.95047766
0001f0 29 b8 1c bf dd f5 01 3d 2d c7 e8 3e 05 73 c7 3d
       -0.61218506 0.031728614 0.4546446 0.09738735
000200 87 f2 97 bf 54 1a 05 bf 84 66 0c be 4d c8 f4 be
       -1.1870888 -0.519933 -0.13710982 -0.47809067
000210 7b 05 41 bf 1d 61 3d 3e 61 30 a7 3e f3 67 0c bf
       -0.7539899 0.18494077 0.32654098 -0.54846114
000220 14 04 e7 3e 00 7f 0b 3f 9f 8b 6c bc 30 b3 b0 3e
       0.451203 0.5449066 -0.014437585 0.3451171
000230 80 26 b8 bc 97 17 17 3d 00 73 f5 3e b6 79 27 3f
       -0.022479296 0.03688773 0.479393 0.6542009
000240 55 3f b2 3e 8a cb 25 3f fa 50 3d bf d0 40 9d be
       0.34813944 0.647637 -0.73951685 -0.3071351
000250 01 4c f0 be bc dc e6 3f 20 59 a1 3e c7 bd 34 bf
       -0.46932986 1.8036113 0.3151331 -0.7060208
000260 a9 d9 1e 3f 0c b6 1b 3f e6 27 9b be 41 24 b1 3f
       0.62050873 0.60824656 -0.30303878 1.3839189
000270 21 5b 82 bf cb 8b 2d bf 6f 8f 8a be b8 47 9a bf
       -1.018406 -0.6779143 -0.27062556 -1.2053137
000280 33 3d 20 bf 41 66 33 be 06 34 e2 3e 7f b1 ac be
       -0.6259338 -0.17519476 0.44180316 -0.3372917
000290 4b 93 f2 3e 97 0d c3 3f 1b 39 0e 3e 7f f3 f6 bd
       0.47378 1.5238522 0.13888972 -0.12058162
0002a0 19 7d 94 3e 54 07 a1 bf b5 d1 4b be de d1 e3 3f
       0.29001692 -1.2580361 -0.19904216 1.7798421
0002b0 c3 81 16 3f 27 73 8a 3f 8e 6a ec 3e 03 ec 8a 3e
       0.5879175 1.0816392 0.46175045 0.27133188
0002c0 9c 9d c9 be 1a 47 d6 3e 57 15 c5 be 4f 3c 1b 3c
       -0.3937806 0.4185112 -0.38492844 0.009474828
0002d0 d3 10 7a 3f c1 f4 f6 3e 89 d7 04 3f 8d a7 a3 3e
       0.9768192 0.48233607 0.5189138 0.3196377
0002e0 22 39 18 bf fd ff 07 be f0 7d 07 be b8 36 3f bf
       -0.5946218 -0.13281246 -0.13231635 -0.7469287
0002f0 27 3d 1c be ea 4a 37 3f ac e2 41 3e c9 6a b3 bd
       -0.15257703 0.71598685 0.18934125 -0.08760602
000300 59 9c 40 bf 32 9d 6b 3e 33 cd f5 bf a6 8a fc 3e
       -0.7523857 0.23009184 -1.9203247 0.4932453
000310 be 1e 3d bf ea b4 3f be e0 6e 81 3e 3f 7d 94 bd
       -0.73875034 -0.18721357 0.25279903 -0.07250451
000320 ee 3e 2f 3e ad 60 15 bd ba 41 42 3e dd f6 1c bf
       0.1711385 -0.03646915 0.18970385 -0.61314183
000330 39 17 de 3e 85 56 3b 3f ce 45 e8 3e 04 4f 7f 3d
       0.43377092 0.73178893 0.45365757 0.062331215
000340 87 d2 57 bf 80 eb 5c c0 6d 54 0b bf d0 93 f3 3d
       -0.84305614 -3.4518738 -0.544257 0.11893427
000350 0b ad ba 3f aa bc 51 3f a0 2a c1 3e 1d b5 70 bf
       1.4584059 0.81928504 0.37727833 -0.94026357
000360 12 8d c9 3d ef 41 9c bd 23 b7 00 3d 85 e6 33 3f
       0.0984136 -0.07629763 0.031424653 0.7027362
000370 8f be 19 3f 40 aa 6d bf d6 00 b8 bd 98 6e 92 3e
       0.60056394 -0.92837906 -0.089845344 0.286
000380 06 c2 2f bf 95 87 34 be 3d 2c 16 3f cf cd 8b 3e
       -0.6865543 -0.17629845 0.5866125 0.27305457
000390 24 0e 74 3f 15 f3 ea 3f f8 7b 0f bf 13 22 e7 bf
       0.95334077 1.8355433 -0.56048536 -1.8057274
0003a0 db b3 0b bf 3b c3 15 3b cb 9f a0 bd 78 02 6a bf
       -0.5457131 0.0022851962 -0.07842978 -0.91410017
0003b0 05 b9 2f 3d 3a d1 26 3f 82 2c ba 3e 99 d9 db bd
       0.042901058 0.65163004 0.36362082 -0.10734863
0003c0 6f ea ee be ab 80 ac be 01 cf 36 bf 73 fb b1 be
       -0.46663234 -0.33691916 -0.7140961 -0.34762153
0003d0 1e 26 1b bf 2b cc cc bf 6c 98 fc 3d 36 43 3f 3f
       -0.6060504 -1.5999807 0.1233376 0.7471193
0003e0 67 7b f9 3f 88 a0 14 be 59 06 2f 3f 18 fa af 3e
       1.9490784 -0.14514363 0.6836906 0.34370494
0003f0 db c8 b0 bd 7b e6 2a 3e f9 f1 9d bc d4 cc c7 bc
       -0.0863206 0.16689484 -0.01928042 -0.024389662

net.0.bias f4 [128]
000000 f3 4f f5 3e 3d 97 e9 bd 7f f5 1e 3e 6a 9a f1 3d
       0.4791256 -0.114057995 0.15523337 0.1179703
000010 d6 f7 b1 3e 16 b5 9f 3d 6b 6f 8d bd 48 33 2d 3e
       0.34759396 0.07798211 -0.06906017 0.16914093
000020 ad d4 0a bf 1d 71 c0 3d 00 ba 2d 3f 7e ec db bd
       -0.5423077 0.09396575 0.6786194 -0.10738467
000030 38 77 98 be 29 38 a1 3e e8 13 db 3e e4 d7 52 be
       -0.29778457 0.3148816 0.42788625 -0.20590168
000040 9c 42 08 bf 74 47 a2 3e ad 8e f3 3e ba 8c 94 bf
       -0.5322664 0.3169514 0.4756979 -1.1605446
000050 ed 11 f8 3e dc ee 25 3f 14 14 45 3f 23 25 4c 3f
       0.48451176 0.64817595 0.7698376 0.79744166
000060 4f c2 9a 3e 38 c5 d6 3e ad 68 bf be 1d df b0 be
       0.3022637 0.4194734 -0.3738455 -0.34545222
000070 69 4e dc 3d 6b 4c 2d 3f 94 97 ee 3e 2e 3f c8 3b
       0.10757143 0.6769473 0.4660002 0.006111047
000080 68 c3 f1 be 70 62 bc be f5 8d 38 3f 15 02 05 bf
       -0.47219396 -0.36793852 0.7209161 -0.519563
000090 c5 cd 15 3e e9 f6 3f be 25 ba 9d 3e 5f e7 a5 3e
       0.14629276 -0.18746532 0.3080608 0.32403085
0000a0 ab 59 cf be ea c1 db be 5f 85 33 3e 0f 09 09 bf
       -0.404981 -0.42921382 0.17531346 -0.5352945
0000b0 b6 8a 20 3f 12 3c 46 3c 28 1e 04 3f 5b 21 4c 3f
       0.62711656 0.012099283 0.51608515 0.79738396
0000c0 6f 37 dd bd 20 df f7 3e e0 03 85 3e e1 90 29 3e
       -0.10801589 0.48412418 0.2597952 0.16559173
0000d0 07 d7 93 3f 46 2f 33 bc ed a6 8b be f2 6b 35 bf
       1.1549996 -0.010936564 -0.27275792 -0.70867836
0000e0 81 4f 50 3f 58 a9 d9 3e 4a a0 1a 3f 84 6e e9 be
       0.81371313 0.42512012 0.6040083 -0.4559213
0000f0 fe b9 5f 3f 36 3e 0e 3f b8 03 34 3f d3 97 6e 3f
       0.87393177 0.55563676 0.70318174 0.93200415
000100 f4 f9 bb 3e 8e fb 54 3e ea 42 76 be 96 ba 80 3e
       0.36714137 0.20799085 -0.24048963 0.25142354
000110 4a f7 0a bf 50 c4 b3 be 8a 10 d5 be 48 fb 93 3e
       -0.54283583 -0.35110712 -0.4161418 0.2890265
000120 c6 6c 54 3f dd 12 96 be 41 d0 93 3e 94 e4 b0 3e
       0.82978475 -0.29311267 0.28869823 0.3454939
000130 6f 59 8d be 38 84 71 be 8a e9 14 3f 74 5e 0f 3e
       -0.27607295 -0.23585594 0.5816885 0.14000875
000140 65 a7 1e 3f ec d1 ed be 3a 35 e2 be ab 7a 60 3e
       0.61974174 -0.4644922 -0.44181234 0.21921794
000150 c1 d4 ac 3e f2 f2 04 3e 9c 2a 1a 3f d7 22 b7 3e
       0.33756068 0.12983301 0.60221267 0.35768768
000160 83 4c 32 3e 59 d7 46 bf 6c 25 14 3e 26 3d 69 bf
       0.17412 -0.77672344 0.144674 -0.9110893
000170 38 06 95 3e 94 15 e2 3e c0 7b cb 3e 22 f7 ef 3d
       0.29106307 0.44157088 0.3974285 0.11717059
000180 69 3b 18 bd f0 e0 6c 3f d7 4f 19 bf 38 bc c4 be
       -0.037166033 0.9253073 -0.5988745 -0.3842485
000190 6d c6 16 3f 11 88 37 bc c9 95 96 be aa d5 0f be
       0.58896524 -0.011201874 -0.29411152 -0.1404635
0001a0 83 1c 2f 3f 4d 68 c3 3e 14 6d a1 bf 85 ad 06 3f
       0.6840288 0.38165513 -1.2611413 0.5260852
0001b0 88 55 61 bf 43 17 c5 be 2c bd b7 3f a6 75 19 bf
       -0.88021135 -0.3849431 1.4354606 -0.5994514
0001c0 c4 1b aa 3d 33 62 c2 3e 4a a1 07 3f e9 28 cb 3e
       0.08306077 0.37965545 0.5298048 0.3967965
0001d0 7f 41 f8 be b1 19 ec be eb 5b 64 3f 34 31 55 3f
       -0.4848747 -0.4611335 0.89202756 0.83278203
0001e0 e6 df 6f 3f b5 5a d7 3e cd 50 23 bf a3 aa 6f 3f
       0.93701017 0.4206139 -0.6379517 0.93619746
0001f0 b7 27 e3 3d a2 51 a3 be 31 e4 28 3d 77 e1 37 be
       0.110915594 -0.31898218 0.041233245 -0.17957102

net.2.weight f4 [128, 128]
000000 5d dd 60 3d ad 5e 71 bd 23 59 85 bd ff 6a 9e bd
       0.05489861 -0.05892818 -0.06511142 -0.07735252
000010 3f 10 a9 bd da 7d 5d bd 0d 0b 92 bd 7a 97 56 3c
       -0.08255052 -0.0540751 -0.07131014 0.013097638
000020 a8 d2 b8 3c 40 e6 b1 3b 30 da eb 3c f2 a7 53 3c
       0.022561386 0.0054290593 0.028790563 0.012918459
000030 d7 3f 3e 3d f1 9e 45 3d c7 f9 b7 bd 51 65 86 3d
       0.0464476 0.04824728 -0.08983188 0.06562293
000040 62 88 29 3d 07 c9 45 3d 26 7b bf bc 80 3c 99 3d
       0.04138983 0.048287418 -0.023374151 0.074822426
000050 5c 84 c7 3c b1 79 3f 3d 0a f2 8b 3a 3d 13 1d bd
       0.024355106 0.046746913 0.0010676992 -0.038348425
000060 79 b2 8f bd 28 e2 b1 3c 2e 01 9d bd f6 2f 9e bd
       -0.07016463 0.021714285 -0.07666241 -0.077239916
000070 89 bc 8d 3d 31 d1 9f bc 0f be 06 bc 9d 1b 8d 3d
       0.06920726 -0.01950893 -0.008224024 0.068900324
000080 8c 7c d4 3b 0e d8 2b bd 3c d4 2d 3c f9 35 98 3d
       0.0064845737 -0.041954093 0.010609683 0.074321695
000090 ae 45 1e bd 68 f6 3e bd 48 c3 fe bc 73 b9 8c 3c
       -0.03864067 -0.04662171 -0.031098977 0.017178273
0000a0 52 4e 88 bd 07 eb 6f bd 29 c3 85 3d 54 74 81 bd
       -0.066555634 -0.05857375 0.065313645 -0.06321016
0000b0 9a e1 9b bd 7f 60 99 3c d4 90 71 bd 45 09 77 3d
       -0.076113895 0.01872277 -0.05897601 0.060311574
0000c0 9c b7 4e bc 8d fd 6b bd 8d bf 6d 3d 54 de 37 3d
       -0.012617018 -0.05761485 0.058044005 0.044889763
0000d0 43 d9 c4 bd b8 77 f0 bc 1a f3 81 3d 20 3e f3 3c
       -0.09611752 -0.029353961 0.06345196 0.02969271
0000e0 52 8a 72 bd 12 1e 83 3c 5f a7 59 3c f2 b4 b4 bd
       -0.059213944 0.01600555 0.013284533 -0.08823575
0000f0 80 36 6d 3a f0 f9 24 3c 4a 83 95 bd 8e 1c fe bc
       0.00090489537 0.010069355 -0.07300432 -0.031019475
000100 af 33 e0 3c 6d 28 77 bc c4 85 6c 3d 6c df c4 3c
       0.027368395 -0.015085322 0.057744756 0.024032317
000110 96 39 2e 3d 7f 38 c4 bd 3f 5f 35 bd b3 47 1c 3d
       0.042535387 -0.09581088 -0.044280287 0.038154315
000120 ab 4e ed ba fd 35 f3 3c d0 8e c7 bc bd fc 2c 3d
       -0.001810511 0.02968883 -0.02436009 0.042233218
000130 16 36 15 3d 46 6b e6 bc 1b 10 86 bd bb bb 1d bc
       0.036428533 -0.028127324 -0.065460406 -0.009627278
000140 d8 5b be 3c 44 80 aa bd ca e6 6e bc 45 5a 99 bd
       0.023237154 -0.08325246 -0.014581392 -0.07487921
000150 70 2c 0a 3c ca 74 90 bd a0 e4 42 3d 84 41 c9 bb
       0.008433446 -0.07053526 0.047581315 -0.0061418433
000160 80 f6 5c ba 39 79 ab bd b3 fe ec 3c 00 0f 4e bd
       -0.00084290653 -0.08372731 0.028930044 -0.050307274
000170 44 95 07 bc 4f 9c 8c bc 29 ad 2d 3d 26 a6 03 3d
       -0.008275334 -0.017164377 0.042401467 0.032140873
000180 1e 03 85 bc 50 00 95 3d 4a 16 1d bd 0d 32 99 3d
       -0.016236838 0.0727545 -0.038351335 0.074802496
000190 2b d8 a9 bd 72 41 43 bd 86 93 1a 3d b5 8d 97 3d
       -0.08293184 -0.047669835 0.037738346 0.07400075
0001a0 18 9d 4d 3d d4 07 04 bc e9 ca 8e bd 9c 3d 4e bd
       0.050198644 -0.008058507 -0.06972296 -0.050351724
0001b0 0b 37 64 3d e3 cc 5b 3d fc 16 02 bd 50 26 b8 bd
       0.055716556 0.053662192 -0.0317602 -0.089916825
0001c0 c3 21 1b bd 45 83 5c bd 00 c1 49 3d 67 9e 6b 3d
       -0.037873995 -0.053836126 0.049256325 0.05752411
0001d0 19 99 80 bd 09 b2 17 3d 58 d9 66 bd 64 71 84 3c
       -0.06279201 0.037035022 -0.05635962 0.01616735
0001e0 2f 88 bb bc 69 76 82 bd c8 bf 2e 3c 95 61 73 3d
       -0.022892086 -0.06370241 0.010665841 0.059419233
0001f0 df 5b fd 3c e5 b5 8e 3b 7e 75 30 bd 96 03 70 bd
       0.030927597 0.0043551796 -0.0430808 -0.05859717
000200 5c 0e ec bf 33 39 01 c0 f1 72 d9 be ab ad 70 be
       -1.8441882 -2.0191162 -0.42470506 -0.23503749
000210 9a d4 a0 3e da 4c 4d be 1e a2 3a 3f f0 ed 96 bf
       0.31412202 -0.20048848 0.7290362 -1.1791363
000220 10 96 12 3f 60 8d 3d 3e 4e 36 fa bf 61 78 0f bf
       0.5726023 0.18510962 -1.9547822 -0.5604306
000230 d2 55 c0 be 75 53 d1 3d 26 ce b2 3e ba 88 93 bc
       -0.37565476 0.10220996 0.34922904 -0.018009532
000240 1b 49 36 3e cb 62 1c bf 5d 3e d8 3c bf 15 94 bf
       0.17801325 -0.61088246 0.026396925 -1.1569136
000250 13 2e d6 3e 1a bf 87 bd 81 81 84 bd ab d8 9a 3e
       0.41832027 -0.066282466 -0.064700134 0.3024343
000260 59 96 29 bf c8 0d 2c 3e b2 3d 53 3f d3 44 bd bd
       -0.6624504 0.16802132 0.82516015 -0.09241643
000270 6f b3 f2 3c c9 6a d2 3d 59 4e ae bf 54 88 05 c0
       0.029626576 0.10274274 -1.361766 -2.0864458
000280 1e 17 c8 3e 3f 72 37 3f 85 64 6d bf 7f 79 0e 3f
       0.39080137 0.716587 -0.92731506 0.5565414
000290 b8 f6 10 c0 67 4d 02 c0 05 ce b0 be 49 93 e5 be
       -2.2650585 -2.0359743 -0.3453218 -0.44838932
0002a0 08 da cc be ac 87 64 3e 7f 07 81 bd de 84 29 3f
       -0.40010095 0.2231738 -0.06300258 0.66218364
0002b0 6f d2 12 bf 2a a0 b4 3e ed 4d 03 3d 96 e0 76 3d
       -0.57352346 0.35278445 0.032056738 0.060272776
0002c0 4d 61 67 3e b0 42 43 3d 89 dd b4 bf c5 1d 08 c0
       0.22595711 0.04767102 -1.4130107 -2.126817
0002d0 3e 2b 30 c0 b8 3a db 3e 51 33 d7 3d 92 a5 da bf
       -2.7526393 0.42818236 0.10507835 -1.7081778
0002e0 fb 0a 82 3d dc ce 43 bf 27 45 f0 bd e2 f5 5d 3e
       0.063497506 -0.7648752 -0.1173194 0.21675828
0002f0 06 8e 0e bf ce 31 9b 3d 00 b4 c1 bf f9 b1 2a c0
       -0.5568546 0.07577859 -1.5133057 -2.6671126
000300 85 c5 db bb 4d 31 18 c0 bc d6 e2 bf b0 7e 83 bf
       -0.006706896 -2.378009 -1.7721782 -1.0273037
000310 a3 13 9e bf 8f 96 36 bf 52 78 be bf ba 5f 00 bf
       -1.2349743 -0.71323484 -1.4880469 -0.5014607
000320 05 c5 7d bf 9f 17 01 c0 d0 54 19 bf 9a e7 c5 3e
       -0.9912875 -2.0170667 -0.5989504 0.3865326
000330 e8 b4 be 3d 26 70 e2 be 0e bb de bf ee cc 11 3f
       0.09311849 -0.44226187 -1.7400835 0.5695332
000340 e6 d7 60 3d 78 0b 84 3f 04 1c 12 3f ae 6f 4b c0
       0.054893397 1.0316 0.57074 -3.1786914
000350 0a 01 88 3d 37 61 d4 bd a6 63 cb 3d 9c c6 99 bf
       0.06640823 -0.10370105 0.09931116 -1.2013736
000360 92 6c fb 3e 17 eb ad 3e 29 a8 55 bf 27 38 c8 3d
       0.4910627 0.33968422 -0.8345972 0.09776335
000370 87 5a 75 bf 6b eb ec bd 5b 8e ee be 54 d3 3f bf
       -0.9584126 -0.1156834 -0.46592984 -0.74931836
000380 69 f8 10 c0 17 3a a4 be e1 85 01 3f 31 34 d3 3e
       -2.2651618 -0.3207557 0.5059491 0.41250756
000390 4f ac be bc 29 b8 5b be 9d f5 9a 3e 9f 2c 56 be
       -0.023275523 -0.2145697 0.30265513 -0.20915459
0003a0 09 b5 55 3e 96 c8 23 be 6d 14 bf bf 22 3b 58 3e
       0.2086984 -0.15994486 -1.4928108 0.21116307
0003b0 62 d1 4e be 4c 1e df bf fe 3f 0a c0 05 7c cf 3e
       -0.2019706 -1.7431121 -2.1601558 0.40524307
0003c0 57 81 17 bf 5a 7c b3 3d 9d 06 c0 3e 40 44 11 bf
       -0.5918173 0.087639526 0.37505046 -0.56744766
0003d0 76 b2 b0 3e 23 7f 4a 3f 05 85 d4 bf 8e 08 1b 3f
       0.34511155 0.79100245 -1.6603094 0.6055993
0003e0 08 5d 44 be 62 56 15 be aa 64 17 3e 8d 58 f4 be
       -0.19176114 -0.14583734 0.14784494 -0.4772381
0003f0 e5 d0 a4 bd 88 c7 67 3e 40 5d f5 3e d2 a2 d4 3e
       -0.08047656 0.22634709 0.47922707 0.41530472

net.2.bias f4 [128]
000000 de 44 b4 bd 49 cd 91 bf 08 2f 7f bc ad b1 88 bd
       -0.08802198 -1.1390773 -0.015575178 -0.06674514
000010 44 d2 c5 3d b1 0e 3d 3d 48 71 4f 3f 00 c0 83 3c
       0.096592456 0.04615659 0.8103223 0.016082764
000020 05 0d 48 bf f6 0e de bc d6 a0 83 3d 0b 5b 92 3d
       -0.78144866 -0.027106743 0.064271614 0.07146271
000030 61 47 50 3c de b5 a6 3c 08 bf 25 bd b8 a7 26 3d
       0.012712331 0.020350393 -0.040465385 0.040687293
000040 b8 1a b4 3d 7f b7 6a bc ce 66 02 3d ac 19 05 bd
       0.08794159 -0.014325975 0.031836323 -0.032495186
000050 39 a5 49 be d6 96 c8 bb de 00 74 3f 8c 39 14 3e
       -0.19691934 -0.0061214967 0.95313823 0.14475077
000060 91 db 3f bd 10 92 be bd a4 a6 9f 3d 2d 82 39 bd
       -0.046840254 -0.09305203 0.07795456 -0.04529016
000070 fd cc 62 be 03 46 00 be c4 08 2b 3f f5 cf 55 3d
       -0.2214851 -0.12526707 0.6681025 0.052200276
000080 61 58 37 3c 3a cf b8 be e1 25 61 bc 56 9d fb 3d
       0.011190505 -0.360956 -0.013741941 0.12285869
000090 c9 d3 a1 be 77 60 e4 3c 11 69 15 3d 9c af 0b be
       -0.31606892 0.02787803 0.036477152 -0.13641208
0000a0 d3 04 3f 3d 35 ff 01 bd b7 16 23 be b4 eb 21 bd
       0.04663546 -0.031737525 -0.15926634 -0.039531425
0000b0 e8 34 9f 3d 16 59 20 3f 57 c2 bc 3c 2d 8a 3c 3d
       0.07773763 0.62635934 0.023041887 0.046030212
0000c0 92 d9 c3 3c f0 bc 47 3f 55 6c 6d be 78 50 19 3c
       0.023907457 0.7802267 -0.23185857 0.009357564
0000d0 a1 c0 3b 3d 8e c7 1b 3f 94 1e 35 3d d4 f7 9a 3d
       0.045838002 0.6085137 0.044218615 0.07566801
0000e0 90 47 09 3f 0a 2f 22 3e 60 3e 50 3c 40 a3 b7 3d
       0.5362482 0.15838256 0.012710184 0.08966684
0000f0 ad 6b 76 be f8 e7 93 3d 26 ff 8e 3c 3d 39 fe 3d
       -0.24064513 0.07221979 0.017455649 0.12413261
000100 37 af 58 3e 88 e1 aa bb d2 d9 8d bc 57 d1 cd bd
       0.21160589 -0.0052148737 -0.017315779 -0.10049694
000110 7a 59 56 bd 49 40 82 3d 4f 9d 74 bd 3c 3c 47 bb
       -0.052331425 0.06359918 -0.059720334 -0.0030400893
000120 ea e6 ed 3c d3 1c 22 3c 01 98 84 3d f9 66 01 bc
       0.029040772 0.009894568 0.06474305 -0.007898086
000130 d7 c6 42 3e 96 77 90 3d 84 aa 3a 3f 05 e4 1e 3d
       0.19021164 0.07054059 0.72916436 0.038791675
000140 8a 0a b2 3c 69 7e 5c 3c 99 c2 6f bd 42 19 8b 3e
       0.021733541 0.013457873 -0.058535192 0.27167708
000150 21 ad 02 3e 4e 57 4f 3d 28 dc 79 3a 95 46 5b 3d
       0.12761356 0.05062037 0.0009531402 0.05353411
000160 c9 94 9b bd 5b 30 bb bd 52 ed b9 bd 53 b1 7f 3c
       -0.07596738 -0.091400824 -0.090784684 0.015606242
000170 97 c4 2e be 1c 47 c2 bd f7 cd 97 3e b2 e4 a6 3d
       -0.1706718 -0.09486219 0.29649326 0.08149089
000180 0c 2b 7a 3d c6 f9 b4 bd 78 4f c2 3d 6e 1d 9e 3e
       0.06107621 -0.08836703 0.09487814 0.30881828
000190 8f a3 7a bd 3b e6 9e 3e 3d fa a5 3d 2f 78 d9 bc
       -0.061191138 0.31035027 0.0810437 -0.026546566
0001a0 22 e7 7e 3c 10 cb b7 3d 9c 2a f2 3c f3 ff 37 3d
       0.015558036 0.08974278 0.029561333 0.044921827
0001b0 3c 4b e9 3c 18 9f 8c 3e 26 52 ca bd 96 7a d1 bc
       0.028478257 0.2746513 -0.0987895 -0.025571149
0001c0 1f 53 94 bc 29 62 78 bd 0a 83 68 bc fa 09 80 bd
       -0.018106041 -0.060640488 -0.014191398 -0.06251903
0001d0 5c 4a 8e 3c 77 bc 31 3d 6e 45 87 bd 78 9d be bd
       0.017369442 0.043392625 -0.066050395 -0.093073785
0001e0 20 63 da 3c c9 1e aa bd f8 03 ef b9 1d 24 fb bc
       0.026658595 -0.08306653 -0.0004558859 -0.030656869
0001f0 28 14 40 3d e4 54 f6 bc 53 32 3f 3c c9 fb 26 3e
       0.046894222 -0.030069776 0.011669713 0.16306986

net.4.weight f4 [4, 128]
000000 2f b0 80 bb c8 1c c2 be 5e 25 1c bf 9f 4c 40 bd
       -0.0039272527 -0.37912583 -0.6099452 -0.04694807
000010 39 a9 05 bf 57 64 bd be f2 3c b5 3f 64 bb ac 3d
       -0.5221134 -0.36990616 1.4159224 0.084341794
000020 14 79 e2 3f 21 94 c1 be 7c e9 c8 be fe 1d db be
       1.76932 -0.37808326 -0.39240634 -0.4279632
000030 f3 39 a1 be fa 31 15 40 b3 66 35 bf 45 a6 de be
       -0.31489524 2.3311753 -0.7085983 -0.4348623
000040 83 3f 11 be 2c 88 a7 3c f1 1f dc be 78 f5 b3 be
       -0.14184384 0.020450674 -0.4299312 -0.35148215
000050 47 7a f0 3f d4 93 05 bf 49 4c e8 3f 5e 23 19 c0
       1.8787316 -0.5217869 1.814828 -2.3927836
000060 53 ec 97 bf 86 b6 6c 3c dc 6c ef be ec be 02 c0
       -1.1868995 0.014447814 -0.4676274 -2.042903
000070 8b eb 04 40 61 67 2d bf ec 1a ba 3f 0f 1a 8a be
       2.0768764 -0.6773587 1.4539466 -0.26973006
000080 45 aa 03 bf 72 60 38 c0 6a 84 ce be b1 6a 49 be
       -0.51431686 -2.8808866 -0.403354 -0.19669606
000090 e8 09 0d c0 b4 65 b5 be 39 ba 00 bf 55 97 fc be
       -2.2037296 -0.35429156 -0.50284153 -0.49334207
0000a0 c5 56 da be 88 a0 a3 3f 96 c5 93 bf 02 13 b3 3f
       -0.42644325 1.2783365 -1.1544673 1.3990176
0000b0 5e da 03 bf 8e c2 ef 3f 13 98 ec be 74 4a 57 be
       -0.51505077 1.8731248 -0.46209773 -0.21024495
0000c0 f0 44 f4 be 93 ba b2 3f 15 a7 e5 3f 7f ef c2 be
       -0.47708845 1.3963188 1.7941614 -0.38073346
0000d0 b2 18 cd be e4 19 09 3f 7e a7 e7 be 7c b5 82 be
       -0.40057904 0.5355513 -0.45244974 -0.25529087
0000e0 0b de ea 3e a7 c6 a6 3d 54 ab d8 be 7c 69 f1 be
       0.4587253 0.08143359 -0.42318213 -0.4715079
0000f0 08 bb 1a 40 bb f5 63 bd bb 42 29 bf 9c 84 a8 be
       2.4176655 -0.05565427 -0.6611745 -0.32913673
000100 52 50 19 bf ba cc d6 be 9d 40 dc be b9 22 a3 bf
       -0.59888184 -0.4195307 -0.43018046 -1.2744972
000110 ab 8a 04 bf 4a 2e 03 bf a4 fb d4 be ea c9 a8 bd
       -0.5177409 -0.51242507 -0.41598237 -0.08241637
000120 fa 5b 60 bf fb 03 d0 be b4 bc a5 be 3c da ef be
       -0.87640345 -0.40628037 -0.32370532 -0.46846187
000130 4d 9b 71 3f 6e 84 85 be d0 ff d1 3f ed 5b 1c bf
       0.94377595 -0.26077598 1.6406193 -0.6107777
000140 e7 0e c0 be ca 8b 07 bd a2 a5 b3 be 0f e4 6f bf
       -0.3751137 -0.033092298 -0.35087305 -0.93707365
000150 5a a9 30 be e1 75 01 bf 4e 00 cc be e7 9a 06 bf
       -0.17252102 -0.50570494 -0.39843982 -0.5258011
000160 ee 66 13 bf 22 2f 6b 3d f5 66 da 3a da bf fb be
       -0.57578933 0.057417996 0.0016662764 -0.4916981
000170 92 7d 0a 40 b7 40 38 bf b7 5b 5d 3e 14 11 e3 be
       2.1639142 -0.71973747 0.21617018 -0.44348967
000180 fb 81 0e bf b5 65 97 bc 7e d5 f3 be 1d 99 74 3e
       -0.55667084 -0.018481115 -0.4762382 0.23886533
000190 38 0b 32 c0 23 ae cc 3f 56 fb 0b bf 0d b2 cb bf
       -2.7819347 1.5990642 -0.54680383 -1.5913712
0001a0 5b 79 8c bd db 65 61 be 2d 41 fd be 5f 6e fd be
       -0.06859084 -0.22011511 -0.49463788 -0.4949827
0001b0 2a 5e bd be c5 44 c4 3f d2 21 b4 bf 46 5f ca be
       -0.36985904 1.5333487 -1.4072821 -0.39525813
0001c0 70 c9 05 bf 0b 74 80 bd 12 f9 eb be 36 e9 29 3d
       -0.52260494 -0.062721334 -0.46088463 0.041482173
0001d0 64 bf e4 be 4d 38 dd be 41 55 22 3d da 5d 37 3c
       -0.4467727 -0.43207017 0.039632086 0.01119181
0001e0 d2 87 0a bf dd 97 ec be 4f a8 d4 be 81 e3 e3 3f
       -0.54113495 -0.46209612 -0.4153466 1.7803804
0001f0 55 11 fe be e2 53 73 bf e3 5a de be c7 79 c6 3a
       -0.49622598 -0.9504987 -0.43428716 0.0015142494
000200 6f f3 5d bd 98 1a 73 3f fd 0c 18 bf 02 df d6 3c
       -0.054187234 0.94962454 -0.5939482 0.026229385
000210 c0 9a 02 bf 87 60 f8 be 90 9a 8a 3f 77 1d 82 bd
       -0.5101738 -0.48511145 1.0828419 -0.06353276
000220 98 ec 18 40 54 69 01 bf 87 ce ac be c1 b6 34 bf
       2.3894405 -0.5055134 -0.33751318 -0.7059136
000230 d2 4c e0 be b1 90 29 40 f7 d7 06 bf 7e 3f fd bb
       -0.4380861 2.6494563 -0.52673286 -0.007728516
000240 2f 10 06 bf 91 7a 6f bd 7b 86 0c bf 04 f2 14 bf
       -0.52368444 -0.058466498 -0.548927 -0.58181787
000250 53 f7 e0 3f b8 6e 11 bf 10 3d 06 40 e9 e9 cd 3e
       1.7575477 -0.5680957 2.097477 0.40217522
000260 50 0b f4 be d8 44 4d 3d 2f a7 4e bf 52 d3 91 bf
       -0.4766488 0.050114483 -0.8072385 -1.1392615
000270 79 dc 07 40 85 d4 a8 be 26 65 d1 3f 66 a2 04 bf
       2.1228316 -0.3297464 1.6358993 -0.518103
000280 62 aa bc be 41 72 0e c0 bf 2f 2a bf 1c 1e 4e 3e
       -0.36848742 -2.2257235 -0.66479105 0.20128673
000290 d7 2a 37 bf 40 8b d0 be 82 7a c2 be b9 98 da bf
       -0.71549743 -0.4073124 -0.3798409 -1.7077857
0002a0 40 6d 5f be a1 bc e2 3f ac d3 e4 bf 5c 07 b2 3f
       -0.2181902 1.7713815 -1.7877097 1.3908496
0002b0 b3 01 b8 bf 2f 79 cd 3f cd 00 02 bf 48 21 df be
       -1.4375519 1.6052607 -0.5078247 -0.4358008
0002c0 12 d6 44 bf 7b db c3 3f 8b 94 0a 40 ff e0 6f bf
       -0.76889145 1.5301355 2.1653163 -0.9370269
0002d0 c4 9b ea be 02 d9 5a 3f 79 ef 5d bf 5b 99 42 bf
       -0.45821965 0.8548738 -0.8669353 -0.7601525
0002e0 f7 60 da 3f 8e 35 1b bf 5f 47 11 bf a2 57 bb be
       1.7060841 -0.6062859 -0.5674953 -0.36590296
0002f0 b8 fd 25 40 e8 f7 e6 3e d9 23 f8 be 27 5b 0d bf
       2.5936108 0.45111012 -0.4846485 -0.5521721
000300 46 30 05 3f 02 b5 39 bf e1 a3 14 bf df 7a 23 bf
       0.52026784 -0.7254182 -0.5806256 -0.6385936
000310 f8 11 2e bf 50 08 41 bf 77 f7 14 bf 5c 30 fb 3c
       -0.6799617 -0.7540331 -0.581901 0.030662708
000320 a5 a3 93 bf e4 b6 a3 be d3 d6 54 3d cb 66 b7 be
       -1.1534315 -0.31975472 0.051962685 -0.35820612
000330 66 88 47 bd 5f 0b 26 bf 08 32 b0 3f 06 28 cf be
       -0.048714064 -0.648611 1.3765268 -0.40460223
000340 70 2a 3c bf 3e 1e 8d 3d 60 0c 12 bf 23 10 9f bf
       -0.73502254 0.06890534 -0.5705013 -1.24268
000350 07 0c 00 bf 92 f3 0c bf 2d 8c 35 bf 1f 37 34 bf
       -0.5001835 -0.5505916 -0.70917016 -0.7039661
000360 83 20 13 bf 59 29 ae 3d 9c d9 a0 3c 31 d3 c1 be
       -0.57471484 0.0850398 0.019635014 -0.3785644
000370 0f 6f 16 40 5e 72 c3 3e be 85 03 3f 55 8c 29 bf
       2.3505285 0.38173193 0.5137595 -0.66229755
000380 1f 12 72 be 0f 11 18 3d 23 aa a7 be 76 1d 0a 3f
       -0.23639725 0.037125643 -0.32746992 0.53951204
000390 8f 7c 0e c0 69 ef 99 3f 53 c6 10 bf ed 3f 6b bf
       -2.2263525 1.2026187 -0.5655262 -0.9189442
0003a0 82 51 8d bc 36 84 36 bf be 9d f8 be d5 a0 7d be
       -0.01725078 -0.7129549 -0.48557848 -0.24768384
0003b0 f7 8d 07 bf c3 34 98 3f 15 80 18 c0 05 43 db be
       -0.52950996 1.1891102 -2.3828175 -0.4282457
0003c0 4d 02 fc bd 9c 28 a4 3d b9 e0 4a be 9f 82 1b bc
       -0.12305126 0.08015558 -0.19812287 -0.009491592
0003d0 a8 33 99 be f1 0f 2b be 2f 92 0a 3d c8 95 1c 3c
       -0.29922223 -0.167053 0.033830818 0.009557195
0003e0 7f 23 b1 be 05 f6 ef be 73 67 1e bf f7 12 e7 3f
       -0.34597394 -0.46867386 -0.618766 1.8052663
0003f0 8e 91 3e be 22 e0 c5 be 69 0e f3 be fb 60 4f 3e
       -0.18610212 -0.38647562 -0.47471932 0.20251839

net.4.bias f4 [4]
000000 a5 33 d1 bd 1a 4e a2 3e 44 38 21 3d 9e 7a ec bc
       -0.102149285 0.31700212 0.0393603 -0.028867062
