SARSA/dsqn/1200_model_weights.pth (torch, 75929 bytes, 6 tensors)

net.0.weight f4 [128, 8]
00000000: 4265 813f 5d34 3e3e 5bf7 9b3e 5476 e1be
00000010: 5a5c 4fbf ca3c a43e be8f 3bbe dfdd 86be
00000020: dc21 cc3f 2030 c73d 6cfc 5e3f 3eb2 6d3d
00000030: 9032 debe e3a5 3f3e e972 7c3d 7ad3 06be
00000040: b27f c5bf 911e 993f 5cd5 01bd ca33 debe
00000050: 9e8f eb3d ffa5 d53d f714 3c3e 3770 c0be
00000060: 7c60 f63e 1320 a03f 78bb 7c3e 14c7 23bf
00000070: 562d 5ebb cc1b 883d bda7 6d3b 8e36 1e3d
00000080: 7a87 eabe 9592 f9bc d4ad 14bd a958 90be
00000090: d801 243f 7fc8 7c3f 496d 393f 6529 ae3e
000000a0: a6f5 b8bf 9722 81be 3ff6 de3e e9c1 05bf
000000b0: 5361 eebe c373 8ebf b39b cb3e 61c4 003d
000000c0: 08a5 c8be 59a8 003d 4ca2 6bbe b504 ecbd
000000d0: ced1 18c0 4a69 873d 5135 4e3d cb0b 06be
000000e0: 55e3 9ebf 506c 6fbe 5eb5 a53d 2e02 663f
000000f0: 765f b0be 45b5 373e 023a 9c3d ce3e 5a3d
00000100: 033b 13bd 7974 65bb cd80 39be 126f 9cbe
00000110: 6cf6 863f f793 533f 53b2 4c3e 81de a23e
00000120: 2633 aebf 60f5 c2bf 0a89 913f c982 d53e
00000130: b077 c1be 986d 0c3f 98d9 ce3e 51bf 0fbf
00000140: f333 d23f 9b54 f6bc d0ed 85be f17b a43f
00000150: edf3 183e fc5a 1d3e 0b4e 23bd 3f64 fcbe
00000160: 1adf 5dbf 7a00 3fbf 380b 0bc0 6ee8 283f
00000170: e30f a0be 7cbf 4dbe 76f2 1e3f 3691 d23e
00000180: 6976 61bf 36ba 773e 95f9 20bd 1b2c 8d3f
00000190: 63f5 e3be 404f 433f 39b5 aa3e a004 fc3e
000001a0: d21f 39be c818 a1bd c958 f4be f91d 2e3e
000001b0: 4b71 743f aaf0 0f3f 93f9 143f 9e9e 8dbe
000001c0: 4aba 0ebf 1b3d 2bbc 81c4 d43e 3e6b 1abf
000001d0: dc4d c53e 6ec4 8e3f 4764 ba3e 1f3e a7bc
000001e0: 6961 4bbf 5b02 88be 0079 5dbe 3e01 703f
000001f0: 3223 19bf d47f 1d3d 7e52 f03e 01e6 dd3d
00000200: b491 91bf c729 fcbe a89c 0bbe aaaa 08bf
00000210: d67f 57bf cc47 423d afad a03e 29b3 06bf
00000220: 8892 c43e 3d7e 193f d75b 3dbd c0a0 ca3e
00000230: 15e0 3abd 20bf fd3c 1a38 f93e 5a47 323f
00000240: e670 e23e aeea 2a3f 1021 3ebf 6c49 95be
00000250: 9aa7 f5be 4536 e73f 8cc5 b73e 9fac 30bf
00000260: 9903 613f 049b 0e3f 5861 72be 51bb b33f
00000270: f04e 89bf e407 f9be 6f8f 8abe b847 9abf
00000280: 325a 22bf 8d00 0abe a4f2 e13e 07e1 a3be
00000290: 6e81 ee3e a559 c33f e51b 113e 131b f4bd
000002a0: 3fe6 6e3e eec0 adbf 6c9e 3dbe ad20 de3f
000002b0: 666c 123f f58d 8c3f 79fb e93e f6b8 803e
000002c0: 7eb5 b3be 576b d63e fa77 cbbe b83c 8c3c
000002d0: 93d9 7a3f c985 ef3e da54 073f 9ac8 a03e
000002e0: f6e5 1ebf 1625 ffbd 8007 f4bd 9e1d 40bf
000002f0: 2c6c 1abe ddb7 373f 62e2 3a3e 2cde bbbd
00000300: 1414 57bf 4419 b03e b084 f8bf cba4 f93e
00000310: 935f 4ebf 5a39 d7bd 9d2a 863e fec5 14bd
00000320: ec61 303e c050 3cbd 439a 4d3e a4f2 1dbf
00000330: 0709 e03e d8c6 383f 4d9d e93e 263f 863d
00000340: fa54 60bf a123 6dc0 2915 d7be 4686 0c3d
00000350: b491 b43f ced8 583f 3d38 d73e bc67 7fbf
00000360: 97c8 693e 8cfc 8abd 762c 8e3d d0bf 3c3f
00000370: f35d 1b3f 1a49 71bf 3412 23be 5ec8 9e3e
00000380: a96d 53bf b47c d8bd 1f11 0a3f 393a b03e
00000390: acb7 6f3f d2a9 eb3f 4883 0bbf 3a9b e8bf
000003a0: 7b5d 0fbf e477 3b3c 5bd1 7cbd 34a9 6bbf
000003b0: 8c71 263d ab2b 263f 799f b83e 52e8 efbd
000003c0: 8ed6 fabe eba4 b6be 1d31 34bf b0a4 a5be
000003d0: f6fe febe f94d cfbf fd48 f53d 0cbc 3c3f
000003e0: 547c fe3f c69f 66be 964a 343f 6d44 cf3e
000003f0: 0dc1 62bd 76f6 203e 68c9 73bc 6deb c3bc
1.0109026 0.18574663 0.30462155 -0.4403559 -0.8100029 0.32077628 -0.18316552 -0.2634115
1.5947833 0.09725976 0.87103915 0.058031313 -0.4339795 0.18715625 0.061633024 -0.1316661
-1.5429595 1.1962453 -0.031697616 -0.43398887 0.11502002 0.10432052 0.18367372 -0.37585613
0.48120487 1.2509788 0.24680889 -0.63975644 -0.0033901534 0.06645927 0.003626331 0.038626246
-0.45806485 -0.030465404 -0.036298588 -0.28192642 0.64065313 0.9874343 0.7243238 0.34015957
-1.4449966 -0.25221702 0.43547246 -0.5224901 -0.46558627 -1.1129078 0.39767227 0.03143728
-0.3918841 0.03141055 -0.2301113 -0.11524335 -2.3878055 0.06611879 0.050343815 -0.13090436
-1.2413126 -0.23381162 0.08091234 0.89847076 -0.3444783 0.17940243 0.076282516 0.05328255
-0.03594495 -0.003501205 -0.1811554 -0.3055349 1.0543952 0.8264765 0.199899 0.31810382
-1.3609359 -1.5231133 1.1369946 0.41701344 -0.37786627 0.54854727 0.40400386 -0.561513
1.6422104 -0.03006964 -0.26158 1.2850324 0.149368 0.15366739 -0.03986935 -0.49295232
-0.8666855 -0.746101 -2.1725597 0.6597966 -0.3126212 -0.20092577 0.62088716 0.41126412
-0.88071305 0.24192128 -0.03930052 1.1029085 -0.44523153 0.762928 0.33341387 0.4922228
-0.18078545 -0.07866055 -0.47723988 0.17003621 0.9548537 0.562266 0.5819332 -0.27660078
-0.55753005 -0.01045158 0.4155617 -0.6031989 0.38535964 1.1153696 0.3640463 -0.020415364
-0.7944551 -0.26564297 -0.21628189 0.93751895 -0.5981933 0.038451985 0.46937937 0.108348854
-1.137259 -0.49250624 -0.13633978 -0.5338541 -0.8417944 0.047431752 0.3138251 -0.52617127
0.38393044 0.5995825 -0.046230163 0.39575768 -0.045623858 0.030974925 0.48675615 0.69640124
0.4422676 0.6676434 -0.742692 -0.2915758 -0.47979432 1.8063437 0.35892904 -0.690134
0.87896115 0.55705285 -0.23669946 1.404154 -1.0727215 -0.48638833 -0.27062556 -1.2053137
-0.6341888 -0.13476773 0.44130433 -0.3200762 0.46583122 1.5261732 0.14170797 -0.119192265
0.2333002 -1.3574502 -0.18517464 1.7353722 0.5719665 1.0980822 0.4569967 0.25141114
-0.35099405 0.4187877 -0.39739972 0.017118797 0.9798824 0.46781757 0.5286385 0.31403047
-0.6206964 -0.124582455 -0.11915493 -0.7504519 -0.15080327 0.7176493 0.1825042 -0.09173235
-0.8401501 0.34394276 -1.9415493 0.4875854 -0.80614585 -0.10508986 0.26204386 -0.036321633
0.17224854 -0.045975447 0.20078377 -0.61698365 0.43756887 0.7217841 0.45627823 0.06555013
-0.87629664 -3.7052996 -0.4200833 0.03430774 1.4106965 0.8470582 0.42035094 -0.9976766
0.22830425 -0.06786451 0.06942074 0.7373018 0.6069023 -0.9425217 -0.15924913 0.31012243
-0.82589203 -0.1057066 0.53932375 0.3441942 0.93639636 1.84112 -0.54497194 -1.8172371
-0.56002015 0.011442158 -0.061723094 -0.9205506 0.04063563 0.6491038 0.36059168 -0.117142335
-0.48991817 -0.35672697 -0.7038744 -0.3235221 -0.49803895 -1.619567 0.11976812 0.73724437
1.9881692 -0.22521886 0.7042631 0.40481892 -0.05535989 0.15719017 -0.014879562 -0.02391597

net.0.bias f4 [128]
00000000: 3b0d f73e 51ab f2bd 2089 173e 2f24 d63d
00000010: eeb1 b13e 62cf b23d 4153 84bd 2688 2a3e
00000020: ff0e 05bf 7bd0 fe3d 0819 2b3f 1419 b9bd
00000030: 78ca 9cbe 81c6 a43e c2a5 d83e b79e 38be
00000040: 4169 1bbf 24ab 9d3e 0ca4 f33e 6995 9abf
00000050: 8d8a f93e 8b55 2b3f 02ca 433f b0ce 4b3f
00000060: 8261 b63e 027e d33e 532b c2be 89d9 afbe
00000070: e9aa d43d f2fd 2b3f a3e5 033f 5448 8b3b
00000080: bee2 fcbe 5a26 afbe 6aa6 333f 097c 03bf
00000090: 2acb 263e 50f6 58be b9eb 9e3e 72e9 b83e
000000a0: fe82 d3be f378 d9be a6a1 193e 09c0 0abf
000000b0: 8039 223f eed6 25bd fb7c 023f adfb 4f3f
000000c0: fa12 31be b141 f63e 912c 943e ee42 173e
000000d0: b1be 943f 9eda 53bc c446 b3be f26b 35bf
000000e0: 6c20 4d3f 3514 e83e 792a 1e3f c14d e9be
000000f0: 8701 603f 80c0 193f ba5e 3a3f 081e 6e3f
00000100: 1df5 bc3e e980 623e 3d1d 83be a6a6 823e
00000110: f12c f7be a8c8 a5be 9e02 cfbe e6e2 853e
00000120: a129 533f 50f3 94be 0bc4 803e 1015 b33e
00000130: 1c64 8fbe 0ca0 a2be e3dc 173f a83f 473e
00000140: 8af9 1a3f 5dd8 e3be b554 d5be bde1 703e
00000150: 28d9 ae3e 1841 1f3e 873e 183f 8ba1 c33e
00000160: 777a 333e 7b19 50bf d3e1 e03d 263d 69bf
00000170: aaa1 883e a177 e13e 7069 d13e 97ef f03d
00000180: 16f9 cfbc 5968 6c3f 2e3a 19bf 4fe0 dbbe
00000190: 7a6f 0d3f 43d3 a8bd f2e9 92be 1e1f 81bd
000001a0: c0f2 2f3f d77d b63e cc1d a2bf dd48 093f
000001b0: 04e1 62bf 49b1 bbbe 3a29 b93f 63c1 15bf
000001c0: f3cc 8d3b d752 c73e ce15 073f 0671 c93e
000001d0: 7286 fabe 5ca6 09bf b373 653f 66f0 543f
000001e0: 7866 6e3f c4b0 eb3e 3ff8 20bf b39c 6e3f
000001f0: 7ff7 1f3e a814 93be 2992 8d3d 97c6 26be
0.48252282 -0.11849082 0.14798403 0.1045612 0.34706062 0.087309614 -0.06461192 0.16653499
-0.5197601 0.12442108 0.6683507 -0.090379864 -0.3062322 0.32182696 0.42313963 -0.18029295
-0.6070748 0.30794632 0.47586095 -1.2076846 0.48738518 0.66927403 0.76480114 0.79612255
0.35621268 0.41307074 -0.3792368 -0.34345654 0.10384161 0.67184365 0.5152227 0.0042505655
-0.4939174 -0.34208947 0.701758 -0.5136114 0.16288438 -0.21187711 0.31039217 0.36115605
-0.41310877 -0.4247509 0.1500307 -0.5419927 0.6336899 -0.040488176 0.50971955 0.812434
-0.17292395 0.48096994 0.2894025 0.14771625 1.1620694 -0.01293054 -0.35014927 -0.70867836
0.80127597 0.45327917 0.6178356 -0.45567134 0.8750233 0.60059357 0.7280079 0.93014574
0.36905757 0.22119488 -0.25608245 0.25517768 -0.48276475 -0.3237965 -0.40431684 0.26149672
0.82485396 -0.29091883 0.2514957 0.34977007 -0.28006065 -0.3176273 0.5932142 0.19457877
0.60537016 -0.4450101 -0.4166619 0.23523612 0.34150052 0.15552175 0.5947041 0.38209185
0.17527185 -0.8128888 0.109805726 -0.9110893 0.2668584 0.44036582 0.40900755 0.11764448
-0.025387328 0.9234672 -0.598544 -0.4294457 0.55248225 -0.0824342 -0.2869411 -0.06304763
0.6872978 0.35642883 -1.2665343 0.53626806 -0.88624597 -0.36658695 1.4465706 -0.5849821
0.0043274104 0.3893039 0.52767646 0.39344043 -0.489307 -0.5376947 0.8962967 0.8317932
0.93125105 0.460333 -0.62878793 0.93207854 0.15621756 -0.28726697 0.069126435 -0.16286694

net.2.weight f4 [128, 128]
00000000: 5ddd 603d ad5e 71bd 2359 85bd ff6a 9ebd
00000010: 3f10 a9bd da7d 5dbd 0d0b 92bd 7a97 563c
00000020: a8d2 b83c 40e6 b13b 30da eb3c f2a7 533c
00000030: d73f 3e3d f19e 453d c7f9 b7bd 5165 863d
00000040: 6288 293d 07c9 453d 267b bfbc 803c 993d
00000050: 5c84 c73c b179 3f3d 0af2 8b3a 3d13 1dbd
00000060: 79b2 8fbd 28e2 b13c 2e01 9dbd f62f 9ebd
00000070: 89bc 8d3d 31d1 9fbc 0fbe 06bc 9d1b 8d3d
00000080: 8c7c d43b 0ed8 2bbd 3cd4 2d3c f935 983d
00000090: ae45 1ebd 68f6 3ebd 48c3 febc 73b9 8c3c
000000a0: 524e 88bd 07eb 6fbd 29c3 853d 5474 81bd
000000b0: 9ae1 9bbd 7f60 993c d490 71bd 4509 773d
000000c0: 9cb7 4ebc 8dfd 6bbd 8dbf 6d3d 54de 373d
000000d0: 43d9 c4bd b877 f0bc 1af3 813d 203e f33c
000000e0: 528a 72bd 121e 833c 5fa7 593c f2b4 b4bd
000000f0: 8036 6d3a f0f9 243c 4a83 95bd 8e1c febc
00000100: af33 e03c 6d28 77bc c485 6c3d 6cdf c43c
00000110: 9639 2e3d 7f38 c4bd 3f5f 35bd b347 1c3d
00000120: ab4e edba fd35 f33c d08e c7bc bdfc 2c3d
00000130: 1636 153d 466b e6bc 1b10 86bd bbbb 1dbc
00000140: d85b be3c 4480 aabd cae6 6ebc 455a 99bd
00000150: 702c 0a3c ca74 90bd a0e4 423d 8441 c9bb
00000160: 80f6 5cba 3979 abbd b3fe ec3c 000f 4ebd
00000170: 4495 07bc 4f9c 8cbc 29ad 2d3d 26a6 033d
00000180: 1e03 85bc 5000 953d 4a16 1dbd 0d32 993d
00000190: 2bd8 a9bd 7241 43bd 8693 1a3d b58d 973d
000001a0: 189d 4d3d d407 04bc e9ca 8ebd 9c3d 4ebd
000001b0: 0b37 643d e3cc 5b3d fc16 02bd 5026 b8bd
000001c0: c321 1bbd 4583 5cbd 00c1 493d 679e 6b3d
000001d0: 1999 80bd 09b2 173d 58d9 66bd 6471 843c
000001e0: 2f88 bbbc 6976 82bd c8bf 2e3c 9561 733d
000001f0: df5b fd3c e5b5 8e3b 7e75 30bd 9603 70bd
00000200: 58ea e6bf 3339 01c0 0fd1 d2be aae1 56be
00000210: fe5e af3e da4c 4dbe 1ba2 453f 7dc4 9cbf
00000220: 1068 1a3f dfa2 703e b372 00c0 e214 1fbf
00000230: 88a4 a4be af15 f63d 1284 c13e ba88 93bc
00000240: b819 1f3e 89ef 19bf a8b5 5f3d bf15 94bf
00000250: 1bac e43e 966a 30bd 3cae 35bd bfc0 a83e
00000260: 4621 37bf cbae 473e 0009 593f d344 bdbd
00000270: 9b36 4c3d e07d 043e 594e aebf b5d3 09c0
00000280: 792b d43e 11d4 3d3f 954f 6ebf c4c4 133f
00000290: b8f6 10c0 1c94 01c0 4e93 b0be bb75 f0be
000002a0: 08da ccbe ac87 643e 2e17 04bd d39a 2f3f
000002b0: b223 16bf b539 ce3e 04a0 783d 93e3 8e3d
000002c0: 4b6d 8a3e b042 433d a692 babf 114b 08c0
000002d0: caec 2ec0 8dcb e03e 67ef 2f3e 92a5 dabf
000002e0: a085 b23d 8894 46bf 07ad cfbd e6ed 7a3e
000002f0: adec 0abf 00c2 473d 00b4 c1bf 55f7 2fc0
00000300: 85c5 dbbb 4d31 18c0 bcd6 e2bf ec28 8bbf
00000310: a88d 9dbf 8f96 36bf 5278 bebf 027d ffbe
00000320: 4088 7dbf 5569 04c0 05a2 55bf 2ceb cf3e
00000330: e8b4 be3d 393e c1be f781 ebbf eaf0 123f
00000340: bc88 a33d c5bb 863f 4be8 103f 5993 58c0
00000350: 504c bb3d 3761 d4bd e0f3 023e cb3d acbf
00000360: f10d 003f 64db bc3e 6127 50bf 2738 c83d
00000370: 9f2d 77bf 8dca b8bd 88b4 f0be 54d3 3fbf
00000380: 43c6 11c0 23d3 a8be e185 013f 513d dd3e
00000390: 6472 d23b 89a3 46be ae83 a63e 9f2c 56be
000003a0: 048e 703e a6e0 0dbe 6d14 bfbf 3905 7a3e
000003b0: 62d1 4ebe 4c1e dfbf a65b 0cc0 4a48 db3e
000003c0: 8007 2bbf 2d1f ff3c 19fa ce3e fb67 0ebf
000003d0: 09a8 983e da9f 4f3f 3efb d4bf a8d7 1e3f
000003e0: 26a3 34be 2c4a edbd d6d4 323e 718b e8be
000003f0: 3621 67bd 8a88 853e e4cd 013f 9a21 c53e
0.05489861 -0.05892818 -0.06511142 -0.07735252 -0.08255052 -0.0540751 -0.07131014 0.013097638
0.022561386 0.0054290593 0.028790563 0.012918459 0.0464476 0.04824728 -0.08983188 0.06562293
0.04138983 0.048287418 -0.023374151 0.074822426 0.024355106 0.046746913 0.0010676992 -0.038348425
-0.07016463 0.021714285 -0.07666241 -0.077239916 0.06920726 -0.01950893 -0.008224024 0.068900324
0.0064845737 -0.041954093 0.010609683 0.074321695 -0.03864067 -0.04662171 -0.031098977 0.017178273
-0.066555634 -0.05857375 0.065313645 -0.06321016 -0.076113895 0.01872277 -0.05897601 0.060311574
-0.012617018 -0.05761485 0.058044005 0.044889763 -0.09611752 -0.029353961 0.06345196 0.02969271
-0.059213944 0.01600555 0.013284533 -0.08823575 0.00090489537 0.010069355 -0.07300432 -0.031019475
0.027368395 -0.015085322 0.057744756 0.024032317 0.042535387 -0.09581088 -0.044280287 0.038154315
-0.001810511 0.02968883 -0.02436009 0.042233218 0.036428533 -0.028127324 -0.065460406 -0.009627278
0.023237154 -0.08325246 -0.014581392 -0.07487921 0.008433446 -0.07053526 0.047581315 -0.0061418433
-0.00084290653 -0.08372731 0.028930044 -0.050307274 -0.008275334 -0.017164377 0.042401467 0.032140873
-0.016236838 0.0727545 -0.038351335 0.074802496 -0.08293184 -0.047669835 0.037738346 0.07400075
0.050198644 -0.008058507 -0.06972296 -0.050351724 0.055716556 0.053662192 -0.0317602 -0.089916825
-0.037873995 -0.053836126 0.049256325 0.05752411 -0.06279201 0.037035022 -0.05635962 0.01616735
-0.022892086 -0.06370241 0.010665841 0.059419233 0.030927597 0.0043551796 -0.0430808 -0.05859717
-1.8040266 -2.0191162 -0.41175124 -0.20984522 0.3425216 -0.20048848 0.7720048 -1.2247463
0.60315037 0.2349963 -2.0070007 -0.6214124 -0.32156777 0.120158546 0.37796074 -0.018009532
0.15537155 -0.60131127 0.0546166 -1.1569136 0.44662556 -0.0430704 -0.044355616 0.32959554
-0.71535146 0.19500272 0.8477936 -0.09241643 0.049856763 0.12938643 -1.361766 -2.1535466
0.41439417 0.7415171 -0.9309018 0.57722116 -2.2650585 -2.0246649 -0.34487385 -0.4696482
-0.40010095 0.2231738 -0.03224867 0.6859562 -0.58648217 0.40278402 0.060699478 0.06977
0.2703651 0.04767102 -1.4576004 -2.1295817 -2.7332025 0.43905297 0.17181168 -1.7081778
0.08716893 -0.7757039 -0.10140424 0.24504814 -0.5426739 0.048768997 -1.5133057 -2.749471
-0.006706896 -2.378009 -1.7721782 -1.0871863 -1.2308855 -0.71323484 -1.4880469 -0.4990006
-0.99036026 -2.068929 -0.8345035 0.4060911 0.09311849 -0.37742785 -1.8399037 0.57398856
0.079850644 1.0526053 0.5660445 -3.3839934 0.09145415 -0.10370105 0.12788343 -1.3456358
0.5002127 0.36886132 -0.8131009 0.09776335 -0.9655399 -0.090230085 -0.47012734 -0.74931836
-2.277726 -0.32973585 0.5059491 0.43210843 0.006422328 -0.19398321 0.3252234 -0.20915459
0.23491675 -0.13855228 -1.4928108 0.24416055 -0.2019706 -1.7431121 -2.1930938 0.4282859
-0.6680832 0.031142795 0.40425184 -0.5562741 0.298157 0.8110329 -1.6639173 0.62047815
-0.17640361 -0.11586413 0.17464003 -0.45418885 -0.056428157 0.26080734 0.5070479 0.38502198

net.2.bias f4 [128]
00000000: de44 b4bd 9123 91bf fa0f 89bc adb1 88bd
00000010: a961 c93d 33b3 363d ea3a 4e3f 00c0 833c
00000020: 1d9f 49bf dedc 83bc 3552 ae3d aa47 ad3d
00000030: 2f5a a33c 43c4 e73c ca71 1ebd 00e0 463d
00000040: 7431 d13d 7fb7 6abc 6d82 033d 2fd7 d7bc
00000050: 39a5 49be c2ba 48bc a8fb 783f 6c76 0b3e
00000060: eacd 41bd 1092 bebd d9e3 a63d aa80 4bbc
00000070: fdcc 62be a34f 02be 49a6 243f 866b 513d
00000080: 1657 aa3c 4e7c d0be a24d ab3a 73b8 d93d
00000090: ea36 a2be 1021 0e3d 23d1 1d3d 2334 f1bd
000000a0: 4f94 353d fadb 16bd 4f5a 1ebe bd42 36bd
000000b0: 6de1 8e3d c958 2a3f db75 af3c 3457 583d
000000c0: 2414 f03c 1f18 493f 556c 6dbe ad40 393c
000000d0: 2d41 5f3d d08c 193f dab4 2e3d d7ea a03d
000000e0: 4f3d 043f 68d2 3c3e b7e4 863c 2bd2 ca3d
000000f0: ad6b 76be 0521 823d 797b 793c 83c8 f23d
00000100: 543d 433e 80b5 b2ba abb7 74bc 4a1b fbbd
00000110: f74c 3ebd dc41 8f3d 2c5b 49bd 3c3c 47bb
00000120: f214 2e3d b69c 163d dbcf a53d b67d a93a
00000130: 62a1 3e3e 1d72 9d3d 1383 383f 89b5 1a3d
00000140: c9d6 d23c 697e 5c3c ab1c 20bd 3a13 8e3e
00000150: d339 073e 31f0 683d 04a5 503c 8e6b 7a3d
00000160: b232 a0bd 5b30 bbbd 52ed b9bd 6327 b33c
00000170: 97c4 2ebe ac72 b5bd 6f24 953e 47d8 f43d
00000180: e7ed 8e3d c6f9 b4bd 06ec cf3d 6cc1 a73e
00000190: ce1b 9dbd dc20 a13e f5d1 b23d 2a07 06bd
000001a0: 22e7 7e3c 9e36 c43d 2950 3c3c 9184 293d
000001b0: 5195 9b3c 1b39 753e d630 e3bd 5639 bcbc
000001c0: fa54 39bc 2962 78bd bbc5 59bc fa09 80bd
000001d0: 0ab4 de3c 8047 5a3d 6e45 87bd 789d bebd
000001e0: 450e f43c 12c8 8abd f18e bb3a 71da 57bd
000001f0: 5acf 5f3d 1860 f2bc e4f4 983b 8e59 213e
-0.08802198 -1.1338979 -0.016731251 -0.06674514 0.0983308 0.04460449 0.80558646 0.016082764
-0.7875841 -0.016096529 0.085117735 0.084609345 0.019940464 0.028291827 -0.038682736 0.048553467
0.102145106 -0.014325975 0.032106806 -0.026347725 -0.19691934 -0.012251558 0.97258997 0.13619393
-0.047315516 -0.09305203 0.08148927 -0.012420813 -0.2214851 -0.12725691 0.6431623 0.051127933
0.020793479 -0.40719837 0.0013069401 0.10630884 -0.3168252 0.0346995 0.038529526 -0.117775224
0.04433089 -0.03683088 -0.15464137 -0.04449724 0.0697659 0.66541725 0.021418503 0.05281754
0.029306479 0.7855243 -0.23185857 0.011306924 0.054505516 0.5998049 0.042652942 0.07857292
0.5165605 0.18439639 0.016466482 0.099033676 -0.24064513 0.06353954 0.015227192 0.11854651
0.19066364 -0.0013634413 -0.014936368 -0.12261064 -0.04646012 0.069949836 -0.049159214 -0.0030400893
0.042500444 0.036770545 0.08096286 0.0012931142 0.1861625 0.07687781 0.72075003 0.03777078
0.025737183 0.013457873 -0.03908984 0.27749044 0.13205652 0.05686969 0.012734655 0.06113773
-0.07822169 -0.091400824 -0.090784684 0.021869367 -0.1706718 -0.088597625 0.2912936 0.11955314
0.0697897 -0.08836703 0.1015244 0.32764757 -0.07671319 0.31470382 0.087314524 -0.032721676
0.015558036 0.0958073 0.011493721 0.04138619 0.018992098 0.23947565 -0.11093299 -0.022976559
-0.011311764 -0.060640488 -0.0132917715 -0.06251903 0.027185459 0.053290844 -0.066050395 -0.093073785
0.02979196 -0.06776442 0.0014309568 -0.052698556 0.054641105 -0.029586837 0.004667865 0.15756819

net.4.weight f4 [4, 128]
00000000: 2fb0 80bb c81c c2be 9df3 24bf 9f4c 40bd
00000010: 467c 0ebf 1404 c5be 2c07 b63f 64bb ac3d
00000020: f3c6 e93f 8a9c cbbe 99ed cbbe ff21 dabe
00000030: 3bd2 b0be 6bf6 1540 25ea 46bf 5ca7 f6be
00000040: 9b72 d8bd 2c88 a73c 84b1 e7be 2264 c6be
00000050: 477a f03f 6842 07bf 6de7 e93f f1b8 20c0
00000060: f6c7 a1bf 86b6 6c3c 9bf6 fdbe d0ed 18c0
00000070: 8beb 0440 0e4e 56bf 01ab bb3f d680 96be
00000080: 844f 1dbf 7260 38c0 7174 dbbe cecb 5abe
00000090: ffb2 17c0 7260 c1be 9552 0fbf f573 f7be
000000a0: 1175 eabe 88a0 a33f e63e 94bf 66f4 b93f
000000b0: 8010 ffbe 0f2c fc3f 7583 f6be 50ef 77be
000000c0: a8d4 f3be 1c2c b33f 15a7 e53f 9b5b c4be
000000d0: 167e e0be 4d6f 0a3f 3648 f1be 4799 8cbe
000000e0: 6441 0f3f 3e1e 4abd e8d1 e8be 25ea fdbe
000000f0: 08bb 1a40 f967 bfbd a89b 3bbf 1b62 a7be
00000100: d483 5ebf d3d3 d0be 4527 e7be 486a afbf
00000110: d25c 0ebf 7b4d 0cbf 07c1 e3be eac9 a8bd
00000120: 3769 6fbf 14ca d0be bee6 bfbe 5aad fcbe
00000130: ec1c 8f3f b180 8dbe 25d1 d33f 4b31 5ebf
00000140: ebac cfbe ca8b 07bd 08f3 b1be 073c 78bf
00000150: 4cef 45be 3619 05bf 80a3 d4be 798c 12bf
00000160: 3a7c 23bf 222f 6b3d f566 da3a aaaa 0bbf
00000170: 927d 0a40 3b05 3fbf 6835 6a3e b41a e6be
00000180: 9139 14bf b565 97bc 9f69 27bf 64f2 893e
00000190: 0e0f 2bc0 2070 d23f 364a 17bf 4fc5 e1bf
000001a0: 5b79 8cbd 2b63 6ebe b711 31bf d2b1 04bf
000001b0: 60bd c0be 39a9 bb3f d221 b4bf 7123 d0be
000001c0: d83b 12bf 0b74 80bd ac31 00bf 36e9 293d
000001d0: 43b5 eabe 4dd5 f7be 4155 223d da5d 373c
000001e0: 2116 16bf 44ec ebbe 030c cfbe 58eb 0640
000001f0: 6f35 05bf fd9e 82bf cae6 f4be 04ee 953c
00000200: 6ff3 5dbd 897f 823f 6975 21bf 02df d63c
00000210: 1c10 08bf 7141 05bf 91da 913f 771d 82bd
00000220: 0c11 1b40 316f 08bf a3ae bebe 5276 39bf
00000230: 271f f1be b953 3340 7922 0dbf eb25 bcbc
00000240: 3cf3 10bf 917a 6fbd 19f8 14bf 2af7 1cbf
00000250: 53f7 e03f d633 19bf 25c7 0a40 67fb f83e
00000260: 049c ffbe d844 4d3d 15e7 55bf 6509 b6bf
00000270: 79dc 0740 a9e0 b8be 174c d23f 045c 0cbf
00000280: 4aeb d2be 9264 0dc0 b6a8 31bf 750d 4c3e
00000290: 6b64 3dbf ef0a dfbe 6091 d0be 8bac e0bf
000002a0: 2159 7ebe 27ad ec3f fd38 e2bf 7229 b33f
000002b0: 1f89 bbbf 651b e63f c4bf 09bf 363b f1be
000002c0: 8861 4dbf 62bf c93f 8b94 0a40 a7fa 75bf
000002d0: e235 f9be e05e 5d3f 9b17 66bf 6b11 4abf
000002e0: 9634 e73f 0d90 3bbf ef17 18bf a477 c9be
000002f0: b8fd 2540 195a e73e e88f 02bf 5146 15bf
00000300: 0573 083f 3c0d 46bf ddf6 1bbf d18c 29bf
00000310: f8e7 34bf 625d 49bf b131 1cbf 5c30 fb3c
00000320: f3ca 99bf 2793 b5be 0418 acbb 04d6 c1be
00000330: 4164 aa3c 2a30 2dbf 0fa5 ab3f b49e e3be
00000340: 4ba3 43bf 3e1e 8d3d 100c 1cbf 708c a0bf
00000350: a65a 08bf d7c0 12bf f12b 3fbf bce4 3bbf
00000360: d44f 19bf 5929 ae3d 9cd9 a03c 1fa1 d1be
00000370: 0f6f 1640 400e c43e 1802 0e3f af3b 33bf
00000380: 5b72 86be 0f11 183d ad5f bcbe fc80 1f3f
00000390: ef8e 10c0 5b4a 983f 02d6 17bf e547 72bf
000003a0: 8251 8dbc 7e23 3cbf 5e78 08bf cb00 8cbe
000003b0: d478 11bf d4c8 953f d251 18c0 f8dc e7be
000003c0: b0de 16be 9c28 a43d 9957 62be 9f82 1bbc
000003d0: 8f5e a4be 9a44 49be 2f92 0a3d c895 1c3c
000003e0: b966 bdbe 6cf8 00bf eef5 29bf cde7 f53f
000003f0: 639e 5abe f593 cebe ca0c 02bf 28bb 593e
-0.0039272527 -0.37912583 -0.64434224 -0.04694807 -0.55658376 -0.38479674 1.4220939 0.084341794
1.826384 -0.39767867 -0.3982971 -0.42604062 -0.34535393 2.3431652 -0.77701026 -0.4817456
-0.10568734 0.020450674 -0.4525262 -0.3874827 1.8787316 -0.528357 1.827375 -2.511288
-1.2639148 0.014447814 -0.49602208 -2.389515 2.0768764 -0.8371285 1.4661561 -0.2939517
-0.61449456 -2.8808866 -0.42862275 -0.21366808 -2.3703 -0.37768894 -0.55985385 -0.48330656
-0.4579244 1.2783365 -1.1581695 1.452771 -0.49817276 1.9700946 -0.4814717 -0.24212384
-0.4762318 1.3997836 1.7941614 -0.3835114 -0.43846196 0.5407608 -0.47125405 -0.2746069
0.55959153 -0.049345247 -0.45472646 -0.495927 2.4176655 -0.09346003 -0.7328439 -0.32692036
-0.86919904 -0.4078661 -0.45147148 -1.370431 -0.5561038 -0.54805726 -0.44483206 -0.08241637
-0.9351992 -0.40779173 -0.3748073 -0.49351007 1.1180701 -0.27637246 1.6548201 -0.86793965
-0.40561613 -0.033092298 -0.3475573 -0.96966594 -0.19329566 -0.51991594 -0.4153099 -0.57245594
-0.6386143 0.057417996 0.0016662764 -0.5455729 2.1639142 -0.74617356 0.22871935 -0.44942248
-0.5790034 -0.018481115 -0.6539554 0.26942742 -2.6727939 1.6440468 -0.5909761 -1.7638339
-0.06859084 -0.23280017 -0.69167656 -0.5183383 -0.37644482 1.4661018 -1.4072821 -0.4065204
-0.57122564 -0.062721334 -0.50075793 0.041482173 -0.45841417 -0.48404923 0.039632086 0.01119181
-0.58627516 -0.46078694 -0.40438852 2.1081142 -0.5203466 -1.0204769 -0.47832328 0.018301971
-0.054187234 1.0195171 -0.6306978 0.026229385 -0.5314958 -0.5205298 1.1394826 -0.06353276
2.4229155 -0.53294665 -0.37242612 -0.7244617 -0.4709408 2.801985 -0.55130726 -0.0229673
-0.56621146 -0.058466498 -0.58191067 -0.6131464 1.7575477 -0.5984472 2.1684048 0.48629305
-0.49923718 0.050114483 -0.8355573 -1.4221617 2.1228316 -0.36108902 1.6429471 -0.54827905
-0.41195136 -2.2092633 -0.6939806 0.19927008 -0.7398135 -0.4356303 -0.40735912 -1.7552656
-0.24838687 1.8490342 -1.7673641 1.3997023 -1.4651221 1.797711 -0.53808236 -0.47115487
-0.80226946 1.576153 2.1653163 -0.9608559 -0.48673922 0.8647289 -0.8987977 -0.7893283
1.8062923 -0.7326668 -0.5941152 -0.3934909 2.5936108 0.45185927 -0.51000834 -0.5831042
0.53300506 -0.77363944 -0.6092356 -0.66230494 -0.70666456 -0.78658116 -0.61013323 0.030662708
-1.201506 -0.3546383 -0.0052518863 -0.37858593 0.020799758 -0.6765162 1.3409747 -0.44457018
-0.7642104 0.06890534 -0.60955906 -1.2542858 -0.5326332 -0.573255 -0.74676424 -0.73395896
-0.59887433 0.0850398 0.019635014 -0.40943238 2.3505285 0.38292122 0.55471945 -0.70012945
-0.2625912 0.037125643 -0.36791745 0.6230619 -2.258724 1.1897691 -0.59310925 -0.9464095
-0.01725078 -0.73491657 -0.53308666 -0.27344355 -0.56824994 1.1701913 -2.379994 -0.45285773
-0.14733386 0.08015558 -0.22103728 -0.009491592 -0.32103392 -0.19655076 0.033830818 0.009557195
-0.36992434 -0.5037906 -0.66390884 1.9211365 -0.21349482 -0.40347257 -0.50800765 0.212628

net.4.bias f4 [4]
00000000: 15d6 e3bd a187 a13e 88d5 143d 9424 00bd
-0.11124817 0.3154879 0.03633645 -0.031284884
