SARSA/dsqn/1250_model_weights.pth (torch, 75929 bytes, 6 tensors)

net.0.weight f4 [128, 8]
000000 e8 56 81 3f 16 82 c9 3e 8b 82 8e 3e db f6 e4 be
       1.0104647 0.3935706 0.2783397 -0.44719586
000010 39 3f 56 bf 74 42 8b 3e bb dd 3a be e4 31 99 be
       -0.8369022 0.27199137 -0.18248646 -0.29920876
000020 63 93 c6 3f 70 51 f5 3d 9a cd 6d 3f ee 47 21 3d
       1.5513729 0.119784236 0.9289185 0.039375238
000030 ef 33 04 bf 7f 74 54 3e c9 79 41 3c 6a f8 f6 bd
       -0.51641744 0.20747565 0.011808821 -0.120591
000040 5c e1 c7 bf e5 27 92 3f 47 f6 80 bc ce 71 cc be
       -1.5615649 1.1418425 -0.015742434 -0.39930576
000050 a7 08 bd 3d e3 a5 8e 3d bf d0 33 3e d9 07 cd be
       0.09230166 0.06965234 0.17560099 -0.4004505
000060 cf f1 01 3f 70 ce 9f 3f c4 d1 83 3e 01 1c 1e bf
       0.50759596 1.2484875 0.25745976 -0.6176148
000070 2f 1e e5 ba 77 10 ad 3d bc 17 d3 3a 73 b0 39 3d
       -0.0017480309 0.08450406 0.0016105096 0.04533429
000080 bd 01 e0 be 47 92 6b bd 39 14 22 bd 08 77 89 be
       -0.43751326 -0.057512548 -0.039570067 -0.26848626
000090 53 a5 23 3f 9d 29 7b 3f f5 65 3a 3f b8 10 b4 3e
       0.6392414 0.9811037 0.72811824 0.35169005
0000a0 db df b8 bf 63 1a 8c be 5d eb c5 3e 7b a6 10 bf
       -1.4443315 -0.2736388 0.3865613 -0.5650403
0000b0 2f 23 07 bf 05 a3 8f bf 74 e7 ca 3e 7d c6 e6 3c
       -0.5278806 -1.1221625 0.3962971 0.028170818
0000c0 b2 91 91 be a3 44 e7 3c 2e 3d c9 be c2 be c9 bd
       -0.2843147 0.02823097 -0.3930449 -0.09850837
0000d0 a0 de 1e c0 98 af 5e bd 66 8d e1 3b a6 f2 15 be
       -2.482338 -0.054366678 0.006883311 -0.14643344
0000e0 0c 64 9d bf 4e b5 b2 be cf c1 b5 3d b8 44 60 3f
       -1.2296157 -0.3490395 0.08874857 0.87604856
0000f0 c5 1d 7d be c4 66 70 3e 90 2b c1 3d 5a 08 7c 3d
       -0.24718387 0.23476702 0.09432137 0.061531402
000100 52 68 33 3c ec 25 3c bc 8e 9f fd bd be 31 91 be
       0.010950165 -0.011483651 -0.12383948 -0.28358263
000110 aa 5f 8a 3f 48 bc 52 3f ca cf 3a 3e 6c 39 95 3e
       1.0810444 0.82318544 0.18243328 0.29145372
000120 5b 3f b8 bf 2c 7c ae bf 0d 0f 80 3f e3 73 b4 3e
       -1.4394335 -1.3631644 1.0004593 0.35244665
000130 b6 83 f3 be 04 fe 08 3f 13 91 c9 3e 1d 48 18 bf
       -0.47561425 0.535126 0.39368495 -0.59485036
000140 fc 21 cb 3f 05 c5 cb b9 27 db 8c be 63 13 a9 3f
       1.5869746 -0.00038865968 -0.2751095 1.3209041
000150 65 56 68 3e 23 7a 58 3e 53 b8 ea bd 04 56 2e bf
       0.22689207 0.21140341 -0.11460938 -0.681
000160 43 8a 5e bf 7e 0d 75 bf ca 67 0e c0 eb ad 37 3f
       -0.8692972 -0.9572371 -2.2250848 0.7174975
000170 7d 26 a3 bd 7b f1 19 be 73 ce 1c 3f fb b2 d5 3e
       -0.079663254 -0.15033524 0.61252517 0.41738114
000180 c4 72 5a bf 6f d3 85 3e 8d cf a7 bd bc 3a 94 3f
       -0.8533137 0.26137874 -0.08193884 1.1580424
000190 a5 34 0a bf d3 1a 3c 3f fb 7f aa 3e 4b 25 fa 3e
       -0.5398658 0.7347843 0.33300766 0.48856577
0001a0 2e 6a 0f be ec d5 ba bc 50 6f dc be fd ff 27 3e
       -0.14005348 -0.022807084 -0.43053675 0.16406246
0001b0 36 00 7a 3f 38 29 15 3f 52 a9 14 3f 7d dc 92 be
       0.9765657 0.5826602 0.5807086 -0.28683844
0001c0 d7 fb 0d bf a6 8b 9e bc af 5c d7 3e 2d 67 1d bf
       -0.554624 -0.019353699 0.420629 -0.6148556
0001d0 cb 63 bc 3e 14 c6 8d 3f 2b a5 ba 3e 62 e5 79 bc
       0.36794886 1.1076074 0.36454138 -0.015252443
0001e0 29 57 41 bf 79 ff 88 be 29 8d 9d be 97 95 72 3f
       -0.7552362 -0.2675741 -0.3077176 0.94759506
0001f0 c1 50 0e bf 30 8a 5b 3d 4a c8 f7 3e 16 02 02 3e
       -0.5559197 0.053598583 0.48394996 0.12696108
000200 0a 5d 88 bf 2d ce e6 be d8 c8 23 be da 44 17 bf
       -1.0653393 -0.45079175 -0.15994585 -0.59089434
000210 81 3d 57 bf 53 f1 88 bc 09 5d 62 3e 8b 74 10 bf
       -0.8407822 -0.016716635 0.22105803 -0.5642783
000220 6d 41 b9 3e 66 a3 d2 3e a8 71 4c 3c f9 57 e3 3e
       0.36182728 0.41140288 0.01247827 0.44403055
000230 80 73 30 bc eb 11 85 3d 0b 6c 01 3f 51 8a 37 3f
       -0.010769725 0.06497558 0.50555485 0.7169543
000240 cb ae ed 3e c0 28 30 3f b1 7a 3b bf 41 6e 8f be
       0.4642242 0.6881218 -0.7323409 -0.28013805
000250 7d 25 fb be 13 02 e6 3f 99 cd c1 3e 69 e1 32 bf
       -0.4905204 1.7969383 0.3785217 -0.698752
000260 a9 33 8b 3f 13 32 02 3f f5 4f 04 be 43 39 b0 3f
       1.087514 0.5085766 -0.12921126 1.3767475
000270 fb 07 91 bf db eb c8 be 6f 8f 8a be b8 47 9a bf
       -1.133056 -0.39242443 -0.27062556 -1.2053137
000280 2d c5 21 bf 7d 6a 2c be 23 f2 da 3e 48 6b a8 be
       -0.6319149 -0.16837497 0.4276286 -0.3289435
000290 fa 94 e4 3e eb b6 c1 3f 8e 65 13 3e 38 65 cd bd
       0.4464491 1.5133947 0.14394209 -0.100290716
0002a0 3c ad 83 3e c4 65 aa bf 03 c2 69 be 75 bb d9 3f
       0.25718105 -1.3312306 -0.22827916 1.7010332
0002b0 4c f6 11 3f ab a0 8c 3f 18 ce e8 3e 76 30 7b 3e
       0.57016444 1.0986532 0.45469737 0.24530205
0002c0 85 3e aa be 95 28 cb 3e 96 d1 cf be fe b5 fe 3c
       -0.33250824 0.396794 -0.4058959 0.03109264
0002d0 b5 f6 7a 3f 8f 7d f2 3e ca 13 06 3f c3 4f 9d 3e
       0.98032695 0.4736142 0.52373946 0.30724916
0002e0 8e a3 24 bf 21 92 d0 bd a4 ef cc bd 39 e1 41 bf
       -0.64312065 -0.10184122 -0.10006645 -0.7573429
0002f0 c6 70 20 be 3c 11 37 3f 9f 36 3c 3e 12 0f c1 bd
       -0.1566802 0.7151067 0.18380211 -0.094267026
000300 93 64 55 bf 16 86 c2 3e 6d 70 02 c0 00 b2 d8 3e
       -0.8335659 0.37992924 -2.038112 0.42323303
000310 59 7c 45 bf 35 f8 0c be 68 00 7f 3e cf 0b ce bc
       -0.77142864 -0.13766558 0.24902499 -0.025152115
000320 a8 f6 31 3e ab 1e 4c bd 4c bf 57 3e 9d ec 1f bf
       0.17379248 -0.049833935 0.21069068 -0.6247042
000330 2e d2 dc 3e 99 61 36 3f e0 20 ed 3e 19 68 9c 3d
       0.43129104 0.7124267 0.46314144 0.076370426
000340 1d 33 5a bf ac 00 76 c0 21 e4 cc be 22 b9 0e bd
       -0.8523424 -3.843791 -0.400178 -0.034844525
000350 5c 06 ae 3f 08 ea 58 3f 54 51 e5 3e 17 48 86 bf
       1.3595691 0.84732103 0.4478861 -1.049075
000360 1a cc da 3d 9f 64 90 bd 04 62 fd 3d d0 b3 3d 3f
       0.106834605 -0.07050442 0.123722106 0.741025
000370 23 63 27 3f 71 52 7b bf be 7b 27 be 1e 89 a2 3e
       0.65385646 -0.9817267 -0.16355798 0.31745237
000380 b6 85 77 bf 01 7b dc bc 02 ff f6 3e cf 39 a2 3e
       -0.966884 -0.026914122 0.4824143 0.3168473
000390 d5 1c 6a 3f bc e9 eb 3f bc 39 0f bf 50 6e f1 bf
       0.91450244 1.8430705 -0.5594747 -1.886179
0003a0 e2 99 15 bf 60 8f 13 3d 86 20 07 bd e1 d5 6d bf
       -0.5843793 0.036025405 -0.03299 -0.9290448
0003b0 3a 47 e3 3c 54 63 24 3f fc 84 b9 3e 32 f7 f3 bd
       0.027743924 0.6421406 0.36234272 -0.11912383
0003c0 42 d4 08 bf 26 2e af be 7f 95 34 bf af 75 ab be
       -0.5344888 -0.34214896 -0.7054061 -0.33488223
0003d0 88 de f7 be e7 61 d0 bf f2 f1 d4 3d 51 b9 37 3f
       -0.48411965 -1.6279877 0.1039771 0.71767145
0003e0 cf 6f 02 40 8e 5e 64 be a6 ad 32 3f 8e 6b c1 3e
       2.0380743 -0.22301695 0.69796216 0.3777737
0003f0 d7 52 da bc 0b 05 11 3e 13 4e 1c bc 8f 2b 0f bd
       -0.02665083 0.1416208 -0.009540099 -0.03495365

net.0.bias f4 [128]
000000 7f 1b 00 3f 1e e3 ef bd 98 37 1b 3e 31 48 ba 3d
       0.50041956 -0.11713241 0.15157926 0.09095801
000010 54 12 b4 3e 94 ec ce 3d 79 a5 84 bd 27 92 2a 3e
       0.35170233 0.101037174 -0.06476874 0.16657315
000020 74 40 09 bf 53 11 1c 3e 4e a4 24 3f cb 99 1d be
       -0.5361397 0.15240984 0.6431321 -0.15390699
000030 18 19 a7 be d5 55 a8 3e 1c b2 db 3e f4 89 29 be
       -0.32636333 0.32877985 0.42909324 -0.16556531
000040 18 13 29 bf 3c 6b 9b 3e 2e 54 ee 3e 31 43 a0 bf
       -0.6604476 0.3035525 0.465486 -1.2520505
000050 17 40 01 3f 7f ba 36 3f e3 f8 42 3f 19 17 4b 3f
       0.5048842 0.7137832 0.7616102 0.7933212
000060 9e 86 ca 3e 2d 99 d1 3e 3c 3c b8 be 01 d3 b3 be
       0.3955583 0.40937176 -0.35983455 -0.3512192
000070 f8 aa a7 3d a4 dc 2a 3f b9 2c 09 3f 60 24 03 3c
       0.081869066 0.6674292 0.53583866 0.008004278
000080 ff 63 07 bf c6 91 ac be f1 c5 2e 3f f4 62 09 bf
       -0.52886957 -0.33704966 0.68270785 -0.53666615
000090 e9 f2 29 3e c4 46 72 be 83 bb a1 3e 59 56 c3 3e
       0.16596569 -0.23659807 0.31588373 0.38151816
0000a0 6e 02 d1 be 13 a4 d7 be f3 07 02 3e 4a 87 0b bf
       -0.40822166 -0.42117366 0.12698345 -0.5450331
0000b0 55 74 22 3f d1 65 91 bc 3f 02 ff 3e d9 11 54 3f
       0.6345876 -0.017748745 0.498064 0.82839733
0000c0 32 fe 4e be 69 37 f7 3e de 9e 8c 3e a4 e8 1f 3e
       -0.20214155 0.48284462 0.27464956 0.15616089
0000d0 a1 c9 98 3f f9 f8 19 bb b1 fd db be f2 6b 35 bf
       1.1936532 -0.0023494347 -0.4296699 -0.70867836
0000e0 fe 88 48 3f ad ef e8 3e 93 89 1f 3f ad 84 eb be
       0.78334033 0.45495358 0.62319297 -0.4599966
0000f0 1d 80 62 3f ed 80 23 3f 17 68 3e 3f fa 31 6e 3f
       0.88476735 0.638686 0.7437758 0.9304501
000100 5c 3e c7 3e f4 fb 5d 3e d4 c6 80 be 31 0a 80 3e
       0.38914764 0.21678144 -0.25151694 0.25007775
000110 d5 f9 dc be 53 ac b9 be da b6 bd be c0 f1 75 3e
       -0.43159357 -0.36264285 -0.37053567 0.24018002
000120 84 9b 4e 3f bc f5 8b be 7f 14 8f 3e 84 c5 bc 3e
       0.8070605 -0.27335918 0.27945325 0.36869442
000130 09 6c 90 be 49 02 ce be bb 3f 1c 3f ea b9 3e 3e
       -0.28207424 -0.40236118 0.61034745 0.18625608
000140 cc c2 15 3f 15 5f d6 be fe d4 cf be 33 40 75 3e
       0.5850036 -0.41869417 -0.40592188 0.23950271
000150 26 80 aa 3e f1 be 3f 3e 9e 96 13 3f 4d 4c bd 3e
       0.33300894 0.18725182 0.576517 0.36972275
000160 bc 3c 2b 3e 9d 57 52 bf fd e9 82 3d 26 3d 69 bf
       0.16722387 -0.8216494 0.06392286 -0.9110893
000170 a4 2c 71 3e ba 4a da 3e d9 21 d3 3e 58 79 d4 3d
       0.23552185 0.42635137 0.4123676 0.10374707
000180 51 54 c0 3c 88 b5 6a 3f 1d fd 17 bf 64 cc e3 be
       0.023477705 0.91683245 -0.59370595 -0.44491875
000190 6a c5 06 3f 6b 91 4b bd 90 2b ab be c1 5a 99 bc
       0.5264498 -0.04969923 -0.33431673 -0.018720033
0001a0 01 cb 2d 3f 3f 13 ae 3e 41 06 a4 bf 6f 36 ff 3e
       0.67887884 0.3399906 -1.2814409 0.49846217
0001b0 eb 11 5e bf e0 02 bf be 79 75 b9 3f ee a2 14 bf
       -0.8674609 -0.3730688 1.4488975 -0.5806111
0001c0 90 01 c5 3c df 3c ce 3e 5d c4 08 3f 4a 87 c7 3e
       0.024048597 0.40280816 0.53424627 0.38970405
0001d0 07 18 f5 be 8a d4 11 bf c9 c4 64 3f 35 f2 55 3f
       -0.47869894 -0.56964934 0.8936277 0.83572704
0001e0 a8 2a 6d 3f fe d2 f4 3e 98 be 24 bf e8 f8 6a 3f
       0.92643213 0.47817224 -0.64353323 0.9178605
0001f0 8a 68 1f 3e 74 cb 97 be 91 57 a2 3d df c0 12 be
       0.15567222 -0.2964741 0.07926858 -0.14331387

net.2.weight f4 [128, 128]
000000 5d dd 60 3d ad 5e 71 bd 23 59 85 bd ff 6a 9e bd
       0.05489861 -0.05892818 -0.06511142 -0.07735252
000010 3f 10 a9 bd da 7d 5d bd 0d 0b 92 bd 7a 97 56 3c
       -0.08255052 -0.0540751 -0.07131014 0.013097638
000020 a8 d2 b8 3c 40 e6 b1 3b 30 da eb 3c f2 a7 53 3c
       0.022561386 0.0054290593 0.028790563 0.012918459
000030 d7 3f 3e 3d f1 9e 45 3d c7 f9 b7 bd 51 65 86 3d
       0.0464476 0.04824728 -0.08983188 0.06562293
000040 62 88 29 3d 07 c9 45 3d 26 7b bf bc 80 3c 99 3d
       0.04138983 0.048287418 -0.023374151 0.074822426
000050 5c 84 c7 3c b1 79 3f 3d 0a f2 8b 3a 3d 13 1d bd
       0.024355106 0.046746913 0.0010676992 -0.038348425
000060 79 b2 8f bd 28 e2 b1 3c 2e 01 9d bd f6 2f 9e bd
       -0.07016463 0.021714285 -0.07666241 -0.077239916
000070 89 bc 8d 3d 31 d1 9f bc 0f be 06 bc 9d 1b 8d 3d
       0.06920726 -0.01950893 -0.008224024 0.068900324
000080 8c 7c d4 3b 0e d8 2b bd 3c d4 2d 3c f9 35 98 3d
       0.0064845737 -0.041954093 0.010609683 0.074321695
000090 ae 45 1e bd 68 f6 3e bd 48 c3 fe bc 73 b9 8c 3c
       -0.03864067 -0.04662171 -0.031098977 0.017178273
0000a0 52 4e 88 bd 07 eb 6f bd 29 c3 85 3d 54 74 81 bd
       -0.066555634 -0.05857375 0.065313645 -0.06321016
0000b0 9a e1 9b bd 7f 60 99 3c d4 90 71 bd 45 09 77 3d
       -0.076113895 0.01872277 -0.05897601 0.060311574
0000c0 9c b7 4e bc 8d fd 6b bd 8d bf 6d 3d 54 de 37 3d
       -0.012617018 -0.05761485 0.058044005 0.044889763
0000d0 43 d9 c4 bd b8 77 f0 bc 1a f3 81 3d 20 3e f3 3c
       -0.09611752 -0.029353961 0.06345196 0.02969271
0000e0 52 8a 72 bd 12 1e 83 3c 5f a7 59 3c f2 b4 b4 bd
       -0.059213944 0.01600555 0.013284533 -0.08823575
0000f0 80 36 6d 3a f0 f9 24 3c 4a 83 95 bd 8e 1c fe bc
       0.00090489537 0.010069355 -0.07300432 -0.031019475
000100 af 33 e0 3c 6d 28 77 bc c4 85 6c 3d 6c df c4 3c
       0.027368395 -0.015085322 0.057744756 0.024032317
000110 96 39 2e 3d 7f 38 c4 bd 3f 5f 35 bd b3 47 1c 3d
       0.042535387 -0.09581088 -0.044280287 0.038154315
000120 ab 4e ed ba fd 35 f3 3c d0 8e c7 bc bd fc 2c 3d
       -0.001810511 0.02968883 -0.02436009 0.042233218
000130 16 36 15 3d 46 6b e6 bc 1b 10 86 bd bb bb 1d bc
       0.036428533 -0.028127324 -0.065460406 -0.009627278
000140 d8 5b be 3c 44 80 aa bd ca e6 6e bc 45 5a 99 bd
       0.023237154 -0.08325246 -0.014581392 -0.07487921
000150 70 2c 0a 3c ca 74 90 bd a0 e4 42 3d 84 41 c9 bb
       0.008433446 -0.07053526 0.047581315 -0.0061418433
000160 80 f6 5c ba 39 79 ab bd b3 fe ec 3c 00 0f 4e bd
       -0.00084290653 -0.08372731 0.028930044 -0.050307274
000170 44 95 07 bc 4f 9c 8c bc 29 ad 2d 3d 26 a6 03 3d
       -0.008275334 -0.017164377 0.042401467 0.032140873
000180 1e 03 85 bc 50 00 95 3d 4a 16 1d bd 0d 32 99 3d
       -0.016236838 0.0727545 -0.038351335 0.074802496
000190 2b d8 a9 bd 72 41 43 bd 86 93 1a 3d b5 8d 97 3d
       -0.08293184 -0.047669835 0.037738346 0.07400075
0001a0 18 9d 4d 3d d4 07 04 bc e9 ca 8e bd 9c 3d 4e bd
       0.050198644 -0.008058507 -0.06972296 -0.050351724
0001b0 0b 37 64 3d e3 cc 5b 3d fc 16 02 bd 50 26 b8 bd
       0.055716556 0.053662192 -0.0317602 -0.089916825
0001c0 c3 21 1b bd 45 83 5c bd 00 c1 49 3d 67 9e 6b 3d
       -0.037873995 -0.053836126 0.049256325 0.05752411
0001d0 19 99 80 bd 09 b2 17 3d 58 d9 66 bd 64 71 84 3c
       -0.06279201 0.037035022 -0.05635962 0.01616735
0001e0 2f 88 bb bc 69 76 82 bd c8 bf 2e 3c 95 61 73 3d
       -0.022892086 -0.06370241 0.010665841 0.059419233
0001f0 df 5b fd 3c e5 b5 8e 3b 7e 75 30 bd 96 03 70 bd
       0.030927597 0.0043551796 -0.0430808 -0.05859717
000200 ea 3b ef bf e1 07 03 c0 ad 79 db be ec 05 41 be
       -1.8690159 -2.047356 -0.4286627 -0.18849915
000210 ff 10 b4 3e da 4c 4d be ae b1 2a 3f 34 d5 a9 bf
       0.35169217 -0.20048848 0.6667737 -1.326819
000220 9c ca 1d 3f cf 8a 47 3e 16 f6 06 c0 9c 83 28 bf
       0.6163728 0.19486545 -2.10877 -0.6582582
000230 d9 ac b3 be 00 c1 eb 3d 25 00 c6 3e ba 88 93 bc
       -0.3509281 0.11511421 0.38671985 -0.018009532
000240 3f 64 d0 3d b6 c0 1a bf e0 3e 52 3d bf 15 94 bf
       0.101753704 -0.60450304 0.051329494 -1.1569136
000250 d1 e2 e7 3e 10 da 46 bd c8 da 2d bd bf d7 ab 3e
       0.45290235 -0.048547804 -0.042444974 0.3356304
000260 90 2c 4f bf 10 1e 51 3e 1e f4 58 3f d3 44 bd bd
       -0.8092737 0.20421624 0.84747493 -0.09241643
000270 03 73 28 3d 69 63 0c 3e 59 4e ae bf 5d fe 11 c0
       0.04112531 0.13709797 -1.361766 -2.28115
000280 a5 63 d3 3e ed 61 40 3f 54 e7 75 bf d1 76 12 3f
       0.4128696 0.7514942 -0.96056104 0.5721255
000290 90 c5 12 c0 e5 d1 08 c0 9c 32 b7 be b3 fc 0a bf
       -2.2933083 -2.137811 -0.357808 -0.5429184
0002a0 08 da cc be 69 9d 47 3e 05 c4 bb bb cf 0c 31 3f
       -0.40010095 0.19493641 -0.0057301545 0.6916017
0002b0 08 e7 1e bf ab 88 c1 3e a5 bc 95 3d 92 9c 6d 3d
       -0.62071276 0.37799582 0.07311372 0.058010645
0002c0 87 8b 8a 3e b0 42 43 3d c0 89 cb bf 57 0d 0a c0
       0.27059576 0.04767102 -1.5901413 -2.1570642
0002d0 c7 99 2d c0 2d d3 d8 3e 98 9c 58 3e 92 a5 da bf
       -2.7125108 0.42348614 0.21153486 -1.7081778
0002e0 7c a8 b5 3d 38 85 68 bf b8 83 d5 bd ed 08 85 3e
       0.088700265 -0.90828276 -0.10425514 0.25983372
0002f0 10 df 0c bf a8 97 9e bc 00 b4 c1 bf 4c 05 37 c0
       -0.55027866 -0.019359425 -1.5133057 -2.8596983
000300 da 6d d5 bd 4d 31 18 c0 27 72 e6 bf 2e 88 81 bf
       -0.10421343 -2.378009 -1.8003587 -1.0119684
000310 90 2e a1 bf 73 d2 3d bf 52 78 be bf 83 38 05 bf
       -1.2592335 -0.74149245 -1.4880469 -0.52039355
000320 e6 b8 7d bf c1 75 05 c0 4e b2 86 bf c5 cc cc 3e
       -0.9911026 -2.0853121 -1.0523164 0.39999977
000330 e8 b4 be 3d 25 dd ba be dc 43 00 c0 6d a8 0a 3f
       0.09311849 -0.36496845 -2.0041418 0.5416325
000340 0a 64 a8 3d 89 1d 87 3f eb a9 03 3f cc 76 64 c0
       0.08222206 1.0555888 0.5143115 -3.5697508
000350 33 9e d4 3d 72 8d 05 bd d9 59 0b 3e 69 ae c5 bf
       0.103817366 -0.032605596 0.13608493 -1.5443851
000360 df 21 f7 3e 2e 22 c2 3e 98 37 4d bf 27 38 c8 3d
       0.4826803 0.37916702 -0.80162954 0.09776335
000370 21 8b 82 bf be 54 90 bd cb 58 ec be 54 d3 3f bf
       -1.0198709 -0.07047413 -0.46161494 -0.74931836
000380 10 2c 0f c0 e3 cd c5 be e1 85 01 3f b6 93 dd 3e
       -2.2370644 -0.38633642 0.5059491 0.43276757
000390 7f b7 21 3c a3 9a 3c be bd 3f a3 3e 9f 2c 56 be
       0.009870409 -0.18418364 0.31884566 -0.20915459
0003a0 b4 ec 81 3e 63 37 ff bd 6d 14 bf bf 28 ca 85 3e
       0.25375903 -0.12461736 -1.4928108 0.26130795
0003b0 62 d1 4e be 4c 1e df bf 3f f2 10 c0 15 ed db 3e
       -0.2019706 -1.7431121 -2.2647855 0.42954317
0003c0 c2 2c 4a bf 0b 0d b4 bd cb 78 d3 3e 12 b3 10 bf
       -0.78974545 -0.0879155 0.41303095 -0.5652324
0003d0 41 88 3b 3e b1 fd 4f 3f 4a 62 d9 bf a4 cb 1e 3f
       0.18313695 0.8124648 -1.698312 0.6202948
0003e0 01 2c 38 be ea 2f ea bd 24 a9 33 3e 2f 76 e4 be
       -0.17985536 -0.1143492 0.17544991 -0.44621417
0003f0 d2 ca 49 bd 12 88 8c 3e b4 66 05 3f 4d ef bc 3e
       -0.04926569 0.27447563 0.5210984 0.36901322

net.2.bias f4 [128]
000000 de 44 b4 bd 5c 05 93 bf 75 66 82 bc ad b1 88 bd
       -0.08802198 -1.148601 -0.015917996 -0.06674514
000010 0c 06 6f 3d 77 db 69 3d e4 4a 4b 3f 00 c0 83 3c
       0.058355376 0.057094064 0.7941115 0.016082764
000020 6a 23 42 bf a2 51 99 bc bb b7 be 3d 20 37 b7 3d
       -0.7583529 -0.018715683 0.093123876 0.08946061
000030 ce ea 21 3d ac 55 0e 3d f4 1b 17 bd eb 59 b0 3c
       0.039530568 0.03474967 -0.036891893 0.021527251
000040 d6 c8 03 3e 7f b7 6a bc 54 8f 45 3d d6 91 2a bc
       0.12869582 -0.014325975 0.04823239 -0.010410747
000050 39 a5 49 be 23 07 83 bc c6 65 77 3f 04 00 06 3e
       -0.19691934 -0.015994614 0.9663967 0.13085943
000060 b8 26 30 bd 10 92 be bd 9d b1 be 3d c4 4e 81 bc
       -0.043005675 -0.09305203 0.09311221 -0.015784629
000070 fd cc 62 be 82 66 0b be a6 0c 21 3f a4 f7 81 3d
       -0.2214851 -0.13613322 0.62909925 0.06346062
000080 44 de e7 3b 4e 7c d0 be 99 01 03 3c 23 33 e3 3d
       0.0070760567 -0.40719837 0.007995986 0.11093738
000090 42 72 a1 be 87 e4 4d 3d ab db 12 3d fa 8c 0a be
       -0.31532484 0.05026677 0.035854023 -0.13530341
0000a0 ad 7a 82 3d b7 6a 4c bd d4 dc 1e be 58 c2 76 bd
       0.06371055 -0.04990646 -0.15513927 -0.060243934
0000b0 bd 56 81 3d 2f c7 2f 3f fb 63 20 3d 2d 9f 80 3d
       0.06315372 0.68663305 0.03915785 0.0628036
0000c0 a7 d6 cd 3c 59 be 4b 3f 55 6c 6d be 2e 46 ad 3c
       0.025126768 0.7958732 -0.23185857 0.021151628
0000d0 3b 7b 98 3d a9 dd 1a 3f 2e 9a 2c 3d 08 76 bf 3d
       0.07445379 0.60494477 0.042139225 0.093486845
0000e0 41 c2 f8 3e 74 fc 48 3e e2 2f ff ba 3b fa e1 3d
       0.48585704 0.19627553 -0.0019469226 0.11034056
0000f0 ad 6b 76 be c1 d0 b0 3d 0b 00 70 3c 65 b1 fa 3d
       -0.24064513 0.08633567 0.014648448 0.122408666
000100 1c a1 2e 3e 68 8a 2a bc f3 ba b5 3a 12 e8 e6 bd
       0.17053646 -0.010408975 0.0013864919 -0.11274733
000110 73 48 4f bd cc 06 8c 3d c6 cd 1d bd 3c 3c 47 bb
       -0.050606202 0.06837234 -0.03852632 -0.0030400893
000120 ce 7e 00 3d c7 7c 2d 3d 39 49 5b 3d d2 8f 2b 3c
       0.03137093 0.042355325 0.053536627 0.010471301
000130 ae b5 3e 3e c4 be 9f 3d 66 2c 37 3f 30 62 01 3d
       0.18623993 0.078000575 0.7155212 0.03158778
000140 53 a6 c8 3c 69 7e 5c 3c ca ca 0c bd 11 50 8a 3e
       0.024493372 0.013457873 -0.034373082 0.2701421
000150 07 10 11 3e ca 60 86 3d fb d1 22 3b 45 e8 72 3d
       0.1416627 0.0656143 0.0024844396 0.05930354
000160 ac 01 a5 bd 5b 30 bb bd 52 ed b9 bd fe 1b a2 3c
       -0.080569595 -0.091400824 -0.090784684 0.019788738
000170 97 c4 2e be 24 36 ba bd 77 44 96 3e 0a 08 dd 3d
       -0.1706718 -0.09092358 0.2934911 0.10792549
000180 3a e7 aa 3d c6 f9 b4 bd 76 f5 d0 3d 07 67 b2 3e
       0.08344884 -0.08836703 0.10203068 0.3484423
000190 79 a5 da bd f5 f9 a1 3e a9 bf b2 3d 6d 3e 01 bd
       -0.10676093 0.31636015 0.087279625 -0.031553674
0001a0 22 e7 7e 3c a5 8b c4 3d 99 b5 39 3c 03 bd 43 3d
       0.015558036 0.095969476 0.0113348 0.047787677
0001b0 eb e4 df 3b 20 94 71 3e 0c be 0a be b2 9f e2 bb
       0.006832709 0.23591661 -0.1354906 -0.00691601
0001c0 d4 d8 c6 3b 29 62 78 bd ec e7 38 bc fa 09 80 bd
       0.0060683284 -0.060640488 -0.011285763 -0.06251903
0001d0 c1 36 25 3d 48 2c 68 3d 6e 45 87 bd 78 9d be bd
       0.04033542 0.056682855 -0.066050395 -0.093073785
0001e0 20 94 cf 3c 90 a8 92 bd 3a 98 c4 ba 35 5a 59 bd
       0.025339186 -0.07161057 -0.001499898 -0.053064544
0001f0 d9 46 8d 3d 8e 5b d5 bc d8 09 6d 3c 1b cd 11 3e
       0.06898279 -0.026044633 0.014467679 0.14238398

net.4.weight f4 [4, 128]
000000 2f b0 80 bb c8 1c c2 be 9c 85 24 bf 9f 4c 40 bd
       -0.0039272527 -0.37912583 -0.6426637 -0.04694807
000010 cf fd 0d bf 83 25 c4 be f4 04 b5 3f 64 bb ac 3d
       -0.55465406 -0.3830987 1.4142137 0.084341794
000020 a2 98 ee 3f 92 07 dd be c3 ef d3 be 44 33 e5 be
       1.864033 -0.43169838 -0.4139386 -0.44765675
000030 8d a7 ae be 5a 84 18 40 dd 31 57 bf b6 56 f7 be
       -0.34112206 2.383078 -0.8406046 -0.48308343
000040 3f 0c c1 bd 2c 88 a7 3c 08 24 eb be 6f e5 c0 be
       -0.09426164 0.020450674 -0.45925927 -0.37675044
000050 47 7a f0 3f 1b 46 0b bf 6b d1 e8 3f d9 8f 1f c0
       1.8787316 -0.5440385 1.8188909 -2.4931548
000060 bd 8b a4 bf 86 b6 6c 3c 7f 69 f3 be 66 60 31 c0
       -1.2855145 0.014447814 -0.47541425 -2.7715087
000070 8b eb 04 40 1f e3 57 bf 41 d4 b9 3f 2c 0f 97 be
       2.0768764 -0.84330934 1.45179 -0.29503763
000080 3a e5 1d bf 72 60 38 c0 32 c1 d3 be d9 3b 4d be
       -0.61677897 -2.8808866 -0.41358334 -0.20042361
000090 f9 ec 1a c0 06 20 bf be 96 86 1e bf d3 02 f2 be
       -2.4207137 -0.3732912 -0.6192411 -0.4726778
0000a0 7b 2f ec be 88 a0 a3 3f ee 17 93 bf 40 b1 be 3f
       -0.46129975 1.2783365 -1.1491678 1.4897842
0000b0 54 82 00 bf 6d 84 02 40 4e 7d f8 be cc fd 69 be
       -0.50198865 2.0393326 -0.485331 -0.22850722
0000c0 31 e9 fc be e9 bb b2 3f 15 a7 e5 3f c5 f8 c1 be
       -0.4939666 1.3963596 1.7941614 -0.3788511
0000d0 22 88 df be 00 9b 0a 3f 1f f0 e6 be 94 39 85 be
       -0.4365855 0.5414276 -0.45105073 -0.2602049
0000e0 09 61 1d 3f e0 cf 4a bd 5a 9a e4 be a6 0a 00 bf
       0.6147619 -0.04951465 -0.4464901 -0.5001625
0000f0 08 bb 1a 40 d8 14 b6 bd 57 7f 45 bf 93 78 a5 be
       2.4176655 -0.088906944 -0.7714743 -0.32318553
000100 4a e5 5f bf 66 7f d4 be 46 02 e4 be 10 e5 b6 bf
       -0.8745924 -0.41503447 -0.44532984 -1.4288654
000110 31 4a 1a bf fc 81 15 bf 02 13 df be ea c9 a8 bd
       -0.6026946 -0.58401465 -0.4356919 -0.08241637
000120 9e 68 60 bf c0 9c d7 be f3 a9 cc be 24 17 fc be
       -0.87659633 -0.42111778 -0.3997341 -0.49236405
000130 4f 80 9d 3f f3 d1 88 be fa 60 d2 3f 1d 83 67 bf
       1.2304782 -0.2672268 1.6435845 -0.9043444
000140 ef 5b cb be ca 8b 07 bd 96 d9 b5 be 0f 74 77 bf
       -0.39718577 -0.033092298 -0.35517567 -0.96661466
000150 86 74 36 be fa 8c 05 bf 0b 57 a1 be f2 7a 1a bf
       -0.17817888 -0.5216824 -0.3151172 -0.6034385
000160 35 98 31 bf 22 2f 6b 3d f5 66 da 3a 63 da 1a bf
       -0.69372874 0.057417996 0.0016662764 -0.6048948
000170 92 7d 0a 40 37 2c 3c bf 38 be 74 3e 49 7a ee be
       2.1639142 -0.73504966 0.23900688 -0.4657767
000180 0c bd 14 bf b5 65 97 bc 08 9e 46 bf 75 e3 8a 3e
       -0.5810096 -0.018481115 -0.77584887 0.2712666
000190 69 36 26 c0 55 14 d0 3f ff 2c 21 bf 52 96 e9 bf
       -2.597071 1.6256205 -0.62959284 -1.8248999
0001a0 5b 79 8c bd c9 1f 67 be 95 0e 43 bf af 8c 09 bf
       -0.06859084 -0.22570719 -0.76194125 -0.5373029
0001b0 c3 63 c1 be 8b 0e bc 3f c0 0f b6 bf c4 85 dc be
       -0.37771425 1.4691938 -1.4223557 -0.43070805
0001c0 de 15 15 bf 0b 74 80 bd 03 b7 f9 be 36 e9 29 3d
       -0.5823649 -0.062721334 -0.4877244 0.041482173
0001d0 a6 1e ea be cb ea f5 be 41 55 22 3d da 5d 37 3c
       -0.45726508 -0.48030695 0.039632086 0.01119181
0001e0 eb fd 24 bf a3 80 f6 be a2 a8 cb be 08 0f 03 40
       -0.6444995 -0.48145017 -0.39777094 2.0477924
0001f0 31 e9 06 bf df 9d 85 bf b2 31 07 bf 08 67 9c 3c
       -0.5269957 -1.0438803 -0.52810204 0.019092098
000200 6f f3 5d bd 1f 4a 88 3f d8 b9 33 bf 02 df d6 3c
       -0.054187234 1.064762 -0.7020545 0.026229385
000210 65 43 12 bf 1b 7d 0f bf 4b 0c 99 3f 77 1d 82 bd
       -0.57134086 -0.5605027 1.1956877 -0.06353276
000220 a7 96 20 40 b7 4c 12 bf f3 47 d2 be 4e ca 42 bf
       2.509195 -0.5714831 -0.41070518 -0.7608994
000230 fe b1 fb be 6a 45 3c 40 7b 9e 17 bf 32 2c 78 bd
       -0.49159235 2.9417367 -0.59226197 -0.060589023
000240 85 24 29 bf 91 7a 6f bd 58 2e 1d bf 87 d8 21 bf
       -0.6607135 -0.058466498 -0.6139884 -0.6322102
000250 53 f7 e0 3f ef 25 22 bf 52 00 0f 40 0c ac 0a 3f
       1.7575477 -0.6333913 2.2343946 0.5416877
000260 b4 d1 05 bf d8 44 4d 3d 70 a6 5b bf 88 33 df bf
       -0.52273107 0.050114483 -0.8580084 -1.7437601
000270 79 dc 07 40 52 a6 de be d7 dc d7 3f 86 fa 12 bf
       2.1228316 -0.43486267 1.686427 -0.5741352
000280 7e ef 03 bf 92 64 0d c0 62 91 39 bf ca 73 2e 3e
       -0.5153731 -2.2092633 -0.7248746 0.17036358
000290 51 d6 48 bf a5 36 ee be ce 24 e4 be 92 ac ea bf
       -0.7845202 -0.46526065 -0.4455933 -1.8333914
0002a0 0e 6e 88 be 02 73 f2 3f c3 96 e7 bf 52 c6 b2 3f
       -0.26646465 1.8941348 -1.8092884 1.3966773
0002b0 2a 3c bf bf 38 1e ea 3f 78 bf 10 bf bc 77 04 bf
       -1.4940236 1.8290472 -0.5654216 -0.517452
0002c0 59 c1 55 bf b7 54 cb 3f 8b 94 0a 40 76 3b 7e bf
       -0.8349815 1.5885228 2.1653163 -0.9930948
0002d0 b2 b6 02 bf 30 ab 62 3f fd 7d 72 bf 48 54 4f bf
       -0.5106002 0.8854246 -0.9472349 -0.8098798
0002e0 ef a7 f2 3f 5e 1c 4c bf 84 50 22 bf e2 a9 d2 be
       1.8957499 -0.79730785 -0.6340411 -0.41145235
0002f0 b8 fd 25 40 ec 8d e3 3e 36 7d 0a bf b7 8b 1c bf
       2.5936108 0.44444215 -0.54097307 -0.6115069
000300 47 05 0c 3f 3f 83 5a bf 35 ab 23 bf 60 f9 33 bf
       0.5469555 -0.85356516 -0.63933116 -0.7030239
000310 2c 28 42 bf f7 f7 51 bf 43 ba 22 bf 5c 30 fb 3c
       -0.7584255 -0.8201899 -0.6356546 0.030662708
000320 e3 94 a3 bf ab a9 c9 be ae 9c 07 be ab 0f cc be
       -1.2779812 -0.3938726 -0.13243362 -0.39855704
000330 8f 8a 78 3d e0 fe 33 bf b2 06 ab 3f 39 8e 06 bf
       0.060679015 -0.70310783 1.3361418 -0.52560765
000340 fa bb 4d bf 3e 1e 8d 3d 8f 91 26 bf df 11 a4 bf
       -0.80364954 0.06890534 -0.65065855 -1.2817954
000350 7f 82 11 bf f6 f4 15 bf 72 31 53 bf ac 22 44 bf
       -0.56839746 -0.58576906 -0.8249732 -0.76615405
000360 fb b1 21 bf 59 29 ae 3d 9c d9 a0 3c ea 3f e8 be
       -0.631622 0.0850398 0.019635014 -0.45361263
000370 0f 6f 16 40 97 2b c3 3e de ed 1b 3f 53 a1 3e bf
       2.3505285 0.38119194 0.6090983 -0.7446491
000380 4b 08 8f be 0f 11 18 3d a1 a5 d9 be 71 30 2e 3f
       -0.27936015 0.037125643 -0.42509177 0.68042666
000390 68 df 12 c0 36 c7 9a 3f 27 a2 1f bf cc f1 7f bf
       -2.2948856 1.2092044 -0.623568 -0.9997833
0003a0 82 51 8d bc 1b c5 3f bf f2 3f 1b bf 4f 71 9d be
       -0.01725078 -0.74910134 -0.6064445 -0.3075051
0003b0 fa bc 1d bf 5d 17 92 3f 79 d9 19 c0 29 16 fc be
       -0.6161648 1.141338 -2.4038985 -0.49235657
0003c0 ab 5f 2e be 9c 28 a4 3d 8b 9e 89 be 9f 82 1b bc
       -0.17028682 0.08015558 -0.2687877 -0.009491592
0003d0 bf 84 ab be c9 c1 80 be 2f 92 0a 3d c8 95 1c 3c
       -0.33499715 -0.25147846 0.033830818 0.009557195
0003e0 30 5a d0 be aa 71 0a bf 42 f3 41 bf 22 ea 01 40
       -0.40693808 -0.5407969 -0.75761807 2.0299153
0003f0 e4 ea 72 be da ca dc be 9d 38 0e bf 38 f5 74 3e
       -0.23722416 -0.43123513 -0.55555135 0.23921669

net.4.bias f4 [4]
000000 4f 06 e9 bd 4c 18 a7 3e 1b 12 15 3d f3 1a 58 bd
       -0.113781564 0.32635725 0.03639422 -0.052760076
