SARSA/dsqn/1300_model_weights.pth (torch, 75929 bytes, 6 tensors)

net.0.weight f4 [128, 8]
0	0x3f88b2ab	1.0679525
1	0x3eeaf27b	0.45888123
2	0x3e7d9612	0.24764279
3	0xbedee535	-0.43534246
4	0xbf6b7581	-0.9197617
5	0x3e63c71b	0.22243921
6	0xbe3ad5d7	-0.18245636
7	0xbea1604e	-0.31518787
8	0x3fce67ca	1.6125424
9	0x3e23d55b	0.15999357
10	0x3f689c47	0.9086346
11	0x3d0caa93	0.03434236
12	0xbef1cfc4	-0.47228825
13	0x3e79fcb6	0.24412808
14	0xbd1e1620	-0.03859532
15	0xbdefd1cc	-0.117099375
16	0xbfc81cb3	-1.5633758
17	0x3f90117c	1.1255336
18	0x3b0d92bd	0.0021602355
19	0xbeb4e88f	-0.35333678
20	0x3d876940	0.06611872
21	0x3d7ebb98	0.062190622
22	0x3e285d2c	0.16441792
23	0xbecd429d	-0.40089884
24	0x3f03dbed	0.51507455
25	0x3f9ec755	1.2404581
26	0x3e839e2a	0.25706607
27	0xbf24c2b2	-0.6435958
28	0x3cb23c8d	0.021757388
29	0x3ddbb54f	0.10727941
30	0x3b1a2072	0.0023517874
31	0x3d5a5bb0	0.053310096
32	0xbeda5f9a	-0.42651063
33	0xbda4310c	-0.080171674
34	0xbd046a63	-0.03232802
35	0xbe61f0cf	-0.22064517
36	0x3f1f56f9	0.62242085
37	0x3f776667	0.9664063
38	0x3f3b6bfa	0.73211634
39	0x3eb712fe	0.35756677
40	0xbfbb2b8d	-1.4622666
41	0xbe89aee7	-0.26891252
42	0x3ea9115d	0.3302106
43	0xbf1d4571	-0.61434084
44	0xbf0c98a2	-0.549204
45	0xbf94da75	-1.1629168
46	0x3ec4ffc2	0.38476378
47	0x3c4569fa	0.012049193
48	0xbe37e9e4	-0.17960316
49	0x3d37b6bb	0.044852
50	0xbefe26d0	-0.49638987
51	0xbdfdc4c5	-0.123910464
52	0xc020ffae	-2.5156054
53	0xbd36fc61	-0.04467428
54	0xbcb4d631	-0.02207479
55	0xbde808d2	-0.11329807
56	0xbfa416f8	-1.281951
57	0xbea4d2b9	-0.3219202
58	0x3d540f27	0.051772263
59	0x3f4a29d4	0.78970075
60	0xbe084e07	-0.13311015
61	0x3ea5a4ef	0.32352397
62	0x3de41650	0.11137068
63	0x3d2cb29a	0.042162515
64	0x3c6d6be7	0.014491058
65	0x3b826e63	0.0039804443
66	0xbda5cf0a	-0.0809613
67	0xbe841f0a	-0.2580493
68	0x3f86e76d	1.0539376
69	0x3f4f09d3	0.80874366
70	0x3e528c8f	0.20561431
71	0x3e9cd907	0.3063433
72	0xbfbd8351	-1.48057
73	0xbfa1f62b	-1.265325
74	0x3f6cb16b	0.9245822
75	0x3e82c1df	0.25538537
76	0xbf23c1a4	-0.6396735
77	0x3ef311be	0.47474474
78	0x3ec472d3	0.38368854
79	0xbf1397ad	-0.57653314
80	0x3fc95569	1.572919
81	0xbd7635c4	-0.06010987
82	0xbeafdb4d	-0.34347
83	0x3fb19af4	1.3875413
84	0x3e3f0f5b	0.18658201
85	0x3e4414a7	0.19148503
86	0xbd3c4746	-0.04596641
87	0xbf46856c	-0.77547336
88	0xbf61f258	-0.8826041
89	0xbf869bc8	-1.0516291
90	0xc0159c61	-2.3376696
91	0x3f351eb9	0.70750004
92	0x3c9ebf69	0.01937838
93	0xbdea46a0	-0.11439252
94	0x3f1fac22	0.6237203
95	0x3edcafc3	0.43102846
96	0xbf54629c	-0.82962966
97	0x3e9f44a5	0.3110706
98	0xbe036e91	-0.12835146
99	0x3f9c5589	1.2213603
100	0xbf1c057b	-0.6094586
101	0x3f3280e7	0.6972794
102	0x3ea6f0b5	0.3260552
103	0x3eff3bf2	0.49850422
104	0xbe1268a3	-0.14297728
105	0x3c8ac861	0.016941251
106	0xbeba5461	-0.363925
107	0x3e35b442	0.17744544
108	0x3f71a3b7	0.94390434
109	0x3f137887	0.57605785
110	0x3f1625d4	0.5865147
111	0xbe93f531	-0.28898004
112	0xbf0cf2b9	-0.55057865
113	0xbc0a4765	-0.008439873
114	0x3ed85c46	0.422579
115	0xbf1861f8	-0.5952449
116	0x3eb18d4e	0.3467812
117	0x3f8c07a6	1.0939834
118	0x3eb94698	0.3618667
119	0xbc974bfb	-0.018468847
120	0xbf3f85f7	-0.7481379
121	0xbe875290	-0.26430178
122	0xbeb2135e	-0.347804
123	0x3f6f5072	0.93482125
124	0xbf0a2a25	-0.5397056
125	0x3d4522a8	0.048128754
126	0x3efe0c6c	0.49618852
127	0x3e173bf3	0.14768963
128	0xbf7f338d	-0.99688035
129	0xbed93940	-0.4242649
130	0xbe4521cc	-0.19251174
131	0xbf1c289f	-0.6099948
132	0xbf543663	-0.8289549
133	0xbd9078c1	-0.07054282
134	0x3e1c4d87	0.1526395
135	0xbf10748b	-0.5642783
136	0x3ea431a7	0.32069132
137	0x3e8ceecd	0.2752594
138	0x3cf8b558	0.030359909
139	0x3ef61c20	0.48068333
140	0xbd64877a	-0.055793263
141	0x3d307f37	0.04309007
142	0x3f0749da	0.52847064
143	0x3f414558	0.75496435
144	0x3f03bed4	0.51463056
145	0x3f2f92be	0.68583286
146	0xbf3b6385	-0.7319873
147	0xbe9863a5	-0.29763523
148	0xbeecf32c	-0.46279275
149	0x3fe8517c	1.8149867
150	0x3ed21659	0.41032675
151	0xbf329e85	-0.6977313
152	0x3f8bd082	1.0923007
153	0x3efff113	0.49988613
154	0xbe00437c	-0.12525743
155	0x3faecee7	1.3656892
156	0xbf8e1764	-1.1100888
157	0xbebc5f22	-0.3679133
158	0xbe8a8f6f	-0.27062556
159	0xbf9a47b8	-1.2053137
160	0xbf1fe807	-0.6246342
161	0xbe32355a	-0.17403165
162	0x3edacd7a	0.4273489
163	0xbea09af2	-0.31368214
164	0x3ed91bd4	0.42404044
165	0x3fbf4936	1.4944217
166	0x3e0c6d0e	0.13713476
167	0xbdc46048	-0.09588677
168	0x3e9c0b72	0.30477482
169	0xbfacdb1d	-1.3504368
170	0xbe66cccb	-0.2253906
171	0x3fd216e2	1.6413233
172	0x3f187c93	0.59565085
173	0x3f8ed0d3	1.1157478
174	0x3ee8a9ac	0.4544195
175	0x3e7810fe	0.24225232
176	0xbeaa49df	-0.33259484
177	0x3ec5a6db	0.38603863
178	0xbecb2dd2	-0.39683396
179	0x3b8e28cc	0.0043383595
180	0x3f7fa195	0.9985593
181	0x3ef5ed9f	0.48032853
182	0x3f06b35a	0.5261742
183	0x3e998049	0.29980686
184	0xbf275921	-0.65370375
185	0xbd9e29ae	-0.077227935
186	0xbdd4c5ef	-0.10389315
187	0xbf395882	-0.7240068
188	0xbe443ac3	-0.19163041
189	0x3f30df0a	0.6909033
190	0x3e3d4bdc	0.1848597
191	0xbdcde486	-0.10053353
192	0xbf586cb2	-0.84540856
193	0x3eb382a5	0.3506061
194	0xc00421a7	-2.064554
195	0x3efc5825	0.49286
196	0xbf459764	-0.7718413
197	0xbe04929a	-0.12946549
198	0x3e7e614d	0.24841805
199	0xbd0162e5	-0.031588454
200	0x3e2f40f2	0.17114618
201	0xbd1de6a1	-0.038550023
202	0x3e5db92d	0.2165267
203	0xbf1a1590	-0.6018915
204	0x3ed01e29	0.4064801
205	0x3f331ff0	0.6997061
206	0x3eed92d8	0.46401095
207	0x3da2fd04	0.07958415
208	0xbf50386b	-0.81336087
209	0xc07d44b9	-3.9573195
210	0xbeabbd64	-0.3354293
211	0xbdddf60c	-0.10837945
212	0x3fb23e3a	1.392524
213	0x3f5feb86	0.87468755
214	0x3ee3cb7b	0.4449118
215	0xbf8ed77a	-1.1159508
216	0x3e4470a0	0.19183588
217	0xbcd26717	-0.025683923
218	0x3da5044d	0.08057461
219	0x3f44edae	0.7692517
220	0x3f1da9c3	0.6158716
221	0xbf7f020a	-0.99612486
222	0xbe232b77	-0.1593455
223	0x3e9cbc9d	0.3061265
224	0xbf8f5758	-1.119853
225	0xbc13cc6d	-0.009020907
226	0x3ec73eb8	0.38915038
227	0x3e945214	0.2896887
228	0x3f5b5aa0	0.8568516
229	0x3fe900fa	1.8203423
230	0xbf0ea2bb	-0.55717057
231	0xbff278ff	-1.8943175
232	0xbf175fd4	-0.591306
233	0x3d86970b	0.06571778
234	0xbd249a7e	-0.040186398
235	0xbf66d014	-0.9016125
236	0xbbf83f03	-0.007575871
237	0x3f1e18d8	0.6175666
238	0x3eb97062	0.36218554
239	0xbe046eba	-0.12932864
240	0xbf0e871e	-0.5567492
241	0xbece4089	-0.4028361
242	0xbf3d7ce1	-0.74018675
243	0xbeb34962	-0.35016924
244	0xbefbce71	-0.4918094
245	0xbfd0496d	-1.6272408
246	0x3dd91c6c	0.10601124
247	0x3f33ef70	0.7028723
248	0x4005e0b1	2.091839
249	0xbdf9932e	-0.121862754
250	0x3f2fc5fc	0.68661475
251	0x3ecc7313	0.39931545
252	0xbd6b42cc	-0.05743675
253	0x3dd440c2	0.10363914
254	0x3c0e54a2	0.00868717
255	0xbd1b3ede	-0.03790175

net.0.bias f4 [128]
0	0x3ef3005d	0.47461215
1	0xbdfd7252	-0.123753205
2	0x3e2dbf43	0.16967492
3	0x3daba498	0.08381003
4	0x3eb13854	0.34613287
5	0x3d98247e	0.07428835
6	0xbda73f33	-0.08166351
7	0x3e5fbfce	0.21850511
8	0xbf02b65a	-0.51059496
9	0x3e358820	0.17727709
10	0x3f241cf9	0.6410671
11	0xbe18bdc4	-0.1491614
12	0xbeb135d3	-0.34611377
13	0x3eb28605	0.34867874
14	0x3edd75ae	0.43253845
15	0xbe21888d	-0.15774746
16	0xbf36bffb	-0.7138669
17	0x3ea0e4fa	0.31424695
18	0x3eeab7a7	0.4584324
19	0xbfa1335f	-1.2593802
20	0x3f044a53	0.5167591
21	0x3f4084ce	0.75202644
22	0x3f41ce0e	0.7570504
23	0x3f4996fb	0.78746
24	0x3ecff272	0.4061466
25	0x3ed09815	0.4074103
26	0xbeb6ce67	-0.35704347
27	0xbeba95ed	-0.3644251
28	0x3d9f8662	0.07789303
29	0x3f285ec4	0.657696
30	0x3f092531	0.53572375
31	0xbab571a2	-0.0013843069
32	0xbf0d8ec4	-0.5529597
33	0xbeb04199	-0.34425047
34	0x3f2ee4e0	0.68317986
35	0xbf08f1e2	-0.53494084
36	0x3e21e326	0.15809307
37	0xbe758ae9	-0.23978771
38	0x3ea878c5	0.3290464
39	0x3eccf1a8	0.4002812
40	0xbecbd4ca	-0.39810783
41	0xbee1b809	-0.4408572
42	0x3dfb3817	0.12266558
43	0xbf0e538a	-0.5559622
44	0x3f23da20	0.6400471
45	0xbd1afab1	-0.037836734
46	0x3efab7fc	0.48968494
47	0x3f57553f	0.8411445
48	0xbe5929b4	-0.21207315
49	0x3ef01bd7	0.4689624
50	0x3e965350	0.29360437
51	0x3e1f8480	0.15577888
52	0x3f97f02c	1.187017
53	0xbb4cf655	-0.0031274755
54	0xbee6e5d3	-0.45097217
55	0xbf356bf2	-0.70867836
56	0x3f42f97c	0.7616193
57	0x3ef05e58	0.4694698
58	0x3f1e2d5d	0.6178797
59	0xbee6c917	-0.45075294
60	0x3f630364	0.8867705
61	0x3f2830d0	0.6569948
62	0x3f3c9a97	0.73673385
63	0x3f6beaae	0.9215497
64	0x3ed25ff6	0.41088837
65	0x3e530877	0.20608698
66	0xbe88252e	-0.26590866
67	0x3e85cc67	0.2613251
68	0xbee4cf26	-0.44689292
69	0xbeb714d8	-0.3575809
70	0xbec34aaf	-0.38142917
71	0x3e741afc	0.23838419
72	0x3f4a37e5	0.7899154
73	0xbe8d7b8b	-0.27633318
74	0x3ea66147	0.32496092
75	0x3ec8a7e7	0.391906
76	0xbe9eac3e	-0.30990785
77	0xbede8a56	-0.43464917
78	0x3f163107	0.5866856
79	0x3e4be88e	0.19912931
80	0x3f12fd98	0.57418203
81	0xbed02917	-0.4065635
82	0xbed6a799	-0.41924742
83	0x3e82ecdb	0.2557133
84	0x3eab9e98	0.33519435
85	0x3e40714a	0.18793216
86	0x3f0e864e	0.5567368
87	0x3ecba7c6	0.39776438
88	0x3e376f39	0.17913522
89	0xbf584a5f	-0.8448848
90	0x3d20cfc5	0.039260644
91	0xbf693d26	-0.9110893
92	0x3e6f3feb	0.23364227
93	0x3edd1a6f	0.4318423
94	0x3ed13044	0.40857136
95	0x3de8ef97	0.11373823
96	0x3d27225a	0.040804245
97	0x3f687077	0.9079661
98	0xbf135d2d	-0.5756405
99	0xbee445a7	-0.4458439
100	0x3f008369	0.50200516
101	0xbd86580d	-0.06559763
102	0xbeb03fd4	-0.34423697
103	0xbd7a27c6	-0.061073087
104	0x3f2dc04d	0.6787155
105	0x3eace0cd	0.3376526
106	0xbfa3f2bb	-1.280845
107	0x3efb29c1	0.49055293
108	0xbf545813	-0.8294689
109	0xbec35ef3	-0.38158378
110	0x3fb8cf1a	1.4438202
111	0xbf1334ec	-0.5750263
112	0x3dd286c5	0.102796115
113	0x3ed5bb52	0.41744477
114	0x3f075f42	0.52879727
115	0x3ebb9888	0.3663981
116	0xbefe9324	-0.49721634
117	0xbf17854c	-0.5918777
118	0x3f61edbd	0.88253385
119	0x3f5555b0	0.83333874
120	0x3f6bc6ea	0.92100394
121	0x3f00744d	0.5017746
122	0xbf25a041	-0.64697653
123	0x3f665d24	0.8998587
124	0x3e0650fb	0.13116829
125	0xbe911801	-0.28338626
126	0x3d651f69	0.05593816
127	0xbe129fdb	-0.14318793

net.2.weight f4 [128, 128]
0	0x3d60dd5d	0.05489861
1	0xbd715ead	-0.05892818
2	0xbd855923	-0.06511142
3	0xbd9e6aff	-0.07735252
4	0xbda9103f	-0.08255052
5	0xbd5d7dda	-0.0540751
6	0xbd920b0d	-0.07131014
7	0x3c56977a	0.013097638
8	0x3cb8d2a8	0.022561386
9	0x3bb1e640	0.0054290593
10	0x3cebda30	0.028790563
11	0x3c53a7f2	0.012918459
12	0x3d3e3fd7	0.0464476
13	0x3d459ef1	0.04824728
14	0xbdb7f9c7	-0.08983188
15	0x3d866551	0.06562293
16	0x3d298862	0.04138983
17	0x3d45c907	0.048287418
18	0xbcbf7b26	-0.023374151
19	0x3d993c80	0.074822426
20	0x3cc7845c	0.024355106
21	0x3d3f79b1	0.046746913
22	0x3a8bf20a	0.0010676992
23	0xbd1d133d	-0.038348425
24	0xbd8fb279	-0.07016463
25	0x3cb1e228	0.021714285
26	0xbd9d012e	-0.07666241
27	0xbd9e2ff6	-0.077239916
28	0x3d8dbc89	0.06920726
29	0xbc9fd131	-0.01950893
30	0xbc06be0f	-0.008224024
31	0x3d8d1b9d	0.068900324
32	0x3bd47c8c	0.0064845737
33	0xbd2bd80e	-0.041954093
34	0x3c2dd43c	0.010609683
35	0x3d9835f9	0.074321695
36	0xbd1e45ae	-0.03864067
37	0xbd3ef668	-0.04662171
38	0xbcfec348	-0.031098977
39	0x3c8cb973	0.017178273
40	0xbd884e52	-0.066555634
41	0xbd6feb07	-0.05857375
42	0x3d85c329	0.065313645
43	0xbd817454	-0.06321016
44	0xbd9be19a	-0.076113895
45	0x3c99607f	0.01872277
46	0xbd7190d4	-0.05897601
47	0x3d770945	0.060311574
48	0xbc4eb79c	-0.012617018
49	0xbd6bfd8d	-0.05761485
50	0x3d6dbf8d	0.058044005
51	0x3d37de54	0.044889763
52	0xbdc4d943	-0.09611752
53	0xbcf077b8	-0.029353961
54	0x3d81f31a	0.06345196
55	0x3cf33e20	0.02969271
56	0xbd728a52	-0.059213944
57	0x3c831e12	0.01600555
58	0x3c59a75f	0.013284533
59	0xbdb4b4f2	-0.08823575
60	0x3a6d3680	0.00090489537
61	0x3c24f9f0	0.010069355
62	0xbd95834a	-0.07300432
63	0xbcfe1c8e	-0.031019475
64	0x3ce033af	0.027368395
65	0xbc77286d	-0.015085322
66	0x3d6c85c4	0.057744756
67	0x3cc4df6c	0.024032317
68	0x3d2e3996	0.042535387
69	0xbdc4387f	-0.09581088
70	0xbd355f3f	-0.044280287
71	0x3d1c47b3	0.038154315
72	0xbaed4eab	-0.001810511
73	0x3cf335fd	0.02968883
74	0xbcc78ed0	-0.02436009
75	0x3d2cfcbd	0.042233218
76	0x3d153616	0.036428533
77	0xbce66b46	-0.028127324
78	0xbd86101b	-0.065460406
79	0xbc1dbbbb	-0.009627278
80	0x3cbe5bd8	0.023237154
81	0xbdaa8044	-0.08325246
82	0xbc6ee6ca	-0.014581392
83	0xbd995a45	-0.07487921
84	0x3c0a2c70	0.008433446
85	0xbd9074ca	-0.07053526
86	0x3d42e4a0	0.047581315
87	0xbbc94184	-0.0061418433
88	0xba5cf680	-0.00084290653
89	0xbdab7939	-0.08372731
90	0x3cecfeb3	0.028930044
91	0xbd4e0f00	-0.050307274
92	0xbc079544	-0.008275334
93	0xbc8c9c4f	-0.017164377
94	0x3d2dad29	0.042401467
95	0x3d03a626	0.032140873
96	0xbc85031e	-0.016236838
97	0x3d950050	0.0727545
98	0xbd1d164a	-0.038351335
99	0x3d99320d	0.074802496
100	0xbda9d82b	-0.08293184
101	0xbd434172	-0.047669835
102	0x3d1a9386	0.037738346
103	0x3d978db5	0.07400075
104	0x3d4d9d18	0.050198644
105	0xbc0407d4	-0.008058507
106	0xbd8ecae9	-0.06972296
107	0xbd4e3d9c	-0.050351724
108	0x3d64370b	0.055716556
109	0x3d5bcce3	0.053662192
110	0xbd0216fc	-0.0317602
111	0xbdb82650	-0.089916825
112	0xbd1b21c3	-0.037873995
113	0xbd5c8345	-0.053836126
114	0x3d49c100	0.049256325
115	0x3d6b9e67	0.05752411
116	0xbd809919	-0.06279201
117	0x3d17b209	0.037035022
118	0xbd66d958	-0.05635962
119	0x3c847164	0.01616735
120	0xbcbb882f	-0.022892086
121	0xbd827669	-0.06370241
122	0x3c2ebfc8	0.010665841
123	0x3d736195	0.059419233
124	0x3cfd5bdf	0.030927597
125	0x3b8eb5e5	0.0043551796
126	0xbd30757e	-0.0430808
127	0xbd700396	-0.05859717
128	0xbff5ab08	-1.919282
129	0xc00307e1	-2.047356
130	0xbec5989f	-0.38593003
131	0xbe01bf25	-0.12670572
132	0x3ed28c22	0.41122538
133	0xbe4d4cda	-0.20048848
134	0x3f0909af	0.535304
135	0xbfb4fafc	-1.4139094
136	0x3f2e10fd	0.6799467
137	0x3e163c11	0.14671351
138	0xc0057312	-2.0851483
139	0xbf33e45f	-0.7027034
140	0xbeb3bd0e	-0.35105175
141	0x3e2ebc2e	0.17063972
142	0x3ee42639	0.44560412
143	0xbc9388ba	-0.018009532
144	0x3dd0643f	0.101753704
145	0xbf1836f1	-0.59458834
146	0x3dd2b683	0.102887176
147	0xbf9415bf	-1.1569136
148	0x3f02c55d	0.510824
149	0x3b99a7ce	0.0046891933
150	0x3c670aa6	0.01410166
151	0x3ec7d1ee	0.3902735
152	0xbf67f76a	-0.906119
153	0x3e870d2d	0.2637724
154	0x3f685b6b	0.9076449
155	0xbdbd44d3	-0.09241643
156	0x3dc1c457	0.09461277
157	0x3e4688a1	0.19388057
158	0xbfabca21	-1.342106
159	0xc01237ed	-2.2846634
160	0x3ef1896a	0.4717515
161	0x3f511154	0.81667066
162	0xbf68b363	-0.9089872
163	0x3f211888	0.62928057
164	0xc012c590	-2.2933083
165	0xc010d3a8	-2.2629185
166	0xbe9e5cef	-0.30930278
167	0xbf108333	-0.56450194
168	0xbeccda08	-0.40010095
169	0x3e479d69	0.19493641
170	0x3d774c71	0.060375635
171	0x3f40e857	0.7535452
172	0xbf132765	-0.57481986
173	0x3ebae92d	0.36506024
174	0x3e08baab	0.13352458
175	0x3ddd5418	0.10807055
176	0x3e9f5070	0.31116056
177	0x3d4342b0	0.04767102
178	0xbfde7111	-1.7378255
179	0xc006bc1c	-2.1052313
180	0xc02a2e44	-2.6590738
181	0x3ef4ea7e	0.47835153
182	0x3e70da6a	0.23520818
183	0xbfdaa592	-1.7081778
184	0x3e142bfc	0.14469904
185	0xbf867a06	-1.0505989
186	0xbd4b861d	-0.049688447
187	0x3ea62e94	0.3245741
188	0xbf022715	-0.50840884
189	0x3bad6536	0.0052916063
190	0xbfc1b400	-1.5133057
191	0xc03decae	-2.9675708
192	0xbe40fdb5	-0.18846782
193	0xc018314d	-2.378009
194	0xbfe67227	-1.8003587
195	0xbf846c12	-1.034548
196	0xbf9a652a	-1.2062123
197	0xbf3dd273	-0.74149245
198	0xbfbe7852	-1.4880469
199	0xbef02572	-0.46903569
200	0xbf722f99	-0.9460388
201	0xc0073187	-2.112398
202	0xbfa0ee10	-1.2572651
203	0x3ee86023	0.45385846
204	0x3dbeb4e8	0.09311849
205	0xbeb38e78	-0.35069633
206	0xc001791c	-2.023017
207	0x3f163071	0.58667666
208	0x3e0da9a4	0.13834244
209	0x3f8ee9be	1.1165082
210	0x3f0f7306	0.56034887
211	0xc06638f3	-3.597226
212	0x3e2988db	0.16556112
213	0x3b6c95ee	0.0036100107
214	0x3e45cbd8	0.19316041
215	0xbfddc6e6	-1.7326324
216	0x3f08ffa9	0.53515106
217	0x3ee3837b	0.4443625
218	0xbf3db60f	-0.74105924
219	0x3dc83827	0.09776335
220	0xbf801d5d	-1.0008961
221	0xbc25f42d	-0.010129017
222	0xbecf9d3f	-0.40549657
223	0xbf3fd354	-0.74931836
224	0xc00e8e3c	-2.2274313
225	0xbef5bf59	-0.4799755
226	0x3f0185e1	0.5059491
227	0x3efc2fa2	0.4925509
228	0x3d85872e	0.06519924
229	0xbdfb10c1	-0.12259055
230	0x3ebf9ede	0.37425894
231	0xbe562c9f	-0.20915459
232	0x3ea1d424	0.31607163
233	0xbd8b978d	-0.068160154
234	0xbfbf146d	-1.4928108
235	0x3ea46672	0.3210941
236	0xbe4ed162	-0.2019706
237	0xbfdf1e4c	-1.7431121
238	0xc00f196c	-2.2359266
239	0x3efa9d08	0.4894793
240	0xbf6f4324	-0.93461823
241	0xbdb93f35	-0.09045259
242	0x3ef1b92e	0.47211593
243	0xbf02a960	-0.51039696
244	0x3d8954b4	0.06705609
245	0x3f5f82bd	0.87308866
246	0xbfd3fc03	-1.6561283
247	0x3f2d123f	0.67605966
248	0xbe0130c7	-0.12616263
249	0xbd795bd5	-0.060878593
250	0x3e7070bc	0.23480505
251	0xbecb278d	-0.39678612
252	0x3c36a772	0.0111483205
253	0x3eac3d58	0.33640552
254	0x3f155540	0.58333206
255	0x3eb1fbfa	0.34762555

net.2.bias f4 [128]
0	0xbdb444de	-0.08802198
1	0xbf8d8740	-1.10569
2	0xbb928252	-0.004471102
3	0xbd88b1ad	-0.06674514
4	0x3d9fcea1	0.07803083
5	0x3d3e7c3a	0.04650519
6	0x3f4a44ab	0.7901103
7	0x3c83c000	0.016082764
8	0xbf3975c5	-0.7244533
9	0xbc232654	-0.009957869
10	0x3dcec15c	0.10095474
11	0x3dc116ed	0.09428201
12	0x3d2fbebd	0.04290651
13	0x3d11d63f	0.03560471
14	0xbcfd7150	-0.03093782
15	0x3c92d452	0.017923508
16	0x3e204d88	0.15654576
17	0xbc6ab77f	-0.014325975
18	0x3d747757	0.059684124
19	0xbae12987	-0.0017178514
20	0xbe49a539	-0.19691934
21	0xbc088e6b	-0.008334736
22	0x3f75d469	0.9602724
23	0x3e09143c	0.13386625
24	0xbd9679db	-0.07347461
25	0xbdbe9210	-0.09305203
26	0x3dd31000	0.10305786
27	0xbc29d8da	-0.010366643
28	0xbe62ccfd	-0.2214851
29	0xbdfcc560	-0.12342334
30	0x3f1f91f9	0.6233211
31	0x3d89fa9d	0.06737254
32	0x3c2699b0	0.010168478
33	0xbed55d5e	-0.41672796
34	0xbc07a8df	-0.008280008
35	0x3dd84899	0.10560722
36	0xbe9ca5d0	-0.30595255
37	0x3d6255dc	0.055257663
38	0x3d4fdbf6	0.05074688
39	0xbe111dff	-0.14171599
40	0x3d8990f2	0.06717099
41	0xbd532940	-0.05155301
42	0xbe29cfee	-0.16583225
43	0xbd8308dd	-0.06398175
44	0x3d87a48c	0.06623182
45	0x3f2d0ea8	0.6760049
46	0x3d2bb05a	0.04191623
47	0x3d8964b6	0.06708662
48	0x3cea5e31	0.028609367
49	0x3f4d24ad	0.8013409
50	0xbe6d6c55	-0.23185857
51	0x3d02dca0	0.031948686
52	0x3d9b0d34	0.07570878
53	0x3f1b20ee	0.6059712
54	0x3d33fb6a	0.04394094
55	0x3de9419f	0.11389469
56	0x3efb0b3b	0.49032006
57	0x3e3213da	0.17390385
58	0x3ca2080c	0.019779228
59	0x3de6e173	0.1127347
60	0xbe766bad	-0.24064513
61	0x3dae47fd	0.085098244
62	0x3c8f8ef8	0.017524227
63	0x3e0bc4b9	0.13649262
64	0x3e2aca3f	0.16678713
65	0xbc0886ad	-0.00833289
66	0xbb59367f	-0.0033144054
67	0xbda7f8f7	-0.08201783
68	0xbd50b7d0	-0.050956547
69	0x3d97499f	0.07387089
70	0xbd0c9532	-0.03432197
71	0xbb473c3c	-0.0030400893
72	0x3d33a389	0.04385713
73	0x3d5576ea	0.05211536
74	0x3d6c27b3	0.057655048
75	0x3c2327f0	0.009958252
76	0x3e324fcf	0.17413257
77	0x3dace4a5	0.08442048
78	0x3f373f22	0.7158071
79	0x3d10db2f	0.03536528
80	0x3c6ff6f5	0.0146462815
81	0x3c5c7e69	0.013457873
82	0xbc5d2c3e	-0.013499318
83	0x3e8b553c	0.27213466
84	0x3e171145	0.14752682
85	0x3d8504d1	0.06495059
86	0x3be606f8	0.0070198737
87	0x3d621422	0.05519498
88	0xbd904beb	-0.0704573
89	0xbdbb305b	-0.091400824
90	0xbdb9ed52	-0.090784684
91	0x3d03156f	0.032002863
92	0xbe2ec497	-0.1706718
93	0xbdcf0f74	-0.10110369
94	0x3e9a8b64	0.30184472
95	0x3de1a691	0.11018098
96	0x3da9faf2	0.08299817
97	0xbdb4f9c6	-0.08836703
98	0x3e0113a3	0.12605147
99	0x3eb43ea6	0.35204047
100	0xbdf24395	-0.118292965
101	0x3ea465bb	0.32108864
102	0x3dca5ab4	0.098805815
103	0xbc596e26	-0.01327089
104	0x3c7ee722	0.015558036
105	0x3dcb439c	0.09925005
106	0x3c125d68	0.008933403
107	0x3d5b2dd6	0.05351051
108	0xbaabd752	-0.0013110435
109	0x3e7c090e	0.24612829
110	0xbdf72803	-0.120681785
111	0xbafa4936	-0.0019095305
112	0x3bf20c67	0.0073867324
113	0xbd786229	-0.060640488
114	0xbb14249d	-0.002260483
115	0xbd8009fa	-0.06251903
116	0x3d0bd524	0.034138814
117	0x3d672fdd	0.05644213
118	0xbd87456e	-0.066050395
119	0xbdbe9d78	-0.093073785
120	0x3d07ad0d	0.03312402
121	0xbd830214	-0.06396881
122	0x3c286842	0.010278763
123	0xbd3a68c9	-0.045510087
124	0x3d8f3897	0.069932155
125	0xbca4774e	-0.02007642
126	0x3cf67cfc	0.030088894
127	0x3e14adf8	0.14519489

net.4.weight f4 [4, 128]
0	0xbb80b02f	-0.0039272527
1	0xbec21cc8	-0.37912583
2	0xbf356266	-0.7085327
3	0xbd404c9f	-0.04694807
4	0xbf1cdb31	-0.6127196
5	0xbecc0f36	-0.39855355
6	0x3fb60b13	1.422213
7	0x3dacbb64	0.084341794
8	0x4004674d	2.068805
9	0xbee6fec7	-0.45116255
10	0xbed93c9a	-0.42429048
11	0xbef2f60d	-0.47453347
12	0xbeab0a53	-0.33406314
13	0x401508d8	2.3286648
14	0xbf594f1e	-0.8488635
15	0xbf023fa7	-0.50878376
16	0xbdc82ca2	-0.09774138
17	0x3ca7882c	0.020450674
18	0xbeea2c1b	-0.45736775
19	0xbebae834	-0.36505282
20	0x3ff07a47	1.8787316
21	0xbf0db310	-0.5535135
22	0x3feb21b9	1.8369666
23	0xc026c2ff	-2.6056516
24	0xbfab33d5	-1.3375193
25	0x3c6cb686	0.014447814
26	0xbeea09c2	-0.4571057
27	0xc042a8bb	-3.0415485
28	0x4004eb8b	2.0768764
29	0xbf4b72cf	-0.7947206
30	0x3fbaae5e	1.4584463
31	0xbe95a258	-0.2922542
32	0xbf254c20	-0.6456928
33	0xc0386072	-2.8808866
34	0xbed40b1d	-0.4141473
35	0xbe43f24b	-0.19135396
36	0xc01e3cad	-2.4724534
37	0xbebb219b	-0.36549076
38	0xbf29f023	-0.66382045
39	0xbefacf0e	-0.48986095
40	0xbee67c99	-0.45016935
41	0x3fa3a088	1.2783365
42	0xbf9371ad	-1.1519066
43	0x3fbdfcaf	1.4842738
44	0xbf0c5197	-0.54811996
45	0x40037a2e	2.0543323
46	0xbef5029c	-0.47853553
47	0xbe685f01	-0.22692491
48	0xbefea9c9	-0.4973891
49	0x3fb2ea24	1.3977704
50	0x3fe5a715	1.7941614
51	0xbeb9947e	-0.36246103
52	0xbede2ce6	-0.4339363
53	0x3f0cb159	0.5495811
54	0xbeea966b	-0.45817885
55	0xbe7bb34d	-0.24580117
56	0x3f2a09ea	0.6642138
57	0xbd933ec8	-0.07189709
58	0xbeeac81c	-0.45855796
59	0xbefe6170	-0.49683714
60	0x401abb08	2.4176655
61	0xbd875521	-0.06608034
62	0xbf4acae5	-0.7921584
63	0xbe9f308c	-0.31091726
64	0xbf641e78	-0.8910899
65	0xbee35cf8	-0.44406867
66	0xbedf36b7	-0.43596432
67	0xbfbbf2ba	-1.4683449
68	0xbf2b9a33	-0.67032164
69	0xbf174b96	-0.5909971
70	0xbed85be3	-0.42257604
71	0xbda8c9ea	-0.08241637
72	0xbf57ccdd	-0.8429697
73	0xbedf7ee7	-0.43651506
74	0xbef14157	-0.47120163
75	0xbef7d407	-0.48403952
76	0x3fa1dad5	1.2644907
77	0xbe8086a7	-0.25102732
78	0x3fd2a599	1.6456786
79	0xbf741cd7	-0.95356506
80	0xbec5f157	-0.3866069
81	0xbd078bca	-0.033092298
82	0xbeb8468d	-0.35991326
83	0xbf8001fc	-1.0000606
84	0xbe261e38	-0.16222465
85	0xbf01bb6f	-0.50676626
86	0xbea3c3dc	-0.31985366
87	0xbf16770a	-0.5877539
88	0xbf32cb40	-0.69841385
89	0x3d6b2f22	0.057417996
90	0x3ada66f5	0.0016662764
91	0xbf27d17b	-0.65554017
92	0x400a7d92	2.1639142
93	0xbf3b916b	-0.73268765
94	0x3e8bc2b1	0.27296975
95	0xbefd974b	-0.4952949
96	0xbf12e803	-0.5738527
97	0xbc9765b5	-0.018481115
98	0xbf589a39	-0.84610325
99	0x3e965ff4	0.2937008
100	0xc022509a	-2.5361695
101	0x3fd1660a	1.6359265
102	0xbf2825ef	-0.6568288
103	0xbff13c8c	-1.8846602
104	0xbd8c795b	-0.06859084
105	0xbe5411e2	-0.20709947
106	0xbf5506e9	-0.8321367
107	0xbf0aacc1	-0.5416985
108	0xbebb668a	-0.3660167
109	0x3fb869c0	1.4407272
110	0xbfb85b7d	-1.440292
111	0xbee750b2	-0.45178753
112	0xbf18357b	-0.59456605
113	0xbd80740b	-0.062721334
114	0xbf0cdcd1	-0.5502444
115	0x3d29e936	0.041482173
116	0xbee769bb	-0.45197853
117	0xbefa9a00	-0.48945618
118	0x3d225541	0.039632086
119	0x3c375dda	0.01119181
120	0xbf32ef1d	-0.6989611
121	0xbeff5f80	-0.49877548
122	0xbee75de6	-0.45188826
123	0x4001d658	2.0287075
124	0xbf06550c	-0.5247352
125	0xbf88ac15	-1.0677515
126	0xbf0f1cd5	-0.5590337
127	0x3d1e6f84	0.03868057
128	0xbd5df36f	-0.054187234
129	0x3f9356d6	1.1510875
130	0xbf2b73db	-0.66973656
131	0x3cd6df02	0.026229385
132	0xbf0e4355	-0.5557149
133	0xbf09e3e1	-0.5386334
134	0x3f9830fb	1.1889948
135	0xbd821d77	-0.06353276
136	0x4026e923	2.6079795
137	0xbf0be904	-0.5465243
138	0xbec7bbe8	-0.3901055
139	0xbf3cc6a5	-0.7374061
140	0xbef5d74b	-0.48015818
141	0x4044da0c	3.0758085
142	0xbf0ef3d5	-0.5584081
143	0xbced17bb	-0.02894198
144	0xbf219645	-0.6311992
145	0xbd6f7a91	-0.058466498
146	0xbf186cc3	-0.5954096
147	0xbf1f414d	-0.62209016
148	0x3fe0f753	1.7575477
149	0xbf1aeb66	-0.6051544
150	0x400eb209	2.2296164
151	0x3f1ee2b8	0.62064695
152	0xbef86d5f	-0.48520944
153	0x3d4d44d8	0.050114483
154	0xbf596af4	-0.8492882
155	0xbff74770	-1.9318676
156	0x4007dc79	2.1228316
157	0xbed5631c	-0.41677177
158	0x3fd1c9a3	1.638966
159	0xbf0ebfcc	-0.5576141
160	0xbf0503e9	-0.5195909
161	0xc00cc876	-2.1997352
162	0xbf343cde	-0.70405376
163	0x3e2fb1b4	0.17157632
164	0xbf4089e0	-0.7521038
165	0xbeeafa87	-0.45894262
166	0xbed5f052	-0.41784912
167	0xbfe74d9e	-1.8070562
168	0xbe7bf17f	-0.24603842
169	0x3ffc7fb5	1.9726473
170	0xbfe9f350	-1.8277378
171	0x3fb77e9f	1.4335517
172	0xbfba947a	-1.4576561
173	0x3ff4348c	1.9078536
174	0xbf0b70c3	-0.54468936
175	0xbf052d3d	-0.52022153
176	0xbf4f578b	-0.80992955
177	0x3fc54979	1.5413047
178	0x400a948b	2.1653163
179	0xbf83a2d9	-1.0284072
180	0xbefca00f	-0.49340865
181	0x3f65c0e7	0.8974747
182	0xbf6cbffb	-0.9248044
183	0xbf4eeaf4	-0.8082726
184	0x3fffc106	1.9980781
185	0xbf4653cb	-0.7747161
186	0xbf1d79dd	-0.61514074
187	0xbeceb2b7	-0.40370724
188	0x4025fdb8	2.5936108
189	0x3ef8509e	0.48499006
190	0xbf00cb23	-0.5030996
191	0xbf17dff6	-0.5932611
192	0x3f135960	0.5755825
193	0xbf52bf67	-0.82323307
194	0xbf203fa0	-0.62597084
195	0xbf2d8ce6	-0.6779312
196	0xbf3bc084	-0.7334063
197	0xbf489f12	-0.7836772
198	0xbf1d6cf1	-0.61494356
199	0x3cfb305c	0.030662708
200	0xbf9f36e1	-1.2438623
201	0xbebf18b7	-0.37323543
202	0xbeae921a	-0.34095842
203	0xbec58f28	-0.38585782
204	0x3e020b76	0.12699685
205	0xbf32edb4	-0.69893956
206	0x3fa35f1d	1.2763401
207	0xbefea869	-0.49737862
208	0xbf49cfb2	-0.7883254
209	0x3d8d1e3e	0.06890534
210	0xbf218e0e	-0.63107383
211	0xbfa15de8	-1.2606783
212	0xbf14a634	-0.58066106
213	0xbf13e8f7	-0.5777735
214	0xbf4d433f	-0.80180734
215	0xbf3aed89	-0.730187
216	0xbf186c22	-0.5954
217	0x3dae2959	0.0850398
218	0x3ca0d99c	0.019635014
219	0xbedc470b	-0.4302295
220	0x40166f0f	2.3505285
221	0x3ed69fe9	0.41918877
222	0x3f213745	0.6297496
223	0xbf37ac13	-0.7174694
224	0xbe87cb48	-0.2652228
225	0x3d18110f	0.037125643
226	0xbecf0a09	-0.40437344
227	0x3f2f6269	0.68509537
228	0xc012a80a	-2.2915063
229	0x3f943698	1.1579161
230	0xbf17ba05	-0.5926822
231	0xbf776ca6	-0.9665016
232	0xbc8d5182	-0.01725078
233	0xbf3e9f3a	-0.7446171
234	0xbf1280c9	-0.5722776
235	0xbe93407e	-0.2876014
236	0xbf143d7e	-0.5790633
237	0x3f9a3bc7	1.2049493
238	0xc01bcbc6	-2.4343123
239	0xbeefced3	-0.46837482
240	0xbe20e5a5	-0.15712602
241	0x3da4289c	0.08015558
242	0xbe832fb7	-0.2562234
243	0xbc1b829f	-0.009491592
244	0xbeafe8f3	-0.34357414
245	0xbe7c3f08	-0.2463342
246	0x3d0a922f	0.033830818
247	0x3c1c95c8	0.009557195
248	0xbec0fd49	-0.3769324
249	0xbf03ed51	-0.5153399
250	0xbf3b327c	-0.7312391
251	0x400a34f2	2.1594815
252	0xbe666df0	-0.22502875
253	0xbec89edb	-0.39183697
254	0xbf0b4b7d	-0.5441206
255	0x3e88f762	0.26751238

net.4.bias f4 [4]
0	0xbdf2036d	-0.1181706
1	0x3ea3458b	0.31888995
2	0x3d681feb	0.056671064
3	0xbd73fdf3	-0.059568357
