SARSA/dsqn/1350_model_weights.pth (torch, 75929 bytes, 6 tensors)

net.0.weight f4 [128, 8]
00000000: 10ff 923f 5a39 e63e 6052 7c3e 148b ddbe
00000010: f6d7 6bbf 1f56 793e 155e 1abe a048 9dbe
00000020: 6c7b ca3f 9eff 473e 4826 753f ab38 af3d
00000030: 5446 02bf fd23 933e 4d66 01bd 13e0 a7bd
00000040: 27db cabf d6aa 903f 30ad 643d e2fd 9ebe
00000050: 3c6d 283d cb42 0b3d 992d 293e 7ecd d0be
00000060: 5e7a 033f f495 a13f bb71 803e 6906 2abf
00000070: d333 62bb f6ae e03d b1b0 503a 204e 8f3d
00000080: e0be d5be e32d ffbd 7566 e9bc 9fbc 2bbe
00000090: 7090 243f ecf2 733f 2144 3c3f 77a4 b73e
000000a0: d7ba c3bf 9760 85be 4864 6d3e 6a0b 1cbf
000000b0: be19 09bf e9ee 91bf 8198 bd3e 79f3 fd3c
000000c0: a34a 66bd fdf6 033c 10e4 15bf c9e6 c6bd
000000d0: 8f14 1fc0 d9bd efbd ac68 05bd e12f 42bd
000000e0: 5b18 a6bf 1277 95be a0fb 1e3d ed03 493f
000000f0: 57db eabd bc4a 9d3e 1791 ff3d 6a18 bd3c
00000100: 31c1 a73d 9334 79bd 6d27 84bd 5264 65be
00000110: e622 8c3f 5b96 4c3f dc2e 583e e757 9c3e
00000120: 4ec7 c3bf ebb0 8dbf 8c61 4b3f 32ef e63d
00000130: dfbf 48bf 0e8c ed3e 232f ab3e cc78 16bf
00000140: 0321 d23f ddf6 89bd e5c9 b8be edf3 b43f
00000150: a6ec 8d3e 6967 7b3e 75cc 72bc b7bc 54bf
00000160: 4ad0 5ebf c558 78bf 089d 1cc0 91d1 283f
00000170: f850 e03d a4e5 f5bd b647 263f 2edf de3e
00000180: 860d 5abf 0344 983e 9068 2ebe b21a 9f3f
00000190: d0a4 27bf 03e2 393f d0a0 a13e 1169 033f
000001a0: 9659 ecbd 74b7 813c 4c67 a8be b938 443e
000001b0: 23da 743f 991c 123f 65ce 183f 0010 98be
000001c0: 21c0 0bbf 9c68 8c3b f216 dd3e 1dc7 13bf
000001d0: 49d5 b23e b732 893f 5730 bd3e 0b93 a4bc
000001e0: 3c42 3ebf acb4 a9be 5fc4 c1be cba5 6f3f
000001f0: f563 07bf 8ba7 8c3d 6908 003f c3ed 243e
00000200: 82c9 70bf fbd4 cbbe f20d 2cbe a84e 29bf
00000210: 2fd7 5cbf a3dd 86bd aea9 103e 8b74 10bf
00000220: fc6f 9b3e ce70 713e b1cf 4d3d ba65 f53e
00000230: 4488 2cbd 0cf5 383d e0d8 063f 2f10 463f
00000240: e88d 083f 497e 2e3f 7a8b 42bf ad88 99be
00000250: 39ff f9be 69d7 e83f 4522 d63e 9e46 36bf
00000260: 25a5 763f 6d9e 043f 0782 16be 2737 b13f
00000270: a2d7 80bf 6cd2 cfbe 6f8f 8abe b847 9abf
00000280: ad76 21bf 547c 31be 3b83 dd3e e018 a4be
00000290: 5fe7 da3e dfa7 bb3f fec3 103e cfca b4bd
000002a0: e6a7 a23e 42e6 aabf abac 8bbe b85f cd3f
000002b0: a52a 0b3f b283 8f3f 2aca e53e d804 7a3e
000002c0: 2ad5 a6be 6a70 c23e 7e85 d6be 2426 babc
000002d0: 4e62 7f3f 26fb f63e 7cce 043f 3efe 933e
000002e0: a611 2abf 80c7 88bd 23e7 b9bd eb90 31bf
000002f0: 7dba 38be b3d8 2f3f c6d5 3f3e 2580 d8bd
00000300: deda 5abf 0b27 9b3e a814 03c0 315d fb3e
00000310: af3b 4dbf 975e 15be 9641 913e 692d c6bc
00000320: c246 2c3e 9758 e1bc 8951 683e a3db 13bf
00000330: cfe6 d03e 4646 313f e0b8 ee3e 7602 9f3d
00000340: e596 5ebf 30a7 83c0 f0dd 99be 1b02 20be
00000350: 166f ab3f 19f7 5f3f 8385 eb3e 7367 95bf
00000360: 81be 103e a9e9 90bd 27ab cf3d 2dbe 433f
00000370: 5146 1e3f bf30 81bf 20f7 11be bfe2 a63e
00000380: e745 98bf 206c 4d3d b57b a83e 7a32 743e
00000390: 938d 5b3f ff65 e93f 343d 16bf 24b5 f7bf
000003a0: 4232 1abf 2833 a93d c79e f3bc 0651 5fbf
000003b0: 6792 c83a fcbb 1b3f 2729 ba3e ae8f 0dbe
000003c0: ba1c 0dbf bdd8 cdbe 7efb 3cbf 22eb bebe
000003d0: 4930 e3be a558 d0bf 62c8 fe3d 6e2c 303f
000003e0: 25a1 0640 e25b 16be bf92 283f fec1 e83e
000003f0: b562 6bbb 6333 fd3d df74 c03c 9a9c e5bb
1.1484089 0.4496563 0.24640799 -0.4327017 -0.92126405 0.24349259 -0.15074952 -0.3071947
1.5818915 0.19531104 0.9576154 0.085557304 -0.5088856 0.28738394 -0.031591702 -0.08197036
-1.584813 1.1302135 0.055829227 -0.31053072 0.0411198 0.033999246 0.165213 -0.40781778
0.5135859 1.2623887 0.2508677 -0.6641603 -0.0034515753 0.10970871 0.00079608994 0.06997323
-0.4174719 -0.12459924 -0.028491238 -0.16771172 0.64282894 0.95292544 0.73541456 0.35867664
-1.5291394 -0.26050255 0.23182786 -0.60954916 -0.53554904 -1.1401035 0.37030414 0.030999886
-0.056223523 0.008054492 -0.5855112 -0.097119875 -2.4856298 -0.117061324 -0.032570526 -0.047408942
-1.2976183 -0.29192406 0.038814187 0.78521615 -0.11467617 0.3072108 0.124788456 0.02308293
0.08191145 -0.060841154 -0.06452832 -0.2240155 1.094815 0.79916924 0.21111625 0.30535814
-1.5295198 -1.1069616 0.7944572 0.11276092 -0.7841777 0.46395916 0.334344 -0.5877807
1.6416324 -0.067365386 -0.36091533 1.413694 0.2771961 0.24551167 -0.014819254 -0.83100456
-0.87036574 -0.9701045 -2.4470844 0.6594477 0.109529436 -0.12006691 0.6495317 0.43529648
-0.85176885 0.2973939 -0.17032075 1.2430022 -0.6548586 0.7261049 0.31568003 0.51332194
-0.11540525 0.015834548 -0.3289131 0.19162263 0.9564535 0.57074887 0.59689933 -0.29699707
-0.5459004 0.0042849313 0.43181568 -0.577257 0.3492835 1.0718602 0.36950943 -0.020089647
-0.74319816 -0.33145654 -0.37845132 0.93612355 -0.528869 0.06867894 0.5001283 0.16106324
-0.94057477 -0.3981093 -0.16802195 -0.66135645 -0.86265844 -0.065852426 0.14127228 -0.5642783
0.30358875 0.23578188 0.050246898 0.47929174 -0.04212214 0.04515557 0.52674675 0.77368444
0.5334153 0.68161446 -0.75994074 -0.29987088 -0.48827532 1.8190738 0.4182302 -0.71201503
0.9634574 0.5180424 -0.14698039 1.3844956 -1.0065806 -0.40590227 -0.27062556 -1.2053137
-0.6307171 -0.17332584 0.43264183 -0.32050228 0.42754647 1.4660605 0.14137265 -0.08827745
0.3176872 -1.3351519 -0.27280173 1.6044836 0.54361945 1.1212065 0.448808 0.2441591
-0.32584506 0.3797639 -0.4189872 -0.022723265 0.99759376 0.48238486 0.5187757 0.2890491
-0.6643318 -0.066786766 -0.09077289 -0.6936175 -0.1803989 0.6869003 0.18733892 -0.10571317
-0.85490215 0.30303225 -2.0481358 0.49094537 -0.80169195 -0.14586864 0.2837035 -0.024191575
0.16823867 -0.027508063 0.22687353 -0.57757014 0.40801093 0.69247854 0.46625423 0.07764141
-0.86948997 -4.1141586 -0.30052137 -0.15625803 1.3393276 0.87486416 0.460003 -1.1672195
0.14135171 -0.07075817 0.101400666 0.7646206 0.61826044 -1.0093001 -0.14254427 0.3259487
-1.1896333 0.050151944 0.3290688 0.2384738 0.857629 1.8234252 -0.5868714 -1.9352155
-0.6023294 0.082617104 -0.029738797 -0.87233007 0.001530242 0.60833716 0.36359522 -0.1382434
-0.5512196 -0.4020442 -0.73821247 -0.37288767 -0.44372776 -1.6277052 0.12440564 0.68817794
2.1035855 -0.14683488 0.65848917 0.45460504 -0.0035916988 0.12363317 0.023493228 -0.0070071938

net.0.bias f4 [128]
00000000: 9bd3 f03e f8f8 d8bd 88d8 3a3e f3a5 ab3d
00000010: 011c aa3e d563 a03c 0c64 04be bc1b 6f3e
00000020: 6d2e 05bf 2da0 713e 986b 223f 0cc8 10be
00000030: e9b0 b1be 6e4c b83e 5ab2 de3e 1d7d 1ebe
00000040: 2321 3abf 2440 a33e 9919 df3e cec7 9ebf
00000050: d0f4 063f fe06 4b3f a6f1 413f f222 463f
00000060: dbef de3e 36b1 ca3e 5f3b b6be e83c babe
00000070: 0428 8b3d daf4 233f 547d 0f3f bc1d 053d
00000080: e99c 11bf 8947 bfbe 1442 2f3f 9c9d 03bf
00000090: 170f 2e3e 3add 75be da94 a83e e4b9 cc3e
000000a0: 008b d3be 4e4b e8be c54e e93d 236e 11bf
000000b0: f08c 223f 67a8 1abc 1dc4 f23e ff73 593f
000000c0: 6937 64be 1066 f23e 222a a33e 8532 583e
000000d0: 3862 973f 9915 a4bc d680 f4be f26b 35bf
000000e0: ee16 3f3f dd09 fe3e 2ef9 1f3f 2577 eabe
000000f0: 9293 5e3f 8032 2b3f 4bb5 3e3f b444 6c3f
00000100: 5870 d83e 9ba7 4e3e 1e38 85be b0a1 853e
00000110: ae68 d2be b3dd aebe b9b5 b6be 1f76 773e
00000120: 893e 453f 5147 90be eddb a63e 4e90 c93e
00000130: 3504 a9be 4531 ecbe fb0f 103f ca62 4f3e
00000140: e2e0 0b3f 0d98 cbbe 3d75 d1be e0a5 903e
00000150: 5fb0 a43e 3d95 4c3e c08a 0a3f 274e d53e
00000160: f0b6 143e 24a6 5ebf 16e3 d93b 263d 69bf
00000170: 9b6b 5f3e 8c54 db3e 0951 d13e b234 a83d
00000180: 45fa 3b3d 9318 663f 9a48 16bf edf1 f8be
00000190: 2aa5 f93e 86bc 50bd 5e66 b9be cfe2 5ebd
000001a0: c1e5 293f dfd5 ad3e d673 a3bf 6bae e43e
000001b0: 8a5f 56bf 5c55 c3be 1e10 b83f 1a6b 10bf
000001c0: 975c 023e ab16 df3e 841b 063f c7b5 aa3e
000001d0: 34b5 07bf 02a2 22bf 730f 5d3f 167c 573f
000001e0: abe1 6b3f 2105 0b3f 7dbb 27bf 5d28 603f
000001f0: fc79 063e 0643 97be 9d8d 113d ec8b 08be
0.47036442 -0.10594362 0.18246663 0.08381262 0.3322449 0.019578854 -0.1292879 0.23350424
-0.52023965 0.23596258 0.63445425 -0.14138812 -0.34705284 0.3599581 0.43495446 -0.15477414
-0.7270681 0.31884873 0.43574217 -1.2404726 0.52717304 0.79307544 0.7575935 0.7739707
0.4354237 0.39588326 -0.35592172 -0.36374593 0.06794742 0.6404549 0.5605061 0.03249906
-0.5688005 -0.37359264 0.684602 -0.5141237 0.16997944 -0.24010172 0.32926065 0.39985573
-0.41316986 -0.45369953 0.11391977 -0.5680868 0.63496304 -0.009439564 0.47415248 0.8494262
-0.22286762 0.47343493 0.31868082 0.21113022 1.1826849 -0.02002983 -0.47754544 -0.70867836
0.7464436 0.496169 0.62489593 -0.45794025 0.86943924 0.6687393 0.7449538 0.9229233
0.4227321 0.20181124 -0.26019377 0.2609992 -0.4109549 -0.34153518 -0.35685518 0.24166153
0.77048546 -0.2817941 0.32589665 0.39367908 -0.33011022 -0.4613134 0.56274384 0.20252529
0.5464002 -0.39764443 -0.40909758 0.28251553 0.3216581 0.19978805 0.54117966 0.41661188
0.1452291 -0.8697226 0.006649385 -0.9110893 0.21818392 0.42837942 0.40882137 0.08213176
0.045892972 0.8988125 -0.5870453 -0.48622075 0.48758823 -0.05096104 -0.36210912 -0.05441552
0.663662 0.33952233 -1.2769725 0.4466432 -0.8373953 -0.38151062 1.4379919 -0.56413424
0.12730633 0.43571982 0.52385736 0.3334181 -0.5301087 -0.63528454 0.863517 0.84173715
0.92141217 0.543047 -0.6552046 0.8756159 0.13132471 -0.29543322 0.035535444 -0.13334626

net.2.weight f4 [128, 128]
00000000: 5ddd 603d ad5e 71bd 2359 85bd ff6a 9ebd
00000010: 3f10 a9bd da7d 5dbd 0d0b 92bd 7a97 563c
00000020: a8d2 b83c 40e6 b13b 30da eb3c f2a7 533c
00000030: d73f 3e3d f19e 453d c7f9 b7bd 5165 863d
00000040: 6288 293d 07c9 453d 267b bfbc 803c 993d
00000050: 5c84 c73c b179 3f3d 0af2 8b3a 3d13 1dbd
00000060: 79b2 8fbd 28e2 b13c 2e01 9dbd f62f 9ebd
00000070: 89bc 8d3d 31d1 9fbc 0fbe 06bc 9d1b 8d3d
00000080: 8c7c d43b 0ed8 2bbd 3cd4 2d3c f935 983d
00000090: ae45 1ebd 68f6 3ebd 48c3 febc 73b9 8c3c
000000a0: 524e 88bd 07eb 6fbd 29c3 853d 5474 81bd
000000b0: 9ae1 9bbd 7f60 993c d490 71bd 4509 773d
000000c0: 9cb7 4ebc 8dfd 6bbd 8dbf 6d3d 54de 373d
000000d0: 43d9 c4bd b877 f0bc 1af3 813d 203e f33c
000000e0: 528a 72bd 121e 833c 5fa7 593c f2b4 b4bd
000000f0: 8036 6d3a f0f9 243c 4a83 95bd 8e1c febc
00000100: af33 e03c 6d28 77bc c485 6c3d 6cdf c43c
00000110: 9639 2e3d 7f38 c4bd 3f5f 35bd b347 1c3d
00000120: ab4e edba fd35 f33c d08e c7bc bdfc 2c3d
00000130: 1636 153d 466b e6bc 1b10 86bd bbbb 1dbc
00000140: d85b be3c 4480 aabd cae6 6ebc 455a 99bd
00000150: 702c 0a3c ca74 90bd a0e4 423d 8441 c9bb
00000160: 80f6 5cba 3979 abbd b3fe ec3c 000f 4ebd
00000170: 4495 07bc 4f9c 8cbc 29ad 2d3d 26a6 033d
00000180: 1e03 85bc 5000 953d 4a16 1dbd 0d32 993d
00000190: 2bd8 a9bd 7241 43bd 8693 1a3d b58d 973d
000001a0: 189d 4d3d d407 04bc e9ca 8ebd 9c3d 4ebd
000001b0: 0b37 643d e3cc 5b3d fc16 02bd 5026 b8bd
000001c0: c321 1bbd 4583 5cbd 00c1 493d 679e 6b3d
000001d0: 1999 80bd 09b2 173d 58d9 66bd 6471 843c
000001e0: 2f88 bbbc 6976 82bd c8bf 2e3c 9561 733d
000001f0: df5b fd3c e5b5 8e3b 7e75 30bd 9603 70bd
00000200: 612c fbbf e107 03c0 2302 d1be 90d2 02be
00000210: 58e3 d23e da4c 4dbe 8267 f13e e591 babf
00000220: 80e0 2e3f f2cf df3d 212c 0bc0 c518 2ebf
00000230: 77ac adbe 5e9f 273e 7b4d e43e ba88 93bc
00000240: 3f64 d03d 4d7f 1ebf 2a72 d33d bf15 94bf
00000250: 2eca 023f c261 2f3b ffa2 0e3c 8a93 c63e
00000260: 5120 71bf 2eb4 863e 90c9 683f d344 bdbd
00000270: 5947 b83d 0b4a 443e 6793 a2bf 5b7b 1dc0
00000280: ed96 f13e 4136 513f 391a 71bf d63f 213f
00000290: 90c5 12c0 9705 14c0 2b44 a9be b41f 13bf
000002a0: 08da ccbe 699d 473e 6406 7f3d f7bd 403f
000002b0: 2f51 21bf e5c9 b33e 44b7 093e 4cff ba3d
000002c0: 0316 a23e b042 433d 41b6 eabf cd4f 08c0
000002d0: a939 2bc0 8936 ee3e bca8 7a3e 92a5 dabf
000002e0: 43f4 103e e46d 92bf 7fb5 70bd 7134 a73e
000002f0: ffc3 06bf 6ca6 33bd bc16 c6bf b452 43c0
00000300: 7c59 4bbe 4d31 18c0 2772 e6bf 655f 84bf
00000310: 6a8a 9cbf 73d2 3dbf 5278 bebf d6c5 04bf
00000320: ad70 7cbf 0d2c 04c0 be30 bfbf 7176 e53e
00000330: e8b4 be3d cdf3 abbe fd81 0ac0 9639 113f
00000340: 742d 0b3e a6d4 8e3f 60d9 043f 5182 71c0
00000350: a7a4 273e a2ec ac3d b295 453e 3225 edbf
00000360: cb23 053f ea2e e63e 8ccc 3ebf 2738 c83d
00000370: 4fa9 8cbf 2a7d 4dbc 3de5 e4be 54d3 3fbf
00000380: bd88 10c0 9ff2 03bf e185 013f 8d45 fa3e
00000390: dff9 873d 2a4e ffbd d939 bf3e 9f2c 56be
000003a0: 931b a13e 00a8 91bd 6d14 bfbf 8910 a53e
000003b0: 62d1 4ebe 4c1e dfbf ca70 13c0 bb83 f93e
000003c0: 741a 81bf 63a2 5bbe d140 f23e cfbd 05bf
000003d0: 3c7e abbb 36d3 5e3f abbe d8bf 7d84 2a3f
000003e0: 03fc 0bbe 3fba 75bd 4286 713e 2ef6 d0be
000003f0: 2db6 193c 9920 af3e bda8 153f 0bd9 ac3e
0.05489861 -0.05892818 -0.06511142 -0.07735252 -0.08255052 -0.0540751 -0.07131014 0.013097638
0.022561386 0.0054290593 0.028790563 0.012918459 0.0464476 0.04824728 -0.08983188 0.06562293
0.04138983 0.048287418 -0.023374151 0.074822426 0.024355106 0.046746913 0.0010676992 -0.038348425
-0.07016463 0.021714285 -0.07666241 -0.077239916 0.06920726 -0.01950893 -0.008224024 0.068900324
0.0064845737 -0.041954093 0.010609683 0.074321695 -0.03864067 -0.04662171 -0.031098977 0.017178273
-0.066555634 -0.05857375 0.065313645 -0.06321016 -0.076113895 0.01872277 -0.05897601 0.060311574
-0.012617018 -0.05761485 0.058044005 0.044889763 -0.09611752 -0.029353961 0.06345196 0.02969271
-0.059213944 0.01600555 0.013284533 -0.08823575 0.00090489537 0.010069355 -0.07300432 -0.031019475
0.027368395 -0.015085322 0.057744756 0.024032317 0.042535387 -0.09581088 -0.044280287 0.038154315
-0.001810511 0.02968883 -0.02436009 0.042233218 0.036428533 -0.028127324 -0.065460406 -0.009627278
0.023237154 -0.08325246 -0.014581392 -0.07487921 0.008433446 -0.07053526 0.047581315 -0.0061418433
-0.00084290653 -0.08372731 0.028930044 -0.050307274 -0.008275334 -0.017164377 0.042401467 0.032140873
-0.016236838 0.0727545 -0.038351335 0.074802496 -0.08293184 -0.047669835 0.037738346 0.07400075
0.050198644 -0.008058507 -0.06972296 -0.050351724 0.055716556 0.053662192 -0.0317602 -0.089916825
-0.037873995 -0.053836126 0.049256325 0.05752411 -0.06279201 0.037035022 -0.05635962 0.01616735
-0.022892086 -0.06370241 0.010665841 0.059419233 0.030927597 0.0043551796 -0.0430808 -0.05859717
-1.9622918 -2.047356 -0.40821943 -0.12775636 0.41189075 -0.20048848 0.47149283 -1.4575773
0.6831131 0.10928334 -2.1745684 -0.68006545 -0.33920643 0.16369388 0.44590363 -0.018009532
0.101753704 -0.61912996 0.103245094 -1.1569136 0.5108975 0.002676115 0.0087058535 0.38784438
-0.94189936 0.2630934 0.9093256 -0.09241643 0.089979835 0.1916887 -1.2701234 -2.460654
0.4718546 0.8172341 -0.9418064 0.6298803 -2.2933083 -2.3128412 -0.3305982 -0.5747025
-0.40010095 0.19493641 0.062261954 0.75289863 -0.630145 0.3511497 0.13448817 0.09130725
0.3165742 0.04767102 -1.833687 -2.1298707 -2.6753943 0.46525982 0.2447843 -1.7081778
0.14155678 -1.1439786 -0.05876684 0.32657197 -0.52642816 -0.043859884 -1.5475688 -3.0519228
-0.19858354 -2.378009 -1.8003587 -1.0341612 -1.2229741 -0.74149245 -1.4880469 -0.51864374
-0.9860943 -2.0651886 -1.493675 0.44816926 0.09311849 -0.33584443 -2.1641839 0.56728494
0.13591558 1.1158645 0.5189419 -3.773579 0.16371404 0.084435716 0.19295385 -1.8526976
0.5200774 0.44957668 -0.74530864 0.09776335 -1.0989169 -0.0125420485 -0.44706145 -0.74931836
-2.2583458 -0.51542085 0.5059491 0.48881188 0.06639456 -0.124660805 0.37348822 -0.20915459
0.3146635 -0.071121216 -1.4928108 0.32239178 -0.2019706 -1.7431121 -2.303759 0.48733315
-1.0086198 -0.21448664 0.47315076 -0.5224275 -0.005233554 0.8704103 -1.6933187 0.6660841
-0.13670354 -0.05999207 0.23586372 -0.4081282 0.009381813 0.34204558 0.584606 0.3375934

net.2.bias f4 [128]
00000000: de44 b4bd d737 90bf ded2 e3bc adb1 88bd
00000010: ea41 a03d 92db b03c 1a22 493f 00c0 833c
00000020: 3e74 38bf 14be 2dbc 6564 e93d 15cc ab3d
00000030: 8535 393d df73 1b3d b57d 89bd d669 0a3d
00000040: 7d1c 313e 7fb7 6abc e3c0 7b3d 3818 a73b
00000050: 39a5 49be 384a d9bc 9039 763f 756f 063e
00000060: b1b3 91bd 1092 bebd 4ed5 e33d 3979 98bc
00000070: fdcc 62be d8e7 09be b6d5 1c3f f208 893d
00000080: 5d70 13ba 5e5d d5be 6e1c f9bb a83a bc3d
00000090: 81e1 9dbe eda8 743d c527 6d3d 06ba 25be
000000a0: 621a 9b3d e3e2 91bd 895b 30be c6d0 aabd
000000b0: f32f 5e3d d56b 263f bc7d 243d 4cc7 9d3d
000000c0: b043 1c3c 9627 4c3f 556c 6dbe a224 283d
000000d0: 95aa 9b3d 1460 1b3f 3ec0 2d3d 312f f63d
000000e0: 80cf 003f b2fc 2c3e 8ce8 6d3c cdbc ed3d
000000f0: ad6b 76be 1cd6 b33d 95aa e4ba 89ac 033e
00000100: 9bd7 223e 1039 d1bc 603a 5dbb 5580 bebd
00000110: d5fd 64bd 88bf a43c 56d7 febc 3c3c 47bb
00000120: 1e70 0a3d 5da0 793d 8f5e 6e3d b850 383c
00000130: 424b 2b3e c921 b53d 656e 353f e6a5 cd3c
00000140: 02e5 4b3b 697e 5c3c 7078 e8bb 810d 903e
00000150: 5330 233e 4303 853d 8a4a 3cbc 7036 033d
00000160: a5d6 0abe 5b30 bbbd 52ed b9bd 7bfc 103d
00000170: 97c4 2ebe 3b6c d3bd 0ebd 983e 281f d23d
00000180: 3c9d a93d c6f9 b4bd 6d53 193e 5926 b53e
00000190: 004e 02be 1c6f a53e 2a3c cc3d 8988 1cbc
000001a0: 22e7 7e3c 8021 d33d 175f 16bc 5502 463d
000001b0: 1f07 d53b df3a 903e 4b3b f0bd e5eb 3abb
000001c0: 25e2 7c3c 2962 78bd 689e d5ba fa09 80bd
000001d0: 069c 1e3d 66f3 803d 6e45 87bd 789d bebd
000001e0: 49f4 103d 15f4 9ebd 009c babc 9d1e 81bd
000001f0: 7fe4 943d 1a8c a5bc 2ad9 c13c d3e8 0e3e
-0.08802198 -1.1267041 -0.02781051 -0.06674514 0.07825072 0.021589074 0.7856766 0.016082764
-0.7205237 -0.0106044 0.11396102 0.08388535 0.045217056 0.0379523 -0.0671343 0.03379234
0.17296024 -0.014325975 0.061463248 0.0050993226 -0.19691934 -0.026524648 0.96181583 0.13128455
-0.071143515 -0.09305203 0.11124669 -0.018612491 -0.2214851 -0.13467348 0.61263597 0.06691159
-0.00056243484 -0.41672796 -0.007602266 0.09190875 -0.30836108 0.059731413 0.057899255 -0.16184244
0.075733915 -0.07123353 -0.17222418 -0.083406016 0.054244947 0.6500829 0.040158972 0.077040285
0.009537622 0.79747903 -0.23185857 0.04105056 0.07600895 0.6069348 0.042419665 0.1202072
0.5031662 0.1689327 0.0145207755 0.116082765 -0.24064513 0.087810725 -0.0017445857 0.12858786
0.1590256 -0.025539905 -0.0033756718 -0.09301821 -0.055906136 0.02011086 -0.03110854 -0.0030400893
0.03379833 0.06094395 0.058195647 0.011249714 0.16727927 0.08844335 0.70871574 0.02510352
0.003111184 0.013457873 -0.0070944354 0.28135303 0.15936403 0.06494763 -0.011492381 0.032034338
-0.13558443 -0.091400824 -0.090784684 0.035397034 -0.1706718 -0.10323378 0.29831737 0.10259849
0.08281943 -0.08836703 0.1497323 0.3538082 -0.12725067 0.32311332 0.09972413 -0.009554037
0.015558036 0.10309124 -0.009177945 0.048342068 0.006501093 0.28169915 -0.11730059 -0.0028521952
0.015434776 -0.060640488 -0.0016297819 -0.06251903 0.038723014 0.062964246 -0.066050395 -0.093073785
0.03538922 -0.07761399 -0.022779465 -0.06304667 0.07270145 -0.020208407 0.023663122 0.13956003

net.4.weight f4 [4, 128]
00000000: 2fb0 80bb c81c c2be 8547 4ebf 9f4c 40bd
00000010: f7c5 23bf ea3b f3be a0ed b63f 64bb ac3d
00000020: 77bf 0940 f911 fbbe 882c e4be 555b 03bf
00000030: 9d44 abbe 9514 1540 742e 6cbf 9c87 0fbf
00000040: 50f6 86bd 2c88 a73c c091 f1be b79c bcbe
00000050: 477a f03f d8ce 19bf 554f ec3f af2a 31c0
00000060: a5d2 babf 86b6 6c3c e23f efbe bbfe 55c0
00000070: 8beb 0440 661f 59bf a416 ba3f 726d 96be
00000080: d820 2abf 7260 38c0 8881 debe da87 4bbe
00000090: a48a 1fc0 6538 bebe 6881 39bf 43e2 03bf
000000a0: 5442 e7be 88a0 a33f 599d 92bf 67b6 bc3f
000000b0: 9437 1bbf 410b 0440 eb50 f8be 189f 6cbe
000000c0: ef7c 0cbf 473d b33f 15a7 e53f e137 bfbe
000000d0: adfd dfbe d881 0a3f 0107 f2be 1f36 82be
000000e0: cdbf 193f 4b92 1d3d ed90 f2be b6c1 01bf
000000f0: 08bb 1a40 c96a cdbd 10da 66bf 979f a3be
00000100: 90ad 74bf 2be9 f9be 77c4 e2be bc7d c3bf
00000110: 4739 4bbf 6357 22bf 29cd dbbe eac9 a8bd
00000120: 555c 63bf 203b e7be 4b66 0dbf 151f fbbe
00000130: 6a2b aa3f a968 86be de86 d03f 37f2 7cbf
00000140: 97d7 cebe ca8b 07bd d590 bfbe 412c 85bf
00000150: 8478 28be 7ed1 02bf 6816 9ebe 38ce 26bf
00000160: 8098 3dbf 222f 6b3d f566 da3a a51c 38bf
00000170: 927d 0a40 6327 41bf ab21 9a3e ef68 09bf
00000180: f76f 14bf b565 97bc d7e2 5cbf 278d a13e
00000190: f960 22c0 3376 d03f 6386 31bf 4fc2 f7bf
000001a0: 5b79 8cbd e30c 54be 30a2 54bf c592 0dbf
000001b0: ba17 cdbe 251e b33f b6c1 babf 128f f6be
000001c0: 113e 1cbf 0b74 80bd d017 28bf 36e9 293d
000001d0: 2214 e9be 6c03 05bf 4155 223d da5d 373c
000001e0: a9aa 46bf 06c5 08bf 3684 fcbe 2804 f23f
000001f0: 93b9 08bf dd6e 9bbf 2dce 1bbf 47a7 ee3c
00000200: 6ff3 5dbd 66c3 983f 10e7 3abf 02df d63c
00000210: f0a7 1cbf 76da 13bf e5e0 993f 771d 82bd
00000220: 3dfb 2740 4922 13bf 8e41 d9be 5a50 42bf
00000230: 72b2 fdbe 3e55 4a40 ada7 1abf 6e69 1fbd
00000240: 1c16 3cbf 917a 6fbd ed23 1dbf 419e 22bf
00000250: 53f7 e03f dc87 22bf 52ec 0f40 9fb9 223f
00000260: c94f 03bf d844 4d3d 2952 5dbf f19b 01c0
00000270: 79dc 0740 f00a f3be 4750 d13f 08dc 13bf
00000280: f0d6 15bf 76c8 0cc0 b1c9 39bf 4054 3a3e
00000290: 7cf3 49bf 24c6 f2be 45cc e8be 50cc f0bf
000002a0: a693 83be 30a9 0040 7275 efbf 81a9 b73f
000002b0: e684 bebf b1ca f83f 23af 0fbf 922c 0cbf
000002c0: e4f3 57bf 4732 c33f 8b94 0a40 04fe 84bf
000002d0: c2b6 02bf 6f1c 693f c60a 74bf 730d 52bf
000002e0: 6bd6 0640 dae0 5bbf 55b0 27bf 4b28 d4be
000002f0: b8fd 2540 f66c f93e 7069 0ebf a53c 1cbf
00000300: 3396 113f 4dbf 66bf a5da 25bf 787a 36bf
00000310: e1a4 47bf fa86 5abf 57c9 22bf 5c30 fb3c
00000320: 0f3c a7bf abc8 cfbe 788e ccbe 9e7e cbbe
00000330: 0cb9 3c3e 647d 37bf 5c08 a13f b90b 0dbf
00000340: 7041 54bf 3e1e 8d3d c830 29bf db41 a3bf
00000350: b6cc 18bf 4eaa 16bf 27cc 5cbf 7745 4cbf
00000360: bc79 24bf 5929 ae3d 9cd9 a03c 6b65 f0be
00000370: 0f6f 1640 4cff dc3e 9f2d 283f d262 43bf
00000380: 863e 8cbe 0f11 183d caf2 eebe 3b5b 363f
00000390: 3798 14c0 628b 953f 6745 1ebf fc04 81bf
000003a0: 8251 8dbc 9b7b 41bf ccf2 20bf 91f2 96be
000003b0: f207 1ebf f3b2 9a3f daa9 1dc0 1750 00bf
000003c0: 5697 32be 9c28 a43d eede 99be 9f82 1bbc
000003d0: 9634 b3be c7e1 8cbe 2f92 0a3d c895 1c3c
000003e0: 97cc cdbe c462 0bbf 508e 50bf a675 1140
000003f0: f15e 72be f0d0 d6be 9dc4 17bf cec4 913e
-0.0039272527 -0.37912583 -0.8057788 -0.04694807 -0.63973945 -0.47506648 1.4291267 0.084341794
2.152311 -0.4903715 -0.44565225 -0.51311237 -0.33450785 2.3293812 -0.9225838 -0.560663
-0.06589949 0.020450674 -0.4718151 -0.36838314 1.8787316 -0.60081244 1.846171 -2.7682302
-1.4595534 0.014447814 -0.46728426 -3.3436725 2.0768764 -0.84813535 1.4538159 -0.29380375
-0.66456366 -2.8808866 -0.434582 -0.19876042 -2.492837 -0.371524 -0.72463083 -0.51517123
-0.45167792 1.2783365 -1.1454269 1.4743165 -0.6063168 2.063187 -0.48499236 -0.23107564
-0.54878134 1.4003075 1.7941614 -0.3734732 -0.43748227 0.54104376 -0.4727097 -0.25431916
0.6005829 0.038469594 -0.47376195 -0.50686204 2.4176655 -0.10030133 -0.90176487 -0.31957695
-0.95577335 -0.48810706 -0.44290516 -1.5272746 -0.79384273 -0.6341459 -0.42929962 -0.08241637
-0.8881276 -0.45162296 -0.5523421 -0.4904715 1.3294499 -0.26251724 1.6291158 -0.9880709
-0.40398857 -0.033092298 -0.37415186 -1.040413 -0.16452223 -0.5110091 -0.3087647 -0.65158415
-0.7406082 0.057417996 0.0016662764 -0.7191871 2.1639142 -0.75450724 0.30103812 -0.5367574
-0.57983345 -0.018481115 -0.8628363 0.31553003 -2.5371687 1.6286072 -0.6934568 -1.9356173
-0.06859084 -0.20708041 -0.8305998 -0.5530208 -0.40057164 1.3993574 -1.4590366 -0.4815603
-0.61032206 -0.062721334 -0.65661335 0.041482173 -0.45523173 -0.51958346 0.039632086 0.01119181
-0.77604157 -0.53425634 -0.4931962 1.8907518 -0.53408164 -1.2143208 -0.60861474 0.029132498
-0.054187234 1.1934631 -0.73008823 0.026229385 -0.6119375 -0.5775522 1.2021757 -0.06353276
2.6247094 -0.5747419 -0.42432827 -0.75903857 -0.49550205 3.1614528 -0.604121 -0.038918905
-0.73471236 -0.058466498 -0.61382943 -0.63522726 1.7575477 -0.63488555 2.2487988 0.63564485
-0.5129362 0.050114483 -0.8645349 -2.025143 2.1228316 -0.47469282 1.6352624 -0.57757616
-0.58531094 -2.1997352 -0.7257338 0.18196201 -0.7888715 -0.47416794 -0.45468345 -1.8812351
-0.25698584 2.0103264 -1.8707716 1.4348603 -1.4884307 1.9436857 -0.5612661 -0.5475551
-0.8435652 1.5249718 2.1653163 -1.039002 -0.51060116 0.9105901 -0.9532894 -0.8205177
2.106837 -0.8588997 -0.65503436 -0.4143699 2.5936108 0.48715943 -0.55629635 -0.61030036
0.5686981 -0.9013565 -0.6478675 -0.7128062 -0.7798596 -0.8536221 -0.6358847 0.030662708
-1.3065203 -0.40582785 -0.39952445 -0.3974504 0.18429965 -0.71675706 1.2580676 -0.5509601
-0.8291235 0.06890534 -0.6609006 -1.2754472 -0.59687364 -0.58853614 -0.8624901 -0.79793495
-0.6424825 0.0850398 0.019635014 -0.46952376 2.3505285 0.43163526 0.6569461 -0.7632266
-0.27391452 0.037125643 -0.46669608 0.71232957 -2.3217905 1.1683161 -0.6182465 -1.0079646
-0.01725078 -0.7557923 -0.6287048 -0.29481938 -0.61730874 1.2085861 -2.463492 -0.5012221
-0.17440543 0.08015558 -0.30052894 -0.009491592 -0.35001057 -0.27516004 0.033830818 0.009557195
-0.40195152 -0.5444758 -0.8146715 2.2728057 -0.2366903 -0.41956282 -0.59284383 0.28470463

net.4.bias f4 [4]
00000000: 5364 02be 2c3f a33e 26d1 8b3d 242f 96bd
-0.12733583 0.31884134 0.06827001 -0.0733321
