SARSA/dsqn/1400_model_weights.pth (torch, 75929 bytes, 6 tensors)

net.0.weight f4 [128, 8]
00000000: df25 8e3f 3966 f63e 05c9 9a3e 92df bbbe
00000010: 71d6 76bf dfc4 4f3e 0581 20be 646c 98be
00000020: 62c5 be3f 7b40 3d3e 9fce 853f 619f 073e
00000030: d6b9 12bf 4dc1 993e 9800 18bd 20f7 c3bd
00000040: 6647 d4bf bb26 8f3f f386 f53d 901e 76be
00000050: b5b6 283d d196 7e3d f07e f33d e3ad cabe
00000060: 4f29 0a3f 42ff a23f ed39 703e a802 2abf
00000070: 8686 73bc 9571 e73d 6dc2 673b 468c ae3d
00000080: 5e48 cebe 4e4b 20be bd3a 19bd 6fc3 0fbe
00000090: 413f 2b3f b734 743f 5515 3b3f 78f7 b53e
000000a0: c02d cbbf 30e6 1fbe 81fb 273e b24e 16bf
000000b0: cef9 0ebf 4cc5 90bf 9dd0 b93e 7442 4c3d
000000c0: 8cbb 25bb ea78 b8ba 0051 2fbf 245e d4bc
000000d0: 2450 18c0 d157 e3bd 2b7c 86bd 699f a5bd
000000e0: 9c36 abbf 0dee 7fbe f785 353d cf6f 413f
000000f0: 129d f9bd 4492 a83e 2e96 e03d 7d78 9dbb
00000100: f905 a13d 33a0 1dbd 2088 d2bd afaa 85be
00000110: 1e5b 8c3f 7682 4f3f fb5f 533e 1ff7 923e
00000120: ae67 c4bf f071 72bf a174 243f 1406 1e3d
00000130: b11a 6bbf 2f4e ba3e 97d9 b13e 2816 12bf
00000140: 8f57 db3f 4ffb a9bd 893a b1be 5f10 b33f
00000150: c59f 7c3e 2f0f 723e 9c31 d3b9 67d0 55bf
00000160: 8f12 62bf bb20 88bf 1cd9 20c0 bb7a 1a3f
00000170: 2e03 753e dc24 01be 96d9 2b3f f390 da3e
00000180: d5c0 52bf 93f8 933e 85c6 42be dc16 ab3f
00000190: e126 3fbf cad0 373f ed0e a83e 92b4 053f
000001a0: a957 cabd fa78 7b3b 9736 a7be fdfc 583e
000001b0: 52ef 773f 6910 143f 7191 193f 0122 9dbe
000001c0: cf83 08bf f65c 0b3c c1a0 e33e 2b01 15bf
000001d0: d874 ba3e c597 863f 7971 c03e aa24 8dbc
000001e0: 1922 3cbf d853 c0be 3b27 d6be 9603 613f
000001f0: d619 09bf e3b4 2b3d 20c8 063f 86c9 273e
00000200: 3b1e 6ebf be4d c6be e0c3 0bbe dfe7 33bf
00000210: d84c 63bf 50a5 08be 0e22 703d 8b74 10bf
00000220: 7921 8b3e 4ea1 5c3e a431 77ba cee8 e03e
00000230: c3d0 75bd b3f6 383d 1d80 0d3f 2f02 473f
00000240: f36a 143f fe84 313f 11a3 4cbf 60fd 91be
00000250: f514 fdbe 1546 e93f b782 d43e 62d6 39bf
00000260: dc02 6a3f 2df5 f83e 1f35 24be 8dc6 ac3f
00000270: e29d 75bf 7b6e c8be 6f8f 8abe b847 9abf
00000280: dc73 1cbf 3749 26be 68f7 d73e eba6 b4be
00000290: 8b16 e03e dcd3 b73f 23cf 103e 8d7f a8bd
000002a0: e408 b43e 701f abbf c682 aabe a8d8 d03f
000002b0: cf01 053f 3eaf 8d3f fbaf e93e 96a8 7b3e
000002c0: a247 c0be 36a0 c83e c184 ccbe 0a4d ce3c
000002d0: 2323 803f ff00 013f 66af f73e c9bf 8a3e
000002e0: ad8e 21bf 54c8 7fbd c5c0 cdbd 11c4 3abf
000002f0: 51d4 41be b64a 2b3f 5f13 583e 5621 c1bd
00000300: e3c5 5dbf e1b9 773e b54c 07c0 d259 ea3e
00000310: 4943 29bf 4fa7 3dbe d044 943e 8787 44bd
00000320: 7a53 4b3e 4fe2 f6bc ba8f 553e ceb1 1dbf
00000330: bca0 d23e 8bf7 2c3f f6c0 f23e d526 ac3d
00000340: f108 5dbf 649f 85c0 d465 7abe b205 38be
00000350: 011b ad3f e6b0 5e3f 1536 f53e 495f 97bf
00000360: 43d1 253e 7147 8b3d 129f d93c b2cb 323f
00000370: 06dd 2d3f 73a1 82bf 2f3f febd d582 9f3e
00000380: ab54 9cbf 7226 d03d 54cb 5b3e 9028 333e
00000390: b693 503f 220c e83f 404c 0cbf ec9f f7bf
000003a0: bcd0 11bf 2dd3 bc3d cc92 09bd 1b31 68bf
000003b0: d14a c9bb ee25 163f d8ab c33e 501d 03be
000003c0: 11bb 17bf e8a9 aabe 3742 35bf e45d bbbe
000003d0: 1bb4 f3be ff82 cebf 40e9 ee3d 8e17 2a3f
000003e0: e780 0940 1f49 51be b9f5 1f3f 837f da3e
000003f0: 26e0 7ebc 6478 083e 20ee 7b3c 2548 44bb
1.1105307 0.48124865 0.3023149 -0.36694008 -0.9642096 0.20289944 -0.15674217 -0.29770195
1.4903986 0.18481629 1.0453681 0.13244392 -0.57314813 0.3003029 -0.03710994 -0.0956862
-1.6584289 1.1183695 0.1198863 -0.24035096 0.041189868 0.06215555 0.11889446 -0.3958579
0.5396928 1.2734149 0.23459597 -0.66410303 -0.014863616 0.11300961 0.003536369 0.08522849
-0.40289587 -0.15653726 -0.037409533 -0.14039396 0.6689339 0.95392936 0.73079425 0.35540366
-1.5873337 -0.15615153 0.16404535 -0.5871383 -0.5584992 -1.131021 0.36291972 0.049868062
-0.0025288789 -0.0014074121 -0.6848297 -0.025923796 -2.3798914 -0.11100734 -0.06566652 -0.08087046
-1.337604 -0.24993153 0.044317212 0.7556123 -0.12188162 0.32924092 0.109661445 -0.004805623
0.07862467 -0.038482856 -0.1027987 -0.26106784 1.0965307 0.8105844 0.20642082 0.28704163
-1.534414 -0.94705105 0.6424046 0.038580015 -0.918376 0.36387774 0.3473632 -0.5706506
1.7136096 -0.082998864 -0.3461497 1.3989371 0.24670322 0.23638605 -0.00040282018 -0.8352112
-0.8830957 -1.0634989 -2.5132513 0.6034352 0.23926994 -0.12611717 0.67128885 0.42688712
-0.8232549 0.28900585 -0.19021042 1.3366351 -0.746687 0.7180296 0.32823887 0.52228653
-0.09880001 0.0038371668 -0.32658836 0.21190257 0.9684955 0.5783754 0.5998755 -0.30690005
-0.53326124 0.00850605 0.44458583 -0.5820491 0.3641727 1.0515066 0.37586573 -0.017229397
-0.7348953 -0.37563968 -0.41826805 0.87896097 -0.5355505 0.041920554 0.52649117 0.16385469
-0.9301488 -0.38731188 -0.13648939 -0.7027568 -0.8878913 -0.13344312 0.058626227 -0.5642783
0.27173975 0.21545908 -0.0009429699 0.43927616 -0.060013544 0.045157146 0.5527361 0.77737707
0.5797569 0.69343555 -0.7993632 -0.28513622 -0.4943005 1.8224512 0.41505978 -0.7259275
0.91410613 0.48624554 -0.16035889 1.3498093 -0.95944035 -0.3914679 -0.27062556 -1.2053137
-0.6111429 -0.16238867 0.42180943 -0.35283598 0.437672 1.4361529 0.14141516 -0.082274534
0.35163033 -1.3368969 -0.33302897 1.6316118 0.51955885 1.1069105 0.45642075 0.24576029
-0.37554651 0.3918473 -0.39945033 0.02518322 1.0010723 0.50392145 0.48376006 0.27099445
-0.6310833 -0.062446907 -0.100465335 -0.72955424 -0.18928649 0.66910875 0.2110114 -0.094301865
-0.86630076 0.24192001 -2.1140568 0.45771652 -0.66118294 -0.18520854 0.2895875 -0.04798081
0.19856063 -0.03013721 0.20855609 -0.61599433 0.41138256 0.6756522 0.47412843 0.08405844
-0.8634177 -4.175707 -0.24452907 -0.17970923 1.3523866 0.86988676 0.47892824 -1.1825954
0.16193108 0.06800736 0.026565108 0.69842064 0.6791538 -1.020552 -0.12414395 0.31154504
-1.2213339 0.10163583 0.21464282 0.17495942 0.8147539 1.8128703 -0.5480385 -1.9345679
-0.5695913 0.09219966 -0.033587262 -0.9069993 -0.006142952 0.58651626 0.38217044 -0.1280415
-0.59269816 -0.33332753 -0.7080416 -0.3659507 -0.47598347 -1.6133727 0.11665583 0.6644219
2.1484926 -0.2043805 0.6248432 0.4267541 -0.015556371 0.13327175 0.015376598 -0.0029950228

net.0.bias f4 [128]
00000000: 900d f13e 8208 10be e3f0 1d3e 9da6 a03d
00000010: b6ab a43e 68ea 3fbb 10dc 55be cfc8 7b3e
00000020: 70e5 02bf 0f8e 9a3e 2f56 263f 2c93 1bbe
00000030: 7425 aabe 4c9c b93e 46c5 e03e 8101 13be
00000040: eaec 38bf 831c ab3e 47cb ce3e b6e6 a2bf
00000050: bcba 0c3f 0153 4e3f 8412 433f 15eb 433f
00000060: 4a7b e23e 6988 c43e f00b b7be 0ad4 c2be
00000070: cf92 b33d adc4 203f def8 133f 9a37 673d
00000080: 0abf 0fbf 727b bbbe 2827 2e3f 0380 06bf
00000090: 8c4a 2a3e b469 6dbe 0f86 ad3e 84f1 da3e
000000a0: 73c4 ccbe 9e1e eabe cc9c ec3d 23d7 0bbf
000000b0: 38ec 253f 4bc6 9ebc a2ef f13e f7fe 5c3f
000000c0: 73f9 4abe c67b f03e 7710 a33e 7378 743e
000000d0: e17d 983f 43f5 16bc 4e93 f9be f26b 35bf
000000e0: 2531 413f d72a f83e 21e3 273f 1319 eabe
000000f0: 45d1 5e3f 4afa 2c3f 572d 413f 414c 713f
00000100: 3948 d33e e26a 3a3e c057 86be 889c 8e3e
00000110: 92d0 d8be 70b7 adbe ace9 bcbe 5df3 7e3e
00000120: 3cb0 493f 3ded 8bbe ef0c a73e e5a7 c83e
00000130: e311 a5be 1a54 d2be 2462 0f3f 6705 5d3e
00000140: 78cb 023f 9695 d1be 2dc6 ccbe 2d53 993e
00000150: e6e8 9e3e 8589 493e ee54 0d3f 4314 e63e
00000160: 1d30 0c3e 4eee 66bf 6e69 66bb 263d 69bf
00000170: 77fa 713e 67b9 dd3e 094f cd3e b452 d73d
00000180: e4a9 703d fe89 6a3f 8a52 11bf 09a6 ecbe
00000190: 8283 f33e 7550 59bd 739e b1be a822 67bd
000001a0: 8b6e 293f 7f34 ab3e c6b4 a7bf 6382 d73e
000001b0: 7736 5bbf 2153 c7be 9528 bb3f 72df 0cbf
000001c0: b998 f73d 478c de3e 54f0 083f 6782 963e
000001d0: c284 07bf 38c7 27bf 148b 623f c432 573f
000001e0: 0e00 6d3f cdff 123f 04dc 27bf d79f 633f
000001f0: c1d6 0e3e c944 9ebe 56d1 cb3c c940 08be
0.4708066 -0.14065745 0.15423922 0.07844279 0.32162255 -0.0029284004 -0.20884728 0.24588321
-0.51131344 0.30186507 0.64975256 -0.1519286 -0.332317 0.36252058 0.43900508 -0.14356042
-0.722365 0.3342019 0.40389463 -1.2726657 0.54972434 0.80595404 0.7620013 0.7653058
0.44234687 0.38385323 -0.35751295 -0.38052398 0.08768236 0.62800103 0.57801616 0.05644951
-0.5615088 -0.3661762 0.680285 -0.5253908 0.1663 -0.23184854 0.3389134 0.42762387
-0.3999363 -0.45726484 0.11553344 -0.5462515 0.64813566 -0.019381663 0.47253138 0.86326545
-0.1982172 0.46969432 0.318485 0.23874073 1.1913415 -0.009213748 -0.48745197 -0.70867836
0.75465614 0.48470184 0.65580946 -0.45722255 0.8703807 0.6756941 0.7545981 0.9425698
0.4126604 0.18204835 -0.26238823 0.278538 -0.42346627 -0.33929014 -0.36897027 0.24897523
0.7878454 -0.27329436 0.32627055 0.39190593 -0.3224021 -0.4107979 0.56009126 0.21584092
0.5109172 -0.40934438 -0.39994946 0.2994627 0.31037062 0.19681366 0.5520772 0.44937333
0.13690229 -0.90207374 -0.0035158056 -0.9110893 0.23630701 0.43305513 0.40099362 0.10513821
0.05875577 0.9161681 -0.5676657 -0.46220425 0.4756127 -0.053055245 -0.346912 -0.056429535
0.661843 0.3343849 -1.3102043 0.42091665 -0.8562998 -0.3893061 1.462176 -0.5502845
0.120896764 0.43466398 0.5349171 0.29396364 -0.5293695 -0.6553836 0.88493466 0.8406184
0.9257821 0.5742157 -0.6557009 0.8891577 0.1394911 -0.30911854 0.024880093 -0.13305964

net.2.weight f4 [128, 128]
00000000: 5ddd 603d ad5e 71bd 2359 85bd ff6a 9ebd
00000010: 3f10 a9bd da7d 5dbd 0d0b 92bd 7a97 563c
00000020: a8d2 b83c 40e6 b13b 30da eb3c f2a7 533c
00000030: d73f 3e3d f19e 453d c7f9 b7bd 5165 863d
00000040: 6288 293d 07c9 453d 267b bfbc 803c 993d
00000050: 5c84 c73c b179 3f3d 0af2 8b3a 3d13 1dbd
00000060: 79b2 8fbd 28e2 b13c 2e01 9dbd f62f 9ebd
00000070: 89bc 8d3d 31d1 9fbc 0fbe 06bc 9d1b 8d3d
00000080: 8c7c d43b 0ed8 2bbd 3cd4 2d3c f935 983d
00000090: ae45 1ebd 68f6 3ebd 48c3 febc 73b9 8c3c
000000a0: 524e 88bd 07eb 6fbd 29c3 853d 5474 81bd
000000b0: 9ae1 9bbd 7f60 993c d490 71bd 4509 773d
000000c0: 9cb7 4ebc 8dfd 6bbd 8dbf 6d3d 54de 373d
000000d0: 43d9 c4bd b877 f0bc 1af3 813d 203e f33c
000000e0: 528a 72bd 121e 833c 5fa7 593c f2b4 b4bd
000000f0: 8036 6d3a f0f9 243c 4a83 95bd 8e1c febc
00000100: af33 e03c 6d28 77bc c485 6c3d 6cdf c43c
00000110: 9639 2e3d 7f38 c4bd 3f5f 35bd b347 1c3d
00000120: ab4e edba fd35 f33c d08e c7bc bdfc 2c3d
00000130: 1636 153d 466b e6bc 1b10 86bd bbbb 1dbc
00000140: d85b be3c 4480 aabd cae6 6ebc 455a 99bd
00000150: 702c 0a3c ca74 90bd a0e4 423d 8441 c9bb
00000160: 80f6 5cba 3979 abbd b3fe ec3c 000f 4ebd
00000170: 4495 07bc 4f9c 8cbc 29ad 2d3d 26a6 033d
00000180: 1e03 85bc 5000 953d 4a16 1dbd 0d32 993d
00000190: 2bd8 a9bd 7241 43bd 8693 1a3d b58d 973d
000001a0: 189d 4d3d d407 04bc e9ca 8ebd 9c3d 4ebd
000001b0: 0b37 643d e3cc 5b3d fc16 02bd 5026 b8bd
000001c0: c321 1bbd 4583 5cbd 00c1 493d 679e 6b3d
000001d0: 1999 80bd 09b2 173d 58d9 66bd 6471 843c
000001e0: 2f88 bbbc 6976 82bd c8bf 2e3c 9561 733d
000001f0: df5b fd3c e5b5 8e3b 7e75 30bd 9603 70bd
00000200: e23b 01c0 e107 03c0 1576 cfbe 13b2 cbbd
00000210: 014d e13e da4c 4dbe de15 d83e 13e6 c5bf
00000220: 3797 373f 5f47 063b ab51 0ac0 d5e3 1fbf
00000230: 238b a3be 0d09 443e dec0 f13e ba88 93bc
00000240: 3f64 d03d 79bf 25bf 6f4b f93d bf15 94bf
00000250: 285c 093f 3c1f d83c 3567 133d 3d7f d03e
00000260: 9c2f 72bf 2c07 953e 154c 713f d344 bdbd
00000270: 6731 ea3d a886 5b3e 8910 a2bf 1e0b 1dc0
00000280: 03b9 003f 3338 5b3f 2d05 69bf 8a80 293f
00000290: 90c5 12c0 39e8 18c0 ce1f 9fbe dc75 21bf
000002a0: 08da ccbe 699d 473e 5c7f c03d f4ac 493f
000002b0: 7b3b 1bbf fdee 843e c3e7 263e 9b78 e43d
000002c0: aac6 a23e b042 433d b3da f8bf 765c 06c0
000002d0: 228d 2ac0 ba68 fd3e d715 893e 92a5 dabf
000002e0: 8f2e 2b3e bcca 9fbf 32df 05bd 27bf b93e
000002f0: 0e9b 06bf 1d12 36bd bc16 c6bf 84b8 51c0
00000300: 9dc3 78be 4d31 18c0 2772 e6bf 655f 84bf
00000310: 5232 98bf 73d2 3dbf 5278 bebf c3f6 f9be
00000320: 5523 7bbf 0b18 febf 3eb2 d9bf d893 f23e
00000330: e8b4 be3d f2f6 9dbe 455c 0cc0 23b9 163f
00000340: 9f16 253e 3961 933f 6e6d 0b3f 46a0 77c0
00000350: daad 473e a5b9 593e 5ac3 5e3e 3b4b febf
00000360: 317e 0c3f 695b f93e 6dc9 36bf 2738 c83d
00000370: 2270 94bf cd55 4d3c 9daf d6be 54d3 3fbf
00000380: 98d8 10c0 097c 0cbf e185 013f 2293 053f
00000390: 3e43 b63d 75d1 bbbd a6f3 cc3e 9f2c 56be
000003a0: 96d5 af3e 6704 37bd 6d14 bfbf b99e b13e
000003b0: 62d1 4ebe 4c1e dfbf 70f2 12c0 34e6 043f
000003c0: 19a3 93bf 7389 6fbe 140a 003f 376b fcbe
000003d0: f1d4 2ebd 8437 683f 7db9 d6bf f2a0 313f
000003e0: e92d e5bd fd07 29bd 6ba1 883e 9f40 ccbe
000003f0: 1fdc 243d 8c52 be3e f6b8 1d3f 15c4 a83e
0.05489861 -0.05892818 -0.06511142 -0.07735252 -0.08255052 -0.0540751 -0.07131014 0.013097638
0.022561386 0.0054290593 0.028790563 0.012918459 0.0464476 0.04824728 -0.08983188 0.06562293
0.04138983 0.048287418 -0.023374151 0.074822426 0.024355106 0.046746913 0.0010676992 -0.038348425
-0.07016463 0.021714285 -0.07666241 -0.077239916 0.06920726 -0.01950893 -0.008224024 0.068900324
0.0064845737 -0.041954093 0.010609683 0.074321695 -0.03864067 -0.04662171 -0.031098977 0.017178273
-0.066555634 -0.05857375 0.065313645 -0.06321016 -0.076113895 0.01872277 -0.05897601 0.060311574
-0.012617018 -0.05761485 0.058044005 0.044889763 -0.09611752 -0.029353961 0.06345196 0.02969271
-0.059213944 0.01600555 0.013284533 -0.08823575 0.00090489537 0.010069355 -0.07300432 -0.031019475
0.027368395 -0.015085322 0.057744756 0.024032317 0.042535387 -0.09581088 -0.044280287 0.038154315
-0.001810511 0.02968883 -0.02436009 0.042233218 0.036428533 -0.028127324 -0.065460406 -0.009627278
0.023237154 -0.08325246 -0.014581392 -0.07487921 0.008433446 -0.07053526 0.047581315 -0.0061418433
-0.00084290653 -0.08372731 0.028930044 -0.050307274 -0.008275334 -0.017164377 0.042401467 0.032140873
-0.016236838 0.0727545 -0.038351335 0.074802496 -0.08293184 -0.047669835 0.037738346 0.07400075
0.050198644 -0.008058507 -0.06972296 -0.050351724 0.055716556 0.053662192 -0.0317602 -0.089916825
-0.037873995 -0.053836126 0.049256325 0.05752411 -0.06279201 0.037035022 -0.05635962 0.01616735
-0.022892086 -0.06370241 0.010665841 0.059419233 0.030927597 0.0043551796 -0.0430808 -0.05859717
-2.01928 -2.047356 -0.40519777 -0.09946074 0.44004062 -0.20048848 0.42204183 -1.5460838
0.7171511 0.0020489318 -2.1612346 -0.6245702 -0.3194209 0.19144078 0.47217458 -0.018009532
0.101753704 -0.6474529 0.12172591 -1.1569136 0.53656244 0.026382081 0.035987098 0.40722075
-0.94603896 0.29107034 0.94256717 -0.09241643 0.11435204 0.21438086 -1.2661296 -2.4538035
0.50282305 0.8563263 -0.9102352 0.6621176 -2.2933083 -2.3891737 -0.31078953 -0.63070464
-0.40010095 0.19493641 0.09399292 0.7877953 -0.60637635 0.25963584 0.16299348 0.11155816
0.31792194 0.04767102 -1.9441742 -2.0993934 -2.664864 0.49493963 0.26774475 -1.7081778
0.1671698 -1.2483745 -0.03268356 0.3627865 -0.52580345 -0.044450868 -1.5475688 -3.276887
-0.2429337 -2.378009 -1.8003587 -1.0341612 -1.1890357 -0.74149245 -1.4880469 -0.48821077
-0.9810079 -1.9851087 -1.700752 0.4737842 0.09311849 -0.30852467 -2.1931317 0.58876246
0.1612191 1.1514045 0.5446385 -3.8691573 0.19499913 0.21262224 0.21754208 -1.9866709
0.5488005 0.48702553 -0.714011 0.09776335 -1.159672 0.0125326635 -0.41930857 -0.74931836
-2.2632198 -0.5487676 0.5059491 0.5217763 0.08899544 -0.0917081 0.4002964 -0.20915459
0.3434264 -0.044681933 -1.4928108 0.34691408 -0.2019706 -1.7431121 -2.2960472 0.5191376
-1.1534148 -0.23392276 0.5001538 -0.49300548 -0.042683546 0.9070971 -1.6775357 0.6938621
-0.11190397 -0.041267384 0.26685652 -0.39893052 0.040248986 0.37172353 0.61610353 0.329621

net.2.bias f4 [128]
00000000: de44 b4bd e7bc 8ebf 07e3 74bc adb1 88bd
00000010: bdff a33d 82fd 093d 21ca 4c3f 00c0 833c
00000020: 2eec 37bf 8354 3fbc 2a44 dc3d 1fa1 cc3d
00000030: 0b00 463d 4837 393d e5b2 39bd 704e 853c
00000040: e35a 523e 7fb7 6abc 874f 8c3d c49a 083c
00000050: 39a5 49be 3b03 a6bc 9d0d 7b3f 711b d83d
00000060: 4701 93bd 4005 cbbd 2d79 e83d 7d5a 0bbd
00000070: fdcc 62be e11d 07be b696 1f3f 9b3d 8b3d
00000080: 9fbb 363b 7a88 f4be 6405 b2bc 86d7 973d
00000090: aa9e 94be eb16 823d 50d0 673d 67d4 1abe
000000a0: 02c5 b13d 24da 39bd c220 2cbe cdfc cebd
000000b0: 0d9b 3e3d 8bd5 2a3f 59f2 393d c805 8e3d
000000c0: 2b47 2d3c 63b4 523f 556c 6dbe b023 4a3d
000000d0: 12cf ab3d fb6c 1c3f ffb6 613d 1c37 033e
000000e0: 8aed 0a3f 8ab4 2a3e 87b3 f73c 34dc f83d
000000f0: ad6b 76be 33f2 b83d e8e9 c33c 4e42 073e
00000100: b42c fd3d 0c61 99bc 99e0 acbc 9307 b0bd
00000110: de06 2fbd cc64 073d 123e 05bd 3c3c 47bb
00000120: cf78 453d 0175 4c3d 144c 643d 5a39 353c
00000130: 6ac3 2f3e 9011 b73d 1d43 373f e2b4 063d
00000140: 47a1 fe3b 697e 5c3c e3e0 bb3b 2f99 913e
00000150: e482 1e3e 8a8b 873d 5a88 0e3c 8e73 403d
00000160: 332f bcbd 5b30 bbbd 52ed b9bd 1de4 253d
00000170: 97c4 2ebe 6886 e2bd 4bdc a13e 9fbf cb3d
00000180: d38a ab3d c6f9 b4bd 629a 1d3e 06af bc3e
00000190: 00a8 0ebe 273c b13e 582e c63d c934 cfba
000001a0: 22e7 7e3c a573 d63d 2adc efbc d6ea 723d
000001b0: f904 b03a 6d47 8b3e 7588 f7bd 480c 553c
000001c0: 9b67 2f3d 2962 78bd 1f95 453c fa09 80bd
000001d0: 687b b73c 070a 8f3d 6e45 87bd 789d bebd
000001e0: c413 0a3d 1170 93bd f923 a1bc 9fbd 75bd
000001f0: a096 6a3d e4af d8bc d73b 293d 10d9 0c3e
-0.08802198 -1.1151398 -0.014946706 -0.06674514 0.080077626 0.03368903 0.79995924 0.016082764
-0.71844757 -0.011677864 0.10755189 0.09991669 0.048339885 0.045218736 -0.045336623 0.016272753
0.20542483 -0.014325975 0.06851106 0.00833768 -0.19691934 -0.020265212 0.9806765 0.10552109
-0.07177978 -0.09913111 0.113512374 -0.034021843 -0.2214851 -0.13194992 0.6233934 0.0679886
0.0027882827 -0.47760373 -0.021731086 0.07414155 -0.290273 0.063520275 0.056595147 -0.15120088
0.086801544 -0.04537405 -0.16809371 -0.10106812 0.046534587 0.6673209 0.045397136 0.069346964
0.01057605 0.823065 -0.23185857 0.04935044 0.08389105 0.6110379 0.05510616 0.12813991
0.54268706 0.16670433 0.030236972 0.121513754 -0.24064513 0.09030571 0.023915246 0.13208887
0.12362042 -0.018723033 -0.02110319 -0.08595195 -0.04273116 0.03305511 -0.032529898 -0.0030400893
0.048210915 0.04991627 0.055736616 0.011061037 0.17164388 0.08938897 0.7158678 0.032887347
0.0077706906 0.013457873 0.0057335957 0.28437182 0.15479618 0.06618412 0.008699501 0.0469852
-0.0918869 -0.091400824 -0.090784684 0.04050075 -0.1706718 -0.11060792 0.31613383 0.09948658
0.08376088 -0.08836703 0.15390924 0.36852282 -0.13931274 0.34616205 0.09676808 -0.0015808578
0.015558036 0.10471276 -0.029279787 0.05930599 0.0013429216 0.2720293 -0.12086574 0.013003416
0.042823415 -0.060640488 0.012059479 -0.06251903 0.022397712 0.069843344 -0.066050395 -0.093073785
0.033710256 -0.07199109 -0.019670473 -0.05999529 0.057272553 -0.026451059 0.041316833 0.13754678

net.4.weight f4 [4, 128]
00000000: 2fb0 80bb c81c c2be dcaf 69bf 9f4c 40bd
00000010: 5c8f 27bf 6ea4 eebe ad9f b63f 64bb ac3d
00000020: 048c 1740 4ec2 f6be b29b e7be d977 05bf
00000030: a60d abbe 8498 1340 0c9a 68bf 0fd2 12bf
00000040: 7ad5 80bd 2c88 a73c 64e2 f4be a56d b8be
00000050: 477a f03f c1b0 28bf bd5e ec3f a74a 39c0
00000060: 5537 b7bf 86b6 6c3c 479e ebbe 8de9 5ac0
00000070: 8beb 0440 2726 5abf 85ca b93f 909e 98be
00000080: fd96 2cbf 7260 38c0 0459 dfbe d908 4abe
00000090: 8889 1cc0 9252 bdbe 5c8e 31bf 9c01 13bf
000000a0: c9d0 e3be 88a0 a33f df13 93bf 118e be3f
000000b0: f37c 1fbf 6e7f 0540 6de7 f8be 7c99 65be
000000c0: 138d 11bf 126a b23f 15a7 e53f 7758 bbbe
000000d0: 700c e1be 25d2 0a3f d69b f6be 8f48 7ebe
000000e0: a5be 2a3f bd10 ec3e 827e fbbe b94b 02bf
000000f0: 08bb 1a40 65bf c9bd f496 72bf d380 a3be
00000100: a563 93bf 36e1 20bf cd99 e4be 1d10 c5bf
00000110: 1156 4bbf 346c 23bf 5a8b dabe eac9 a8bd
00000120: 8c48 76bf b2ef eebe 41b7 07bf 2c63 fabe
00000130: 686e ac3f c5a2 85be 23b8 cf3f 62a9 87bf
00000140: 2ffb d9be ca8b 07bd f8f7 c6be 648f 87bf
00000150: c931 1ebe de09 03bf 7b28 b5be 107e 3ebf
00000160: 2624 52bf 222f 6b3d f566 da3a 076d 2fbf
00000170: 927d 0a40 5bd9 43bf d6b6 a13e 3196 0abf
00000180: 8fc3 14bf b565 97bc bb18 55bf c06e a33e
00000190: fc65 2ec0 8792 d13f c09e 2dbf 0034 f7bf
000001a0: 5b79 8cbd eb76 4fbe 95b3 5abf 00a3 0dbf
000001b0: 83a3 ddbe ceb1 b63f 3714 c4bf aa41 efbe
000001c0: 227b 1dbf 0b74 80bd f488 3fbf 36e9 293d
000001d0: 86a7 e7be db5a 06bf 4155 223d da5d 373c
000001e0: 8ce2 47bf 2bdb 11bf 2ccd 0bbf a001 f33f
000001f0: ad32 09bf d307 9dbf d14c 1dbf 0225 ac3c
00000200: 6ff3 5dbd 9b13 9f3f 796e 38bf 02df d63c
00000210: 5ba2 22bf 63ab 16bf 2eb3 9c3f 771d 82bd
00000220: 8530 2b40 0149 13bf cf29 ddbe 6f4e 44bf
00000230: 1f56 fbbe 97d4 4d40 32c5 1abf 9689 3ebd
00000240: 6dc5 37bf 917a 6fbd 0dfa 1bbf ffe7 21bf
00000250: 53f7 e03f dab5 1ebf 15a7 1140 e19c 2e3f
00000260: 0ffe 00bf d844 4d3d 94e1 5ebf f993 09c0
00000270: 79dc 0740 d682 00bf 2bb6 d23f 10d4 12bf
00000280: 5332 22bf 76c8 0cc0 e8f0 3dbf 477e 263e
00000290: fc41 48bf 2579 f4be 2204 ebbe 3b92 efbf
000002a0: 1869 88be e529 fc3f 689b f2bf 0e77 b83f
000002b0: e88e bdbf 5332 fa3f 7576 0ebf 243a 12bf
000002c0: 6143 56bf a31d c13f 8b94 0a40 0643 89bf
000002d0: 154a 00bf ad40 6b3f 8de5 75bf 49d6 53bf
000002e0: 6e20 0640 316e 5ebf 7833 27bf 7bfc d4be
000002f0: b8fd 2540 2184 f83e 7de0 0abf a839 1dbf
00000300: 5dbe 083f 6fdd 62bf 2335 26bf dc6e 34bf
00000310: 5b12 4fbf 26df 55bf 9ab6 20bf 5c30 fb3c
00000320: fb62 a3bf 7b0e d5be fb11 fcbe 48b8 cabe
00000330: d744 813e 2c65 3abf c416 9d3f 6092 0fbf
00000340: 2cd8 54bf 3e1e 8d3d eb68 28bf be3e a4bf
00000350: db15 1fbf 2d5c 16bf 2ed5 60bf ba19 48bf
00000360: 35ab 21bf 5929 ae3d 9cd9 a03c 6088 f5be
00000370: 0f6f 1640 1a65 e03e df13 393f 82e6 3fbf
00000380: 1e84 8abe 0f11 183d a055 f5be fd63 413f
00000390: 4174 16c0 8ac1 933f 508f 1dbf a596 7fbf
000003a0: 8251 8dbc 3ed2 42bf 4201 1dbf f114 93be
000003b0: 3c09 1bbf 7b88 a33f f4ac 20c0 0ef4 05bf
000003c0: 5bbf 36be 9c28 a43d 6bc7 adbe 9f82 1bbc
000003d0: 24d2 b9be 911e a0be 2f92 0a3d c895 1c3c
000003e0: c981 cdbe 2e1c 08bf 99a6 4dbf 5e36 1340
000003f0: e179 75be 5573 d4be ac8b 1cbf 06e0 993e
-0.0039272527 -0.37912583 -0.91283965 -0.04694807 -0.65453124 -0.46609825 1.4267479 0.084341794
2.3679209 -0.48195118 -0.45235974 -0.52136 -0.3340885 2.3061838 -0.90860057 -0.57351774
-0.062907174 0.020450674 -0.47828972 -0.36021152 1.8787316 -0.65894705 1.8466412 -2.8951814
-1.4313761 0.014447814 -0.46019194 -3.4205048 2.0768764 -0.85214466 1.4514929 -0.29808474
-0.6741789 -2.8808866 -0.436226 -0.19729938 -2.4458942 -0.3697706 -0.6935785 -0.5742433
-0.44495228 1.2783365 -1.1490439 1.4887105 -0.6230003 2.0859027 -0.48614064 -0.22421831
-0.5685589 1.393862 1.7941614 -0.3659093 -0.43954802 0.54226905 -0.48165768 -0.24832366
0.6669715 0.4610652 -0.49119955 -0.50896794 2.4176655 -0.09850959 -0.94761586 -0.31934223
-1.1514784 -0.62843645 -0.4464859 -1.5395542 -0.794282 -0.6383698 -0.42684442 -0.08241637
-0.9620445 -0.46667248 -0.53014 -0.48903787 1.3471193 -0.26100746 1.6228069 -1.0598567
-0.4257445 -0.033092298 -0.3886106 -1.0590634 -0.15448679 -0.5118693 -0.35382447 -0.74411106
-0.8208641 0.057417996 0.0016662764 -0.6852574 2.1639142 -0.76503533 0.31584805 -0.54135424
-0.581109 -0.018481115 -0.8324086 0.31920433 -2.7249746 1.6372842 -0.6782036 -1.9312744
-0.06859084 -0.20260207 -0.8543027 -0.55326843 -0.43288812 1.4273012 -1.5318669 -0.46729785
-0.6151601 -0.062721334 -0.7481835 0.041482173 -0.45244998 -0.52482384 0.039632086 0.01119181
-0.7808006 -0.5697505 -0.5460994 1.8984871 -0.5359295 -1.2268013 -0.6144534 0.02101374
-0.054187234 1.2427858 -0.7204357 0.026229385 -0.63528985 -0.58855265 1.2242181 -0.06353276
2.6748364 -0.5753327 -0.4319596 -0.7668218 -0.49089143 3.2161005 -0.60457146 -0.04651793
-0.7178562 -0.058466498 -0.6092842 -0.6324462 1.7575477 -0.61996233 2.2758229 0.6820813
-0.5038766 0.050114483 -0.87062955 -2.1496565 2.1228316 -0.5019964 1.6461843 -0.5735483
-0.6335804 -2.1997352 -0.7419572 0.16259108 -0.78225684 -0.47748676 -0.4590159 -1.8716501
-0.2664268 1.9700285 -1.8953676 1.4411333 -1.4809237 1.9546608 -0.556495 -0.57119966
-0.8369656 1.508717 2.1653163 -1.0723579 -0.5011304 0.9189556 -0.9605339 -0.8274885
2.0957294 -0.8688689 -0.6531291 -0.41598877 2.5936108 0.48538306 -0.5424879 -0.614161
0.5341547 -0.8861913 -0.6492483 -0.7048166 -0.80887383 -0.8354362 -0.6277863 0.030662708
-1.2764581 -0.4161261 -0.49232468 -0.3959372 0.25247833 -0.72810626 1.2272573 -0.56082726
-0.8314235 0.06890534 -0.6578509 -1.2831647 -0.62142724 -0.587344 -0.87825286 -0.78164256
-0.63151866 0.0850398 0.019635014 -0.47955608 2.3505285 0.43827134 0.72295946 -0.749611
-0.27053922 0.037125643 -0.4791689 0.75543195 -2.3508456 1.1543438 -0.615468 -0.9983924
-0.01725078 -0.76102054 -0.61330044 -0.28726915 -0.60560966 1.2776026 -2.5105562 -0.5232552
-0.17846434 0.08015558 -0.33941206 -0.009491592 -0.36293137 -0.3127332 0.033830818 0.009557195
-0.4013808 -0.53168 -0.8033233 2.3001933 -0.23972274 -0.4149424 -0.6115062 0.3005373

net.4.bias f4 [4]
00000000: ef7c 09be 274f a23e 83f6 b23d a5bc b2bd
-0.13426565 0.31701013 0.08738425 -0.08727387
