SARSA/dsqn/1450_model_weights.pth (torch, 75929 bytes, 6 tensors)

net.0.weight f4 [128, 8]
1.0997087 0.4818828 0.3590081 -0.3571861 -1.0189099 0.19031009 -0.16073215 -0.2927939
1.3938478 0.18827352 1.1065363 0.24304755 -0.60807395 0.32215086 0.01593894 -0.06303929
-1.7395029 1.1249218 0.19468474 -0.16029638 0.07871579 0.040491905 0.07995308 -0.37012908
0.5448979 1.2898144 0.24158844 -0.67425615 -0.028144531 0.11159609 0.004556511 0.0941168
-0.40840474 -0.14040817 -0.06543385 -0.10552958 0.6901229 0.95461065 0.73040366 0.35291559
-1.6306695 -0.14357914 0.10068279 -0.56587636 -0.5418803 -1.1008267 0.3465885 0.062972814
0.033892747 0.010496144 -0.70596546 0.034077473 -2.3042974 -0.20086445 -0.07870625 -0.12538135
-1.3752621 -0.22971933 -0.021772956 0.65875745 -0.12938645 0.33250964 0.10993894 -0.016438227
0.09704982 -0.06661659 -0.115457654 -0.25476533 1.0961152 0.8151789 0.2178076 0.28641722
-1.5394213 -0.6497205 0.50987124 -0.18554617 -1.0526736 0.30238575 0.31642726 -0.6059312
1.7966552 -0.021498153 -0.40539947 1.3184687 0.26087728 0.21436933 -0.026471639 -0.8877919
-0.88637483 -1.1520265 -2.4965355 0.5414656 0.31538743 -0.11103208 0.7006024 0.45925286
-0.87379205 0.25554124 -0.21262522 1.3660357 -0.7687502 0.74909264 0.34540787 0.5203151
-0.100187115 -0.002749017 -0.28651905 0.22689545 0.95662963 0.5971619 0.60694724 -0.32148594
-0.5270041 0.023106273 0.4471911 -0.58728933 0.37202743 1.0293627 0.38408503 -0.016982004
-0.72292906 -0.34928823 -0.47176796 0.813322 -0.5278638 0.030920187 0.54553753 0.15072595
-0.89589673 -0.3605569 -0.14760736 -0.69408125 -0.8550033 -0.22519426 -0.0056493636 -0.5642783
0.3213497 0.18181863 -0.015830422 0.38806224 -0.07967664 0.05691005 0.5508808 0.79822564
0.5680698 0.6977539 -0.84939915 -0.26722825 -0.50962174 1.8260453 0.41823244 -0.72287154
0.83873045 0.48345652 -0.184664 1.3414882 -0.885868 -0.39733097 -0.27062556 -1.2053137
-0.5874757 -0.16143662 0.3962466 -0.35256585 0.43982103 1.4281672 0.13235918 -0.09290422
0.33765352 -1.4051191 -0.33824363 1.6186869 0.5077216 1.1206235 0.44507942 0.22892636
-0.40392825 0.3927925 -0.41012582 0.08361844 1.0195966 0.50186735 0.46044463 0.25290045
-0.6212073 -0.055317305 -0.09995972 -0.75685567 -0.2029406 0.6674651 0.2244784 -0.08909035
-0.81617254 0.20760486 -2.1399977 0.39705637 -0.58246964 -0.22106016 0.29423532 -0.049480498
0.22279686 -0.030384997 0.20658603 -0.6435166 0.40281117 0.68097615 0.48025373 0.088292666
-0.8714331 -4.2016325 -0.25361758 -0.23735528 1.3499037 0.8646439 0.47516555 -1.2114999
0.15560752 0.097771056 0.008062198 0.6369677 0.6880668 -1.0484279 -0.12297963 0.30362308
-1.2043707 0.13192368 0.11257553 0.119867526 0.7521651 1.8257245 -0.5606189 -1.9378276
-0.5625178 0.109858155 -0.035873562 -0.93734705 -0.019461408 0.5792004 0.39392394 -0.12558313
-0.61504894 -0.29389152 -0.7223791 -0.361182 -0.49413562 -1.6188908 0.1229954 0.64501184
2.2461178 -0.20012043 0.58582467 0.35325786 -0.052946437 0.1362183 0.0075089936 0.00819194
00000000: 41c3 8c3f 58b9 f63e e9cf b73e 19e1 b6be
00000010: a46b 82bf a6e0 423e f896 24be 15e9 95be
00000020: 9b69 b23f c6ca 403e fba2 8d3f 75e1 783e
00000030: bcaa 1bbf f5f0 a43e 6192 823c be1a 81bd
00000040: 08a8 debf 70fd 8f3f 705b 473e bc24 24be
00000050: be35 a13d d7da 253d 71be a33d 8f81 bdbe
00000060: 6e7e 0b3f a318 a53f f662 773e 0d9c 2cbf
00000070: 5c8f e6bc 7e8c e43d c94e 953b 4fc0 c03d
00000080: 6d1a d1be 29c7 0fbe 2f02 86bd e41f d8bd
00000090: e5ab 303f 5d61 743f bcfb 3a3f 5ab1 b43e
000000a0: c7b9 d0bf 6906 13be c732 ce3d 46dd 10bf
000000b0: abb8 0abf e4e7 8cbf 0c74 b13e e4f7 803d
000000c0: 1fd3 0a3d 05f8 2b3c 27ba 34bf d294 0b3d
000000d0: 9c79 13c0 69af 4dbe be30 a1bd f863 00be
000000e0: 9708 b0bf 8b3b 6bbe 335d b2bc 54a4 283f
000000f0: e27d 04be b43e aa3e ab27 e13d 76a9 86bc
00000100: 0ec2 c63d 476e 88bd 1075 ecbd 9a70 82be
00000110: 814d 8c3f 90af 503f f508 5f3e 47a5 923e
00000120: c20b c5bf 1554 26bf ec86 023f d1ff 3dbe
00000130: 02be 86bf 4ed2 9a3e c102 a23e 4f1e 1bbf
00000140: ccf8 e53f e51c b0bc 8590 cfbe 95c3 a83f
00000150: b591 853e a283 5b3e 0ddb d8bc 5446 63bf
00000160: 76e9 62bf 9b75 93bf 3dc7 1fc0 7d9d 0a3f
00000170: 767a a13e ca64 e3bd ae5a 333f 3123 eb3e
00000180: d6b0 5fbf 4dd6 823e 6dba 59be 42da ae3f
00000190: d0cc 44bf 89c4 3f3f 4dd9 b03e 5f33 053f
000001a0: e72e cdbd da28 34bb a0b2 92be 4857 683e
000001b0: aee5 743f 9adf 183f e560 1b3f ce99 a4be
000001c0: bee9 06bf 5e49 bd3c 3bf6 e43e 9858 16bf
000001d0: 617a be3e 28c2 833f cba6 c43e d81d 8bbc
000001e0: e111 39bf e8d5 b2be 928b f1be df35 503f
000001f0: 1522 07bf 554c fd3c 59a8 0b3f e757 1a3e
00000200: 7d59 65bf ea9a b8be 6226 17be 4faf 31bf
00000210: 7fe1 5abf 5399 66be 4c1e b9bb 8b74 10bf
00000220: f387 a43e aa2e 3a3e cdae 81bc 18b0 c63e
00000230: 822d a3bd 831a 693d 8606 0d3f 8458 4c3f
00000240: 066d 113f 00a0 323f 3972 59bf 24d2 88be
00000250: 9276 02bf dabb e93f 9022 d63e 1c0e 39bf
00000260: 0ab7 563f 9d87 f73e 8f18 3dbe e3b5 ab3f
00000270: 3fc8 62bf f76e cbbe 6f8f 8abe b847 9abf
00000280: cf64 16bf a44f 25be d6e0 ca3e 8383 b4be
00000290: 3930 e13e 2fce b63f 2a89 073e 9144 bebd
000002a0: ece0 ac3e f1da b3bf 452e adbe 2231 cf3f
000002b0: 0bfa 013f 9770 8f3f 73e1 e33e ac6b 6a3e
000002c0: afcf cebe 191c c93e 03fc d1be 2540 ab3d
000002d0: 2482 823f 617a 003f 66bf eb3e 2b7c 813e
000002e0: 7107 1fbf 6694 62bd afb7 ccbd 4bc1 41bf
000002f0: a9cf 4fbe fede 2a3f aadd 653e 0075 b6bd
00000300: aff0 50bf 5e96 543e b9f5 08c0 f94a cb3e
00000310: bb1c 15bf 985d 62be 03a6 963e 10ac 4abd
00000320: dc24 643e f5e9 f8bc 4a8b 533e 81bd 24bf
00000330: 443d ce3e 7454 2e3f d1e3 f53e c9d2 b43d
00000340: 3d16 5fbf c673 86c0 2ada 81be 430d 73be
00000350: a5c9 ac3f 4d59 5d3f e648 f33e 6e12 9bbf
00000360: 9457 1f3e 313c c83d 4f17 043c 5110 233f
00000370: 2525 303f e332 86bf bfdc fbbd 7c74 9b3e
00000380: d228 9abf 0017 073e 008e e63d 1b7d f53d
00000390: e48d 403f 57b1 e93f b884 0fbf bc0a f8bf
000003a0: 2b01 10bf 50fd e03d 28f0 12bd faf5 6fbf
000003b0: 886d 9fbc 7a46 143f 66b0 c93e dd98 00be
000003c0: d973 1dbf f378 96be d6ed 38bf d9ec b8be
000003d0: 58ff fcbe d037 cfbf 03e5 fb3d 7f1f 253f
000003e0: 65c0 0f40 5fec 4cbe 9bf8 153f 37de b43e
000003f0: 5dde 58bd cf7c 0b3e 010e f63b 7d37 063c

net.0.bias f4 [128]
0.46711665 -0.16951701 0.1399245 0.07030217 0.3261783 -0.044286005 -0.2413611 0.272358
-0.51436394 0.37564516 0.67647576 -0.14612255 -0.31197008 0.37583387 0.4519309 -0.14935873
-0.7659035 0.3284393 0.38897637 -1.2752746 0.5576801 0.8244599 0.7637803 0.7555004
0.45420784 0.37395075 -0.37720302 -0.38702652 0.0795231 0.61711264 0.57983613 0.0847838
-0.54642713 -0.36745235 0.674832 -0.52697754 0.17349862 -0.22688937 0.3341643 0.4639453
-0.3740781 -0.46882492 0.10754354 -0.53496164 0.64534765 0.009928525 0.46902594 0.87148994
-0.19756407 0.4727863 0.29482076 0.24771112 1.1784098 -0.022112537 -0.46291882 -0.70867836
0.76165384 0.48023707 0.65950984 -0.45710462 0.87852436 0.695974 0.7593698 0.95437706
0.40131298 0.22655566 -0.26928824 0.28058982 -0.4113982 -0.33330303 -0.40686157 0.25776318
0.7773516 -0.26089478 0.36872563 0.40923318 -0.32171744 -0.3804425 0.59863335 0.22783916
0.49177745 -0.40912375 -0.44352773 0.35443708 0.28884295 0.2221665 0.5389547 0.4933401
0.13949832 -0.93708 -0.032953385 -0.9110893 0.22812407 0.420977 0.39931536 0.084157415
0.051878616 0.91967106 -0.56844044 -0.47767192 0.47193107 -0.035104614 -0.34307474 -0.08011827
0.64057016 0.33525068 -1.3102043 0.39003167 -0.84962356 -0.39337832 1.4706726 -0.5412164
0.14844021 0.47131446 0.53545076 0.28145188 -0.55308306 -0.69072115 0.8845095 0.84750545
0.9286254 0.5674912 -0.6505621 0.8837516 0.1495131 -0.3117669 0.026172247 -0.14925084
00000000: ea29 ef3e de95 2dbe 5e48 0f3e 96fa 8f3d
00000010: d800 a73e 3e65 35bd 5d27 77be 8272 8b3e
00000020: 5bad 03bf 9054 c03e 842d 2d3f 26a1 15be
00000030: 8bba 9fbe 4c6d c03e 7d63 e73e 7ff1 18be
00000040: 4012 44bf 3229 a83e e927 c73e 333c a3bf
00000050: 1fc4 0e3f ce0f 533f 1b87 433f 7968 413f
00000060: ee8d e83e 7976 bf3e c120 c1be 5728 c6be
00000070: 02dd a23d 18fb 1d3f 2470 143f 21a3 ad3d
00000080: a6e2 0bbf b722 bcbe cac1 2c3f 00e8 06bf
00000090: 9fa9 313e b055 68be 9517 ab3e 3d8a ed3e
000000a0: 2a87 bfbe d209 f0be ca3f dc3d 3ff3 08bf
000000b0: 8135 253f 41ab 223c 2b24 f03e f719 5f3f
000000c0: 3c4e 4abe 0c11 f23e bff2 963e fca7 7d3e
000000d0: 22d6 963f 5a25 b5bc b203 edbe f26b 35bf
000000e0: bffb 423f a2e1 f53e a3d5 283f 9e09 eabe
000000f0: f9e6 603f 5a2b 323f 0f66 423f 0e52 743f
00000100: e578 cd3e 35fe 673e 26e0 89be 78a9 8f3e
00000110: c9a2 d2be b2a6 aabe 2950 d0be 89f9 833e
00000120: 8400 473f 0094 85be 9bc9 bc3e 0387 d13e
00000130: 26b8 a4be 5cc9 c2be 0940 193f ab4e 693e
00000140: 41ca fb3e ab78 d1be 1116 e3be c778 b53e
00000150: 39e3 933e 9d7f 633e eff8 093f 1397 fc3e
00000160: a6d8 0e3e 7ae4 6fbf 21fa 06bd 263d 69bf
00000170: 5b99 693e 4c8a d73e 1073 cc3e b95a ac3d
00000180: ac7e 543d 906f 6b3f 5085 11bf 6a91 f4be
00000190: f3a0 f13e dbc9 0fbd 7ea7 afbe 0c15 a4bd
000001a0: 68fc 233f faa5 ab3e c6b4 a7bf 3bb2 c73e
000001b0: ee80 59bf e268 c9be 003f bc3f 288d 0abf
000001c0: b600 183e 2150 f13e 4d13 093f 761a 903e
000001d0: da96 0dbf 1ad3 30bf 376f 623f 1ef6 583f
000001e0: 65ba 6d3f 1a47 113f 3d8b 26bf 8b3d 623f
000001f0: f619 193e e99f 9fbe 2e67 d63c 36d5 18be

net.2.weight f4 [128, 128]
0.05489861 -0.05892818 -0.06511142 -0.07735252 -0.08255052 -0.0540751 -0.07131014 0.013097638
0.022561386 0.0054290593 0.028790563 0.012918459 0.0464476 0.04824728 -0.08983188 0.06562293
0.04138983 0.048287418 -0.023374151 0.074822426 0.024355106 0.046746913 0.0010676992 -0.038348425
-0.07016463 0.021714285 -0.07666241 -0.077239916 0.06920726 -0.01950893 -0.008224024 0.068900324
0.0064845737 -0.041954093 0.010609683 0.074321695 -0.03864067 -0.04662171 -0.031098977 0.017178273
-0.066555634 -0.05857375 0.065313645 -0.06321016 -0.076113895 0.01872277 -0.05897601 0.060311574
-0.012617018 -0.05761485 0.058044005 0.044889763 -0.09611752 -0.029353961 0.06345196 0.02969271
-0.059213944 0.01600555 0.013284533 -0.08823575 0.00090489537 0.010069355 -0.07300432 -0.031019475
0.027368395 -0.015085322 0.057744756 0.024032317 0.042535387 -0.09581088 -0.044280287 0.038154315
-0.001810511 0.02968883 -0.02436009 0.042233218 0.036428533 -0.028127324 -0.065460406 -0.009627278
0.023237154 -0.08325246 -0.014581392 -0.07487921 0.008433446 -0.07053526 0.047581315 -0.0061418433
-0.00084290653 -0.08372731 0.028930044 -0.050307274 -0.008275334 -0.017164377 0.042401467 0.032140873
-0.016236838 0.0727545 -0.038351335 0.074802496 -0.08293184 -0.047669835 0.037738346 0.07400075
0.050198644 -0.008058507 -0.06972296 -0.050351724 0.055716556 0.053662192 -0.0317602 -0.089916825
-0.037873995 -0.053836126 0.049256325 0.05752411 -0.06279201 0.037035022 -0.05635962 0.01616735
-0.022892086 -0.06370241 0.010665841 0.059419233 0.030927597 0.0043551796 -0.0430808 -0.05859717
-2.1075828 -2.047356 -0.4151349 -0.08493226 0.45833954 -0.20048848 0.42204183 -1.6135426
0.7420957 -0.092172466 -2.1675682 -0.58318216 -0.29118243 0.20794666 0.48805082 -0.0008410323
0.101753704 -0.67791027 0.12547186 -1.1569136 0.5514466 0.037434716 0.052371174 0.4161805
-0.96204805 0.3089913 0.966362 -0.09241643 0.12579815 0.22696334 -1.2661296 -2.4546933
0.5230693 0.8916704 -0.889898 0.68368495 -2.2933083 -2.4518995 -0.30641636 -0.7763095
-0.40010095 0.19493641 0.117852464 0.8146364 -0.59960616 0.1597574 0.18202017 0.1184799
0.29965994 0.04767102 -2.0609317 -2.0809805 -2.6638672 0.5175853 0.36279938 -1.7081778
0.18112162 -1.3762088 -0.017597063 0.39107236 -0.5394906 -0.06375545 -1.5475688 -3.4653034
-0.2429337 -2.378009 -1.8003587 -1.0341612 -1.1658297 -0.8355037 -1.4880469 -0.47066653
-0.98870134 -1.9212934 -2.0780003 0.48757344 0.09311849 -0.24789016 -2.2636392 0.5974262
0.17465445 1.1777711 0.55859536 -4.1969113 0.21741536 0.37804535 0.23117647 -2.0559585
0.5656614 0.5195637 -0.6933214 0.09776335 -1.4512907 0.028118841 -0.39339367 -0.74931836
-2.2751954 -0.56779623 0.52494025 0.5447795 0.0990992 -0.06796654 0.41428593 -0.20915459
0.36440447 -0.029863885 -1.4928108 0.36183065 -0.2019706 -1.7431121 -2.3058345 0.54032063
-1.2811201 -0.2882632 0.5168935 -0.4751014 -0.118513174 0.9337765 -1.6778576 0.710798
-0.099012434 -0.035097353 0.2871496 -0.40370092 0.06044275 0.39191493 0.6376862 0.34643006
00000000: 5ddd 603d ad5e 71bd 2359 85bd ff6a 9ebd
00000010: 3f10 a9bd da7d 5dbd 0d0b 92bd 7a97 563c
00000020: a8d2 b83c 40e6 b13b 30da eb3c f2a7 533c
00000030: d73f 3e3d f19e 453d c7f9 b7bd 5165 863d
00000040: 6288 293d 07c9 453d 267b bfbc 803c 993d
00000050: 5c84 c73c b179 3f3d 0af2 8b3a 3d13 1dbd
00000060: 79b2 8fbd 28e2 b13c 2e01 9dbd f62f 9ebd
00000070: 89bc 8d3d 31d1 9fbc 0fbe 06bc 9d1b 8d3d
00000080: 8c7c d43b 0ed8 2bbd 3cd4 2d3c f935 983d
00000090: ae45 1ebd 68f6 3ebd 48c3 febc 73b9 8c3c
000000a0: 524e 88bd 07eb 6fbd 29c3 853d 5474 81bd
000000b0: 9ae1 9bbd 7f60 993c d490 71bd 4509 773d
000000c0: 9cb7 4ebc 8dfd 6bbd 8dbf 6d3d 54de 373d
000000d0: 43d9 c4bd b877 f0bc 1af3 813d 203e f33c
000000e0: 528a 72bd 121e 833c 5fa7 593c f2b4 b4bd
000000f0: 8036 6d3a f0f9 243c 4a83 95bd 8e1c febc
00000100: af33 e03c 6d28 77bc c485 6c3d 6cdf c43c
00000110: 9639 2e3d 7f38 c4bd 3f5f 35bd b347 1c3d
00000120: ab4e edba fd35 f33c d08e c7bc bdfc 2c3d
00000130: 1636 153d 466b e6bc 1b10 86bd bbbb 1dbc
00000140: d85b be3c 4480 aabd cae6 6ebc 455a 99bd
00000150: 702c 0a3c ca74 90bd a0e4 423d 8441 c9bb
00000160: 80f6 5cba 3979 abbd b3fe ec3c 000f 4ebd
00000170: 4495 07bc 4f9c 8cbc 29ad 2d3d 26a6 033d
00000180: 1e03 85bc 5000 953d 4a16 1dbd 0d32 993d
00000190: 2bd8 a9bd 7241 43bd 8693 1a3d b58d 973d
000001a0: 189d 4d3d d407 04bc e9ca 8ebd 9c3d 4ebd
000001b0: 0b37 643d e3cc 5b3d fc16 02bd 5026 b8bd
000001c0: c321 1bbd 4583 5cbd 00c1 493d 679e 6b3d
000001d0: 1999 80bd 09b2 173d 58d9 66bd 6471 843c
000001e0: 2f88 bbbc 6976 82bd c8bf 2e3c 9561 733d
000001f0: df5b fd3c e5b5 8e3b 7e75 30bd 9603 70bd
00000200: a3e2 06c0 e107 03c0 908c d4be f7f0 adbd
00000210: 7bab ea3e da4c 4dbe de15 d83e 9088 cebf
00000220: fcf9 3d3f ebc4 bcbd 70b9 0ac0 6d4b 15bf
00000230: dd15 95be f8ef 543e cce1 f93e b978 5cba
00000240: 3f64 d03d 878b 2dbf b27b 003e bf15 94bf
00000250: 9b2b 0d3f 2555 193d 2883 563d 9c15 d53e
00000260: c848 76bf 1c34 9e3e 8063 773f d344 bdbd
00000270: 3bd1 003e 1469 683e 8910 a2bf b219 1dc0
00000280: dfe7 053f 8344 643f 5bd0 63bf fa05 2f3f
00000290: 90c5 12c0 eceb 1cc0 9be2 9cbe 38bc 46bf
000002a0: 08da ccbe 699d 473e a25c f13d 038c 503f
000002b0: ca7f 19bf 7297 233e 7f63 3a3e 97a5 f23d
000002c0: 076d 993e b042 433d 4ee6 03c0 c92e 05c0
000002d0: cd7c 2ac0 7880 043f d7c0 b93e 92a5 dabf
000002e0: f277 393e 9c27 b0bf b727 90bc a33a c83e
000002f0: 0e1c 0abf 3892 82bd bc16 c6bf 88c7 5dc0
00000300: 9dc3 78be 4d31 18c0 2772 e6bf 655f 84bf
00000310: e839 95bf 92e3 55bf 5278 bebf 34fb f0be
00000320: 881b 7dbf f1ec f5bf f5fd 04c0 3aa3 f93e
00000330: e8b4 be3d ebd6 7dbe 77df 10c0 ecf0 183f
00000340: 9ed8 323e 34c1 963f 1b00 0f3f 194d 86c0
00000350: 22a2 5e3e 298f c13e 86b9 6c3e d394 03c0
00000360: 2fcf 103f 2002 053f 837d 31bf 2738 c83d
00000370: e5c3 b9bf 7c59 e63c e56a c9be 54d3 3fbf
00000380: cd9c 11c0 185b 11bf 7c62 063f ab76 0b3f
00000390: 85f4 ca3d 0b32 8bbd 491d d43e 9f2c 56be
000003a0: 3993 ba3e 1ba5 f4bc 6d14 bfbf de41 b93e
000003b0: 62d1 4ebe 4c1e dfbf cb92 13c0 7452 0a3f
000003c0: befb a3bf 3c97 93be 2253 043f 7e40 f3be
000003d0: 09b7 f2bd fa0b 6f3f 0ac4 d6bf dcf6 353f
000003e0: 08c7 cabd 3ec2 0fbd 4605 933e e3b1 cebe
000003f0: d192 773d 13a9 c83e 673f 233f 485f b13e

net.2.bias f4 [128]
-0.08802198 -1.1168829 -0.024782758 -0.06674514 0.06542539 0.036499184 0.79900306 0.016082764
-0.7221709 -0.004211902 0.10428938 0.09602758 0.046510488 0.037624367 -0.041642714 -0.000310379
0.22028877 -0.014325975 0.06490963 0.010546131 -0.19691934 -0.015916154 0.98422396 0.09834098
-0.0772802 -0.09913111 0.1141879 -0.073373064 -0.2214851 -0.1511752 0.619048 0.06543316
0.021846775 -0.4870052 -0.043298993 0.06884635 -0.30531415 0.06892437 0.069513254 -0.14476135
0.0867569 -0.01866341 -0.1702844 -0.12342519 0.03580779 0.6695691 0.048178006 0.05838763
0.015184023 0.83901685 -0.23185857 0.055835795 0.08024154 0.611467 0.07200833 0.13281266
0.52952677 0.16923977 0.032205082 0.123963445 -0.24064513 0.09026664 0.028425016 0.13683854
0.12173222 -0.009246528 -0.015347787 -0.099259906 -0.035442706 0.021964705 -0.038600367 -0.0030400893
0.049713716 0.04619468 0.07275031 0.0048810164 0.17633298 0.083230376 0.7170488 0.018672591
0.012047459 0.013457873 0.012870887 0.28282377 0.15681078 0.062097806 -0.015672514 0.055791028
-0.09120334 -0.091400824 -0.090784684 0.043965004 -0.1706718 -0.1125645 0.32167962 0.11750367
0.08290104 -0.08836703 0.16532002 0.37902272 -0.15581185 0.34372228 0.11434779 -0.0026513562
0.015558036 0.10727769 -0.035488617 0.06295229 0.00074319757 0.2618967 -0.12635972 0.0015011805
0.054698072 -0.060640488 0.028466497 -0.06251903 0.027099552 0.07951087 -0.066050395 -0.093073785
0.035509486 -0.05902328 -0.011803595 -0.048629865 0.058752935 -0.022333303 0.048049156 0.13132925
00000000: de44 b4bd 05f6 8ebf 3605 cbbc adb1 88bd
00000010: bffd 853d 2b80 153d 778b 4c3f 00c0 833c
00000020: 31e0 38bf ff03 8abb ac95 d53d 1caa c43d
00000030: c881 3e3d 021c 1a3d 8d91 2abd 5dba a2b9
00000040: 6193 613e 7fb7 6abc 57ef 843d aec9 2c3c
00000050: 39a5 49be 9862 82bc 1af6 7b3f ff66 c93d
00000060: 1545 9ebd 4005 cbbd 59db e93d 9e44 96bd
00000070: fdcc 62be accd 1abe ee79 1e3f d201 863d
00000080: 02f8 b23c bf58 f9be 495a 31bd 51ff 8c3d
00000090: 2352 9cbe 3828 8d3d f75c 8e3d 523c 14be
000000a0: 9aad b13d 02e4 98bc 095f 2ebe 59c6 fcbd
000000b0: 30ab 123d e168 2b3f 4d56 453d de27 6f3d
000000c0: 69c6 783c cfc9 563f 556c 6dbe 13b4 643d
000000d0: ad55 a43d 1a89 1c3f 1a79 933d 0b00 083e
000000e0: 118f 073f 314d 2d3e 7ae9 033d 8ce0 fd3d
000000f0: ad6b 76be b7dd b83d 94db e83c 671f 0c3e
00000100: be4e f93d c07e 17bc 4975 7bbc c748 cbbd
00000110: 5f2c 11bd 53ef b33c 6b1b 1ebd 3c3c 47bb
00000120: 9ca0 4b3d a236 3d3d 1dfe 943d eff0 9f3b
00000130: a290 343e b074 aa3d 8390 373f 43f7 983c
00000140: b562 453c 697e 5c3c 6ae0 523c 47ce 903e
00000150: 0193 203e 455a 7e3d a563 80bc 2285 643d
00000160: d1c8 babd 5b30 bbbd 52ed b9bd a614 343d
00000170: 97c4 2ebe 3788 e6bd 31b3 a43e c4a5 f03d
00000180: 05c8 a93d c6f9 b4bd a749 293e 440f c23e
00000190: 248d 1fbe 5efc af3e 2d2f ea3d 60c2 2dbb
000001a0: 22e7 7e3c 68b4 db3d 835c 11bd 21ed 803d
000001b0: 25d3 423a 5317 863e 7164 01be 42c3 c43a
000001c0: 160b 603d 2962 78bd 9232 e93c fa09 80bd
000001d0: e1ff dd3c 98d6 a23d 6e45 87bd 789d bebd
000001e0: 6572 113d 65c2 71bd de63 41bc 1c30 47bd
000001f0: eba6 703d 55f4 b6bc 31cf 443d 2d7b 063e

net.4.weight f4 [4, 128]
-0.0039272527 -0.37912583 -0.98168415 -0.04694807 -0.6672886 -0.50150543 1.4324882 0.084341794
2.5377748 -0.502598 -0.46253267 -0.49505576 -0.33692884 2.2138002 -0.97970015 -0.64489895
-0.045347955 0.020450674 -0.4855755 -0.3594736 1.8787316 -0.7219084 1.8580213 -3.0112243
-1.4615048 0.014447814 -0.46206802 -3.6989956 2.0768764 -0.8779525 1.4559399 -0.3029786
-0.69245136 -2.8808866 -0.4372598 -0.19978824 -2.4054 -0.37102437 -0.6856472 -0.5641027
-0.4255147 1.2783365 -1.1912308 1.4998728 -0.7015525 2.1209702 -0.4867284 -0.22993405
-0.60555637 1.3960356 1.7941614 -0.35706013 -0.44400042 0.5411226 -0.49548855 -0.25028253
0.5591896 0.7203589 -0.49986878 -0.5100986 2.4176655 -0.10194536 -1.0508248 -0.3055987
-1.3269802 -0.74603784 -0.45734102 -1.5898663 -0.84461623 -0.6918282 -0.4258108 -0.08241637
-1.0456545 -0.5022469 -0.537643 -0.48417318 1.3476799 -0.26764667 1.6150806 -1.1676532
-0.44076103 -0.033092298 -0.39987716 -1.09433 -0.1548073 -0.50756264 -0.39949346 -0.86236465
-0.91987896 0.057417996 0.0016662764 -0.67140156 2.1639142 -0.774596 0.35236612 -0.56590897
-0.57845074 -0.018481115 -0.8331666 0.33855426 -2.9450471 1.6520509 -0.69050467 -1.950447
-0.06859084 -0.20036335 -0.9009859 -0.5464541 -0.44190976 1.4398307 -1.5909132 -0.48479092
-0.6153408 -0.062721334 -0.8259071 0.041482173 -0.43772355 -0.5296695 0.039632086 0.01119181
-0.8394373 -0.5834123 -0.6079841 1.9645987 -0.53160787 -1.3006816 -0.64623976 0.015451084
-0.054187234 1.2826138 -0.7188443 0.026229385 -0.6645928 -0.62779367 1.2381433 -0.06353276
2.708552 -0.5846735 -0.45033544 -0.804415 -0.49064463 3.283728 -0.61920285 -0.05837213
-0.70514065 -0.058466498 -0.6097744 -0.6331104 1.7575477 -0.6151042 2.2896063 0.71844226
-0.5042849 0.050114483 -0.8829986 -2.2686253 2.1228316 -0.54447293 1.6710532 -0.5771632
-0.6962529 -2.1997352 -0.74783194 0.14988942 -0.7861569 -0.48243886 -0.4659394 -1.8695368
-0.27801555 1.9547554 -1.93258 1.4365935 -1.4897352 1.9811656 -0.558665 -0.6050161
-0.8490394 1.5005555 2.1653163 -1.1006873 -0.49806872 0.9249868 -0.94616497 -0.83949465
2.0893211 -0.94524974 -0.6546423 -0.41921815 2.5936108 0.48217127 -0.53771234 -0.6368218
0.5340726 -0.88023615 -0.6873117 -0.71264446 -0.8594023 -0.8189601 -0.6252668 0.030662708
-1.2471168 -0.42367503 -0.5827533 -0.39733848 0.3286214 -0.74647576 1.2088387 -0.58422285
-0.83647597 0.06890534 -0.66271645 -1.2933121 -0.6502426 -0.59463954 -0.9096018 -0.7724553
-0.6372066 0.0850398 0.019635014 -0.4941471 2.3505285 0.44221967 0.7503657 -0.74067456
-0.26907226 0.037125643 -0.494575 0.775633 -2.3831284 1.1603793 -0.6185498 -0.9905581
-0.01725078 -0.7730624 -0.5980582 -0.29449517 -0.6090333 1.340149 -2.446651 -0.5600483
-0.18398684 0.08015558 -0.397393 -0.009491592 -0.36874494 -0.33627394 0.033830818 0.009557195
-0.4105456 -0.5287683 -0.79286784 2.369528 -0.26028135 -0.42404467 -0.64667946 0.30446538
00000000: 2fb0 80bb c81c c2be a74f 7bbf 9f4c 40bd
00000010: 6dd3 2abf a962 00bf c65b b73f 64bb ac3d
00000020: e76a 2240 43aa 00bf 15d1 ecbe f377 fdbe
00000030: f081 acbe e7ae 0d40 a1cd 7abf 1918 25bf
00000040: c7be 39bd 2c88 a73c 5a9d f8be ec0c b8be
00000050: 477a f03f fdce 38bf a4d3 ed3f e6b7 40c0
00000060: 9712 bbbf 86b6 6c3c 2e94 ecbe 58bc 6cc0
00000070: 8beb 0440 7fc1 60bf 3d5c ba3f 0320 9bbe
00000080: 7e44 31bf 7260 38c0 84e0 dfbe 4a95 4cbe
00000090: 13f2 19c0 e8f6 bdbe 9386 2fbf 0969 10bf
000000a0: 10dd d9be 88a0 a33f 407a 98bf d5fb bf3f
000000b0: f298 33bf fabd 0740 7734 f9be d573 6bbe
000000c0: be05 1bbf 4bb1 b23f 15a7 e53f 96d0 b6be
000000d0: 0654 e3be 0387 0a3f adb0 fdbe 0825 80be
000000e0: 0d27 0f3f 7169 383f cdee ffbe d295 02bf
000000f0: 08bb 1a40 bbc8 d0bd 6d81 86bf 6f77 9cbe
00000100: 7dda a9bf 56fc 3ebf 9a28 eabe bd80 cbbf
00000110: c538 58bf a71b 31bf e003 dabe eac9 a8bd
00000120: 02d8 85bf 4193 00bf f9a2 09bf 8ce5 f7be
00000130: c680 ac3f fc08 89be f6ba ce3f a975 95bf
00000140: 6eab e1be ca8b 07bd b3bc ccbe 0113 8cbf
00000150: ce85 1ebe a0ef 01bf 688a ccbe eec3 5cbf
00000160: 307d 6bbf 222f 6b3d f566 da3a f9e0 2bbf
00000170: 927d 0a40 ec4b 46bf 5569 b43e 69df 10bf
00000180: 5915 14bf b565 97bc 684a 55bf fc56 ad3e
00000190: a77b 3cc0 6776 d33f eac4 30bf 3fa8 f9bf
000001a0: 5b79 8cbd 0d2c 4dbe 03a7 66bf 6ae4 0bbf
000001b0: ff41 e2be 5f4c b83f 0ba3 cbbf 8436 f8be
000001c0: fa86 1dbf 0b74 80bd a66e 53bf 36e9 293d
000001d0: 4d1d e0be 6c98 07bf 4155 223d da5d 373c
000001e0: 5de5 56bf 825a 15bf d9a4 1bbf f877 fb3f
000001f0: 7417 08bf bc7c a6bf f86f 25bf 8b26 7d3c
00000200: 6ff3 5dbd b02c a43f 2e06 38bf 02df d63c
00000210: c122 2abf 16b7 20bf 7b7b 9e3f 771d 82bd
00000220: ea58 2d40 2aad 15bf 5e92 e6be 24ee 4dbf
00000230: c635 fbbe 9928 5240 1484 1ebf 9d17 6fbd
00000240: 1984 34bf 917a 6fbd 2d1a 1cbf 8613 22bf
00000250: 53f7 e03f 7877 1dbf e988 1240 d5eb 373f
00000260: d118 01bf d844 4d3d 320c 62bf 2831 11c0
00000270: 79dc 0740 9462 0bbf 12e5 d53f f8c0 13bf
00000280: a13d 32bf 76c8 0cc0 ea71 3fbf 9d7c 193e
00000290: 9441 49bf 3a02 f7be 9c8f eebe fb4c efbf
000002a0: 0e58 8ebe 6d35 fa3f c85e f7bf 4ce2 b73f
000002b0: a5af bebf d696 fd3f ab04 0fbf 56e2 1abf
000002c0: a55a 59bf 3412 c03f 8b94 0a40 52e3 8cbf
000002d0: dd02 ffbe efcb 6c3f de37 72bf 1fe9 56bf
000002e0: 70b7 0540 e3fb 71bf a396 27bf c3a3 d6be
000002f0: b8fd 2540 27df f63e 84a7 09bf c106 23bf
00000300: fbb8 083f 2857 61bf a9f3 2fbf de6f 36bf
00000310: ca01 5cbf 5ea7 51bf 7c11 20bf 5c30 fb3c
00000320: 86a1 9fbf efeb d8be 522f 15bf f36f cbbe
00000330: 1041 a83e 0919 3fbf 3abb 9a3f a18f 15bf
00000340: 4a23 56bf 3e1e 8d3d c9a7 29bf 408b a5bf
00000350: 4d76 26bf 4c3a 18bf aadb 68bf a1bf 45bf
00000360: f91f 23bf 5929 ae3d 9cd9 a03c d900 fdbe
00000370: 0f6f 1640 9e6a e23e f717 403f d99c 3dbf
00000380: d7c3 89be 0f11 183d ef38 fdbe e28f 463f
00000390: 2d85 18c0 4f87 943f 4859 1ebf 3795 7dbf
000003a0: 8251 8dbc 6be7 45bf 581a 19bf 12c8 96be
000003b0: 9be9 1bbf 018a ab3f ee95 1cc0 535f 0fbf
000003c0: 0c67 3cbe 9c28 a43d 1877 cbbe 9f82 1bbc
000003d0: 23cc bcbe 192c acbe 2f92 0a3d c895 1c3c
000003e0: 0833 d2be 5c5d 07bf 63f9 4abf 59a6 1740
000003f0: 9943 85be 621c d9be c98c 25bf e3e2 9b3e

net.4.bias f4 [4]
-0.13982558 0.31825936 0.093457535 -0.09875088
00000000: 702e 0fbe e4f2 a23e aa66 bf3d e73d cabd
