SARSA/dsqn/1500_model_weights.pth (torch, 75929 bytes, 6 tensors)

net.0.weight f4 [128, 8]
1.1319854 0.4820562 0.40062162 -0.3625963 -1.065123 0.21061566 -0.13552114 -0.29569787
1.3286788 0.21112326 1.1227119 0.29442534 -0.6886561 0.2859487 0.044746183 -0.058175717
-1.8144644 1.1384931 0.21822914 -0.098349914 0.066152245 0.010839217 0.06316529 -0.33692196
0.56720763 1.3080525 0.23668936 -0.69285506 -0.06476291 0.1153211 0.0137995025 0.10288744
-0.41033316 -0.11363335 -0.07339353 -0.061605006 0.7424874 0.9618964 0.7294683 0.35488972
-1.6774627 -0.14596805 0.056375306 -0.56749195 -0.494029 -1.0658224 0.32561192 0.039167527
-0.016096886 0.009415658 -0.64415276 0.11455938 -2.2815688 -0.26103777 -0.06798424 -0.038183983
-1.4207121 -0.24550399 -0.10283466 0.48758668 -0.13342908 0.30942354 0.112516314 -0.035766367
0.044422165 -0.12222256 -0.15989162 -0.28077284 1.136949 0.81158674 0.21531186 0.28913888
-1.5876633 -0.56909275 0.45877787 -0.19021805 -1.0758982 0.29056066 0.2914707 -0.6205429
1.8254257 -0.028352972 -0.3298465 1.3291004 0.3013366 0.20699513 -0.02506488 -0.9270481
-0.8714383 -1.2510651 -2.5838869 0.43990624 0.38136515 -0.117355615 0.7052512 0.44070202
-0.8653519 0.23510529 -0.26791784 1.419814 -0.7858885 0.7729642 0.35117054 0.5345681
-0.09430428 0.006058144 -0.26984105 0.24558808 0.96929425 0.60841346 0.6097893 -0.3297027
-0.51757085 0.035131212 0.44176772 -0.5886379 0.38309368 1.0367998 0.38306543 -0.023043083
-0.7238865 -0.37363878 -0.49416286 0.7813511 -0.48172247 0.03174082 0.55850834 0.1415634
-0.86412984 -0.36488435 -0.13734967 -0.6890559 -0.863472 -0.26106215 -0.02870144 -0.5642783
0.34932575 0.17007092 -0.013466681 0.34426433 -0.0887154 0.05787091 0.56425834 0.79038775
0.5433622 0.6978101 -0.8640177 -0.22785842 -0.5340539 1.826886 0.42464754 -0.71253186
0.7955901 0.47894797 -0.19922411 1.3251257 -0.84722453 -0.41364697 -0.27062556 -1.2053137
-0.576888 -0.15868776 0.3843666 -0.33236417 0.45969588 1.4269677 0.13016462 -0.098376095
0.35245395 -1.463977 -0.2974049 1.5705726 0.45454854 1.1298542 0.43367895 0.22083059
-0.40895805 0.39614248 -0.425001 0.13667847 1.0340347 0.49047226 0.44817314 0.2431469
-0.6082846 -0.05353292 -0.09834777 -0.7790238 -0.20020354 0.6823758 0.23177703 -0.09268196
-0.80608654 0.12550204 -2.1961842 0.38628528 -0.5196598 -0.2167466 0.2959919 -0.06898513
0.24683498 -0.035706706 0.20872909 -0.6655072 0.40495363 0.68564016 0.48147565 0.094358034
-0.8503015 -4.29791 -0.21108606 -0.24726358 1.3391947 0.86365736 0.4761864 -1.1297213
0.10737345 0.019247152 0.09164336 0.65505695 0.73103994 -1.0814934 -0.13347645 0.29944223
-1.1617305 0.15446517 0.100579806 0.09355335 0.70637536 1.8532574 -0.5863897 -1.9821383
-0.5424893 0.12195688 -0.03262885 -0.9622755 -0.019890627 0.5936949 0.40057987 -0.12950867
-0.65927947 -0.24965928 -0.7369873 -0.38311818 -0.5022348 -1.5914576 0.11186601 0.644313
2.3032646 -0.1990014 0.5402441 0.28618607 -0.045530234 0.14044534 -0.005320908 -0.0018425275
00000000: e6e4 903f 12d0 f63e 471e cd3e 39a6 b9be
00000010: f355 88bf a2ab 573e 0ec6 0abe b665 97be
00000020: 2612 aa3f b230 583e 06b5 8f3f ebbe 963e
00000030: c44b 30bf de67 923e c647 373d a949 6ebd
00000040: 5f40 e8bf 24ba 913f 7677 5f3e ae6b c9bd
00000050: d47a 873d f996 313c ce5c 813d 0981 acbe
00000060: 8534 113f 446e a73f b25e 723e f35e 31bf
00000070: 6ba2 84bd 782d ec3d 4f17 623c a6b6 d23d
00000080: 3017 d2be 9ab8 e8bd 594f 96bd 8855 7cbd
00000090: a713 3e3f d83e 763f 6fbe 3a3f 1bb4 b53e
000000a0: 19b7 d6bf a678 15be cbe9 663d 2747 11bf
000000b0: 5ef1 fcbe de6c 88bf 9bb6 a63e 216e 203d
000000c0: 9edd 83bc 2244 1a3c 32e7 24bf 1c9e ea3d
000000d0: 3905 12c0 bea6 85be 523b 8bbd cf66 1cbd
000000e0: e5d9 b5bf 6665 7bbe fa9a d2bd f6a4 f93e
000000f0: a2a1 08be c36c 9e3e f46e e63d c17f 12bd
00000100: 04f4 353d d24f fabd a1ba 23be 75c1 8fbe
00000110: 8b87 913f 26c4 4f3f b67a 5c3e 030a 943e
00000120: 8d38 cbbf 10b0 11bf efe4 ea3e 85c8 42be
00000130: 08b7 89bf 5ec4 943e a63b 953e e6db 1ebf
00000140: 8da7 e93f 7e44 e8bc a4e1 a8be f61f aa3f
00000150: ca48 9a3e 88f6 533e dd54 cdbc 0653 6dbf
00000160: 9516 5fbf e722 a0bf 675e 25c0 643b e13e
00000170: 4b42 c33e 2458 f0bd 588b 343f b2a3 e13e
00000180: b487 5dbf 71bf 703e 872c 89be 77bc b53f
00000190: fd2f 49bf fbe0 453f a0cc b33e 74d9 083f
000001a0: 9a22 c1bd 6583 c63b 9b28 8abe 717b 7b3e
000001b0: ab23 783f fcc0 1b3f 271b 1c3f cbce a8be
000001c0: 867f 04bf bfe5 0f3d 612f e23e f9b0 16bf
000001d0: db24 c43e dbb5 843f 2721 c43e d9c4 bcbc
000001e0: a050 39bf 954d bfbe ea02 fdbe a006 483f
000001f0: 54a4 f6be a902 023d 67fa 0e3f fff5 103e
00000200: 9d37 5dbf 1fd2 babe 64a5 0cbe f865 30bf
00000210: 800c 5dbf f0a9 85be 481f ebbc 8b74 10bf
00000220: d3da b23e 1227 2e3e 5ba3 5cbc 6a43 b03e
00000230: 6bb0 b5bd 0c0a 6d3d 3c73 103f da56 4a3f
00000240: c919 0b3f afa3 323f 4430 5dbf b853 69be
00000250: c2b7 08bf 67d7 e93f 676b d93e 7d68 36bf
00000260: cbab 4b3f ab38 f53e 6801 4cbe b89d a93f
00000270: b5e3 58bf 89c9 d3be 6f8f 8abe b847 9abf
00000280: efae 13bf 0b7f 22be b3cb c43e a32b aabe
00000290: 425d eb3e e1a6 b63f e049 053e 6879 c9bd
000002a0: d874 b43e 9963 bbbf 7445 98be 8608 c93f
000002b0: 96ba e83e 109f 903f 2b0b de3e 6a21 623e
000002c0: f362 d1be 30d3 ca3e bb99 d9be 71f5 0b3e
000002d0: 405b 843f 2e1f fb3e f376 e53e 80fb 783e
000002e0: 8ab8 1bbf 5645 5bbd 8e6a c9bd 1b6e 47bf
000002f0: 2802 4dbe 2eb0 2e3f f556 6d3e 0ad0 bdbd
00000300: b05b 4ebf 9b83 003e 488e 0cc0 2fc7 c53e
00000310: 6d08 05bf d2f2 5dbe 408c 973e 1348 8dbd
00000320: 4fc2 7c3e 3241 12bd 14bd 553e ae5e 2abf
00000330: 1556 cf3e 1d86 2f3f fa83 f63e c93e c13d
00000340: 5cad 59bf 7b88 89c0 f226 58be aa32 7dbe
00000350: bb6a ab3f a618 5d3f b4ce f33e b59a 90bf
00000360: 9de6 db3d 34ac 9d3c 84af bb3d d0b1 273f
00000370: 6f25 3b3f 606e 8abf 0dae 08be 7e50 993e
00000380: 96b3 94bf 1e2c 1e3e c9fc cd3d e698 bf3d
00000390: 04d5 343f 8a37 ed3f a31d 16bf b5b6 fdbf
000003a0: 94e0 0abf 87c4 f93d d4a5 05bd b057 76bf
000003b0: abf1 a2bc 64fc 173f ce18 cd3e ec9d 04be
000003c0: 8ac6 28bf afa6 7fbe 33ab 3cbf 1128 c4be
000003d0: 7692 00bf e2b4 cbbf 021a e53d b2f1 243f
000003e0: b068 1340 06c7 4bbe 704d 0a3f fb86 923e
000003f0: e97d 3abd e7d0 0f3e 035b aebb f780 f1ba

net.0.bias f4 [128]
0.4627898 -0.2056399 0.12843417 0.0642879 0.31818816 -0.08691694 -0.25538716 0.29654148
-0.51638645 0.38551798 0.69474185 -0.12733677 -0.29803124 0.38888857 0.4537938 -0.15018088
-0.7747292 0.30370647 0.37487537 -1.2808208 0.56341225 0.86417246 0.7638393 0.74838996
0.44546217 0.36821538 -0.37024787 -0.40174118 0.058551244 0.6097325 0.58420944 0.06490921
-0.5693239 -0.37273487 0.66619605 -0.55122906 0.18383853 -0.22249107 0.32591262 0.48312637
-0.35014248 -0.47405797 0.10214604 -0.52511257 0.64891446 0.026362453 0.4575783 0.876468
-0.20527281 0.4581501 0.29463223 0.21590446 1.1763004 0.007628536 -0.45380124 -0.70867836
0.758437 0.46135366 0.658599 -0.465177 0.8649637 0.7227497 0.7649038 0.9743548
0.4089404 0.2453792 -0.2679959 0.27584383 -0.4206997 -0.33114338 -0.41159758 0.25376078
0.7692308 -0.2512213 0.3950022 0.41128153 -0.32576177 -0.38969052 0.59688854 0.27539352
0.49663785 -0.42150778 -0.4051519 0.39416942 0.27512452 0.2297161 0.53980947 0.49581343
0.16207503 -0.91777027 -0.024347896 -0.9110893 0.21870787 0.41599563 0.39554808 0.047148876
0.060355205 0.9181397 -0.59357977 -0.51915765 0.48193073 0.00040249174 -0.35229865 -0.09219684
0.6185572 0.33228537 -1.3102043 0.3664835 -0.85322726 -0.39342737 1.4693013 -0.55976665
0.1530295 0.4887258 0.54112977 0.2789475 -0.56783044 -0.70297617 0.879619 0.8535353
0.93369997 0.580357 -0.6652478 0.8773809 0.1557504 -0.30680454 0.024798078 -0.13696244
00000000: c9f2 ec3e 4493 52be 3f84 033e 60a9 833d
00000010: 8fe9 a23e 8201 b2bd 1bc2 82be 49d4 973e
00000020: e731 04bf 9d62 c53e 9ada 313f 9264 02be
00000030: 8d97 98be 671c c73e a957 e83e 04c9 19be
00000040: a754 46bf 6a7f 9b3e aaef bf3e f0f1 a3bf
00000050: c93b 103f 683a 5d3f f98a 433f 7c96 3f3f
00000060: 9e13 e43e ba86 bc3e 2191 bdbe 05b1 cdbe
00000070: 6ed3 6f3d 6e17 1c3f c08e 153f 1fef 843d
00000080: 36bf 11bf 1bd7 bebe d38b 2a3f 591d 0dbf
00000090: 2b40 3c3e b3d4 63be 05de a63e 575c f73e
000000a0: e045 b3be bab7 f2be f131 d13d c76d 06bf
000000b0: 421f 263f 12f6 d73c b447 ea3e 3560 603f
000000c0: 0933 52be a692 ea3e 09da 963e 0f16 5d3e
000000d0: 0391 963f ccf8 f93b a358 e8be f26b 35bf
000000e0: ed28 423f 8c36 ec3e f299 283f ae2b eebe
000000f0: 436e 5d3f 2006 393f bcd0 433f 516f 793f
00000100: a360 d13e af44 7b3e c236 89be 673b 8d3e
00000110: f365 d7be a08b a9be ebbc d2be efec 813e
00000120: 4fec 443f 14a0 80be ba3d ca3e 7e93 d23e
00000130: 3fca a6be 8485 c7be b0cd 183f 6100 8d3e
00000140: 5147 fe3e decf d7be 1270 cfbe 93d0 c93e
00000150: 1fdd 8c3e b33a 6b3e f430 0a3f 42db fd3e
00000160: fff6 253e fef2 6abf 3d75 c7bc 263d 69bf
00000170: f5f4 5f3e 61fd d43e 4785 ca3e 2e1f 413d
00000180: 0537 773d 340b 6b3f d8f4 17bf 84e7 04bf
00000190: a0bf f63e 8705 d339 7d60 b4be b2d1 bcbd
000001a0: c459 1e3f 4f21 aa3e c6b4 a7bf baa3 bb3e
000001b0: 1a6d 5abf 506f c9be 1112 bc3f de4c 0fbf
000001c0: c4b3 1c3e 453a fa3e 7b87 0a3f 35d2 8e3e
000001d0: 565d 11bf 3ff6 33bf b62e 613f 4a81 5a3f
000001e0: f606 6f3f 4792 143f ae4d 2abf 099c 603f
000001f0: 087d 1f3e 7c15 9dbe 5725 cb3c e23f 0cbe

net.2.weight f4 [128, 128]
0.05489861 -0.05892818 -0.06511142 -0.07735252 -0.08255052 -0.0540751 -0.07131014 0.013097638
0.022561386 0.0054290593 0.028790563 0.012918459 0.0464476 0.04824728 -0.08983188 0.06562293
0.04138983 0.048287418 -0.023374151 0.074822426 0.024355106 0.046746913 0.0010676992 -0.038348425
-0.07016463 0.021714285 -0.07666241 -0.077239916 0.06920726 -0.01950893 -0.008224024 0.068900324
0.0064845737 -0.041954093 0.010609683 0.074321695 -0.03864067 -0.04662171 -0.031098977 0.017178273
-0.066555634 -0.05857375 0.065313645 -0.06321016 -0.076113895 0.01872277 -0.05897601 0.060311574
-0.012617018 -0.05761485 0.058044005 0.044889763 -0.09611752 -0.029353961 0.06345196 0.02969271
-0.059213944 0.01600555 0.013284533 -0.08823575 0.00090489537 0.010069355 -0.07300432 -0.031019475
0.027368395 -0.015085322 0.057744756 0.024032317 0.042535387 -0.09581088 -0.044280287 0.038154315
-0.001810511 0.02968883 -0.02436009 0.042233218 0.036428533 -0.028127324 -0.065460406 -0.009627278
0.023237154 -0.08325246 -0.014581392 -0.07487921 0.008433446 -0.07053526 0.047581315 -0.0061418433
-0.00084290653 -0.08372731 0.028930044 -0.050307274 -0.008275334 -0.017164377 0.042401467 0.032140873
-0.016236838 0.0727545 -0.038351335 0.074802496 -0.08293184 -0.047669835 0.037738346 0.07400075
0.050198644 -0.008058507 -0.06972296 -0.050351724 0.055716556 0.053662192 -0.0317602 -0.089916825
-0.037873995 -0.053836126 0.049256325 0.05752411 -0.06279201 0.037035022 -0.05635962 0.01616735
-0.022892086 -0.06370241 0.010665841 0.059419233 0.030927597 0.0043551796 -0.0430808 -0.05859717
-2.1279316 -2.047356 -0.42650187 -0.09140708 0.45816422 -0.20048848 0.42204183 -1.609922
0.74249554 -0.093342334 -2.191036 -0.51911 -0.23049171 0.20351957 0.48696375 0.049019516
0.101753704 -0.64761794 0.12111563 -1.1569136 0.54984444 0.033377573 0.04973426 0.41717517
-0.9242995 0.30816203 0.96636707 -0.09241643 0.11907152 0.227467 -1.2464384 -2.4780107
0.51859885 0.8971149 -0.8969194 0.6793318 -2.2933083 -2.4290323 -0.31421638 -0.9468591
-0.40010095 0.19493641 0.119046286 0.81475484 -0.616737 0.16088961 0.1833562 0.11274827
0.3024953 0.04767102 -2.0970228 -2.0889776 -2.6617515 0.5193149 0.4447408 -1.7081778
0.17772272 -1.428904 -0.02144016 0.39135757 -0.5428298 -0.08084442 -1.5935668 -3.6029022
-0.2429337 -2.378009 -1.8003587 -1.0341612 -1.1712681 -0.89261156 -1.4880469 -0.4798858
-1.0056926 -1.8525574 -2.3290315 0.4829681 0.09311849 -0.17853004 -2.318829 0.58894104
0.17063086 1.1790544 0.55539256 -4.444984 0.21722803 0.48870134 0.22976628 -2.0776482
0.5592112 0.5219839 -0.6991842 0.09776335 -1.5921946 0.028765969 -0.39057255 -0.74931836
-2.2246757 -0.5219971 0.52710396 0.5422347 0.09709096 -0.06976813 0.4069316 -0.20915459
0.36715934 -0.033760473 -1.4928108 0.36547035 -0.2019706 -1.770746 -2.32959 0.5368842
-1.3162272 -0.34396338 0.5165625 -0.48122755 -0.13686745 0.9311448 -1.6967504 0.7074683
-0.10497033 -0.037535418 0.28210878 -0.40856323 0.056714978 0.39376715 0.63898337 0.42049158
00000000: 5ddd 603d ad5e 71bd 2359 85bd ff6a 9ebd
00000010: 3f10 a9bd da7d 5dbd 0d0b 92bd 7a97 563c
00000020: a8d2 b83c 40e6 b13b 30da eb3c f2a7 533c
00000030: d73f 3e3d f19e 453d c7f9 b7bd 5165 863d
00000040: 6288 293d 07c9 453d 267b bfbc 803c 993d
00000050: 5c84 c73c b179 3f3d 0af2 8b3a 3d13 1dbd
00000060: 79b2 8fbd 28e2 b13c 2e01 9dbd f62f 9ebd
00000070: 89bc 8d3d 31d1 9fbc 0fbe 06bc 9d1b 8d3d
00000080: 8c7c d43b 0ed8 2bbd 3cd4 2d3c f935 983d
00000090: ae45 1ebd 68f6 3ebd 48c3 febc 73b9 8c3c
000000a0: 524e 88bd 07eb 6fbd 29c3 853d 5474 81bd
000000b0: 9ae1 9bbd 7f60 993c d490 71bd 4509 773d
000000c0: 9cb7 4ebc 8dfd 6bbd 8dbf 6d3d 54de 373d
000000d0: 43d9 c4bd b877 f0bc 1af3 813d 203e f33c
000000e0: 528a 72bd 121e 833c 5fa7 593c f2b4 b4bd
000000f0: 8036 6d3a f0f9 243c 4a83 95bd 8e1c febc
00000100: af33 e03c 6d28 77bc c485 6c3d 6cdf c43c
00000110: 9639 2e3d 7f38 c4bd 3f5f 35bd b347 1c3d
00000120: ab4e edba fd35 f33c d08e c7bc bdfc 2c3d
00000130: 1636 153d 466b e6bc 1b10 86bd bbbb 1dbc
00000140: d85b be3c 4480 aabd cae6 6ebc 455a 99bd
00000150: 702c 0a3c ca74 90bd a0e4 423d 8441 c9bb
00000160: 80f6 5cba 3979 abbd b3fe ec3c 000f 4ebd
00000170: 4495 07bc 4f9c 8cbc 29ad 2d3d 26a6 033d
00000180: 1e03 85bc 5000 953d 4a16 1dbd 0d32 993d
00000190: 2bd8 a9bd 7241 43bd 8693 1a3d b58d 973d
000001a0: 189d 4d3d d407 04bc e9ca 8ebd 9c3d 4ebd
000001b0: 0b37 643d e3cc 5b3d fc16 02bd 5026 b8bd
000001c0: c321 1bbd 4583 5cbd 00c1 493d 679e 6b3d
000001d0: 1999 80bd 09b2 173d 58d9 66bd 6471 843c
000001e0: 2f88 bbbc 6976 82bd c8bf 2e3c 9561 733d
000001f0: df5b fd3c e5b5 8e3b 7e75 30bd 9603 70bd
00000200: 0830 08c0 e107 03c0 745e dabe a333 bbbd
00000210: 8094 ea3e da4c 4dbe de15 d83e ed11 cebf
00000220: 3014 3e3f 442a bfbd ef39 0cc0 65e4 04bf
00000230: 0506 6cbe 6f67 503e 5053 f93e b0c8 483d
00000240: 3f64 d03d 4aca 25bf 790b f83d bf15 94bf
00000250: 9bc2 0c3f ecb6 083d 27b6 4b3d fc97 d53e
00000260: e49e 6cbf 6ac7 9d3e d563 773f d344 bdbd
00000270: c5db f33d 1ced 683e 4b8b 9fbf ba97 1ec0
00000280: e5c2 043f 52a9 653f 839c 65bf b0e8 2d3f
00000290: 90c5 12c0 4475 1bc0 f8e0 a0be 5c65 72bf
000002a0: 08da ccbe 699d 473e 8ace f33d c693 503f
000002b0: 7ae2 1dbf 3fc0 243e bac1 3b3e 91e8 e63d
000002c0: aae0 9a3e b042 433d 9f35 06c0 cfb1 05c0
000002d0: 235a 2ac0 d2f1 043f 11b5 e33e 92a5 dabf
000002e0: f2fc 353e 54e6 b6bf 46a3 afbc 0560 c83e
000002f0: e5f6 0abf c291 a5bd fff9 cbbf f395 66c0
00000300: 9dc3 78be 4d31 18c0 2772 e6bf 655f 84bf
00000310: 1dec 95bf 3182 64bf 5278 bebf 97b3 f5be
00000320: 89ba 80bf 9a20 edbf da0e 15c0 9847 f73e
00000330: e8b4 be3d 94d0 36be b267 14c0 d7c4 163f
00000340: dbb9 2e3e 41eb 963f 352e 0e3f 4f3d 8ec0
00000350: 0671 5e3e 1037 fa3e da47 6b3e 30f8 04c0
00000360: 7728 0f3f bda0 053f bcfd 32bf 2738 c83d
00000370: 08cd cbbf 9ca6 eb3c 20f9 c7be 54d3 3fbf
00000380: 1661 0ec0 9aa1 05bf 49f0 063f e5cf 0a3f
00000390: a0d7 c63d 98e2 8ebd 5759 d03e 9f2c 56be
000003a0: 4ffc bb3e 6c48 0abd 6d14 bfbf ee1e bb3e
000003b0: 62d1 4ebe cea7 e2bf 0118 15c0 3e71 093f
000003c0: 227a a8bf f81b b0be 713d 043f 7563 f6be
000003d0: fb26 0cbe 815f 6e3f 1e2f d9bf a41c 353f
000003e0: affa d6bd bdbe 19bd 9070 903e 332f d1be
000003f0: f74d 683d d99b c93e 6a94 233f ac4a d73e

net.2.bias f4 [128]
-0.08802198 -1.1246195 -0.019639475 -0.06674514 0.069704935 0.044713706 0.79805285 0.016082764
-0.72566515 -0.0012883221 0.09696156 0.10518019 0.048480116 0.041541282 -0.06555107 -0.0048586503
0.22326314 -0.014325975 0.06817775 0.018022152 -0.19691934 0.009706896 0.9816089 0.0964355
-0.096907526 -0.09913111 0.1182014 -0.11436281 -0.2214851 -0.14675568 0.6190373 0.06671604
0.037558947 -0.4884835 -0.0536152 0.07732909 -0.29563582 0.07679276 0.060776047 -0.13779697
0.089721926 -0.00077732536 -0.17882106 -0.12582381 0.010190779 0.6756974 0.048041347 0.042361762
0.026708258 0.8469503 -0.23185857 0.06709909 0.0801491 0.61425215 0.08314117 0.14035258
0.5471791 0.16888633 0.03384407 0.12753436 -0.24064513 0.099894956 0.018736107 0.15001887
0.08544784 0.016895793 -0.0074148527 -0.09027729 -0.029034445 0.018076405 -0.04102194 -0.0030400893
0.046926193 0.036704566 0.067942254 0.0014790704 0.17520034 0.08918651 0.7086029 0.012752218
0.0154069625 0.013457873 0.009159707 0.28518397 0.15358317 0.062276643 -0.012424036 0.063721366
-0.091391504 -0.091400824 -0.090784684 0.042411316 -0.1706718 -0.11817978 0.32329902 0.11991668
0.08167829 -0.08836703 0.16818523 0.39173123 -0.1921048 0.34569475 0.104640946 -0.018331878
0.015558036 0.11254443 -0.034191843 0.07277635 -0.0012279237 0.2636394 -0.15057158 0.01220907
0.06471274 -0.060640488 0.03476599 -0.06251903 0.023885684 0.08319003 -0.066050395 -0.093073785
0.032470368 -0.04224385 -0.0054788217 -0.043997347 0.07051907 -0.029044334 0.054261107 0.117233254
00000000: de44 b4bd 88f3 8fbf f7e2 a0bc adb1 88bd
00000010: 76c1 8e3d b825 373d 314d 4c3f 00c0 833c
00000020: 31c5 39bf ebdc a8ba c893 c63d b668 d73d
00000030: 1693 463d 3127 2a3d a43f 86bd 5035 9fbb
00000040: 189f 643e 7fb7 6abc c7a0 8b3d 31a3 933c
00000050: 39a5 49be ac09 1f3c b94a 7b3f fa7f c53d
00000060: 7477 c6bd 4005 cbbd 9313 f23d 0d37 eabd
00000070: fdcc 62be 1f47 16be 3a79 1e3f 6ba2 883d
00000080: 69d7 193d 821a fabe 9d9b 5bbd b75e 9e3d
00000090: 945d 97be 8645 9d3d 4ef0 783d a61a 0dbe
000000a0: 21c0 b73d 6cc5 4bba de1c 37be f5d7 00be
000000b0: 3af7 263c 81fa 2c3f 01c7 443d 8783 2d3d
000000c0: 47cb da3c bcd1 583f 556c 6dbe 3f6b 893d
000000d0: 3625 a43d a13f 1d3f eb45 aa3d 96b8 0f3e
000000e0: ee13 0c3f 8af0 2c3e 14a0 0a3d 5e98 023e
000000f0: ad6b 76be ba95 cc3d 777c 993c 8c9e 193e
00000100: 47ff ae3d 0c69 8a3c 4bf8 f2bb 4de3 b8bd
00000110: a5d9 edbc f814 943c 9f06 28bd 3c3c 47bb
00000120: ae35 403d 8757 163d 4f25 8b3d 5edd c13a
00000130: b867 333e 6ba7 b63d 0067 353f aeee 503c
00000140: 7c6d 7c3c 697e 5c3c 9912 163c a203 923e
00000150: e844 1d3e cb15 7f3d 2f8e 4bbc 5980 823d
00000160: 782b bbbd 5b30 bbbd 52ed b9bd 7db7 2d3d
00000170: 97c4 2ebe 3e08 f2bd 7387 a53e e096 f53d
00000180: f346 a73d c6f9 b4bd c038 2c3e ff90 c83e
00000190: 1fb7 44be e7fe b03e fe4d d63d bc2c 96bc
000001a0: 22e7 7e3c b27d e63d bf0c 0cbd c40b 953d
000001b0: 48f2 a0ba befb 863e 702f 1abe 8d08 483c
000001c0: 1d88 843d 2962 78bd c866 0e3d fa09 80bd
000001d0: e9ab c33c 895f aa3d 6e45 87bd 789d bebd
000001e0: a6ff 043d e307 2dbd b087 b3bb 9036 34bd
000001f0: 4d6c 903d 62ee edbc e540 5e3d fd17 f03d

net.4.weight f4 [4, 128]
-0.0039272527 -0.37912583 -1.0415156 -0.04694807 -0.6851659 -0.55420804 1.4360857 0.084341794
2.651028 -0.50382215 -0.47018835 -0.48261717 -0.3437765 2.1707814 -1.0627267 -0.6849488
-0.030814162 0.020450674 -0.49534228 -0.36283678 1.8787316 -0.77537864 1.859813 -3.1324363
-1.4411328 0.014447814 -0.4694669 -3.8749917 2.0768764 -0.95491123 1.4612305 -0.30885077
-0.7448966 -2.8808866 -0.45331776 -0.19939628 -2.3356547 -0.37876418 -0.70663923 -0.5588299
-0.41776225 1.2783365 -1.222502 1.4984794 -0.73307973 2.1302807 -0.4871117 -0.24352333
-0.63719606 1.4003425 1.7941614 -0.3584513 -0.45293322 0.5446529 -0.51341546 -0.2503848
0.5081163 0.7454306 -0.52608657 -0.51561373 2.4176655 -0.092062205 -1.0687987 -0.2952189
-1.3574367 -0.83540225 -0.47143865 -1.6132692 -0.899979 -0.70071626 -0.43001738 -0.08241637
-1.0950949 -0.532505 -0.58121747 -0.48755234 1.3049306 -0.27576387 1.6166172 -1.2913258
-0.47053552 -0.033092298 -0.41070318 -1.1167536 -0.15595756 -0.5102587 -0.45382863 -0.9190223
-0.9852972 0.057417996 0.0016662764 -0.6944219 2.1639142 -0.77948 0.36459592 -0.58706915
-0.58279216 -0.018481115 -0.865614 0.3383347 -3.011392 1.6754667 -0.66868776 -1.9907303
-0.06859084 -0.19993867 -0.90280664 -0.5481181 -0.42299333 1.4778962 -1.7032065 -0.52069056
-0.6253228 -0.062721334 -0.92679906 0.041482173 -0.44166014 -0.53820866 0.039632086 0.01119181
-0.87758046 -0.5919749 -0.712773 2.0189345 -0.5379335 -1.3141391 -0.6809302 0.021191923
-0.054187234 1.2895334 -0.73535043 0.026229385 -0.6837504 -0.6709924 1.2458273 -0.06353276
2.7057009 -0.6016192 -0.4752473 -0.826603 -0.49197775 3.3496943 -0.6440512 -0.0631887
-0.7273365 -0.058466498 -0.6157979 -0.6346913 1.7575477 -0.61857176 2.2951198 0.7322312
-0.5153169 0.050114483 -0.89330643 -2.3096619 2.1228316 -0.5737578 1.6892278 -0.5844253
-0.74297124 -2.1997352 -0.757871 0.13542679 -0.8100353 -0.48650068 -0.49329498 -1.9029986
-0.2813151 1.9379348 -1.9765065 1.4242121 -1.5121891 1.9971468 -0.5632536 -0.61477506
-0.8577545 1.4985738 2.1653163 -1.1097312 -0.49876216 0.9287529 -0.9415358 -0.8465601
2.1667352 -0.99119765 -0.668436 -0.42458284 2.5936108 0.47679204 -0.5590705 -0.6548068
0.5740844 -0.90402085 -0.72267485 -0.72894114 -0.8947185 -0.83038026 -0.6338867 0.030662708
-1.2371726 -0.4307128 -0.6117086 -0.40293106 0.41505393 -0.7627509 1.203561 -0.60107726
-0.8583059 0.06890534 -0.676233 -1.3068929 -0.65774935 -0.6026855 -0.93152577 -0.79781324
-0.67764586 0.0850398 0.019635014 -0.5294299 2.3505285 0.44594294 0.76317585 -0.749955
-0.27100563 0.037125643 -0.5268909 0.79413307 -2.3597763 1.1790588 -0.63296443 -1.0042615
-0.01725078 -0.78483844 -0.60965985 -0.28787643 -0.61362094 1.361537 -2.4683466 -0.5715439
-0.18084568 0.08015558 -0.44367304 -0.009491592 -0.3655389 -0.34382042 0.033830818 0.009557195
-0.42960885 -0.5193225 -0.81180483 2.4181387 -0.26274398 -0.45443606 -0.66747403 0.29983214
00000000: 2fb0 80bb c81c c2be 6250 85bf 9f4c 40bd
00000010: 0867 2fbf 94e0 0dbf a8d1 b73f 64bb ac3d
00000020: 71aa 2940 7dfa 00bf 87bc f0be 9919 f7be
00000030: 7903 b0be 15ee 0a40 6e07 88bf ce58 2fbf
00000040: fb6d fcbc 2c88 a73c 819d fdbe bec5 b9be
00000050: 477a f03f 377f 46bf 5a0e ee3f d679 48c0
00000060: 0a77 b8bf 86b6 6c3c f75d f0be ddff 77c0
00000070: 8beb 0440 1075 74bf 9a09 bb3f b021 9ebe
00000080: 8bb1 3ebf 7260 38c0 4419 e8be 8a2e 4cbe
00000090: 5e7b 15c0 61ed c1be 4fe6 34bf 7a0f 0fbf
000000a0: efe4 d5be 88a0 a33f f27a 9cbf 2cce bf3f
000000b0: 1dab 3bbf 8556 0840 b466 f9be 2e5e 79be
000000c0: 481f 23bf 6c3e b33f 15a7 e53f ee86 b7be
000000d0: dde6 e7be 5f6e 0b3f 326f 03bf 7032 80be
000000e0: e913 023f 8ad4 3e3f 9cad 06bf 43ff 03bf
000000f0: 08bb 1a40 1c8b bcbd 65ce 88bf ef26 97be
00000100: 7cc0 adbf ecdc 55bf 6860 f1be 9b7f cebf
00000110: 0665 66bf 2462 33bf 3d2b dcbe eac9 a8bd
00000120: 122c 8cbf 3f52 08bf abca 14bf 76a0 f9be
00000130: f707 a73f ec30 8dbe 50ed ce3f 2a4a a5bf
00000140: 08ea f0be ca8b 07bd b047 d2be c8f1 8ebf
00000150: 57b3 1fbe 50a0 02bf 3a5c e8be 0c45 6bbf
00000160: 703c 7cbf 222f 6b3d f566 da3a a2c5 31bf
00000170: 927d 0a40 008c 47bf 51ac ba3e 2a4a 16bf
00000180: de31 15bf b565 97bc e198 5dbf 353a ad3e
00000190: a6ba 40c0 b175 d63f 1f2f 2bbf 40d0 febf
000001a0: 5b79 8cbd b9bc 4cbe 561e 67bf 7851 0cbf
000001b0: 9592 d8be b42b bd3f ac02 dabf fa4b 05bf
000001c0: 2815 20bf 0b74 80bd b442 6dbf 36e9 293d
000001d0: 4721 e2be 0bc8 09bf 4155 223d da5d 373c
000001e0: 1da9 60bf ab8b 17bf 4b78 36bf 3936 0140
000001f0: 03b6 09bf b635 a8bf 7151 2ebf af9a ad3c
00000200: 6ff3 5dbd 6e0f a53f ed3f 3cbf 02df d63c
00000210: 440a 2fbf 28c6 2bbf 4577 9f3f 771d 82bd
00000220: 342a 2d40 b703 1abf 9d53 f3be 419c 53bf
00000230: 82e4 fbbe 6461 5640 8ae0 24bf 1469 81bd
00000240: ba32 3abf 917a 6fbd eea4 1dbf 217b 22bf
00000250: 53f7 e03f b85a 1ebf 3ee3 1240 8173 3b3f
00000260: cfeb 03bf d844 4d3d bbaf 64bf 80d1 13c0
00000270: 79dc 0740 cbe1 12bf 9e38 d83f e59c 15bf
00000280: 5d33 3ebf 76c8 0cc0 d503 42bf 52ad 0a3e
00000290: 795e 4fbf 9e16 f9be 2991 fcbe 7595 f3bf
000002a0: 8808 90be 3f0e f83f 2afe fcbf 954c b63f
000002b0: 6a8f c1bf 82a2 ff3f 6331 10bf e661 1dbf
000002c0: cd95 5bbf 44d1 bf3f 8b94 0a40 ac0b 8ebf
000002d0: c15d ffbe c0c2 6d3f 7d08 71bf 2ab8 58bf
000002e0: caab 0a40 21bf 7dbf 9f1e 2bbf ec62 d9be
000002f0: b8fd 2540 161e f43e 3f1f 0fbf 6ba1 27bf
00000300: 32f7 123f e96d 67bf 3801 39bf e39b 3abf
00000310: 460c 65bf cd93 54bf 6646 22bf 5c30 fb3c
00000320: ac5b 9ebf 6386 dcbe ef98 1cbf fb4c cebe
00000330: f381 d43e a543 43bf 490e 9a3f 33e0 19bf
00000340: efb9 5bbf 3e1e 8d3d 9b1d 2dbf 4448 a7bf
00000350: 4362 28bf 9949 1abf 7978 6ebf 7d3d 4cbf
00000360: 337a 2dbf 5929 ae3d 9cd9 a03c b888 07bf
00000370: 0f6f 1640 a252 e43e 7e5f 433f 0dfd 3fbf
00000380: 40c1 8abe 0f11 183d 52e2 06bf 4e4c 4b3f
00000390: 9306 17c0 66eb 963f f509 22bf a48b 80bf
000003a0: 8251 8dbc 2ceb 48bf ab12 1cbf 8a64 93be
000003b0: 4316 1dbf d846 ae3f 64f9 1dc0 b350 12bf
000003c0: 9c2f 39be 9c28 a43d 1d29 e3be 9f82 1bbc
000003d0: ea27 bbbe 3b09 b0be 2f92 0a3d c895 1c3c
000003e0: b1f5 dbbe 52f2 04bf 71d2 4fbf c9c2 1a40
000003f0: 6186 86be d8ab e8be 94df 2abf 9983 993e

net.4.bias f4 [4]
-0.14182875 0.32186794 0.09902451 -0.1196131
00000000: 8e3b 11be e0cb a43e 5dcd ca3d b7f7 f4bd
