SARSA/dsqn/150_model_weights.pth (torch, 75917 bytes, 6 tensors)

net.0.weight f4 [128, 8]
000000 c4 f8 47 3f a5 a8 26 be 80 25 f0 3e a0 4c 57 be
       0.7811396 -0.1627527 0.4690361 -0.21025324
000010 01 16 20 bf c4 f5 86 3d 29 17 78 3d 53 35 56 3e
       -0.62533575 0.06589845 0.060568962 0.20918779
000020 a7 46 74 3f 58 83 b2 bc 06 56 2a 3f f4 8b d9 be
       0.95420307 -0.021791145 0.6653751 -0.42489588
000030 91 08 0a bf 67 ae 61 3e 24 09 2d be c5 f6 1c bd
       -0.5391932 0.22039185 -0.16898018 -0.038321275
000040 3c ac 13 bf 50 2c 84 3f e8 58 64 be 3a 3c ef be
       -0.57684684 1.0326023 -0.2229954 -0.46725637
000050 3c 3d 9b bd cf 6d 00 be 7b d7 8c 3d 99 ae 04 bd
       -0.07580039 -0.12541889 0.06877037 -0.03239307
000060 28 04 17 3e 82 d3 46 3f cc 5c 33 3d 0f 1a 0c bf
       0.14747679 0.77666485 0.04378967 -0.5472726
000070 0f 38 2e 3e 21 85 de 3d 56 78 c3 bd 94 f5 69 be
       0.17013572 0.10865236 -0.09544437 -0.22847587
000080 0e 39 08 be 35 90 31 bd b1 9c 89 bd 8f 52 36 3d
       -0.13303015 -0.043350417 -0.0671934 0.044512328
000090 1e ce 38 3f 28 3a 87 3f f8 57 3e 3f 52 b7 a1 3e
       0.7218951 1.0564623 0.7435298 0.31585175
0000a0 eb d0 2a 3e f7 3c 0d bf 59 78 e4 3d fd 40 05 be
       0.16681258 -0.5517115 0.11155767 -0.13013072
0000b0 b9 86 c7 bd 60 10 09 bf 7b 13 09 3f e9 86 e4 be
       -0.09742493 -0.5354061 0.5354535 -0.44634178
0000c0 84 ce e6 be e6 d4 b9 be 86 8d 05 bd 22 fe e8 3d
       -0.45079434 -0.3629524 -0.03260567 0.11376597
0000d0 13 00 1d be 38 13 30 3f 86 0d 60 be 74 b1 30 be
       -0.1533206 0.68779325 -0.21880159 -0.17255193
0000e0 59 91 80 be 28 12 5a 3f 50 61 b7 3c 9f 52 4d 3f
       -0.2511089 0.85183954 0.02238527 0.80204195
0000f0 e4 f6 48 3e f1 98 f6 3c ec 96 b3 3c 3a 06 65 3e
       0.19625431 0.030102225 0.021922551 0.22365656
000100 93 05 fb be 76 c7 d5 3d 89 ab 88 bd a2 15 96 bd
       -0.4902769 0.10438435 -0.06673343 -0.07328345
000110 9d 21 11 3f 51 ff 0e 3f 62 58 4d 3d c2 05 79 3e
       0.56691915 0.5585833 0.050133117 0.24318603
000120 0f 82 21 3f b1 2a 2c 3e 6c 96 42 3f 6c aa 95 3c
       0.6308908 0.1681316 0.76010776 0.01826974
000130 6e 13 11 3f e4 4f 86 3f b5 34 6b be 36 80 8d 3e
       0.5667027 1.0493131 -0.22969325 0.2763688
000140 a3 10 ff 3e 34 51 2d 3f 29 c0 13 be 30 f7 23 3e
       0.4981738 0.6770203 -0.14428772 0.16012263
000150 3c 1f c1 3d c2 ed 15 3d 46 97 6c 3e d4 c8 71 be
       0.094297856 0.036603697 0.23104581 -0.23611766
000160 af 97 83 bf 06 23 bd bd 7d 1e 1a bf c4 52 3a be
       -1.0280665 -0.09235196 -0.6020277 -0.18195635
000170 54 30 b3 bd 42 c0 62 be 0b d6 e6 3e 7e ee 57 3e
       -0.08749452 -0.22143653 0.45085177 0.21087071
000180 8b ac 9e bb 6c 87 3d 3f 82 be 9d 3d 16 ba 14 be
       -0.004842346 0.7403476 0.07702352 -0.14524111
000190 bd 93 22 bc bd c0 35 bc fb 2b 32 3e 23 1d 9f 3e
       -0.009922919 -0.011093316 0.1739959 0.31076917
0001a0 cb c4 1e be f6 78 00 be 40 80 65 be 03 fb 3b bd
       -0.15504758 -0.12546143 -0.22412205 -0.04589368
0001b0 af 7e 53 3f 76 fb db 3e 11 e8 0a 3f 38 3a a8 3d
       0.8261518 0.42965287 0.54260355 0.08214229
0001c0 19 12 e4 3d c2 ae 1c be 4a 0c ed 3d 2f 7c 4a bd
       0.11136264 -0.1530104 0.115746096 -0.049434837
0001d0 9e 07 10 3f fa 46 a8 3f 84 c7 d3 3e 4b 81 08 3c
       0.5626162 1.314666 0.41363156 0.008331607
0001e0 8d 0f 92 bc a6 3a 08 3e 4d 1a d2 3d 9e 8d c6 3d
       -0.01782968 0.13303623 0.10258923 0.0969498
0001f0 63 8c 56 bc 28 a4 d9 3c 47 3c 84 3e 98 bf b7 bd
       -0.013094994 0.026567534 0.25827238 -0.089720905
000200 c1 bd 83 be 3e 94 e2 3d a6 30 ac bb 2c 91 5d 3d
       -0.25730708 0.11063431 -0.005254823 0.054093525
000210 23 a0 16 3f ad 7d 01 3f c7 14 9c bd 01 05 96 be
       0.588381 0.5058239 -0.076211505 -0.29300693
000220 4d dd 04 be 03 77 53 3f 0f 8b c4 3e 1f 32 10 3e
       -0.12975045 0.8260347 0.38387343 0.1408162
000230 b0 66 14 3e 6b d9 fe bc c6 cb fc 3e 6b af 04 3f
       0.14492297 -0.031109532 0.49374217 0.51830167
000240 92 d3 4b 3d 85 d4 e7 3e aa 55 c9 be 55 12 cc be
       0.049762316 0.45279327 -0.3932317 -0.39857736
000250 ee 16 36 bd 7c 61 8f 3f ba 1f d4 3e 91 da 26 bf
       -0.04445546 1.1201625 0.41430455 -0.65177256
000260 eb 2b d4 3c ae 28 05 3f 9e 06 89 bd 46 dc e2 be
       0.025899848 0.520152 -0.06690715 -0.4430868
000270 8f 92 20 bf 1e f1 4e bf e5 aa cb be 49 7b 24 bf
       -0.6272363 -0.80836666 -0.3977882 -0.6425062
000280 41 c5 0e bf 40 40 56 be 19 a6 41 3e 09 4b 6e bd
       -0.55769736 -0.20922947 0.18911017 -0.058177028
000290 f8 1c 5f 3f 05 40 a2 3f 7f cc 0d 3e d7 b5 46 bd
       0.8715358 1.2675787 0.1384754 -0.04851326
0002a0 91 c2 19 3e 5a b9 86 3e 0e 1f d0 3d 70 cb 10 3f
       0.15015627 0.26313287 0.10162173 0.5656042
0002b0 a4 0d 4a 3f a0 a6 97 3f ba ce 0b 3f db bd 55 3e
       0.78927064 1.1847725 0.54612315 0.20873205
0002c0 19 f9 35 bb 4f 78 94 3e a7 f8 fe be d5 ad 55 be
       -0.0027766882 0.28998038 -0.49799082 -0.20867093
0002d0 5f f7 d7 3e 01 97 11 3f 5d fc 49 3f a1 61 a6 3e
       0.42180917 0.5687104 0.789007 0.3249636
0002e0 fe df b8 be a6 65 bf be 44 bd 65 3d bd 5b 34 be
       -0.36108392 -0.3738224 0.0560887 -0.1761312
0002f0 a4 8d b5 3e 6e f5 5c 3f 1f 63 f1 3d be d2 1d 3e
       0.35459626 0.86311996 0.11786484 0.15412423
000300 37 ed 0d bf 3d 76 74 3d 77 1f 11 bf ac 54 87 3b
       -0.55440086 0.059683073 -0.56688637 0.0041299667
000310 d9 4b d6 bd 46 e4 bb bd 30 44 db 3e a9 7f a0 be
       -0.104636855 -0.09174399 0.4282546 -0.31347397
000320 0a 06 91 3e 7d c5 56 bd 1a d1 08 bd dd 9a 93 be
       0.2832492 -0.052434433 -0.03340254 -0.2882909
000330 5c b1 ef 3e f0 64 94 3f 7d 1e 8a 3e 6b 6a 85 3d
       0.46815002 1.1593304 0.26976386 0.06514438
000340 d0 ff c5 be 0a 17 b6 be 2c eb 47 bf f8 ee 5e 3d
       -0.38671732 -0.35564452 -0.7809322 0.054427117
000350 95 2b 35 3e 62 8f 15 3f e0 20 b0 3c 2b e3 9b be
       0.17692406 0.5842191 0.021500051 -0.30446753
000360 fe 85 90 3e c0 71 fb 3c 77 e5 2b be c8 6e 2c be
       0.28227228 0.030693889 -0.16786753 -0.16839135
000370 b2 b4 de be 16 b8 c1 bf 23 32 6b be bf 34 c3 bd
       -0.43497235 -1.5134304 -0.22968344 -0.09531545
000380 cf 9d a4 bd 30 3f bc bc 6a bc 05 3e cc a7 4d 3c
       -0.08037912 -0.022979349 0.13060156 0.012552213
000390 99 aa 38 3f d0 11 d3 3f 9e b5 ba be 60 3f 7d 3e
       0.7213531 1.6489811 -0.36466688 0.24731207
0003a0 e8 f1 e0 be e8 57 84 be 57 ab 40 3e 60 50 58 be
       -0.4393456 -0.25848317 0.18815361 -0.2112441
0003b0 88 33 d9 3e ef 4e 59 3f ff 59 94 3e 43 67 1a 3e
       0.42422128 0.8488607 0.28974912 0.15078454
0003c0 18 54 e7 bd 08 b6 e3 bd 7f 0a 90 3d e7 84 40 be
       -0.112953365 -0.11118704 0.07033252 -0.18800698
0003d0 bc d8 cd be 68 72 52 bf 44 f0 97 3e 1a 93 03 3f
       -0.40204418 -0.8220582 0.29675496 0.51396334
0003e0 0f d1 88 3f 4e 9d e7 3d 75 9f 38 3f 1c c5 d2 be
       1.06888 0.113093 0.7211831 -0.41166008
0003f0 24 f9 e9 be c2 16 68 3e fb c7 8a 3d 2b 38 c6 3d
       -0.45697892 0.22664931 0.067764245 0.09678682

net.0.bias f4 [128]
000000 cb c9 bd 3e 9c dc 3b 3e 3c 49 62 bd 08 43 a6 3e
       0.37068018 0.18345875 -0.055245623 0.32473016
000010 3e 59 02 3e 47 4d 7a be 51 fb 08 bf 58 93 2f be
       0.12729356 -0.24443541 -0.5350848 -0.17146051
000020 37 88 23 be 3e 27 9e bc ce a4 29 3f e8 2f c0 3d
       -0.1596993 -0.019305822 0.66267097 0.093841374
000030 d3 e3 00 3e cc b2 0b 3e 5a 02 8c 3e 39 8d ae be
       0.12586908 0.13642424 0.27345544 -0.3409212
000040 3d 9c 44 be 21 cb f8 3c fe 49 ec 3e e9 b5 20 3e
       -0.19200225 0.030370297 0.46150202 0.15694393
000050 6e 5a 9a 3e bd 6e e8 3e 99 19 21 3f cd fb 0c 3f
       0.30147117 0.45396987 0.62929684 0.5507172
000060 88 b4 97 3e bb ad 59 3e bd e9 2f bf cb 0f 5a 3d
       0.29629922 0.21257679 -0.6871603 0.053237718
000070 cc 6f 4b 3d a9 d2 d4 3e 15 d8 8b 3e dc 08 28 3b
       0.049667165 0.4156697 0.27313295 0.0025640046
000080 2b fc 7f be 84 56 a5 be 42 77 29 3f a6 ff e1 bd
       -0.24998538 -0.3229257 0.661976 -0.11035089
000090 4e 4a 80 3e a8 45 54 3e d3 c7 db 3e e5 75 b3 3e
       0.2505669 0.20729697 0.4292589 0.35050884
0000a0 d7 89 74 be 23 15 69 be 6e 65 5f 3e 08 09 8e be
       -0.23880707 -0.2276197 0.21816036 -0.27741265
0000b0 51 27 22 3f 3a 01 2d be ff 88 d0 3e 7f 8c 26 be
       0.6334124 -0.16894999 0.4072952 -0.16264533
0000c0 5a a0 d4 3e d9 c3 8c 3e ba 22 b2 3e 22 50 a9 3d
       0.4152859 0.2749317 0.3479212 0.08267237
0000d0 2e f9 13 3f 48 18 0e be 63 a1 5c 3e b2 c1 6b bd
       0.57802093 -0.1387645 0.21545939 -0.05755777
0000e0 e8 a3 3d 3f 11 79 c7 3d 6c d8 1d 3f 84 99 68 be
       0.74078226 0.097398885 0.6165836 -0.22714812
0000f0 bf ef 0b 3f 0a b7 d8 bd d4 b4 fc 3e 3e cc 29 3f
       0.546627 -0.10581787 0.4935671 0.66327274
000100 45 43 0c 3d 75 15 22 3e 3b ff 41 be 0d 35 08 3f
       0.03424384 0.15828498 -0.18945019 0.5320595
000110 4c 3b b0 be 73 ff cd 3d 4c 86 fc be ab 7f 01 3f
       -0.3442024 0.10058489 -0.4932121 0.5058543
000120 b2 7c 33 3f d6 ed 8a be 09 cb 47 3e fa d7 a9 bb
       0.70112145 -0.2713458 0.19511046 -0.005183217
000130 de f2 14 be 0b 7d 87 3e 44 cc bd 3e ff 40 19 3e
       -0.14545771 0.26462588 0.37069905 0.149662
000140 be f8 11 3f ac 78 f6 be 85 c4 80 be 10 9f 3f 3e
       0.57020175 -0.4813894 -0.25149933 0.18713021
000150 c5 42 1b 3e c4 c0 67 3c 59 94 04 3f 00 25 2e 3d
       0.1516219 0.01414508 0.5178886 0.042515755
000160 a1 24 d0 bd c7 97 2e be ee 4d d0 3e fb 40 91 be
       -0.101632364 -0.17050086 0.40684456 -0.2836989
000170 52 af 0a 3f d6 28 ea 3e f3 fc e9 3d 2a 17 a8 3e
       0.5417377 0.4573428 0.11425199 0.32830173
000180 96 62 af bd fd 63 47 3f 4a 8d 02 bf 03 0d 01 3d
       -0.08563726 0.77886945 -0.5099684 0.03150655
000190 a2 59 1a 3f ff 84 ce 3e 54 99 c6 bd 80 22 d4 bd
       0.6029302 0.40335843 -0.09697214 -0.10358143
0001a0 a4 1f 02 3f 0e f5 e7 3e 9a 30 0f 3d e4 b6 a1 3e
       0.5082953 0.4530415 0.03495846 0.31584847
0001b0 68 cf e5 be 0d c0 7f be 82 ea 2f 3f 61 39 a9 bd
       -0.448848 -0.24975605 0.68717206 -0.08262897
0001c0 10 62 19 3d 79 77 84 3d f1 62 cf 3e b1 31 d3 3e
       0.037447035 0.064681 0.40505174 0.4124885
0001d0 70 39 d2 bd 77 12 fd ba 80 9f 29 3f 1b 27 49 3e
       -0.102648616 -0.0019307871 0.66259 0.19643824
0001e0 98 30 2a 3f 9e 40 13 3f cf 07 b3 be 65 bd 3b 3f
       0.664804 0.57520473 -0.34966895 0.7333587
0001f0 c5 74 b9 3e d5 a9 cb bd 17 18 ac bd 5d 1d 5c be
       0.362219 -0.09944502 -0.08403032 -0.21495576

net.2.weight f4 [128, 128]
000000 5d dd 60 3d ad 5e 71 bd 23 59 85 bd ff 6a 9e bd
       0.05489861 -0.05892818 -0.06511142 -0.07735252
000010 3f 10 a9 bd da 7d 5d bd 0d 0b 92 bd 7a 97 56 3c
       -0.08255052 -0.0540751 -0.07131014 0.013097638
000020 a8 d2 b8 3c 40 e6 b1 3b 30 da eb 3c f2 a7 53 3c
       0.022561386 0.0054290593 0.028790563 0.012918459
000030 d7 3f 3e 3d f1 9e 45 3d c7 f9 b7 bd 51 65 86 3d
       0.0464476 0.04824728 -0.08983188 0.06562293
000040 62 88 29 3d 07 c9 45 3d 26 7b bf bc 80 3c 99 3d
       0.04138983 0.048287418 -0.023374151 0.074822426
000050 5c 84 c7 3c b1 79 3f 3d 0a f2 8b 3a 3d 13 1d bd
       0.024355106 0.046746913 0.0010676992 -0.038348425
000060 79 b2 8f bd 28 e2 b1 3c 2e 01 9d bd f6 2f 9e bd
       -0.07016463 0.021714285 -0.07666241 -0.077239916
000070 89 bc 8d 3d 31 d1 9f bc 0f be 06 bc 9d 1b 8d 3d
       0.06920726 -0.01950893 -0.008224024 0.068900324
000080 8c 7c d4 3b 0e d8 2b bd 3c d4 2d 3c f9 35 98 3d
       0.0064845737 -0.041954093 0.010609683 0.074321695
000090 ae 45 1e bd 68 f6 3e bd 48 c3 fe bc 73 b9 8c 3c
       -0.03864067 -0.04662171 -0.031098977 0.017178273
0000a0 52 4e 88 bd 07 eb 6f bd 29 c3 85 3d 54 74 81 bd
       -0.066555634 -0.05857375 0.065313645 -0.06321016
0000b0 9a e1 9b bd 7f 60 99 3c d4 90 71 bd 45 09 77 3d
       -0.076113895 0.01872277 -0.05897601 0.060311574
0000c0 9c b7 4e bc 8d fd 6b bd 8d bf 6d 3d 54 de 37 3d
       -0.012617018 -0.05761485 0.058044005 0.044889763
0000d0 43 d9 c4 bd b8 77 f0 bc 1a f3 81 3d 20 3e f3 3c
       -0.09611752 -0.029353961 0.06345196 0.02969271
0000e0 52 8a 72 bd 12 1e 83 3c 5f a7 59 3c f2 b4 b4 bd
       -0.059213944 0.01600555 0.013284533 -0.08823575
0000f0 80 36 6d 3a f0 f9 24 3c 4a 83 95 bd 8e 1c fe bc
       0.00090489537 0.010069355 -0.07300432 -0.031019475
000100 af 33 e0 3c 6d 28 77 bc c4 85 6c 3d 6c df c4 3c
       0.027368395 -0.015085322 0.057744756 0.024032317
000110 96 39 2e 3d 7f 38 c4 bd 3f 5f 35 bd b3 47 1c 3d
       0.042535387 -0.09581088 -0.044280287 0.038154315
000120 ab 4e ed ba fd 35 f3 3c d0 8e c7 bc bd fc 2c 3d
       -0.001810511 0.02968883 -0.02436009 0.042233218
000130 16 36 15 3d 46 6b e6 bc 1b 10 86 bd bb bb 1d bc
       0.036428533 -0.028127324 -0.065460406 -0.009627278
000140 d8 5b be 3c 44 80 aa bd ca e6 6e bc 45 5a 99 bd
       0.023237154 -0.08325246 -0.014581392 -0.07487921
000150 70 2c 0a 3c ca 74 90 bd a0 e4 42 3d 84 41 c9 bb
       0.008433446 -0.07053526 0.047581315 -0.0061418433
000160 80 f6 5c ba 39 79 ab bd b3 fe ec 3c 00 0f 4e bd
       -0.00084290653 -0.08372731 0.028930044 -0.050307274
000170 44 95 07 bc 4f 9c 8c bc 29 ad 2d 3d 26 a6 03 3d
       -0.008275334 -0.017164377 0.042401467 0.032140873
000180 1e 03 85 bc 50 00 95 3d 4a 16 1d bd 0d 32 99 3d
       -0.016236838 0.0727545 -0.038351335 0.074802496
000190 2b d8 a9 bd 72 41 43 bd 86 93 1a 3d b5 8d 97 3d
       -0.08293184 -0.047669835 0.037738346 0.07400075
0001a0 18 9d 4d 3d d4 07 04 bc e9 ca 8e bd 9c 3d 4e bd
       0.050198644 -0.008058507 -0.06972296 -0.050351724
0001b0 0b 37 64 3d e3 cc 5b 3d fc 16 02 bd 50 26 b8 bd
       0.055716556 0.053662192 -0.0317602 -0.089916825
0001c0 c3 21 1b bd 45 83 5c bd 00 c1 49 3d 67 9e 6b 3d
       -0.037873995 -0.053836126 0.049256325 0.05752411
0001d0 19 99 80 bd 09 b2 17 3d 58 d9 66 bd 64 71 84 3c
       -0.06279201 0.037035022 -0.05635962 0.01616735
0001e0 2f 88 bb bc 69 76 82 bd c8 bf 2e 3c 95 61 73 3d
       -0.022892086 -0.06370241 0.010665841 0.059419233
0001f0 df 5b fd 3c e5 b5 8e 3b 7e 75 30 bd 96 03 70 bd
       0.030927597 0.0043551796 -0.0430808 -0.05859717
000200 04 e5 a4 bf 60 3f d4 bf 29 63 77 be 6d dd 3a be
       -1.288239 -1.658184 -0.2415892 -0.1824853
000210 27 af 71 3e da 4c 4d be 13 c8 02 3f 55 db 68 bf
       0.23601972 -0.20048848 0.5108654 -0.90959674
000220 0f 6e df 3e 2b bf 82 3c 6f ff 80 bf 98 be 49 bd
       0.43638656 0.015960297 -1.0077952 -0.04925403
000230 7f 74 fb be 50 91 af 3d 28 28 8b 3e 0c 85 a7 3c
       -0.49112317 0.08572638 0.27179074 0.020449184
000240 ce 4d 38 3e d5 ea 96 be 2d 02 a7 bc 8c 95 7d bf
       0.1799843 -0.29476038 -0.02038678 -0.99056315
000250 2b f0 b5 3e 60 5b c0 bd 57 42 25 bd b1 c4 84 3e
       0.35534796 -0.093924284 -0.04034647 0.25931314
000260 65 a7 78 bd 75 10 b6 3d 0a ed 1b 3f 78 be d5 bd
       -0.060706515 0.08889858 0.6090857 -0.1043672
000270 72 9f 30 bd ca 84 64 3d ac ee 9f bf 89 9b d4 bf
       -0.04312081 0.0557907 -1.2494712 -1.6609966
000280 d5 86 92 3e 8b e9 35 3f f3 cc db be c5 47 fc 3e
       0.28618494 0.71059483 -0.429298 0.49273506
000290 a3 77 ee bf 79 29 9f bf 6b 8c 61 be 02 af a7 3d
       -1.863026 -1.2434531 -0.22026221 0.08187677
0002a0 08 da cc be ac 87 64 3e 73 ea 0c be 04 a1 1a 3f
       -0.40010095 0.2231738 -0.1376131 0.6040194
0002b0 9c c6 99 be ae 7d bf 3d a8 d8 2c bd 30 fb 1d 3e
       -0.3003434 0.093501434 -0.042198807 0.15427852
0002c0 d7 b5 dd 3d b0 42 43 3d af 59 71 bf f9 f8 af bf
       0.10825699 0.04767102 -0.9427747 -1.3747855
0002d0 23 33 d3 bf e3 8b fa 3e d9 99 ec bd 18 6a 6c bf
       -1.6499981 0.4893485 -0.115527816 -0.92349386
0002e0 1f 97 4c 3d 61 5e 41 bf 6e 9f 41 bd 40 0f be 3d
       0.049948808 -0.75534636 -0.047271185 0.092802525
0002f0 69 37 f3 be ff d9 4b 3e 0f 00 80 bf d4 68 86 bf
       -0.47503212 0.19907378 -1.0000018 -1.0500741
000300 85 c5 db bb 9d 50 dc bf 03 b5 af bf a8 eb b3 be
       -0.006706896 -1.7212101 -1.3727115 -0.3514073
000310 c9 83 1c bf 72 81 2c bf d6 ee 62 bf 91 7f 9c be
       -0.6113859 -0.6738502 -0.88645685 -0.30566075
000320 3f 56 2d bf 2c 98 96 bf 3b 83 a1 be b6 8e b3 3e
       -0.67709726 -1.1765189 -0.31545433 0.35069817
000330 e8 b4 be 3d 48 d0 21 bf 8c 4d 6d bf 68 cc 25 3f
       0.09311849 -0.63208437 -0.9269645 0.64765024
000340 08 69 bb 3c 83 20 54 3f be fc 0f 3f d3 1c be bf
       0.022877231 0.8286211 0.5624503 -1.4852546
000350 01 d3 64 3d 37 61 d4 bd 8c 20 83 3d dd a3 58 be
       0.05586529 -0.10370105 0.06402692 -0.21156259
000360 5f 4d 09 3f 62 4b 6e 3e 49 da 30 bf c8 91 9c ba
       0.53633684 0.23270944 -0.69083077 -0.0011945302
000370 59 47 31 bf 68 0f d3 bd 9b b7 9a be 1a 38 10 bf
       -0.6924949 -0.10305673 -0.30218205 -0.56335604
000380 5a 46 cc bf 94 e3 2f be 74 19 cb 3e 8d d1 f0 3e
       -1.595897 -0.17176658 0.39667857 0.47034875
000390 ba db ab bd 9b 17 9d bc 85 7e 62 3e 9f 2c 56 be
       -0.08391519 -0.019176295 0.22118576 -0.20915459
0003a0 1b 58 74 3e df 37 c5 3d 3c d1 87 bf f4 5d f6 3d
       0.23861735 0.09629797 -1.0610728 0.12029639
0003b0 62 d1 4e be f7 a5 d1 bf 10 fa 84 bf 65 64 ac 3e
       -0.2019706 -1.6378773 -1.0388813 0.33670345
0003c0 ed c8 d6 3e 79 d1 48 3f 3f af 99 3e de cf dc be
       0.4195017 0.7844463 0.30016515 -0.4312734
0003d0 d7 f6 54 3e 55 48 10 3f ed bd 9f bf a7 7f 07 3f
       0.20797287 0.5636037 -1.2479836 0.52929157
0003e0 aa da 05 be 1c d2 02 be 42 8a aa 3c 15 9c b2 be
       -0.13071695 -0.12775463 0.02081788 -0.34884706
0003f0 5f 19 de bd 8d 9d a7 3d 56 64 c3 3e a5 2c c9 3e
       -0.10844683 0.08184347 0.38162488 0.39291874

net.2.bias f4 [128]
000000 de 44 b4 bd dd 79 2e bf bd 73 a4 3d 76 5b 6a bd
       -0.08802198 -0.681547 0.08029888 -0.05721613
000010 ee c8 c6 3d 8b e1 fe 3d 58 0d 0a 3f c5 cc d1 3c
       0.09706293 0.12445363 0.5392661 0.025610337
000020 66 df a2 be b4 83 bc 3c 8f 3a 01 3e 26 df 2f 3e
       -0.31811064 0.02301202 0.12619995 0.17174968
000030 a5 61 aa 3d 6b 16 c7 3d 66 a4 b1 3d 30 b2 1d 3e
       0.083194055 0.09721073 0.08673935 0.15400004
000040 6b 78 03 bd 50 63 9d bb c5 0c 05 3e b6 90 79 3c
       -0.03209726 -0.0048030987 0.12993152 0.015232256
000050 5b c6 8b 3e bb 33 07 bd 65 a1 16 3f 79 0a 54 3e
       0.2729977 -0.03300832 0.5884002 0.2070712
000060 35 9a d6 bd 10 92 be bd e6 79 c6 3d af dc e9 bd
       -0.104786314 -0.09305203 0.09691219 -0.11419045
000070 fe e1 50 3d 75 dc 83 3d 3b 1e a9 3e d9 d7 ce 3d
       0.050996773 0.06438533 0.33030877 0.100997634
000080 e4 69 b5 bb ad 01 af bd fc ac 7e bc 7b 9d 13 3e
       -0.005536305 -0.085452415 -0.015544172 0.14415543
000090 54 47 93 bc 07 17 a1 3d e3 9f 09 3e 97 4a 29 be
       -0.017978348 0.0786572 0.13439898 -0.1653236
0000a0 56 7c 3e 3e 32 1d 8c 3e 60 97 a2 bd 14 b2 cd be
       0.18602118 0.27366024 -0.07939029 -0.40174925
0000b0 d5 bb 10 3d 4c 4b 99 bc 07 f8 b5 3d cc e2 c8 3d
       0.03533538 -0.018712662 0.08885198 0.09808883
0000c0 40 79 14 3d 05 42 f7 3e 6a 50 8d bd 76 d8 a7 bc
       0.036248446 0.48292556 -0.069001034 -0.020488959
0000d0 04 70 02 3e 57 5d bc 3e 44 42 93 bb af 64 0f 3e
       0.12738043 0.36789963 -0.0044939835 0.14003251
0000e0 80 2e 09 3e 70 f8 cc 3c 50 b7 d6 3c 38 22 13 3e
       0.13396645 0.025020808 0.026210457 0.14368522
0000f0 24 62 a7 3d 2e b7 91 3e 0f 00 d1 3d a8 d4 2f 3e
       0.08173016 0.28460068 0.10205089 0.17170966
000100 32 f4 b6 3d 56 48 58 bb da 04 20 3d 18 47 d1 bd
       0.08933295 -0.00330021 0.039067127 -0.10218638
000110 e6 b3 87 3d b8 7c 3b 3d b0 70 4c bd 3c 3c 47 bb
       0.0662611 0.045773238 -0.049912155 -0.0030400893
000120 cd af f4 3d 60 fa 7a bb a5 bd f1 3d 1e 13 1b 3d
       0.11947594 -0.0038296208 0.1180375 0.03786003
000130 74 56 53 bd 08 1f b8 3d ee 93 d6 3e be 7d 12 3e
       -0.05159612 0.08990294 0.41909736 0.1430578
000140 e8 c4 50 bd 69 7e 5c 3c c7 94 68 bd 72 eb cf bc
       -0.050969034 0.013457873 -0.05678251 -0.025380824
000150 00 e7 16 3e 32 4a 49 3d f3 fc 0c 3e c2 ee 07 3e
       0.14736557 0.049143024 0.13768367 0.13274673
000160 09 e8 2b 3d 5b 30 bb bd 52 ed b9 bd 45 a1 8b 3d
       0.041969333 -0.091400824 -0.090784684 0.06817869
000170 67 65 53 3d 81 ae 93 bc 1c 08 8b 3e b9 22 7c 3d
       0.051610377 -0.018027546 0.27154624 0.06155655
000180 f2 fe e4 3d 89 75 a1 bd 16 91 0e 3e 4f 31 a3 3e
       0.111814395 -0.07883746 0.13922533 0.31873557
000190 38 35 46 3d df e9 13 3e 60 30 2f 3e dc 9c 89 bd
       0.048390597 0.14444683 0.17108297 -0.06719372
0001a0 ff 82 cd 3c 7c 98 d4 3d 47 3c 9d 3d 13 0a 13 3e
       0.025086878 0.103806466 0.076775126 0.14359312
0001b0 88 3d 09 3d c9 ad 8e 3d ee 7f 1b 3d e4 64 05 3e
       0.033505946 0.06966741 0.0379638 0.13026768
0001c0 24 2a e7 3d 29 62 78 bd 6a 41 ea 3c f1 33 5a bd
       0.112873346 -0.060640488 0.028595645 -0.05327219
0001d0 fe f4 5e 3c 73 61 06 3e 6b 82 67 bd 76 1a ab bd
       0.013608215 0.13123111 -0.05652086 -0.083546564
0001e0 3b e0 01 3e 51 29 d6 bd cf e9 91 3d 58 a2 8c 3e
       0.12683193 -0.10457099 0.071246736 0.27467608
0001f0 5a 3b ee 3d 51 cd 9e 3d 1a f4 db 3d d2 1f c4 3d
       0.11632414 0.07754005 0.10739918 0.09576382

net.4.weight f4 [4, 128]
000000 2f b0 80 bb f2 e9 df be fd 9c 1a be 9f 4c 40 bd
       -0.0039272527 -0.43733174 -0.15098949 -0.04694807
000010 b2 59 93 be 52 dc 8a be cb b9 96 3f 64 bb ac 3d
       -0.2877937 -0.27121216 1.177545 0.084341794
000020 74 fd ae 3f 44 8a 26 be 14 5b 4a be 6f 19 8a be
       1.3671098 -0.16263682 -0.19761306 -0.2697253
000030 d7 61 59 be bc 9a ae 3f ae a7 a4 be a2 6d 1c be
       -0.21228729 1.3640971 -0.3215918 -0.15276197
000040 ae 5c 87 bd 2c 88 a7 3c 80 b7 b7 be 04 b3 86 be
       -0.06609474 0.020450674 -0.35882187 -0.26308453
000050 47 d1 c6 3f a3 17 a6 be ab a4 bf 3f f0 ec 03 bf
       1.5532616 -0.32439908 1.4972128 -0.5153341
000060 67 a4 65 be 86 b6 6c 3c 16 e7 cb be f7 1c 23 bf
       -0.22425996 0.014447814 -0.39824742 -0.6371607
000070 77 e5 cd 3f 30 90 8a be 6f 99 9c 3f 55 a1 0e be
       1.6085652 -0.2706313 1.2234324 -0.13928731
000080 d6 6a 3a be a5 4e 1a bf ce 4e 85 be dc 4c 61 3c
       -0.18204817 -0.6027625 -0.26036686 0.013751235
000090 6c eb fc bd d1 3e 53 be 93 69 6a be 77 96 be be
       -0.12349591 -0.20629431 -0.22891836 -0.3722417
0000a0 c2 82 86 be 0b 04 a9 3e 6a 4a 49 bf 0f 59 e8 be
       -0.26271635 0.33010897 -0.7862917 -0.45380446
0000b0 86 15 8d be 80 cb bd bb 74 26 a8 be 4d 00 81 bd
       -0.27555484 -0.0057920814 -0.32841837 -0.062988855
0000c0 fb 4e af be 01 3b 72 3f 91 3c bf 3f 6b b6 8a be
       -0.34239945 0.9462128 1.4940358 -0.270923
0000d0 53 75 8a be fa 78 8c 3e c8 0c ec bd e8 40 59 be
       -0.27042636 0.27436048 -0.11525875 -0.21216166
0000e0 62 c4 e0 3e e0 04 bf bd df e0 6a be 34 61 a6 be
       0.43899828 -0.09327102 -0.22937344 -0.32496035
0000f0 49 37 e6 3f b3 b0 0f bc 41 45 3a be 72 3e 94 be
       1.7985622 -0.008770156 -0.18190481 -0.28953892
000100 24 5a 23 bf 31 2e 72 be 13 c5 9e be 59 88 f5 be
       -0.6380942 -0.23650433 -0.3100973 -0.47955588
000110 fc 8a 89 be 3a 70 70 be c8 73 93 be ea c9 a8 bd
       -0.2686385 -0.23480311 -0.28799272 -0.08241637
000120 9b 1a bc be 04 0e 02 be 51 25 cc bc 91 2b 94 be
       -0.36739048 -0.12700659 -0.024920138 -0.2893949
000130 4e 78 08 3b 4c e4 3d be e9 fb 94 3f dd 0b 2f be
       0.002082366 -0.1854412 1.1639377 -0.17094369
000140 ed 1d 31 be ca 8b 07 bd c1 65 48 be 59 52 3f bd
       -0.17296572 -0.033092298 -0.19570066 -0.046709392
000150 55 de 41 bd ab 31 bd be f9 81 84 be 71 da 94 be
       -0.047331173 -0.36951956 -0.2588041 -0.29072908
000160 1e 05 89 be 22 2f 6b 3d f5 66 da 3a 76 e3 22 be
       -0.26761717 0.057417996 0.0016662764 -0.15907082
000170 e5 71 cf 3f e7 cf d7 be 9e e4 c9 3d fd 04 90 be
       1.6206633 -0.42150804 0.098580584 -0.28128806
000180 3b 8d b7 be b5 65 97 bc cd 7f ad bd 49 d5 e7 3d
       -0.35849938 -0.018481115 -0.08471642 0.11319978
000190 48 1a 59 bf 52 c6 86 3f 40 4f 55 be 94 1b a2 be
       -0.84805727 1.0529273 -0.20831013 -0.31661665
0001a0 5b 79 8c bd d6 ff 15 be 39 cf 11 be 28 54 a2 be
       -0.06859084 -0.14648375 -0.14239205 -0.3170483
0001b0 86 a4 a3 bd 90 2c ca 3c 6e 6c 3e bf 6a e0 7c be
       -0.07990365 0.024679452 -0.743842 -0.24694982
0001c0 21 ec a8 be 0b 74 80 bd 09 76 74 be 36 e9 29 3d
       -0.32992652 -0.062721334 -0.23873152 0.041482173
0001d0 2d 71 87 be 90 ba 67 be 41 55 22 3d 84 4c a9 3c
       -0.26453534 -0.22629762 0.039632086 0.020666368
0001e0 98 31 8a be 8b f1 96 be 93 e0 9a be 16 6a 99 3f
       -0.26990962 -0.29481158 -0.30249462 1.19855
0001f0 49 65 9f be 79 da 9f be de 82 a6 be d4 5c 8d be
       -0.31131962 -0.3122137 -0.3252172 -0.27609885
000200 6f f3 5d bd a1 9f 13 3f 23 2a 9f be ab 6a 12 3d
       -0.054187234 0.5766545 -0.31086835 0.035746258
000210 9f 28 2d be cd 09 90 be f9 14 3d 3f 77 1d 82 bd
       -0.16910027 -0.28132477 0.73860127 -0.06353276
000220 e7 3c 87 3f 3f 50 82 be 34 c4 3e be 42 79 88 be
       1.0565461 -0.25451848 -0.18629533 -0.26655012
000230 e7 7b 83 be 88 e7 95 3f 42 bb 45 be 5c b6 df bd
       -0.25680467 1.1711283 -0.19309714 -0.10923454
000240 6c 1b d5 bc 91 7a 6f bd b9 e7 9e be 10 db ab be
       -0.026014052 -0.058466498 -0.31036165 -0.3356557
000250 26 70 e4 3f c3 52 85 be 9e 02 c3 3f 12 61 df be
       1.7846725 -0.26039705 1.5235174 -0.43628746
000260 1c a0 88 be d8 44 4d 3d 38 e4 d0 be 6e 0d a4 bf
       -0.26684654 0.050114483 -0.40799117 -1.2816598
000270 b1 67 99 3f 23 75 1a be d8 f9 92 3f 55 de 9e be
       1.1984769 -0.15083747 1.1482496 -0.31029
000280 76 6d 44 be fd c2 9c bf a5 9b 98 be c5 29 de bd
       -0.19182381 -1.2247006 -0.29806247 -0.10847811
000290 68 53 22 be 45 bd 7a be 71 fe 12 be ac a2 37 bf
       -0.1585213 -0.24486263 -0.14354874 -0.7173259
0002a0 12 57 2a be d7 03 a8 3f 33 b1 82 bf 2d 2f 67 3f
       -0.16634777 1.3126172 -1.0210327 0.9030636
0002b0 9d 24 bf be e2 c7 0a bd 72 87 b3 be 87 71 76 be
       -0.3733262 -0.03388203 -0.35064274 -0.24066745
0002c0 6e 0a b2 be 0a b6 8b 3f 9a e0 98 3f 29 6c c5 be
       -0.34773582 1.0914929 1.1943543 -0.38559082
0002d0 55 e9 77 be e5 94 14 3f 73 9d b9 be 47 b3 99 be
       -0.24210103 0.58039695 -0.36252937 -0.3001959
0002e0 fd c4 0e 3f 0a 79 44 bf c3 79 96 be 46 a7 57 be
       0.5576933 -0.7674719 -0.29389772 -0.21059904
0002f0 af a7 de 3f 2d 90 10 3d e0 7b 5c be f4 e2 8c be
       1.7394923 0.035293747 -0.2153163 -0.27516901
000300 4c 6b c2 3e ce 55 95 be b3 d6 9c be 1e ec 91 be
       0.37972486 -0.29167026 -0.30632553 -0.28500456
000310 e1 dc aa be 60 1a 99 be a2 1b 9f be 5c 30 fb 3c
       -0.33371642 -0.29902935 -0.3107577 0.030662708
000320 0f 79 2d be 9b 49 24 be 21 c4 b3 bd de 9b 5d be
       -0.16940711 -0.16043703 -0.08777643 -0.2164149
000330 64 49 9d bd fe 06 b8 be e8 64 9b 3f 52 70 54 be
       -0.07680014 -0.35942835 1.2140169 -0.20745972
000340 81 ad ab be 3e 1e 8d 3d 6e 80 9f be 94 0e 0d bf
       -0.3353081 0.06890534 -0.31152672 -0.5510037
000350 41 53 9a be 56 8f 8f be e9 70 a9 be 45 64 b1 be
       -0.30141643 -0.28039044 -0.33093956 -0.34646812
000360 9e 8d 65 be 59 29 ae 3d 9c d9 a0 3c 09 29 36 be
       -0.22417304 0.0850398 0.019635014 -0.17789091
000370 0e de d7 3f b6 e4 d7 3c 1d 5d 55 3e cf fb a0 be
       1.6864641 0.026354175 0.20836301 -0.31442115
000380 51 00 41 be 52 16 3f 3d 0b d5 2e be 71 12 51 3e
       -0.18847777 0.046652146 -0.17073457 0.20417191
000390 36 26 92 bf a6 54 12 3f e2 a2 5f be 8e d4 93 be
       -1.1417911 0.57160413 -0.21839479 -0.28873104
0003a0 cc 2b db bc 0f 7b af be e5 11 25 be e6 94 31 be
       -0.026754282 -0.34273574 -0.16120107 -0.17341956
0003b0 82 f6 45 be f9 b1 63 3d ad a7 8f bf 70 34 40 be
       -0.19332317 0.05558965 -1.1223046 -0.18770003
0003c0 cc 23 18 be 9c 28 a4 3d cf 5e 20 be 00 40 13 38
       -0.14857405 0.08015558 -0.15661167 3.5107136e-05
0003d0 87 38 2d be e9 eb 2c be 2f 92 0a 3d c8 95 1c 3c
       -0.16916095 -0.16886868 0.033830818 0.009557195
0003e0 a9 35 35 be 39 d7 4a be 3e f0 99 be 28 c6 32 3f
       -0.17696251 -0.19808663 -0.30066103 0.6983361
0003f0 75 07 19 be 98 b5 f8 bd 47 bd 93 be a8 3c 0b bd
       -0.14944251 -0.12144011 -0.28855345 -0.033993393

net.4.bias f4 [4]
000000 37 34 42 be 1c 2b ed 3d 01 e3 8e bc 24 42 7b be
       -0.18965231 0.11580488 -0.017442228 -0.2453695
