SARSA/dsqn/1_model_weights.pth (torch, 75893 bytes, 6 tensors)

net.0.weight f4 [128, 8]
00000000: a03b ca3d fc81 22be ee4a 97be a43e e93d
00000010: f8a2 733d 0ae6 03be 04ea 123e 8009 083d
00000020: 1970 943e 10e6 80bd 205c 073d 2ef4 7bbe
00000030: 58b2 41bd dfe8 8a3e ce3b 3a3e ecc9 e03d
00000040: d8ef 583d fe24 783e 8020 d4bb fa3d 333e
00000050: 32fa 793e 86f9 92be 5a15 7dbe 006d 123b
00000060: ed85 53be 20c4 f63c 2c5b 9bbe 136f 903e
00000070: efd3 9fbe 90e7 7b3d 6440 883d 0a2f b3be
00000080: d837 8d3d a498 e03d 8092 bebb 16ea 203e
00000090: 7b29 10be ee97 0c3e 6264 7c3e aa85 9bbe
000000a0: 1a6d 223e f65e 9abe 9edd 4dbe 140c 43be
000000b0: 747a 7cbe 9fad 0cbe b282 6dbe a4b0 f4bd
000000c0: 94b1 a83d 95d6 ac3e 495e 873e e039 453c
000000d0: babe 66be 2a70 193e 02e8 2c3e 7a36 2a3e
000000e0: 7949 b2be fc13 c53d fc02 fd3d 815c 983e
000000f0: 67a3 9a3e 7c5f f43d 6a20 8abe 14d8 9d3d
00000100: 8031 553c 2262 65be df5a 8c3e ecd0 7bbe
00000110: c84f b7bd 2258 96be 00f6 563d 501d 903c
00000120: ec15 f73d c81b f7bd 152d 06be d8dc bf3d
00000130: 278a 873e e28a 3c3e e468 16be 0064 553b
00000140: 0d3a 9a3e c426 8fbe e6b5 483e f8e3 093d
00000150: f894 63be 9d40 9a3e 0021 d53d 0f9b a13e
00000160: 1ae1 9dbe 00b0 31bc 1801 b1be 809e 2dbb
00000170: e8fa 953d 4ffe 9a3e fac4 063e 0034 723a
00000180: 4042 443c 16de 473e 00bd 1a3c 9ef7 3d3e
00000190: 403d ae3d 56c0 1e3e 1e5e 433e 1a3e 6b3e
000001a0: f01c dbbc 229e 4e3e c1e8 62be 9669 f7bd
000001b0: 4c08 913d c0c3 09bd 0e54 273e e0c2 5b3d
000001c0: 9d52 56be 18a3 c3bd 2414 883d c2d8 7a3e
000001d0: c014 2b3d 3708 23be efdc 873e 8986 7dbe
000001e0: dce4 93bd f0b4 6abe f072 78be ebaa adbe
000001f0: 084a a2be 2bf8 adbe be57 2b3e f86c 4b3d
00000200: 50ef f0bd cdb4 56be 42c4 543e bcba 843d
00000210: 8f33 b33e 9c24 bebd 26f9 5d3e b23d f0bd
00000220: 906d 0ebd c682 7cbe 5042 0f3d 7c92 5cbe
00000230: d4c4 e5bd 82c9 e7bd f7fe a63e fab5 51be
00000240: 0060 03bb 1e49 aebe ee1d 86be 5ecb 433e
00000250: 7f5b 993e c75e 993e 88ed 57be e011 d73c
00000260: 46e0 1abe c3ba b23e 0c9e e2bd e4ff bf3d
00000270: b983 a43e 4f57 95be 4a8f 563e 7676 3e3e
00000280: c02e e8bc 80cd 473c b286 30be c005 183d
00000290: d3c8 ae3e e034 863d 905e d23d 7e66 543e
000002a0: 631f 833e 2e97 543e d6ae 163e d0ac 84bc
000002b0: 3c26 c83d 3080 b43c 2dd3 863e 1fc3 b2be
000002c0: 0fbe a4be c69f 17be a938 a63e c013 f43c
000002d0: 7916 b13e f9b9 b4be ba45 6abe 3622 443e
000002e0: 82d4 88be e09b 4f3d efc3 973e d21a 4a3e
000002f0: 251d ab3e 4e76 1d3e f058 da3c fdf4 973e
00000300: e051 073e f8db 99be 2c31 b03d 1c53 fd3d
00000310: f655 173e 283b c5bd d0a3 5e3d c7c2 ae3e
00000320: 8268 9bbe b023 0d3e 72d0 553e 1007 303d
00000330: 71c9 85be 1055 8dbc 5577 16be 303c cb3c
00000340: b2ed 1a3e eb55 8c3e 7e0b 3f3e 02d3 463e
00000350: b887 9fbd 9ca0 dd3d 6e41 00be f480 053e
00000360: 8531 a7be a294 613e c0a5 b4bd ee19 7c3e
00000370: 00d2 8fbc 583b b2bd 36a2 a5be f8c2 153d
00000380: 6069 12be 3c6d 68be 678e 963e 743e 27be
00000390: 80ad 4c3c 858e ac3e c0fc a8bb d2f1 063e
000003a0: 51f9 963e 180a 79be 50fb aebe f40c 58be
000003b0: 640a d23d 70f6 0cbd 2803 02bd da59 2e3e
000003c0: fb2e 08be ab26 1abe 98f5 603d ecd4 38be
000003d0: 3401 61be 000f 5d3b e573 8dbe 744e 44be
000003e0: df42 23be b6c6 7f3e 1e7c 593e b015 8abe
000003f0: 201f d33d 34e7 22be 1cdd 38be d4e9 9f3d
0.09874654 -0.15869898 -0.29549354 0.11388901 0.05948159 -0.12880722 0.14347082 0.033212185
0.28991774 -0.06293881 0.03304684 -0.24604866 -0.047289222 0.27130792 0.18186876 0.109760135
0.052963108 0.24232861 -0.006473601 0.17504111 0.24411848 -0.28705996 -0.24715176 0.00223428
-0.20656557 0.030122817 -0.30342996 0.28209743 -0.3121638 0.061500132 0.066529065 -0.34996825
0.06895417 0.10966614 -0.005815804 0.15714297 -0.14078324 0.13729832 0.24647668 -0.30375415
0.15861931 -0.30150574 -0.20104071 -0.19047576 -0.24656087 -0.13738106 -0.23194388 -0.11947754
0.08236995 0.33757463 0.2643912 0.012037724 -0.22533694 0.14984193 0.16885379 0.16622344
-0.3482168 0.09622952 0.12354085 0.29758075 0.3020279 0.11932275 -0.26977855 0.07707229
0.01301229 -0.22400716 0.2741308 -0.24591416 -0.08950764 -0.29364115 0.052480698 0.017592102
0.12064728 -0.12065846 -0.13103135 0.093682945 0.2647259 0.18412355 -0.1468845 0.0032560825
0.30122414 -0.27959263 0.19600639 0.033664674 -0.22224796 0.3012742 0.10406685 0.31563613
-0.308358 -0.010845184 -0.34571147 -0.0026492178 0.07323247 0.30272147 0.13161078 0.0009239316
0.011978686 0.19518313 0.009444475 0.1855149 0.08507776 0.15503058 0.19078872 0.22972909
-0.026747197 0.2017751 -0.22159101 -0.12080686 0.07081661 -0.033633947 0.16340658 0.053652644
-0.20929952 -0.09552592 0.066444665 0.24496749 0.041767836 -0.15921102 0.26535746 -0.24758352
-0.07221386 -0.22920585 -0.24262595 -0.33919463 -0.31697106 -0.339784 0.1673269 0.049664468
-0.11764395 -0.20967408 0.20777991 0.06480929 0.35000274 -0.092843264 0.21677074 -0.117305174
-0.034772456 -0.24659261 0.03497535 -0.21540254 -0.112191826 -0.113177314 0.32616398 -0.20479575
-0.0020046234 -0.3404016 -0.2619471 0.19120547 0.29952618 0.29955122 -0.21086705 0.02625364
-0.15124616 0.34908113 -0.11065301 0.09374979 0.32131746 -0.29168174 0.20953098 0.18599877
-0.028342605 0.012194991 -0.17238882 0.03711486 0.34137592 0.06553054 0.102719426 0.20742223
0.25609884 0.20760795 0.14715132 -0.016195685 0.09772918 0.02203378 0.2633299 -0.3491449
-0.32176253 -0.14807042 0.32465103 0.029794574 0.34587458 -0.35298136 -0.22878161 0.19153675
-0.2672463 0.050685763 0.29641673 0.19736794 0.33420673 0.15377161 0.026653737 0.296791
0.13214827 -0.30050635 0.08603129 0.123693675 0.14778885 -0.09630424 0.054355443 0.34132978
-0.3035317 0.13783145 0.20880297 0.042975485 -0.2613025 -0.017252475 -0.14693959 0.024808973
0.15129736 0.274093 0.18656728 0.1941643 -0.07789558 0.108216494 -0.1252496 0.13037473
-0.32654968 0.22029355 -0.08820677 0.24619266 -0.01755619 -0.08702725 -0.3235032 0.03656289
-0.1429801 -0.2269792 0.2940552 -0.16332418 0.0124925375 0.33702484 -0.0051570833 0.13178185
0.29487088 -0.24320257 -0.3417611 -0.21098691 0.10255888 -0.03441471 -0.03174129 0.17026463
-0.13299172 -0.15053813 0.054921716 -0.18049973 -0.21973115 0.0033730865 -0.27627483 -0.19170552
-0.15943478 0.24978146 0.21238753 -0.2696967 0.10308671 -0.1590851 -0.18053097 0.07808271

net.0.bias f4 [128]
00000000: ac47 b1be c445 033e 7f75 883e a0c0 143e
00000010: 220c 8ebe 90c2 11bd f63d 1d3e aeba 3a3e
00000020: 488a 9cbd 023d 5b3e 7834 683d d695 703e
00000030: ce11 203e e010 b33c 7782 4bbe f889 3cbd
00000040: 0b50 2bbe 84fa 3bbe e5bc 8f3e 40c5 c53b
00000050: 1fdd 42be 868c 98be dee8 3ebe e6a4 3b3e
00000060: be06 0f3e 51e0 953e f8b4 c7bd 979c aa3e
00000070: b3f3 2ebe f5fe 923e bfc2 9e3e 5ebf 7b3e
00000080: 5452 10be a7de 893e 108b a3bc 399b a9be
00000090: bda3 813e b7d8 59be b8b7 9b3d cc3b 4ebe
000000a0: d5c9 a23e c10d b33e 4148 8b3e 9624 2b3e
000000b0: 5e45 1e3e 0693 50be 5255 0d3e 623a 7abe
000000c0: 845f 0dbe 35ac 58be be1b 6abe 9e28 50be
000000d0: 8079 ac3b 9ec2 2fbe b61d 2d3e 717e 86be
000000e0: 000f 64bb e88f 8e3d cef1 503e 48ed d6bd
000000f0: d03b 0abd 9092 a13d a2fa 6ebe cc48 6abe
00000100: 84b8 a1be b047 ee3c 9efb 603e 30c2 5d3d
00000110: ab9e b13e ac5f 90be 4701 9c3e e0dd 8cbe
00000120: 00d8 153b c064 9f3d 5f84 813e 6086 5e3d
00000130: 305b 8bbc e4c2 adbd a63e b3be 33e0 a43e
00000140: f0bf efbd a255 fbbd 0093 f4bb 5832 4a3d
00000150: 9f91 78be 709e 0c3e f8a8 c43d f8f2 9cbe
00000160: 9a1b 4d3e 3364 b3be e0cf 01bc a7ad 41be
00000170: 4330 39be a84a e13d 0ff4 68be 9472 a2be
00000180: d01e 3e3d 205e 403c 8e60 023e 74ac 9bbd
00000190: eb98 ae3e cdd6 21be 007b c1bd 464c 3e3e
000001a0: f878 84be eda2 8cbe 287c 663d 301f d5bd
000001b0: 0262 2d3e c488 1abe f80f cfbd dc4d 31be
000001c0: 972e 9bbe 3b0e 28be ba45 373e d954 16be
000001d0: d92c 13be c520 37be b23b 153e 9679 653e
000001e0: 366f d8bd a03b abbe 14fe 9abd b5c3 87be
000001f0: 7842 18bd 3dd3 93be ecfb 3fbe eeec 5f3e
-0.34624994 0.12819582 0.26652142 0.14526606 -0.27743632 -0.03558594 0.15355667 0.18235275
-0.076435626 0.21409991 0.056690663 0.23494658 0.15631792 0.021858633 -0.19873987 -0.046030015
-0.16729753 -0.18357283 0.28073803 0.006035477 -0.19029664 -0.2979471 -0.1864352 0.18324623
0.13967416 0.29272702 -0.09751314 0.33322594 -0.17085151 0.28710142 0.31007954 0.2458472
-0.14093906 0.26927683 -0.019963771 -0.33126238 0.25320235 -0.21274076 0.07603401 -0.20139998
0.3179461 0.3497143 0.27203563 0.16713175 0.15456149 -0.20368585 0.13802078 -0.24436334
-0.13805968 -0.21159442 -0.22862145 -0.20327994 0.0052635074 -0.17164084 0.16905865 -0.26268342
-0.003479898 0.06961042 0.20404741 -0.104944766 -0.033748448 0.07889283 -0.23337796 -0.22879332
-0.31586087 0.029086918 0.21970984 0.05414027 0.34691367 -0.28197992 0.30469725 -0.27513027
0.0022864342 0.077828884 0.25296304 0.05432737 -0.017011255 -0.08484438 -0.35008734 0.322023
-0.11706531 -0.122721925 -0.007463813 0.049364418 -0.242743 0.13732314 0.09602541 -0.3065412
0.2003006 -0.35037383 -0.007923096 -0.189139 -0.18084817 0.11000568 -0.22749351 -0.3172804
0.046416104 0.011741191 0.12732145 -0.07601252 0.34101042 -0.15804596 -0.094472885 0.18583784
-0.25873542 -0.27468053 0.05627075 -0.10406339 0.16931918 -0.15091234 -0.10110468 -0.17314857
-0.30308983 -0.16411678 0.17897692 -0.14680804 -0.14372577 -0.17883594 0.14573553 0.22409663
-0.10568087 -0.33443928 -0.07567993 -0.265165 -0.037172765 -0.288721 -0.18748444 0.21867725

net.2.weight f4 [128, 128]
00000000: ce31 2dbd a60b f4bc c0cb cf3c 4745 95bd
00000010: 78e5 3dbd d0df d0bc 408d e33a 4190 49bd
00000020: 4552 94bd 8a20 663d f1a8 1cbd dab6 173d
00000030: 1b54 87bd 001b d5ba 25ff 973d a211 1a3d
00000040: 2f71 833d 7742 aa3d 5617 113d 505c a53c
00000050: af5c 83bd 33be 8cbd 00c6 fd39 309e 8bbc
00000060: ded9 213d f821 eb3c 4847 9bbc 226d 5f3d
00000070: c62d 20bd a03c 0bbc abd1 b2bd d2e6 713d
00000080: fdad 8d3d 8b89 b2bd e2cd 98bd ae5e 323d
00000090: 40ce 523c 80ac 7d3c 0066 d639 9dd1 2abd
000000a0: ab27 49bd 6062 09bc 782e 97bd 9671 243d
000000b0: 5988 893d 51cc a83d ced5 71bd 24b1 b7bc
000000c0: 7f74 aa3d 528f 383d 3391 9fbd d635 743d
000000d0: 300f 913b 8033 74bd b2b8 143d 3080 8bbc
000000e0: 2688 633d c24c 423d c1f3 acbd 4e7d 6e3d
000000f0: a6c7 aebd 222d 0fbd 7c6c 9ebc 0931 953d
00000100: bf0e 4bbd e74c 10bd 2b5d 49bd b208 7b3d
00000110: 00ce 16ba 6cd1 91bc 7337 07bd e416 72bd
00000120: ca4b 88bd 0097 043d 0085 ccba b5a1 8f3d
00000130: 96b6 7fbd 382d 033c 8053 933b 3865 04bc
00000140: 7a4e b0bd ec6e 6dbd 0a8c 1c3d 9862 73bd
00000150: a79b b2bd d490 cabc 1824 0fbc 238d a7bd
00000160: 6c58 9e3c 0a44 8ebd 007b de3a 9b7c 963d
00000170: 8c0d b13c 80de 593b 33ef 0bbd d0f0 74bd
00000180: c296 223d 00a6 143b 9003 1c3c 9482 acbc
00000190: a851 9d3c 3876 943c f613 233d 805e c9bb
000001a0: a824 33bd b677 2b3d cda1 b43d b025 4f3c
000001b0: 8110 2fbd 202f f83b 90b4 8c3b a87d e13c
000001c0: d25d 373d f898 55bc 606d a63b 2ac6 493d
000001d0: 20e8 49bc b3a8 0bbd 1252 3b3d b0b1 173c
000001e0: 10b5 86bb 8e3f 523d 1822 70bc 8073 7bbb
000001f0: 1c11 81bc 408f ebba 7ef7 623d c65e 643d
00000200: 7cd1 db3c be26 543d 8993 813d 0e2f 523d
00000210: 48e5 8bbc 1a0a debc 3a42 92bd 8ef8 42bd
00000220: e8b1 06bd 0881 423c 5aa4 223d 429f 81bd
00000230: 705e 3cbc 9ff3 96bd 3806 aebc aaaf 54bd
00000240: 14f5 11bd a859 8a3c 5b9b 99bd a65d 0dbd
00000250: 4433 8ebd 5036 09bc 642a 74bd 9cd9 d2bc
00000260: 70be c33b d868 b6bc 96a2 1b3d 7e3e 293d
00000270: 5283 233d f787 843d 9615 6abd 8431 7fbd
00000280: 7c7d 8bbc 0089 543b c04c 8f3a bea8 053d
00000290: 4d14 9bbd 1cca aa3c c60c 1c3d 26bb 423d
000002a0: 2888 123d dc69 71bd 8982 b23d 94f5 a6bd
000002b0: 2d64 09bd 0c99 973c d0aa 76bc ec8b f3bc
000002c0: d850 4abd b653 03bd 55c8 943d 83b7 3abd
000002d0: 6882 93bd 124b 333d b657 92bd 0e75 7fbd
000002e0: 1fbd aabd c618 373d 44ee 98bd 0b9a 56bd
000002f0: e1e9 84bd 6521 963d 2031 533c 5757 9d3d
00000300: e65c 083d 5c72 acbd 6cd4 ca3c 8027 cd3b
00000310: 9c45 69bd 2aeb 363d f04f 843b 308d e13b
00000320: 6c27 b13c c0d5 c83b 807f 80bb 7979 8abd
00000330: 7d5b 863d 8d19 68bd c046 3cbd a034 66bb
00000340: e2ae 733d c364 a93d 3ced ad3c 074d ae3d
00000350: 76e3 3c3d dc50 9fbc 7a32 743d e02b 08bb
00000360: 4c90 113d 35e8 af3d 5094 a53c 686d aabd
00000370: a352 8e3d 2c88 f33c af47 b23d 805f afba
00000380: 4097 123c 002e 823a cd54 49bd 61aa 5fbd
00000390: 385a 083d 08f5 44bc e8da 02bd f0b3 ca3c
000003a0: 302a 8ebc b007 acbc 2084 79bd a853 5a3c
000003b0: e919 8e3d ffbb 51bd 9081 02bc c0b8 caba
000003c0: b7e9 a63d fa02 3a3d e501 30bd 301f b43c
000003d0: a861 563c 0b1b 4fbd c063 1fbd 15e9 ac3d
000003e0: f6d8 183d 98fb 4f3c 0c3a e93c 92bb 403d
000003f0: d8d9 783c a8ce 643c 3b64 87bd 50d7 8e3b
-0.042283826 -0.02979071 0.02536571 -0.07288604 -0.046361417 -0.025497347 0.0017360821 -0.049209837
-0.07242254 0.056183375 -0.038247053 0.037039615 -0.06607839 -0.0016258657 0.07421712 0.037614472
0.064180724 0.083134584 0.035422646 0.02018562 -0.06414162 -0.06872215 0.00048403442 -0.017043203
0.039514415 0.028702721 -0.018954888 0.054547437 -0.039106153 -0.008498341 -0.08731397 0.059058018
0.06917951 -0.087176405 -0.07461144 0.043547325 0.012866557 0.015483022 0.00040893257 -0.04170381
-0.049110096 -0.008385271 -0.0738191 0.040147386 0.067154594 0.08242095 -0.05904179 -0.022423334
0.08323001 0.045058556 -0.077913664 0.059621654 0.0044268593 -0.059619427 0.03630895 -0.017028898
0.055549763 0.047436483 -0.0844493 0.05822497 -0.08534174 -0.03495515 -0.019338839 0.07284743
-0.04957461 -0.03522959 -0.049161118 0.06128759 -0.0005752742 -0.017800055 -0.033011865 -0.05910386
-0.066550806 0.032370567 -0.0015603602 0.07013265 -0.062429987 0.008006386 0.004496038 -0.008080773
-0.08608718 -0.05796711 0.03821949 -0.0594202 -0.087210946 -0.024727263 -0.008736633 -0.081812166
0.019329272 -0.06946571 0.0016973913 0.07347985 0.021612905 0.0033244193 -0.034163665 -0.05979997
0.039694555 0.0022681952 0.009522334 -0.021058358 0.019203976 0.018122777 0.039813958 -0.0061452985
-0.04373613 0.041862212 0.088199235 0.012643263 -0.04274035 0.007573977 0.0042939857 0.027525738
0.04476721 -0.013036959 0.0050789565 0.04926125 -0.012323409 -0.03409643 0.045732565 0.009258673
-0.00411094 0.05133014 -0.014656566 -0.0038368404 -0.015755229 -0.0017971769 0.05541181 0.055754445
0.026833288 0.05179476 0.06326968 0.051314406 -0.017077103 -0.027104426 -0.07141538 -0.04760032
-0.03288451 0.011871584 0.03970752 -0.06329204 -0.011497125 -0.07370686 -0.0212432 -0.05192534
-0.035634115 0.016888455 -0.07500335 -0.03451314 -0.06943372 -0.0083747655 -0.05961074 -0.02573853
0.0059736297 -0.02226679 0.03799685 0.041319363 0.03992016 0.06471246 -0.057149492 -0.06230308
-0.017027609 0.0032430291 0.0010932907 0.03263163 -0.075722314 0.020848326 0.03809812 0.04754176
0.03577438 -0.058938846 0.08716304 -0.08152309 -0.0335428 0.018505596 -0.015055373 -0.029729806
-0.049393505 -0.032062255 0.07264773 -0.045585167 -0.072026074 0.043772765 -0.07145636 -0.06236749
-0.08336853 0.04470136 -0.074673206 -0.052393 -0.06489921 0.07330588 0.01289013 0.076826744
0.03329172 -0.0842025 0.024759494 0.0062608123 -0.05695115 0.044657864 0.0040378496 0.006883286
0.021625243 0.0061289966 -0.003921449 -0.0676145 0.06560419 -0.056664992 -0.04596591 -0.0035126582
0.059492953 0.08271172 0.021231286 0.085107855 0.04611536 -0.019447736 0.05961845 -0.0020778105
0.035538003 0.08589212 0.020212322 -0.08321649 0.069493555 0.029728018 0.08705079 -0.0013379902
0.008947194 0.0009931922 -0.049153138 -0.054605845 0.033289164 -0.012021311 -0.031947047 0.024744004
-0.017354101 -0.02099976 -0.06091702 0.013325609 0.06938536 -0.051204678 -0.00796546 -0.0015466437
0.08150046 0.045412995 -0.042970557 0.021987528 0.0130848065 -0.0505629 -0.03891349 0.08442894
0.037316285 0.012694262 0.028470062 0.04705388 0.015188657 0.013965286 -0.06610914 0.0043591633

net.2.bias f4 [128]
00000000: 9457 9cbd fa48 4ebd 1e67 17bd f240 71bd
00000010: 102e 883b 611a 29bd 4e9e a2bd b908 a2bd
00000020: 1001 c93b f627 643d 4604 623d 394e a53d
00000030: ef7c a33d 5b27 9c3d f5da 813d 60ca e1bc
00000040: 1026 0b3d 3026 8f3c c803 63bc a014 babb
00000050: 3627 5a3d d0be 923b 1492 dd3c a602 93bd
00000060: 8218 3a3d 9aee 0bbd abd1 9fbd 9622 34bd
00000070: f065 d23c 80e3 24bb b6ca 603d e483 96bd
00000080: 3644 693d b738 863d 4428 f83c 1347 ae3d
00000090: fd5e 8abd 7046 bf3b 26f4 543d 0064 6cbc
000000a0: 954b 4cbd 7837 33bc 20eb 8d3c 3897 42bd
000000b0: 511f 1bbd aa73 673d babf 35bd d2fd 763d
000000c0: cc4c a2bc 68fb b43c 36b0 94bd 6c03 9bbc
000000d0: 7402 a93c f61e 5b3d 2740 32bd c231 793d
000000e0: 0615 753d 7018 d0bb e8ed 4b3c 0118 9f3d
000000f0: edb3 853d 3280 6d3d 7064 03bd 800d 12bc
00000100: 9ad5 6cbd 7480 a93c b838 ce3c a04b 8a3c
00000110: f21e 673d 4220 283d 4616 7cbd 59d2 933d
00000120: 00d4 403c af1a 923d 73c0 4bbd 807a d93c
00000130: f6c0 84bd 7002 dcbb c277 4d3d 6075 0ebb
00000140: 376e 8f3d 2cb4 3dbd ac27 efbc 778d 8bbd
00000150: 0027 893a 38e3 893c e482 22bd d963 933d
00000160: af75 36bd d89f 163c ec82 d33c 4868 c8bc
00000170: 1413 af3c 90ed 73bd 32fe 303d c054 a9bb
00000180: 2a79 b4bd 9566 943d 6058 1d3b 7874 4fbd
00000190: 9cf6 a0bc b6d3 0b3d c84f 7dbc 50a3 63bc
000001a0: 32f4 3e3d 3887 0b3c 248d 9abd e86f 7fbd
000001b0: d0b6 25bc f29a 663d 11c9 89bd 4f45 873d
000001c0: a5a7 71bd 70b9 57bd a242 8abd ad67 90bd
000001d0: 00d8 a038 28e7 75bc 2846 dc3c 8cf6 023d
000001e0: 2325 02bd d176 8ebd e8aa 5d3c 1e3a 58bd
000001f0: 589c 27bc 0246 303d 3095 ab3b 9fdf a43d
-0.07633892 -0.050362565 -0.036963575 -0.058899827 0.0041558817 -0.041284923 -0.079403505 -0.0791182
0.00613416 0.055702172 0.055179857 0.080715604 0.079828136 0.07624694 0.06340591 -0.02756232
0.033971846 0.017474264 -0.013855882 -0.005678728 0.05326005 0.004478313 0.027047195 -0.071782395
0.04543353 -0.034163095 -0.07803663 -0.043978296 0.025683373 -0.0025160015 0.05488082 -0.07349375
0.056949817 0.06553786 0.030292638 0.0850965 -0.06756399 0.005837254 0.05199065 -0.014428139
-0.04987677 -0.010938518 0.01732403 -0.047507495 -0.037871663 0.05650679 -0.044372298 0.060300656
-0.01981201 0.022092536 -0.07260172 -0.01892253 0.020631053 0.053496324 -0.04351821 0.06083847
0.059834503 -0.0063505694 0.012446858 0.0776825 0.06528459 0.057983585 -0.032078207 -0.008914351
-0.057820894 0.020691134 0.02517353 0.016881764 0.056425996 0.04104639 -0.06154468 0.07217855
0.011769295 0.07133996 -0.04974408 0.02654767 -0.06482117 -0.0067141578 0.050163038 -0.0021737441
0.07003444 -0.046314403 -0.029193722 -0.06814092 0.0010463893 0.01683198 -0.03967561 0.07196779
-0.044545826 0.009193383 0.025819264 -0.024463788 0.021371402 -0.05955273 0.04321117 -0.0051675737
-0.08812173 0.072461285 0.0024008974 -0.050648183 -0.019648843 0.03413745 -0.015460916 -0.013893917
0.0466196 0.008516125 -0.07546452 -0.06236258 -0.010114387 0.05630011 -0.067278035 0.066050164
-0.05899777 -0.05266708 -0.067509905 -0.070510246 7.669628e-05 -0.015008725 0.026888922 0.031973407
-0.031773698 -0.06956256 0.013529517 -0.0527898 -0.010230146 0.043035515 0.0052362904 0.08050465

net.4.weight f4 [4, 128]
00000000: 006c acba 9673 3d3d 145e d5bc c478 d13c
00000010: b0c8 c0bc 01fd 843d 26d4 71bd 4cdb 8ebd
00000020: faee 0d3d 19df 27bd a01b 2f3b 2331 a2bd
00000030: e0b7 e2bb 26d7 043d d7c1 953d 3011 0d3d
00000040: 08b0 29bc d8eb f8bc 8eba 5fbd c8a3 e4bc
00000050: 24d9 d0bc e660 2a3d f3d8 8ebd 433b 893d
00000060: 4418 a03c f97f aabd ced0 493d c814 29bc
00000070: 36bb 8dbd 2a4b 28bd efd5 963d e48a 6abd
00000080: ede2 a63d 602d bfbc 0490 96bd d8d9 02bc
00000090: ecc2 97bc 6fb2 833d a8c8 41bd 385a a8bd
000000a0: 9b6a acbd 81ef 963d 805d 6b3c b137 b03d
000000b0: d76e 0dbd deb2 153d a8d9 a9bc 302c e83c
000000c0: 80b7 8bbb 5a4c 7e3d a86a 043d 646e 983c
000000d0: a0fe 863c e86e 0c3c 50d1 453c 8a2a 183d
000000e0: 40bf 703c 9088 6fbd 28d8 56bd a811 8b3c
000000f0: d2ea 47bd ecca 91bd ac37 b0bc e706 9f3d
00000100: d2d8 593d 0028 093a c0d7 eaba fee8 293d
00000110: 87e0 9abd 6282 493d 5229 393d fc05 c53c
00000120: 6ef9 103d a565 83bd b1f1 a33d de31 7c3d
00000130: ba07 613d 7edf 1e3d 609a c13b e6b5 233d
00000140: 2381 853d f4cc 1dbd 1177 803d 0405 143d
00000150: 1a44 9fbd d53b 8b3d fed9 9cbd a2d0 4f3d
00000160: 788b 49bd 573f 59bd 1e18 613d 408f 80bb
00000170: 7a5e 213d 4423 99bc a0ae 113d 889f 6f3c
00000180: 5006 9bbd 00f0 dc3a b906 903d 6849 83bc
00000190: 89fa 9e3d 5821 38bc 4afc acbd b6f6 16bd
000001a0: 5c1b 94bd 806d b73a f100 98bd 05e7 9b3d
000001b0: 4106 963d 1e70 7c3d 3a0c dabc c0e9 24bc
000001c0: 208b 28bd d0d3 e2bb 1b25 87bd 0099 b439
000001d0: 98ec a33c 1b88 59bd 0a53 363d 709b 86bd
000001e0: d888 a2bc c9f6 863d 06e5 fbbc 0046 e53c
000001f0: 4882 e53c e866 5dbd 4974 37bd c059 3c3b
00000200: d09d 333c 660a 453d 47b1 923d 0905 2dbd
00000210: befd 753d 33fd 9a3d 9033 343c cc9f d13c
00000220: 14bf e73c 12f2 b1bd 51ef 843d 92a6 2b3d
00000230: af2d 55bd 1ad6 543d 18e0 693c 3ecf 243d
00000240: 200f 4c3b da65 71bd dfa5 823d e037 243c
00000250: 9e3f 653d 0a1c 72bd 9859 f2bc 94ce 69bd
00000260: 0028 6cbb 57bf 883d e090 dbbb f852 49bd
00000270: 5dd7 9b3d 64f1 e3bc 6124 8e3d 6710 55bd
00000280: 7828 a8bd b175 1bbd 1a0e 2d3d 600b ce3c
00000290: c21c 4b3d 9b0a 953d b070 aabc 32d2 68bd
000002a0: 3832 09bc c1fe b13d 0077 8cbd f0bc 503c
000002b0: 45ac 933d 3026 003c 10c9 59bc 600f 4dbc
000002c0: 2037 373b bfbd 7fbd 5124 13bd f4ce 2cbd
000002d0: 60b1 b33b 2900 b43d acbf 8fbd 1560 85bd
000002e0: a4e5 91bd 53f3 843d 30de 98bb feae 443d
000002f0: 6095 273b 1ec1 283d 7f4c 9a3d 9bff 9a3d
00000300: f4b3 b4bd 50a8 d7bc b6bd 86bd 29cc 953d
00000310: ca14 68bd 3fe7 b13d c023 c1ba 3a59 86bd
00000320: 19b7 883d f046 04bc 3c35 8bbc bb89 9e3d
00000330: 5df1 b0bd 1802 6f3c d058 69bc 22d2 423d
00000340: d4fe b03c deba a2bd 607e 15bd baef 2c3d
00000350: df3b a63d a0d9 09bc 121e 6cbd 7ea1 a9bd
00000360: 32d0 68bd 48b2 81bd b4e2 91bc 16bf 17bd
00000370: 5b83 a53d 9e7a 5c3d 9a01 76bd e0cd 9a3b
00000380: 000e 253c f93b 26bd 903f bb3b c0ee 843c
00000390: 1111 afbd 3019 95bd fa60 1c3d 645f dbbc
000003a0: bce0 abbd 6883 e43c 8aeb 323d c298 473d
000003b0: 75dc b2bd 5c72 b7bc 6f0f adbd a885 733c
000003c0: 6059 6f3c 4aab 88bd c096 e0bb 5583 9abd
000003d0: 466d 683d 00b5 9fbb 0a10 42bd 8e1c 6d3d
000003e0: 302b cebb 8078 dfbb 0073 eeba a17b aabd
000003f0: e0e1 e8bc 7c9c 06bd 51a0 7ebd b445 013d
-0.0013154745 0.04625281 -0.026045837 0.02557028 -0.023533195 0.06493569 -0.05904021 -0.06975421
0.034651734 -0.040984247 0.0026719347 -0.07919528 -0.0069188923 0.032431744 0.07312363 0.03444022
-0.0103569105 -0.030385897 -0.05462127 -0.027910128 -0.025494166 0.041596316 -0.069749735 0.067007564
0.01954282 -0.0832519 0.049271397 -0.010319896 -0.06920473 -0.041087307 0.07365023 -0.057261363
0.081487514 -0.023337066 -0.073516876 -0.007986508 -0.018525563 0.06430518 -0.0473105 -0.08220333
-0.08418771 0.073699005 0.014365554 0.08604372 -0.034529533 0.036547534 -0.02073367 0.028341383
-0.0042638183 0.062084533 0.032328278 0.018607326 0.016478837 0.008571364 0.01207383 0.037149943
0.014694035 -0.058479846 -0.052452236 0.016976193 -0.048807926 -0.071187824 -0.021510921 0.077649884
0.05318529 0.0005232096 -0.0017917082 0.041481964 -0.075623564 0.04919661 0.04520542 0.024050705
0.035394125 -0.064158715 0.08005083 0.061570995 0.05493901 0.038787358 0.0059082955 0.039968394
0.065187715 -0.038525537 0.0627271 0.036137596 -0.07776661 0.067985214 -0.07658766 0.050736077
-0.049205273 -0.05303892 0.05495464 -0.0039233267 0.03939674 -0.018693574 0.035566926 0.014625438
-0.075695634 0.0016856194 0.07032532 -0.016026214 0.077626295 -0.0112384185 -0.08446558 -0.036856376
-0.07231781 0.0013994426 -0.074220546 0.07612423 0.073254116 0.06163036 -0.026617158 -0.010065496
-0.041148305 -0.0069222227 -0.06598874 0.0003444627 0.020010278 -0.053108316 0.044512786 -0.06572616
-0.019840643 0.06590039 -0.030748855 0.02798748 0.028016225 -0.054053217 -0.044788633 0.0028740019
0.010962918 0.04810562 0.07162719 -0.04224113 0.06005644 0.07567825 0.010998622 0.025588892
0.028289355 -0.086887494 0.064909585 0.0419069 -0.05204552 0.051961996 0.0142746195 0.040236704
0.0031136945 -0.058935024 0.06379294 0.010023087 0.055968873 -0.05910877 -0.029583737 -0.057081774
-0.0036034584 0.0667712 -0.00670062 -0.04915139 0.07609437 -0.027825065 0.069405325 -0.052017596
-0.08210844 -0.037954036 0.042249776 0.025151908 0.049587972 0.072774135 -0.020805687 -0.056841083
-0.0083737895 0.086911686 -0.06858635 0.012740359 0.07210592 0.007821605 -0.013292566 -0.012515873
0.002795644 -0.062436815 -0.035923306 -0.042189553 0.005483791 0.08789093 -0.070189804 -0.06512467
-0.071238786 0.06491723 -0.0046651587 0.048018448 0.0025571212 0.041199796 0.07534122 0.07568284
-0.08823386 -0.026325375 -0.06579153 0.07314331 -0.05666045 0.08686685 -0.0014735386 -0.06559987
0.06675548 -0.008073553 -0.016993158 0.07741114 -0.086397864 0.0145879015 -0.014242366 0.04756368
0.021605887 -0.07945798 -0.036497474 0.04222081 0.08116888 -0.008413702 -0.057645865 -0.08282755
-0.056839176 -0.063328326 -0.017808296 -0.037047468 0.08081695 0.053827874 -0.06006012 0.0047242492
0.010074139 -0.040584538 0.0057143643 0.016227126 -0.08548177 -0.07280195 0.03817842 -0.026778884
-0.08392474 0.02789469 0.04368166 0.048729666 -0.08733455 -0.022393398 -0.08450209 0.014863409
0.014608711 -0.06673296 -0.0068539083 -0.07544581 0.056744836 -0.004873872 -0.047378577 0.05788856
-0.0062917694 -0.0068197846 -0.0018192232 -0.083243616 -0.028428018 -0.03286408 -0.06216461 0.031560615

net.4.bias f4 [4]
00000000: e470 42bd 0095 edba b21e 553d 90a8 c63c
-0.047470942 -0.001812607 0.052031226 0.024250299
