SARSA/dsqn/200_model_weights.pth (torch, 75917 bytes, 6 tensors)

net.0.weight f4 [128, 8]
0.7810365 -0.14644654 0.5548295 -0.26958764 -0.75003076 0.1259526 0.13459046 0.1363113
1.280307 0.10595755 0.6457961 -0.44703755 -0.5559114 0.24699377 -0.16044863 0.016046496
-0.75553095 1.0873278 -0.3831612 -0.42385954 -0.026222307 -0.15615335 0.011349159 -0.041406497
0.22784571 0.75026196 -0.07684896 -0.5008037 0.1747983 0.06576177 -0.050124023 -0.20233305
-0.24905518 -0.07896982 -0.07863613 0.09683493 0.7475319 1.0867678 0.8178027 0.33019978
-0.00966261 -0.5029129 0.47486866 -0.041299213 -0.0879522 -0.47008654 0.6597491 -0.38867354
-0.4066209 -0.481535 0.3630179 -0.13099104 -0.23952585 0.706546 -0.07484012 -0.28254673
-0.29808322 0.81262124 -0.11397597 1.1204232 0.22916226 0.08915815 -0.0030496423 0.04299993
-0.39836892 0.17682132 -0.103608295 -0.2616608 0.7346341 0.5114761 0.021885075 0.33030134
0.442435 0.13868296 1.196365 0.2299081 0.6549217 1.0731364 -0.35273713 0.14684148
0.47017688 0.6450201 -0.18898414 0.37582448 0.09797394 -0.020520167 0.24582835 -0.21777965
-1.2764177 -0.13283065 -0.5780899 -0.008646048 -0.17573833 -0.1800096 0.5075005 0.22470874
-0.07956538 0.7417936 0.001217317 0.014543381 0.018940529 -0.017815819 0.18560284 0.30911508
-0.17052932 -0.16863173 -0.2531568 0.0012170974 0.8782778 0.49019033 0.6631683 0.060250238
-0.08520932 -0.19669041 0.25156522 0.04826664 0.4660802 1.3794446 0.4699625 0.027157104
-0.01782968 0.13303623 0.10258923 0.0969498 -0.013094994 0.026567534 0.25827238 -0.089720905
-0.46919593 0.14458403 0.02565205 0.024691314 0.5832655 0.6007835 -0.12045905 -0.30913523
-0.029268425 0.8956784 0.2949761 0.3255174 0.18874201 -0.08210007 0.5177785 0.5860533
0.14950587 0.4551705 -0.49939677 -0.4282898 -0.042812865 1.1743788 0.2629899 -0.7525762
0.018845638 0.67266953 0.10887037 -0.15781142 -0.7463069 -0.9171464 -0.3777828 -0.647217
-0.4709133 -0.24943675 0.20376833 0.0201418 0.917139 1.271094 0.1742328 -0.0921418
0.08398712 0.27787656 0.12525395 0.62851435 0.8451338 1.3135166 0.46424752 0.21695144
-0.084969535 0.2844922 -0.5132897 -0.072452135 0.40519297 0.52754843 0.8605302 0.39142522
-0.47027948 -0.3668398 0.036058467 -0.23175378 0.35179442 0.93399006 0.16469419 0.1386841
-0.7813321 0.024840225 -0.7223701 0.29418817 -0.20725927 -0.047781415 0.5578038 -0.27480796
0.26800436 -0.083113365 -0.004671605 -0.22135659 0.4072334 1.1844802 0.385008 0.14028953
-0.39354274 -0.26122478 -1.1296834 -0.018185273 0.35255152 0.5351471 -0.106588416 -0.477242
0.38409922 0.043948572 -0.20672275 -0.23807356 -0.33726543 -1.5017442 -0.3238021 -0.15321295
-0.052472144 -0.09271708 0.15332668 0.042472623 0.7162134 1.8316067 -0.47218877 -0.03455665
-0.4307192 -0.27372462 0.23939155 -0.22320358 0.37179804 0.92586917 0.30558577 0.15273216
-0.0476197 -0.11868642 -0.025131924 -0.17713253 -0.6361661 -1.2481675 0.36428475 0.7240838
1.3134077 0.18630147 0.7010166 -0.48582968 -0.512817 0.24358091 -0.08059825 0.085815296
00000000: 02f2 473f 15f6 15be 4e09 0e3f 6407 8abe
00000010: 0402 40bf b8f9 003e 15d2 093e 3095 0b3e
00000020: 1ae1 a33f 4600 d93d e552 253f 1be2 e4be
00000030: 3650 0ebf efeb 7c3e a54c 24be f173 833c
00000040: 7a6a 41bf 8f2d 8b3f b42d c4be 1e04 d9be
00000050: 2ad0 d6bc aae6 1fbe d3f1 393c dc99 29bd
00000060: 6350 693e 2b11 403f fd62 9dbd ac34 00bf
00000070: 53fe 323e 1bae 863d d94e 4dbd 6530 4fbe
00000080: 5208 7fbe eeba a1bd fb0b a1bd 6451 c63d
00000090: 405e 3f3f 351b 8b3f 855b 513f f20f a93e
000000a0: ec4f 1ebc e6be 00bf fc21 f33e 5d29 29bd
000000b0: 4820 b4bd 2faf f0be 51e5 283f 3800 c7be
000000c0: 9d30 d0be c18b f6be 7bdd b93e 8422 06be
000000d0: 4446 75be 33e0 343f c745 99bd f7a9 90be
000000e0: 5d9e 98be f207 503f 3c6c e9bd 076a 8f3f
000000f0: 83a9 6a3e 8c98 b63d 82dc 47bb b220 303d
00000100: 03f7 cbbe a610 353e 9630 d4bd 68f8 85be
00000110: fb10 3c3f 19f0 023f 5448 b33c 421d a93e
00000120: d786 e23e e802 0e3e 7d22 993f 076d 6b3e
00000130: f3a8 273f 895c 893f f699 b4be 9d5d 163e
00000140: 06bb f03e 0a20 253f 0f85 41be 116c c03e
00000150: 90a6 c83d e919 a8bc 6dba 7b3e a101 5fbe
00000160: a861 a3bf c204 08be b3fd 13bf 27a8 0dbc
00000170: c0f4 33be 7054 38be 8eeb 013f 0c1a 663e
00000180: 2df3 a2bd 2fe6 3d3f 618e 9f3a 5c47 6e3c
00000190: 2b29 9b3c 7bf2 91bc ac0e 3e3e 5544 9e3e
000001a0: 3d9f 2ebe ccad 2cbe c59d 81be 0387 9f3a
000001b0: d0d6 603f 3afa fa3e 66c5 293f f4c8 763d
000001c0: 3982 aebd 3669 49be 28cd 803e 3eb3 453d
000001d0: 10a2 ee3e a491 b03f ed9e f03e 9378 de3c
000001e0: 8d0f 92bc a63a 083e 4d1a d23d 9e8d c63d
000001f0: 638c 56bc 28a4 d93c 473c 843e 98bf b7bd
00000200: 733a f0be d60d 143e 3f24 d23c 7045 ca3c
00000210: e350 153f f3cc 193f 3cb3 f6bd f946 9ebe
00000220: 56c4 efbc 2e4b 653f 1b07 973e 37aa a63e
00000230: 9645 413e 1524 a8bd 228d 043f 9707 163f
00000240: 1118 193e 1c0c e93e efb0 ffbe cd48 dbbe
00000250: 8b5c 2fbd 0b52 963f 9da6 863e d5a8 40bf
00000260: 2b62 9a3c 1234 2c3f 6ef7 de3d 5199 21be
00000270: f80d 3fbf 1bca 6abf bf6c c1be 03b0 25bf
00000280: 8c1b f1be 596c 7fbe a5a8 503e 6b00 a53c
00000290: 9fc9 6a3f 35b3 a23f 156a 323e d7b4 bcbd
000002a0: 7001 ac3d d645 8e3e 9242 003e 51e6 203f
000002b0: b05a 583f 5021 a83f dab1 ed3e 8528 5e3e
000002c0: 8204 aebd f6a8 913e f466 03bf c961 94bd
000002d0: 7475 cf3e 6a0d 073f b54b 5c3f e368 c83e
000002e0: 79c8 f0be 6dd2 bbbe 0bb2 133d dd50 6dbe
000002f0: 661e b43e f919 6f3f 98a5 283e 3403 0e3e
00000300: 6105 48bf ba7d cb3c 3fed 38bf d59f 963e
00000310: c63b 54be 72b6 43bd 3bcc 0e3f a1b3 8cbe
00000320: de37 893e 5737 aabd 4314 99bb 4dab 62be
00000330: e580 d03e 0c9d 973f c51f c53e 0fa8 0f3e
00000340: 6f7e c9be 41bf 85be 7799 90bf 48f9 94bc
00000350: a281 b43e 66ff 083f 074b dabd 1059 f4be
00000360: a7a8 c43e 6b03 343d 21af 53be 8ec9 73be
00000370: 0eae acbe 2739 c0bf 64c9 a5be dbe3 1cbe
00000380: 08ed 56bd 74e2 bdbd ab01 1d3e c6f7 2d3d
00000390: c359 373f 1772 ea3f bac2 f1be 468b 0dbd
000003a0: 3a87 dcbe a225 8cbe 0f23 753e 7b8f 64be
000003b0: 505c be3e c305 6d3f bd75 9c3e d265 1c3e
000003c0: e00c 43bd de11 f3bd 77e1 cdbc 3b62 35be
000003d0: c8db 22bf f4c3 9fbf 8883 ba3e 8e5d 393f
000003e0: be1d a83f d0c5 3e3e d375 333f abbe f8be
000003f0: fa47 03bf 466d 793e b210 a5bd eebf af3d

net.0.bias f4 [128]
0.37473655 -0.008417957 0.027635302 0.3219467 0.19985482 -0.26761416 -0.6523409 0.060160562
-0.24528916 -0.10052623 0.72661847 0.11651019 0.0535144 0.16207406 0.28557163 -0.3409212
-0.27871016 0.028930342 0.49613255 0.19140771 0.38021567 0.49688733 0.7301209 0.57575953
0.36065376 0.29538885 -0.87251884 0.03502469 0.09388656 0.46352512 0.33401588 -0.094635144
-0.3184835 -0.38361225 0.76900274 -0.25419718 0.10271018 0.23191206 0.40373278 0.4138736
-0.2802472 -0.24736694 0.20496587 -0.35206524 0.68898445 -0.1923392 0.4376206 -0.17195803
0.37522566 0.32280362 0.2719803 0.18232505 0.60782135 -0.09971786 0.20240001 -0.22852318
0.8041218 0.12671548 0.67930704 -0.2970179 0.54598767 0.06359272 0.5437302 0.7594769
0.07231841 0.12361689 -0.21099868 0.5501958 -0.4244155 0.13967444 -0.71951294 0.51636475
0.80672324 -0.32479134 0.20434314 0.12129419 -0.12786986 0.25778472 0.27225134 0.15561178
0.59557027 -0.6828842 -0.24420467 0.28089547 0.12892792 0.015183332 0.5751625 0.13480762
0.02167087 -0.22630785 0.4538685 -0.326326 0.5679756 0.47332683 0.20355092 0.35692644
-0.16512522 0.8378971 -0.47721612 0.029251384 0.6182436 0.42403135 -0.13372684 -0.101876
0.53155786 0.50924206 0.18155214 0.33533588 -0.49867415 -0.31068364 0.806355 -0.22021614
0.11629557 0.15356961 0.44523826 0.41678795 -0.13731903 -0.038527697 0.75859725 0.27065468
0.78785664 0.60749394 -0.42726073 0.83943367 0.29841322 -0.2150479 0.027508056 -0.18610369
00000000: 78dd bf3e 79eb 09bc 6e63 e23c 33d6 a43e
00000010: bea6 4c3e b904 89be d0ff 26bf ec6a 763d
00000020: 152d 7bbe b2e0 cdbd ab03 3a3f e59c ee3d
00000030: ea31 5b3d bef6 253e 7236 923e 398d aebe
00000040: 19b3 8ebe 53ff ec3c 1605 fe3e 6200 443e
00000050: a1ab c23e 0468 fe3e 34e9 3a3f fa64 133f
00000060: 9ca7 b83e 353d 973e 655d 5fbf 0d76 0f3d
00000070: 9947 c03d 2a53 ed3e 2104 ab3e 12d0 c1bd
00000080: 4510 a3be d368 c4be 5ddd 443f 2226 82be
00000090: b759 d23d 5b7a 6d3e 10b6 ce3e 3ee7 d33e
000000a0: 907c 8fbe c24d 7dbe 93e2 513e e541 b4be
000000b0: 4961 303f 91f4 44be cf0f e03e c415 30be
000000c0: 941d c03e 8446 a53e 0041 8b3e 6bb3 3a3e
000000d0: 2e9a 1b3f e138 ccbd f341 4f3e fb01 6abe
000000e0: edda 4d3f b4c1 013e 11e7 2d3f bb12 98be
000000f0: d9c5 0b3f e63c 823d e731 0b3f 146d 423f
00000100: ad1b 943d da2a fd3d 0a10 58be a2d9 0c3f
00000110: fd4c d9be d106 0f3e 0032 38bf 7b30 043f
00000120: 6a85 4e3f 0d4b a6be 543f 513e 1769 f83d
00000130: 51f0 02be 5cfc 833e 8764 8b3e b258 1f3e
00000140: 4b77 183f 80d1 2ebf ca10 7abe 88d1 8f3e
00000150: ae05 043e 83c3 783c d93d 133f 020b 0a3e
00000160: 1c87 b13c 3fbd 67be 7461 e83e 3414 a7be
00000170: d966 113f e557 f23e a76f 503e 10bf b63e
00000180: 9616 29be 6d80 563f ac55 f4be 99a0 ef3c
00000190: 3645 1e3f a31a d93e b0ef 08be 5da4 d0bd
000001a0: 2d14 083f b05d 023f cee8 393e 25b1 ab3e
000001b0: 3852 ffbe ed11 9fbe 486d 4e3f 5780 61be
000001c0: 5f2c ee3d 5a41 1d3e 45f6 e33e 3b65 d53e
000001d0: 5c9d 0cbe 38cf 1dbd 6e33 423f 4093 8a3e
000001e0: f9b0 493f b984 1b3f ebc1 dabe 20e5 563f
000001f0: 9ec9 983e 8435 5cbe 9358 e13c f791 3ebe

net.2.weight f4 [128, 128]
0.05489861 -0.05892818 -0.06511142 -0.07735252 -0.08255052 -0.0540751 -0.07131014 0.013097638
0.022561386 0.0054290593 0.028790563 0.012918459 0.0464476 0.04824728 -0.08983188 0.06562293
0.04138983 0.048287418 -0.023374151 0.074822426 0.024355106 0.046746913 0.0010676992 -0.038348425
-0.07016463 0.021714285 -0.07666241 -0.077239916 0.06920726 -0.01950893 -0.008224024 0.068900324
0.0064845737 -0.041954093 0.010609683 0.074321695 -0.03864067 -0.04662171 -0.031098977 0.017178273
-0.066555634 -0.05857375 0.065313645 -0.06321016 -0.076113895 0.01872277 -0.05897601 0.060311574
-0.012617018 -0.05761485 0.058044005 0.044889763 -0.09611752 -0.029353961 0.06345196 0.02969271
-0.059213944 0.01600555 0.013284533 -0.08823575 0.00090489537 0.010069355 -0.07300432 -0.031019475
0.027368395 -0.015085322 0.057744756 0.024032317 0.042535387 -0.09581088 -0.044280287 0.038154315
-0.001810511 0.02968883 -0.02436009 0.042233218 0.036428533 -0.028127324 -0.065460406 -0.009627278
0.023237154 -0.08325246 -0.014581392 -0.07487921 0.008433446 -0.07053526 0.047581315 -0.0061418433
-0.00084290653 -0.08372731 0.028930044 -0.050307274 -0.008275334 -0.017164377 0.042401467 0.032140873
-0.016236838 0.0727545 -0.038351335 0.074802496 -0.08293184 -0.047669835 0.037738346 0.07400075
0.050198644 -0.008058507 -0.06972296 -0.050351724 0.055716556 0.053662192 -0.0317602 -0.089916825
-0.037873995 -0.053836126 0.049256325 0.05752411 -0.06279201 0.037035022 -0.05635962 0.01616735
-0.022892086 -0.06370241 0.010665841 0.059419233 0.030927597 0.0043551796 -0.0430808 -0.05859717
-1.9622927 -2.0350566 -0.4080675 -0.26494965 0.26939666 -0.20048848 0.7348123 -1.0218645
0.49775362 0.08386811 -1.3801352 -0.29662034 -0.46082523 0.08571375 0.3048447 0.020449184
0.22418186 -0.49976432 -0.013721906 -1.1494294 0.37141448 -0.08074595 -0.057343375 0.2667633
-0.4382527 0.12812303 0.75459474 -0.07856642 0.008933597 0.06834703 -1.3479491 -2.0411072
0.34045166 0.72161597 -0.6944697 0.5215603 -2.2461383 -1.9517095 -0.27448183 -0.04452319
-0.40010095 0.2231738 -0.13991748 0.6228992 -0.4083178 0.16142337 -0.0063855518 0.103846915
0.14414556 0.04767102 -1.2667527 -1.8061035 -2.4552402 0.44870013 -0.047462415 -1.5599136
0.04782535 -0.75534636 -0.08289825 0.16407916 -0.5793308 0.23251426 -1.4787879 -1.6639464
-0.006706896 -2.3721595 -1.7531452 -0.48311007 -1.007479 -0.67953175 -1.4880469 -0.4442697
-0.8892773 -1.9265743 -0.31545433 0.36944422 0.09311849 -0.6231406 -1.2152503 0.642371
0.03625197 1.0018667 0.6175391 -2.5221117 0.0026563604 -0.10370105 0.085129954 -0.4406778
0.49744922 0.27204916 -0.8509163 0.10488455 -0.85877347 -0.13920498 -0.30218205 -0.6821467
-2.2511275 -0.23349638 0.48185706 0.359855 -0.0657118 -0.10862771 0.2544036 -0.20915459
0.1653416 0.05567688 -1.4880052 0.15024641 -0.2019706 -1.7431121 -1.4919324 0.35752124
0.0605039 0.7589692 0.33021525 -0.5405057 0.2656835 0.6585716 -1.5052719 0.5101515
-0.17395139 -0.15881881 0.08091119 -0.4023974 -0.11068266 0.1477543 0.43657893 0.389273
00000000: 5ddd 603d ad5e 71bd 2359 85bd ff6a 9ebd
00000010: 3f10 a9bd da7d 5dbd 0d0b 92bd 7a97 563c
00000020: a8d2 b83c 40e6 b13b 30da eb3c f2a7 533c
00000030: d73f 3e3d f19e 453d c7f9 b7bd 5165 863d
00000040: 6288 293d 07c9 453d 267b bfbc 803c 993d
00000050: 5c84 c73c b179 3f3d 0af2 8b3a 3d13 1dbd
00000060: 79b2 8fbd 28e2 b13c 2e01 9dbd f62f 9ebd
00000070: 89bc 8d3d 31d1 9fbc 0fbe 06bc 9d1b 8d3d
00000080: 8c7c d43b 0ed8 2bbd 3cd4 2d3c f935 983d
00000090: ae45 1ebd 68f6 3ebd 48c3 febc 73b9 8c3c
000000a0: 524e 88bd 07eb 6fbd 29c3 853d 5474 81bd
000000b0: 9ae1 9bbd 7f60 993c d490 71bd 4509 773d
000000c0: 9cb7 4ebc 8dfd 6bbd 8dbf 6d3d 54de 373d
000000d0: 43d9 c4bd b877 f0bc 1af3 813d 203e f33c
000000e0: 528a 72bd 121e 833c 5fa7 593c f2b4 b4bd
000000f0: 8036 6d3a f0f9 243c 4a83 95bd 8e1c febc
00000100: af33 e03c 6d28 77bc c485 6c3d 6cdf c43c
00000110: 9639 2e3d 7f38 c4bd 3f5f 35bd b347 1c3d
00000120: ab4e edba fd35 f33c d08e c7bc bdfc 2c3d
00000130: 1636 153d 466b e6bc 1b10 86bd bbbb 1dbc
00000140: d85b be3c 4480 aabd cae6 6ebc 455a 99bd
00000150: 702c 0a3c ca74 90bd a0e4 423d 8441 c9bb
00000160: 80f6 5cba 3979 abbd b3fe ec3c 000f 4ebd
00000170: 4495 07bc 4f9c 8cbc 29ad 2d3d 26a6 033d
00000180: 1e03 85bc 5000 953d 4a16 1dbd 0d32 993d
00000190: 2bd8 a9bd 7241 43bd 8693 1a3d b58d 973d
000001a0: 189d 4d3d d407 04bc e9ca 8ebd 9c3d 4ebd
000001b0: 0b37 643d e3cc 5b3d fc16 02bd 5026 b8bd
000001c0: c321 1bbd 4583 5cbd 00c1 493d 679e 6b3d
000001d0: 1999 80bd 09b2 173d 58d9 66bd 6471 843c
000001e0: 2f88 bbbc 6976 82bd c8bf 2e3c 9561 733d
000001f0: df5b fd3c e5b5 8e3b 7e75 30bd 9603 70bd
00000200: 682c fbbf 5e3e 02c0 39ee d0be 7ba7 87be
00000210: 5cee 893e da4c 4dbe a91c 3c3f 75cc 82bf
00000220: 90d9 fe3e 0bc3 ab3d 45a8 b0bf 9fde 97be
00000230: 49f1 ebbe b18a af3d 9b14 9c3e 0c85 a73c
00000240: ee8f 653e 1ce1 ffbe d8d1 60bc 8120 93bf
00000250: 0a2a be3e 225e a5bd e3e0 6abd 3395 883e
00000260: a862 e0be af32 033e 1f2d 413f 6ee7 a0bd
00000270: 395e 123c 87f9 8b3d 9989 acbf 80a1 02c0
00000280: ae4f ae3e d3bb 383f c4c8 31bf fa84 053f
00000290: bbc0 0fc0 9ed1 f9bf e288 8cbe f35d 36bd
000002a0: 08da ccbe ac87 643e 8746 0fbe 5276 1f3f
000002b0: 080f d1be 2b4c 253e e43d d1bb b1ad d43d
000002c0: e59a 133e b042 433d f424 a2bf 662e e7bf
000002d0: a822 1dc0 06bc e53e f367 42bd 40ab c7bf
000002e0: 84e4 433d 615e 41bf 8fc6 a9bd 5e04 283e
000002f0: 064f 14bf 3818 6e3e ec48 bdbf 32fc d4bf
00000300: 85c5 dbbb 76d1 17c0 1067 e0bf 345a f7be
00000310: 12f5 80bf cbf5 2dbf 5278 bebf 5177 e3be
00000320: ada7 63bf fd99 f6bf 3b83 a1be cb27 bd3e
00000330: e8b4 be3d 2486 1fbf 528d 9bbf 6d72 243f
00000340: f27c 143d 2b3d 803f 0b17 1e3f 476a 21c0
00000350: 5516 2e3b 3761 d4bd 9d58 ae3d 85a0 e1be
00000360: aab1 fe3e 074a 8b3e a7d5 59bf b6cd d63d
00000370: 94d8 5bbf c08b 0ebe 9bb7 9abe 2ba1 2ebf
00000380: 7912 10c0 ad19 6fbe f8b5 f63e ea3e b83e
00000390: e893 86bd 3478 debd 3041 823e 9f2c 56be
000003a0: 4f4f 293e 710d 643d f476 bebf 32da 193e
000003b0: 62d1 4ebe 4c1e dfbf a4f7 bebf 060d b73e
000003c0: f0d2 773d ce4b 423f f911 a93e 955e 0abf
000003d0: ab07 883e 2698 283f c0ac c0bf 4a99 023f
000003e0: 5020 32be 66a1 22be c4b4 a53d 0807 cebe
000003f0: 97ad e2bd e74c 173e 4687 df3e ca4e c73e

net.2.bias f4 [128]
-0.08802198 -0.99852705 0.039940275 -0.05721613 0.061700944 0.084465034 0.6620095 0.025610337
-0.34736592 -0.009895541 0.092336856 0.11630313 0.038283207 0.1636724 0.03381829 0.12178731
-0.03209726 -0.014325975 0.085245825 -0.030918913 0.29776928 -0.07157063 0.71964204 0.17348233
-0.057905816 -0.09305203 0.058677856 -0.08667226 0.074358605 0.008875787 0.47109386 0.06755475
-0.039159767 -0.10993152 -0.045022488 0.1000135 -0.03305703 0.037422772 0.095914505 -0.13256924
0.13605411 0.17528415 -0.06293441 -0.4216421 -0.031448025 -0.05595023 0.05453241 0.059651103
-0.016772412 0.6287201 0.0031541497 -0.09309445 0.08485072 0.422187 -0.063416146 0.0882476
0.05841998 0.014561208 -0.0058199046 0.10584847 -0.006328466 0.21462451 0.06842005 0.12394519
0.04289733 -0.027130505 -0.00013639909 -0.15126944 0.025262995 0.02826838 -0.08137012 -0.0030400893
0.05847631 -0.03809074 0.08298025 0.004504689 -0.05159612 0.04904457 0.5250426 0.10155694
-0.058867075 0.013457873 -0.082790434 0.07144945 0.11077711 -0.0056671216 0.0945289 0.09664074
-0.0058364454 -0.091400824 -0.090784684 0.033293128 0.015252733 -0.02983409 0.23282075 0.03999543
0.07809449 -0.08836703 0.10742527 0.27538732 0.011304672 0.18881181 0.13147335 -0.033368398
0.025086878 0.05924982 0.064298585 0.10068865 0.050727006 0.06966741 0.021094168 0.076346904
0.06351535 -0.060640488 -0.0044657486 -0.05327219 -0.0233165 0.09656369 -0.066050395 -0.083546564
0.08513687 -0.13001412 0.031938985 0.31314594 0.07640836 0.022170678 0.06508353 0.08490598
00000000: de44 b4bd 789f 7fbf 6a98 233d 765b 6abd
00000010: 21ba 7c3d 01fc ac3d 7479 293f c5cc d13c
00000020: f2d9 b1be e820 22bc 1b1b bd3d 5630 ee3d
00000030: dace 1c3d bd99 273e 0c85 0a3d a06b f93d
00000040: 6b78 03bd 7fb7 6abc 5d95 ae3d a949 fdbc
00000050: 3775 983e 9f93 92bd 763a 383f 5aa5 313e
00000060: a62e 6dbd 1092 bebd 3158 703d 3a81 b1bd
00000070: 5349 983d c06b 113c 3733 f13e 255a 8a3d
00000080: fe65 20bd c723 e1bd 8069 38bd e1d3 cc3d
00000090: cf66 07bd 9f48 193d d36e c43d 3bc0 07be
000000a0: c551 0b3e b07d 333e c2e3 80bd 79e1 d7be
000000b0: a5cf 00bd 122c 65bd 605d 5f3d b754 743d
000000c0: 4c66 89bc cdf3 203f dab5 4e3b 4ea8 bebd
000000d0: 37c6 ad3d e528 d83e 53e0 81bd 28bb b43d
000000e0: ca49 6f3d 2292 6e3c e6b4 bebb 15c7 d83d
000000f0: 055f cfbb 87c6 5b3e d01f 8c3d fad6 fd3d
00000100: 1cb5 2f3d cb40 debc 5a06 0fb9 60e6 1abe
00000110: 57f4 ce3c 1793 e73c 61a5 a6bd 3c3c 47bb
00000120: db84 6f3d 0905 1cbd 8df1 a93d 129c 933b
00000130: 7456 53bd f6e2 483d 3169 063f 16fd cf3d
00000140: 9a1e 71bd 697e 5c3c 088e a9bd 1754 923d
00000150: 1cdf e23d 43b3 b9bb 5e98 c13d 95eb c53d
00000160: a73f bfbb 5b30 bbbd 52ed b9bd 605e 083d
00000170: 99e6 793c 9f66 f4bc 9068 6e3e 3fd2 233d
00000180: 01f0 9f3d c6f9 b4bd c801 dc3d 91ff 8c3e
00000190: 3b37 393c e257 413e f3a0 063e 4dad 08bd
000001a0: ff82 cd3c f0af 723d faae 833d da35 ce3d
000001b0: 1fc7 4f3d c9ad 8e3d adcd ac3c c45b 9c3d
000001c0: 5614 823d 2962 78bd 6a55 92bb f133 5abd
000001d0: 3f02 bfbc 2fc3 c53d 6e45 87bd 761a abbd
000001e0: 3d5c ae3d 6c22 05be 74d2 023d aa54 a03e
000001f0: fc7b 9c3d 489f b53c 844a 853d 30e3 ad3d

net.4.weight f4 [4, 128]
-0.0039272527 -0.42920387 -0.1962519 -0.04694807 -0.3305408 -0.3116899 1.2824258 0.084341794
1.5804646 -0.21300985 -0.23714569 -0.3369034 -0.26034343 1.5332283 -0.36332446 -0.18395518
-0.06609474 0.020450674 -0.39977756 -0.31503287 1.6590385 -0.37975618 1.6054221 -0.44819435
-0.26261523 0.014447814 -0.4673233 -0.87006783 1.7747878 -0.3210629 1.302257 -0.18254115
-0.23656358 -0.7680195 -0.30725992 -0.051736783 -0.210848 -0.25991935 -0.2669383 -0.4713708
-0.30070403 0.48410913 -1.1386564 -0.20461634 -0.35923234 0.10224835 -0.36857697 -0.12458927
-0.40330335 1.1860322 1.6464448 -0.36101806 -0.31184196 0.3600976 -0.24055502 -0.27582228
0.5000271 -0.0653998 -0.27821448 -0.36327296 2.0849326 -0.07192826 -0.22879803 -0.3438894
-0.75936896 -0.2948504 -0.3578152 -0.53233385 -0.3161762 -0.29272604 -0.32590643 -0.08241637
-0.4136684 -0.18357894 -0.08553152 -0.32094216 0.002082366 -0.23827016 1.4082035 -0.22105771
-0.22437872 -0.033092298 -0.25045773 -0.211759 -0.11253789 -0.41739753 -0.3026247 -0.33057725
-0.30799493 0.057417996 0.0016662764 -0.21258448 1.8445723 -0.4221519 0.08487959 -0.32962415
-0.39766192 -0.018481115 -0.13704239 0.095600985 -1.0766188 1.2731297 -0.24893507 -0.40648994
-0.06859084 -0.20505984 -0.21509962 -0.35073546 -0.13615684 0.024679452 -0.9473235 -0.28842017
-0.36292207 -0.062721334 -0.27909315 0.041482173 -0.2959894 -0.27486783 0.039632086 0.020666368
-0.30955505 -0.3524423 -0.34094536 1.2965211 -0.34503257 -0.36903128 -0.3649208 -0.22665621
-0.054187234 0.6862117 -0.35042992 0.035746258 -0.21603027 -0.31744093 0.77365977 -0.06353276
1.3224019 -0.29719174 -0.22364491 -0.31824067 -0.29017535 1.26814 -0.23222053 -0.14031531
-0.026014052 -0.058466498 -0.34389943 -0.37508678 1.8848614 -0.32718208 1.5915248 -0.48568666
-0.3422547 0.050114483 -0.50499606 -1.6768788 1.3377151 -0.17940348 1.4385617 -0.35067266
-0.24101254 -1.4224619 -0.33884123 -0.17426898 -0.25810143 -0.29040328 -0.17796127 -0.8732918
-0.19659466 1.5021495 -1.1697428 1.1352 -0.45856395 -0.16727273 -0.3951252 -0.2809426
-0.41643155 1.1826417 1.3557408 -0.4629017 -0.2775984 0.7307808 -0.48992684 -0.37344357
0.73246217 -1.0133282 -0.33830574 -0.23989278 1.9090031 0.012658295 -0.24599157 -0.3312228
0.58332807 -0.3547106 -0.34900996 -0.3602767 -0.37501365 -0.38290876 -0.35878026 0.030662708
-0.21107407 -0.1903658 -0.14000411 -0.25254643 -0.07680014 -0.40581796 1.3700706 -0.24112038
-0.41192597 0.06890534 -0.36483994 -0.67328864 -0.35663772 -0.3213499 -0.37091252 -0.3848207
-0.2598691 0.0850398 0.019635014 -0.2145693 1.7840853 0.031736918 0.23885198 -0.37650254
-0.22009346 0.037125643 -0.20489399 0.21574038 -1.430761 0.6864966 -0.26285252 -0.41359288
-0.026754282 -0.39266568 -0.23961951 -0.20122477 -0.27476737 0.05558965 -1.4116619 -0.22094516
-0.1710714 0.08015558 -0.19377466 3.5107136e-05 -0.20241997 -0.20049481 0.033830818 0.009557195
-0.21076134 -0.25638026 -0.3517583 0.81907916 -0.17966361 -0.16244385 -0.31864423 0.010140095
00000000: 2fb0 80bb 9cc0 dbbe 42f6 48be 9f4c 40bd
00000010: a53c a9be d295 9fbe 8726 a43f 64bb ac3d
00000020: aa4c ca3f 411f 5abe 52d6 72be 9a7e acbe
00000030: bc4b 85be d340 c43f aa05 babe bf5e 3cbe
00000040: ae5c 87bd 2c88 a73c a5af ccbe fd4b a1be
00000050: 605b d43f 676f c2be 797e cd3f bb79 e5be
00000060: 8175 86be 86b6 6c3c 0045 efbe c4bc 5ebf
00000070: 3f2c e33f 5b62 a4be 5bb0 a63f 11ec 3abe
00000080: b93d 72be ed9c 44bf 2c51 9dbe f3e9 53bd
00000090: 8ae8 57be 2614 85be 23ac 88be 8357 f1be
000000a0: e1f5 99be 27dd f73e 7ebf 91bf f286 51be
000000b0: 4ded b7be 9567 d13d 1fb6 bcbe a928 ffbd
000000c0: c77d cebe e7cf 973f b4be d23f 5cd7 b8be
000000d0: c0a9 9fbe b65e b83e 0e54 76be 9438 8dbe
000000e0: c701 003f 55f0 85bd 2172 8ebe eafe b9be
000000f0: 896f 0540 204f 93bd 084a 6abe 4512 b0be
00000100: 0166 42bf a2f6 96be 8e33 b7be 0847 08bf
00000110: d9e1 a1be 30e0 95be 35dd a6be eac9 a8bd
00000120: 58cc d3be 1efc 3bbe 262b afbd 8852 a4be
00000130: 4e78 083b 18fd 73be 0340 b43f f45c 62be
00000140: 89c3 65be ca8b 07bd ff3b 80be 5ad7 58be
00000150: 447a e6bd 21b5 d5be a0f1 9abe 6c41 a9be
00000160: 83b1 9dbe 222f 6b3d f566 da3a bfaf 59be
00000170: f21a ec3f 4b24 d8be 5ad5 ad3d 7fc4 a8be
00000180: 589a cbbe b565 97bc d754 0cbe 73ca c33d
00000190: a5ce 89bf eaf5 a23f d6e8 7ebe 731f d0be
000001a0: 5b79 8cbd 35fb 51be 1343 5cbe 9993 b3be
000001b0: b36c 0bbe 902c ca3c cb83 72bf cfab 93be
000001c0: ecd0 b9be 0b74 80bd 4ce5 8ebe 36e9 293d
000001d0: ec8b 97be 7abb 8cbe 4155 223d 844c a93c
000001e0: 007e 9ebe 5173 b4be 6490 aebe 67f4 a53f
000001f0: 1ca8 b0be abf1 bcbe e6d6 babe 9118 68be
00000200: 6ff3 5dbd 92ab 2f3f 8d6b b3be ab6a 123d
00000210: 0a37 5dbe 9e87 a2be 910e 463f 771d 82bd
00000220: 7744 a93f 8429 98be 2c03 65be 71f0 a2be
00000230: dd91 94be 6952 a23f 38cb 6dbe d1ae 0fbe
00000240: 6c1b d5bc 917a 6fbd 9613 b0be 600b c0be
00000250: 2343 f13f 6984 a7be 16b7 cb3f ecab f8be
00000260: 023c afbe d844 4d3d 6c47 01bf f7a3 d6bf
00000270: 403a ab3f 8cb5 37be ca22 b83f 5e8b b3be
00000280: fecb 76be 3b13 b6bf 997c adbe 9173 32be
00000290: df25 84be bdaf 94be 7b3b 36be 0d90 5fbf
000002a0: 1c50 49be 6f46 c03f 22ba 95bf 3c4e 913f
000002b0: e5c8 eabe 8b49 2bbe da4d cabe b5d7 8fbe
000002c0: 8436 d5be ce60 973f ea88 ad3f 7401 edbe
000002d0: 6121 8ebe 7314 3b3f b1d7 fabe ff33 bfbe
000002e0: a482 3b3f bdb4 81bf 6936 adbe 74a6 75be
000002f0: 375a f43f bd64 4f3c 37e5 7bbe 0996 a9be
00000300: fd54 153f a19c b5be 6fb1 b2be 3076 b8be
00000310: ca01 c0be 9e0c c4be 0cb2 b7be 5c30 fb3c
00000320: cd23 58be 41ef 42be 3d5d 0fbe c44d 81be
00000330: 6449 9dbd 5fc7 cfbe 795e af3f 43e8 76be
00000340: f6e7 d2be 3e1e 8d3d 4dcc babe a55c 2cbf
00000350: 3899 b6be f987 a4be 3fe8 bdbe 3807 c5be
00000360: 900d 85be 5929 ae3d 9cd9 a03c 0eb8 5bbe
00000370: e85c e43f 92fe 013d 9d95 743e f1c4 c0be
00000380: 2e60 61be 0f11 183d bbcf 51be 0ceb 5c3e
00000390: 2d23 b7bf 3ebe 2f3f 9b94 86be 72c2 d3be
000003a0: cc2b dbbc 7a0b c9be d15e 75be de0d 4ebe
000003b0: 4fae 8cbe f9b1 633d 56b1 b4bf 733f 62be
000003c0: 572d 2fbe 9c28 a43d dd6c 46be 0040 1338
000003d0: 2e47 4fbe 834e 4dbe 2f92 0a3d c895 1c3c
000003e0: d2d1 57be 4644 83be aa19 b4be 2caf 513f
000003f0: bdf9 37be ae57 26be 5625 a3be a422 263c

net.4.bias f4 [4]
-0.1659578 0.12389643 -0.03767163 -0.19859077
00000000: d7f0 29be 69bd fd3d 914d 1abd 615b 4bbe
