SARSA/dsqn/250_model_weights.pth (torch, 75917 bytes, 6 tensors)

net.0.weight f4 [128, 8]
0.73794234 -0.06945426 0.464349 -0.2801969 -0.7568804 0.11354372 0.15068705 0.13931929
1.3238949 0.17635547 0.74965686 -0.38435745 -0.56445026 0.33025616 -0.09775087 -0.003540633
-0.7880178 1.1424278 -0.44002417 -0.42869332 0.05151642 -0.12622765 -1.0506952e-05 0.014286406
0.2293735 0.8160323 -0.19592091 -0.6241763 0.21065018 0.06276642 -0.03117159 -0.15599854
-0.27042755 -0.108140886 -0.05420128 0.083488524 0.6704385 1.0630454 0.8165292 0.3151054
-0.1347253 -0.41471925 0.82826203 -0.059857063 -0.19797948 -0.42999992 0.64991087 -0.33796537
-0.45979238 -0.7795477 0.7468824 -0.1128972 -0.29770243 0.69292235 -0.002658586 -0.33052912
-0.38528568 0.8182429 -0.07605617 1.2370985 0.19179046 0.14143768 -0.0133381495 0.027085135
-0.44195947 0.17713885 -0.11307737 -0.21534914 0.80255145 0.5282594 0.04517397 0.3304832
0.06068556 0.166634 1.3878753 0.4052709 0.6416952 1.0245105 -0.47179025 0.057180878
0.46832147 0.6652859 -0.28888038 0.39769602 0.106230035 -0.029785683 0.21756823 -0.1747602
-1.4472547 -0.091867656 -0.7701183 0.14417951 -0.16749942 -0.12567595 0.5655431 0.30303332
-0.023759613 0.7794291 -0.08031634 0.13335879 0.038046397 0.11639846 0.2050879 0.33493203
-0.15198599 -0.2257333 -0.31316477 -0.010467861 0.8597937 0.49923235 0.692866 0.015382442
-0.16766354 -0.24014968 0.34170958 0.06203794 0.40286547 1.306145 0.47422904 0.048348438
-0.32349074 0.16053645 0.41854572 0.07899112 -0.22514614 0.00767586 0.26658165 0.008273775
-0.6026936 0.15145956 0.031762272 -0.0705037 0.55038285 0.59553283 -0.13822009 -0.31072387
0.036431257 0.9254514 0.09756964 0.51342607 0.24605198 0.03112128 0.45371458 0.6638295
0.250287 0.47444203 -0.50450575 -0.4743427 -0.14120239 1.2229019 0.27409497 -0.77322316
-0.03090057 0.8160439 0.13762188 -0.16078207 -1.0534935 -0.97184134 -0.24768901 -0.6810477
-0.4954287 -0.25586006 0.32800394 0.08507845 0.89920145 1.1667625 0.15219592 -0.09840573
0.080045335 0.2842122 0.18519048 0.66694856 0.82666606 1.3489237 0.47000214 0.24242626
-0.10801752 0.30723396 -0.4862345 -0.06271877 0.36339965 0.46803823 0.87629163 0.39573848
-0.5071312 -0.32438982 0.106464654 -0.2404528 0.2799128 0.9615613 0.17618448 0.09452091
-0.895469 0.079004586 -1.0913066 0.37709987 -0.16242027 0.030502703 0.56836456 -0.25085977
0.23259005 -0.08567665 0.048639864 -0.21893673 0.3542872 1.0673189 0.4163027 0.11667423
-0.23417316 -0.50359106 -1.2264587 0.0020677003 0.48372453 0.4678088 0.014713915 -0.76871145
0.444409 0.06558557 -0.28245202 -0.13941067 -0.30020314 -1.3115202 -0.29670537 -0.08099331
-0.063687176 -0.23455761 0.21021709 0.013563147 0.7362501 1.8217955 -0.4817223 -0.15404235
-0.4538548 -0.25358298 0.23279448 -0.23515484 0.27484822 0.92034274 0.30990344 0.11962981
-0.16970596 -0.095577784 -0.16416179 -0.14755702 -0.7699704 -1.214484 0.41324025 0.7990131
1.3990643 0.2439157 0.77277905 -0.43447477 -0.515439 0.28113735 -0.07020136 0.018313307
00000000: cae9 3c3f 093e 8ebd 27bf ed3e f875 8fbe
00000010: eac2 41bf 9c89 e83d b54d 1a3e b7a9 0e3e
00000020: 6375 a93f 8796 343e 83e9 3f3f 80ca c4be
00000030: d07f 10bf 5617 a93e 9c31 c8bd f709 68bb
00000040: 89bb 49bf 133b 923f d94a e1be b17d dbbe
00000050: e202 533d d241 01be 0447 30b7 8811 6a3c
00000060: e3e0 6a3e 7ee7 503f 7e9f 48be 05ca 1fbf
00000070: aeb4 573e ae8b 803d 905b ffbc 15be 1fbe
00000080: 7b75 8abe f878 ddbd 2902 5ebd 08fc aa3d
00000090: dca1 2b3f df11 883f 0f08 513f 7f55 a13e
000000a0: 6ef5 09be 1556 d4be fb08 543f ae2c 75bd
000000b0: 22bb 4abe f328 dcbe 8f60 263f cc09 adbe
000000c0: e869 ebbe 7090 47bf af33 3f3f a636 e7bd
000000d0: 746c 98be 5c63 313f ac3b 2ebb 1d3b a9be
000000e0: 2a44 c5be 5e78 513f 56c3 9bbd 3e59 9e3f
000000f0: b864 443e 0ad5 103e 4188 5abc a5e1 dd3c
00000100: 8348 e2be e363 353e 1c95 e7bd 7c84 5cbe
00000110: 0374 4d3f 023c 073f 5708 393d 1835 a93e
00000120: 6c91 783d 1aa2 2a3e e6a5 b13f ab7f cf3e
00000130: 2346 243f 2923 833f 7e8e f1be 7f36 6a3d
00000140: d5c7 ef3e 2d50 2a3f 21e8 93be d09e cb3e
00000150: 228f d93d 1b01 f4bc 35ca 5e3e 56f4 32be
00000160: a43f b9bf 1c25 bcbd 7926 45bf cba3 133e
00000170: f884 2bbe 32b1 00be 6fc7 103f 2f27 9b3e
00000180: 85a3 c2bc aa88 473f e57c a4bd 358f 083e
00000190: 8ad6 1b3d 5162 ee3d 9002 523e 367c ab3e
000001a0: 37a2 1bbe a126 67be 2257 a0be 6481 2bbc
000001b0: 711b 5c3f 629b ff3e ab5f 313f a306 7c3c
000001c0: feaf 2bbe cce9 75be 8ff4 ae3e 7f1b 7e3d
000001d0: 6244 ce3e c22f a73f 26ce f23e 0309 463d
000001e0: 94a0 a5be ab63 243e a04b d63e 19c6 a13d
000001f0: b68c 66be c885 fb3b 647d 883e ba8e 073c
00000200: 214a 1abf 3718 1b3e 2819 023d 3e64 90bd
00000210: e4e5 0c3f d774 183f 9189 0dbe 3317 9fbe
00000220: f138 153d 62ea 6c3f 97d2 c73d e46f 033f
00000230: 0df5 7b3e 0ef2 fe3c 474d e83e bbf0 293f
00000240: 9e25 803e 11ea f23e 4a27 01bf 0cdd f2be
00000250: 5c97 10be 0d88 9c3f 2d56 8c3e f4f1 45bf
00000260: 3123 fdbc 41e8 503f c0ec 0c3e 0ea4 24be
00000270: e0d8 86bf 98ca 78bf 30a2 7dbe 2459 2ebf
00000280: d5a8 fdbe 1700 83be 22f0 a73e 9c3d ae3d
00000290: 1132 663f 7958 953f 3fd9 1b3e f288 c9bd
000002a0: cfee a33d 4384 913e 93a2 3d3e 24bd 2a3f
000002b0: 63a0 533f 88a9 ac3f 1fa4 f03e 973e 783e
000002c0: 4a38 ddbd c54d 9d3e baf3 f8be b372 80bd
000002d0: 850f ba3e b5a2 ef3e a654 603f 3c9e ca3e
000002e0: 5ad3 01bf 6c16 a6be 240a da3d 4239 76be
000002f0: bb50 8f3e e228 763f b469 343e 2e94 c13d
00000300: 753d 65bf 28cd a13d efaf 8bbf 3c13 c13e
00000310: 8051 26be cee0 f93c 5780 113f b170 80be
00000320: 162c 6e3e 3d77 afbd 983a 473d f330 60be
00000330: 2265 b53e e89d 883f a125 d53e e6f2 ee3d
00000340: 17cb 6fbe 58eb 00bf 99fc 9cbf 4182 073b
00000350: beaa f73e a384 ef3e a212 713c 46ca 44bf
00000360: 9489 e33e ba51 863d 8d9d 90be acc1 0ebe
00000370: 3ab4 99be e5df a7bf c4e9 97be d2df a5bd
00000380: 6c6e 82bd df2f 70be 2643 573e f637 5e3c
00000390: e37a 3c3f 9830 e93f 4ea4 f6be 47bd 1dbe
000003a0: a85f e8be a1d5 81be ad61 6e3e 6ecc 70be
000003b0: e8b8 8c3e 959b 6b3f aaab 9e3e 7900 f53d
000003c0: 66c7 2dbe 49be c3bd 071a 28be 3019 17be
000003d0: c81c 45bf 3674 9bbf 3a94 d33e 1f8c 4c3f
000003e0: 8a14 b33f 0ac5 793e d9d4 453f 7a73 debe
000003f0: cff3 03bf 3cf1 8f3e bbc5 8fbd ca05 963c

net.0.bias f4 [128]
0.4383668 -0.089076035 0.07044769 0.31424442 0.23429057 -0.3315135 -0.54594 0.10966608
-0.30130127 -0.14078313 0.6889017 0.12550358 -0.023001514 0.17140752 0.3372883 -0.31078517
-0.34240285 0.04426868 0.5078495 0.23969913 0.43377274 0.5026266 0.77904963 0.63616246
0.3262547 0.36955062 -0.8967459 -0.019797256 0.047655445 0.53540707 0.4206446 -0.13318804
-0.35411817 -0.38499305 0.69519514 -0.31104383 0.0075614457 0.12685266 0.38620874 0.38223895
-0.31719187 -0.2321377 0.1615796 -0.3903225 0.654484 -0.20763911 0.48430634 -0.060370672
0.3941691 0.3385143 0.16649838 0.22022034 0.6429057 0.007107969 0.20465541 -0.36920786
0.829508 0.17185783 0.6988034 -0.3470727 0.6672647 0.13397013 0.6119187 0.7887115
0.026833823 0.13636464 -0.2464717 0.4822869 -0.5180291 0.1123538 -0.880877 0.45268062
0.7973241 -0.3584717 0.220257 0.17856307 -0.21380672 0.22612286 0.1836341 0.14216517
0.6250791 -0.6919859 -0.29443628 0.28670132 0.14098902 0.040824383 0.6051701 0.227073
0.06907693 -0.2546894 0.39315054 -0.28741005 0.5116107 0.43751574 0.23734562 0.34462455
-0.22174156 0.8564129 -0.4536198 0.034961235 0.6321152 0.40879682 -0.12820372 -0.09611116
0.5819378 0.50929916 0.14798996 0.38854986 -0.5661859 -0.28791758 0.7266153 -0.25982612
0.1214995 0.1994714 0.5240549 0.37808293 -0.15207288 -0.09893073 0.7320449 0.41910124
0.8471162 0.6372095 -0.49900743 0.8602801 0.28993726 -0.2621974 0.0586721 -0.17040896
00000000: 9d71 e03e 7f6d b6bd e146 903d a5e4 a03e
00000010: dee9 6f3e 23bc a9be b9c2 0bbf 9c98 e03d
00000020: 2944 9abe 7429 10be dd5b 303f 0384 003e
00000030: ac6d bcbc 7485 2f3e 0db1 ac3e 3c1f 9fbe
00000040: 6d4f afbe 1353 353d 6d02 023f b073 753e
00000050: 7617 de3e 23ac 003f cc6f 473f 8bdb 223f
00000060: db0a a73e bd35 bd3e 2491 65bf db2d a2bc
00000070: 5b32 433d 7010 093f bb5e d73e 7262 08be
00000080: fa4e b5be cf1d c5be 4ff8 313f 2341 9fbe
00000090: 01c6 f73b aae5 013e 27bd c53e d3b4 c33e
000000a0: f966 a2be 81b5 6dbe 1f75 253e 5ad8 c7be
000000b0: 438c 273f 599f 54be 00f7 f73e 3d47 77bd
000000c0: 88d0 c93e bf51 ad3e 8d7e 2a3e 7181 613e
000000d0: 7895 243f f7e9 e83b 3091 513e d008 bdbe
000000e0: a35a 543f 80fb 2f3e c8e4 323f 83b3 b1be
000000f0: dcd1 2a3f 772f 093e b4a6 1c3f ffe8 493f
00000100: 9bd2 db3c 2ca3 0b3e 1463 7cbe 4fee f63e
00000110: 8e9d 04bf c019 e63d 2881 61bf c1c5 e73e
00000120: 6f1d 4c3f 9a89 b7be 0d8b 613e 3dd9 363e
00000130: 26f0 5abe c08c 673e 940a 3c3e bf93 113e
00000140: 2f05 203f fd25 31bf 5ac0 96be 84ca 923e
00000150: 6d5f 103e 7837 273d 6dec 1a3f d385 683e
00000160: 3578 8d3d a666 82be 074b c93e 6927 93be
00000170: ebf8 023f 1002 e03e bb0a 733e a172 b03e
00000180: 3810 63be e03d 5b3f db40 e8be 8333 0f3d
00000190: 4dd2 213f d14d d13e d647 03be eed5 c4bd
000001a0: e0f9 143f 6e61 023f ae8a 173e 02f0 c63e
000001b0: 8ff1 10bf ef69 93be 7603 3a3f ee07 85be
000001c0: bbd4 f83d 3b42 4c3e 7628 063f 1694 c13e
000001d0: feb8 1bbe 329c cabd 4b67 3b3f 7094 d63e
000001e0: 9bdc 583f 2920 233f e77d ffbe 513b 5c3f
000001f0: a872 943e bd3e 86be 2852 703d b07f 2ebe

net.2.weight f4 [128, 128]
0.05489861 -0.05892818 -0.06511142 -0.07735252 -0.08255052 -0.0540751 -0.07131014 0.013097638
0.022561386 0.0054290593 0.028790563 0.012918459 0.0464476 0.04824728 -0.08983188 0.06562293
0.04138983 0.048287418 -0.023374151 0.074822426 0.024355106 0.046746913 0.0010676992 -0.038348425
-0.07016463 0.021714285 -0.07666241 -0.077239916 0.06920726 -0.01950893 -0.008224024 0.068900324
0.0064845737 -0.041954093 0.010609683 0.074321695 -0.03864067 -0.04662171 -0.031098977 0.017178273
-0.066555634 -0.05857375 0.065313645 -0.06321016 -0.076113895 0.01872277 -0.05897601 0.060311574
-0.012617018 -0.05761485 0.058044005 0.044889763 -0.09611752 -0.029353961 0.06345196 0.02969271
-0.059213944 0.01600555 0.013284533 -0.08823575 0.00090489537 0.010069355 -0.07300432 -0.031019475
0.027368395 -0.015085322 0.057744756 0.024032317 0.042535387 -0.09581088 -0.044280287 0.038154315
-0.001810511 0.02968883 -0.02436009 0.042233218 0.036428533 -0.028127324 -0.065460406 -0.009627278
0.023237154 -0.08325246 -0.014581392 -0.07487921 0.008433446 -0.07053526 0.047581315 -0.0061418433
-0.00084290653 -0.08372731 0.028930044 -0.050307274 -0.008275334 -0.017164377 0.042401467 0.032140873
-0.016236838 0.0727545 -0.038351335 0.074802496 -0.08293184 -0.047669835 0.037738346 0.07400075
0.050198644 -0.008058507 -0.06972296 -0.050351724 0.055716556 0.053662192 -0.0317602 -0.089916825
-0.037873995 -0.053836126 0.049256325 0.05752411 -0.06279201 0.037035022 -0.05635962 0.01616735
-0.022892086 -0.06370241 0.010665841 0.059419233 0.030927597 0.0043551796 -0.0430808 -0.05859717
-2.0349352 -2.0191162 -0.46469957 -0.30322617 0.2196164 -0.20048848 0.7422574 -1.1439719
0.46422622 0.050211187 -1.5091442 -0.52199996 -0.54560494 0.040815733 0.25461414 0.020449184
0.19487035 -0.70623523 -0.06532664 -1.1569136 0.32338294 -0.13616051 -0.12710492 0.2083202
-0.62582695 0.07979225 0.75551367 -0.09241643 -0.034242313 0.011785296 -1.361766 -2.0506208
0.31047517 0.7003236 -0.8037785 0.49128112 -2.2650585 -2.2327142 -0.32833323 -0.23685251
-0.40010095 0.2231738 -0.16536415 0.5876571 -0.47837636 0.124910794 -0.060436316 0.029932166
0.094162315 0.04767102 -1.37265 -2.010086 -2.8529856 0.4017872 -0.1200978 -1.7081778
-0.011356452 -0.75534636 -0.15562817 0.12493443 -0.6314673 0.1824868 -1.5133057 -1.9404048
-0.006706896 -2.378009 -1.7721782 -0.5527922 -1.1237028 -0.70737743 -1.4880469 -0.49900708
-1.0048376 -2.0431433 -0.31545433 0.3165904 0.09311849 -0.67227864 -1.2855762 0.56845164
-0.023165653 0.9683441 0.5908015 -2.7328424 -0.027441615 -0.10370105 0.011967848 -0.56448746
0.46457735 0.24148488 -0.9079558 0.10309303 -0.9340034 -0.20167108 -0.30218205 -0.7916719
-2.2857852 -0.37042144 0.5059491 0.34064493 -0.12109303 -0.25435477 0.22261997 -0.20915459
0.10979205 -0.1766163 -1.5154742 0.095669106 -0.2019706 -1.7431121 -1.7224102 0.32675663
-0.056615945 0.62065476 0.27813813 -0.58780795 0.22542988 0.7405351 -1.6246812 0.51957965
-0.23596537 -0.23652634 0.05282128 -0.53978443 -0.15462217 0.10755808 0.38196227 0.34556702
00000000: 5ddd 603d ad5e 71bd 2359 85bd ff6a 9ebd
00000010: 3f10 a9bd da7d 5dbd 0d0b 92bd 7a97 563c
00000020: a8d2 b83c 40e6 b13b 30da eb3c f2a7 533c
00000030: d73f 3e3d f19e 453d c7f9 b7bd 5165 863d
00000040: 6288 293d 07c9 453d 267b bfbc 803c 993d
00000050: 5c84 c73c b179 3f3d 0af2 8b3a 3d13 1dbd
00000060: 79b2 8fbd 28e2 b13c 2e01 9dbd f62f 9ebd
00000070: 89bc 8d3d 31d1 9fbc 0fbe 06bc 9d1b 8d3d
00000080: 8c7c d43b 0ed8 2bbd 3cd4 2d3c f935 983d
00000090: ae45 1ebd 68f6 3ebd 48c3 febc 73b9 8c3c
000000a0: 524e 88bd 07eb 6fbd 29c3 853d 5474 81bd
000000b0: 9ae1 9bbd 7f60 993c d490 71bd 4509 773d
000000c0: 9cb7 4ebc 8dfd 6bbd 8dbf 6d3d 54de 373d
000000d0: 43d9 c4bd b877 f0bc 1af3 813d 203e f33c
000000e0: 528a 72bd 121e 833c 5fa7 593c f2b4 b4bd
000000f0: 8036 6d3a f0f9 243c 4a83 95bd 8e1c febc
00000100: af33 e03c 6d28 77bc c485 6c3d 6cdf c43c
00000110: 9639 2e3d 7f38 c4bd 3f5f 35bd b347 1c3d
00000120: ab4e edba fd35 f33c d08e c7bc bdfc 2c3d
00000130: 1636 153d 466b e6bc 1b10 86bd bbbb 1dbc
00000140: d85b be3c 4480 aabd cae6 6ebc 455a 99bd
00000150: 702c 0a3c ca74 90bd a0e4 423d 8441 c9bb
00000160: 80f6 5cba 3979 abbd b3fe ec3c 000f 4ebd
00000170: 4495 07bc 4f9c 8cbc 29ad 2d3d 26a6 033d
00000180: 1e03 85bc 5000 953d 4a16 1dbd 0d32 993d
00000190: 2bd8 a9bd 7241 43bd 8693 1a3d b58d 973d
000001a0: 189d 4d3d d407 04bc e9ca 8ebd 9c3d 4ebd
000001b0: 0b37 643d e3cc 5b3d fc16 02bd 5026 b8bd
000001c0: c321 1bbd 4583 5cbd 00c1 493d 679e 6b3d
000001d0: 1999 80bd 09b2 173d 58d9 66bd 6471 843c
000001e0: 2f88 bbbc 6976 82bd c8bf 2e3c 9561 733d
000001f0: df5b fd3c e5b5 8e3b 7e75 30bd 9603 70bd
00000200: 613c 02c0 3339 01c0 1aed edbe 7640 9bbe
00000210: 1fe3 603e da4c 4dbe 9504 3e3f ac6d 92bf
00000220: 0faf ed3e 3faa 4d3d a32b c1bf caa1 05bf
00000230: c4ac 0bbf 662e 273d c95c 823e 0c85 a73c
00000240: 188c 473e d5cb 34bf f9c9 85bd bf15 94bf
00000250: 7392 a53e a96d 0bbe cb27 02be e451 553e
00000260: 3236 20bf 1f6a a33d 5869 413f d344 bdbd
00000270: ab41 0cbd 1d17 413c 594e aebf 5f3d 03c0
00000280: 9af6 9e3e 6848 333f 6ec4 4dbf 3389 fb3e
00000290: b8f6 10c0 cae4 0ec0 4b1b a8be 7789 72be
000002a0: 08da ccbe ac87 643e 3855 29be b270 163f
000002b0: bfed f4be 3bd1 ff3d 128c 77bd 4d34 f53c
000002c0: 2cd8 c03d b042 433d ffb2 afbf 40a5 00c0
000002d0: 5197 36c0 0db7 cd3e d6f5 f5bd 92a5 dabf
000002e0: 6910 3abc 615e 41bf fe5c 1fbe 9fdd ff3d
000002f0: d7a7 21bf d2dd 3a3e 00b4 c1bf 2f5f f8bf
00000300: 85c5 dbbb 4d31 18c0 bcd6 e2bf ca83 0dbf
00000310: 7ed5 8fbf b016 35bf 5278 bebf db7d ffbe
00000320: 859e 80bf dcc2 02c0 3b83 a1be 2318 a23e
00000330: e8b4 be3d 741a 2cbf c38d a4bf 0c86 113f
00000340: e5c5 bdbc 66e5 773f c43e 173f e4e6 2ec0
00000350: 3dcd e0bc 3761 d4bd cb14 443c 4082 10bf
00000360: 15dd ed3e d047 773e cb6f 68bf 7022 d33d
00000370: d91a 6fbf dd82 4ebe 9bb7 9abe 02ab 4abf
00000380: 4e4a 12c0 e1a7 bdbe e185 013f 0369 ae3e
00000390: 9fff f7bd ca3a 82be 7df6 633e 9f2c 56be
000003a0: a8da e03d e7da 34be 0ffb c1bf 2aee c33d
000003b0: 62d1 4ebe 4c1e dfbf f077 dcbf a54c a73e
000003c0: 1fe6 67bd 3be3 1e3f 1f68 8e3e 957a 16bf
000003d0: 17d7 663e b593 3d3f 8ef5 cfbf 2c03 053f
000003e0: e8a0 71be f633 72be 205b 583d 502f 0abf
000003f0: 4655 1ebe 6947 dc3d 8f90 c33e 29ee b03e

net.2.bias f4 [128]
-0.08802198 -1.1438766 0.01537599 -0.05721613 0.025919449 0.06163816 0.6878733 0.025610337
-0.35837728 -0.028282734 0.064369336 0.071733266 0.009233937 0.18747605 0.0011851239 0.08542976
-0.03209726 -0.014325975 0.0689319 -0.05676735 0.27580532 -0.07502246 0.77637255 0.13307607
-0.05615854 -0.09305203 0.057815317 -0.08513275 0.09014355 -0.03122355 0.5125662 0.046930775
-0.077027254 -0.15480654 -0.06259763 0.055143047 -0.08016209 0.011688701 0.0608133 -0.09264506
0.097883664 0.031765677 -0.076130904 -0.31415308 -0.04832747 0.004561189 0.03928534 0.035702627
-0.015322047 0.64853466 0.012917461 -0.11604409 0.060573075 0.40545917 -0.042964514 0.0660729
0.019438881 0.0678908 -0.013871316 0.07867716 -0.09010139 0.12578592 0.04503669 0.1040969
-0.037167296 -0.032752164 -0.02501379 -0.14122397 0.0035910688 0.03355656 -0.09653983 -0.0030400893
0.012177832 -0.06002786 0.05396833 -0.019004755 -0.05159612 0.032107256 0.550861 0.07115423
-0.061519124 0.013457873 -0.09257062 0.114068374 0.0954953 -0.024438534 0.07340832 0.07863713
-0.037153102 -0.091400824 -0.090784684 0.0028456093 0.00831382 -0.029521344 0.18575972 0.038085513
0.055484157 -0.08836703 0.08405321 0.214821 -0.009126007 0.2032752 0.10322074 -0.034511875
0.025086878 0.036614526 0.035380617 0.0686787 0.029967366 0.06966741 0.018584792 0.039105408
0.026235888 -0.060640488 -0.03557945 -0.05327219 -0.061636 0.06457925 -0.066050395 -0.083546564
0.050636694 -0.1358749 0.009776056 0.33641157 0.041915137 -0.020383403 0.039541606 0.13458228
00000000: de44 b4bd 8c6a 92bf 94eb 7b3c 765b 6abd
00000010: 0655 d43c 4c78 7c3d 7718 303f c5cc d13c
00000020: 3a7d b7be 31b1 e7bc 12d4 833d e4e8 923d
00000030: f049 173c b9f9 3f3e 2956 9b3a ccf5 ae3d
00000040: 6b78 03bd 7fb7 6abc 2b2c 8d3d e184 68bd
00000050: 5b36 8d3e 60a5 99bd 5ac0 463f 1845 083e
00000060: 7f06 66bd 1092 bebd c1cf 6c3d 145a aebd
00000070: 2e9d b83d 88c8 ffbc 8a37 033f 7c3a 403d
00000080: 77c0 9dbd 9b85 1ebe 3033 80bd addd 613d
00000090: 062c a4bd f781 3f3c 5e17 793d b1bc bdbd
000000a0: 3b77 c83d ba1c 023d 85ea 9bbd acd8 a0be
000000b0: 06f3 45bd 0776 953b aae9 203d eb3c 123d
000000c0: 5309 7bbc 5e06 263f c2a3 533c 86a8 edbd
000000d0: 791b 783d 5898 cf3e 8ffb 2fbd 3b51 873d
000000e0: 4a3e 9f3c 550a 8b3d 8444 63bc 7e21 a13d
000000f0: 1487 b8bd 06ce 003e 6478 383d c130 d53d
00000100: bc3c 18bd 2227 06bd b8e9 ccbc 049d 10be
00000110: 2358 6b3b 9a72 093d adb6 c5bd 3c3c 47bb
00000120: 8885 473c c6df 75bd e50d 5d3d dcaf 9bbc
00000130: 7456 53bd e682 033d 3a05 0d3f 4fb9 913d
00000140: 7afb 7bbd 697e 5c3c aa95 bdbd ae9c e93d
00000150: 0a93 c33d 5233 c8bc 1a57 963d 810c a13d
00000160: da2d 18bd 5b30 bbbd 52ed b9bd 677d 3a3b
00000170: b036 083c bfd6 f1bc cc37 3e3e 8eff 1b3d
00000180: 5b43 633d c6f9 b4bd 1724 ac3d 09fa 5b3e
00000190: 3f85 15bc 6027 503e 6565 d33d 535c 0dbd
000001a0: ff82 cd3c 1df9 153d 44eb 103d 6ba7 8c3d
000001b0: 1f7e f53c c9ad 8e3d 223f 983c fe2c 203d
000001c0: a5ec d63c 2962 78bd c2bb 11bd f133 5abd
000001d0: 0876 7cbd 2042 843d 6e45 87bd 761a abbd
000001e0: 6c68 4f3d ca22 0bbe c02b 203c 233e ac3e
000001f0: 35af 2b3d 18fb a6bc 61f6 213d f0cf 093e

net.4.weight f4 [4, 128]
-0.0039272527 -0.37912583 -0.22064228 -0.04694807 -0.3689773 -0.3334946 1.3083478 0.084341794
1.6885358 -0.2399663 -0.26203623 -0.3780578 -0.28144288 1.6371119 -0.3829444 -0.2012219
-0.06609474 0.020450674 -0.42107445 -0.33817276 1.7035601 -0.43401486 1.6814609 -0.49820417
-0.29310834 0.014447814 -0.5131676 -1.0676659 1.8230996 -0.34665152 1.3237346 -0.20593345
-0.2699335 -0.86097157 -0.33816746 -0.10631543 -0.26975217 -0.2856876 -0.28675196 -0.51033396
-0.3172753 0.5624706 -1.2987849 -0.03152938 -0.42356595 0.105903625 -0.3890208 -0.15276136
-0.4537923 1.2273409 1.7323178 -0.4457939 -0.33069748 0.39616615 -0.3768739 -0.3157963
0.50631547 -0.08240562 -0.3038991 -0.38248345 2.0995526 -0.09577071 -0.25365087 -0.3757648
-0.7378793 -0.3375023 -0.38441586 -0.595916 -0.33904734 -0.34261453 -0.3491513 -0.08241637
-0.4425943 -0.21707942 -0.11333921 -0.3441282 0.002082366 -0.27255931 1.4699507 -0.24696892
-0.27608183 -0.033092298 -0.28527862 -0.30662248 -0.1502393 -0.45834488 -0.32469898 -0.35610017
-0.32687742 0.057417996 0.0016662764 -0.23695621 1.9497281 -0.43443167 0.08257201 -0.3638998
-0.4171256 -0.018481115 -0.16393836 0.09214485 -1.2696487 1.3196981 -0.2726544 -0.44988444
-0.06859084 -0.23515531 -0.25939125 -0.36836404 -0.17913349 0.024679452 -1.0461544 -0.3049951
-0.37988442 -0.062721334 -0.30315623 0.041482173 -0.3174997 -0.2974362 0.039632086 0.020666368
-0.32921934 -0.39206973 -0.3644515 1.2440581 -0.36301452 -0.4009754 -0.38503364 -0.19965857
-0.054187234 0.7094131 -0.3718347 0.035746258 -0.25951734 -0.34261572 0.7780184 -0.06353276
1.5868287 -0.32463336 -0.24253286 -0.37685674 -0.31174335 1.4165614 -0.26544467 -0.15040071
-0.026014052 -0.058466498 -0.3754599 -0.4002938 1.9331685 -0.37473297 1.6607288 -0.34014007
-0.37929055 0.050114483 -0.57762545 -1.8058075 1.5170895 -0.20633328 1.5082078 -0.37535694
-0.27511662 -1.4671218 -0.37188855 -0.18394981 -0.30138952 -0.31849298 -0.19908789 -0.955328
-0.2172975 1.5451488 -1.2112098 1.2365233 -0.54206014 -0.18471493 -0.42175162 -0.30380136
-0.482829 1.1891338 1.5158857 -0.53053844 -0.3092356 0.78208536 -0.5923136 -0.4390509
0.79097366 -1.0432457 -0.36781102 -0.2636544 2.0520258 0.005699186 -0.26836947 -0.3817964
0.37636155 -0.3946934 -0.3888764 -0.39586908 -0.4129767 -0.44173568 -0.39442196 0.030662708
-0.24586172 -0.2108668 -0.16091679 -0.27319634 -0.07680014 -0.4470818 1.4067355 -0.2605443
-0.46255141 0.06890534 -0.407005 -0.7191913 -0.37823254 -0.3609388 -0.40219945 -0.41397217
-0.2856731 0.0850398 0.019635014 -0.2418041 1.8097436 0.029342068 0.24802025 -0.41895184
-0.24253297 0.037125643 -0.2236876 0.22163747 -1.4706652 0.7046523 -0.29121378 -0.46972778
-0.026754282 -0.43304887 -0.28353715 -0.21777171 -0.30821064 0.05558965 -1.4654721 -0.2465422
-0.18485989 0.08015558 -0.2138107 3.5107136e-05 -0.22461678 -0.21320584 0.033830818 0.009557195
-0.22802113 -0.28573817 -0.3907837 0.9060519 -0.19492891 -0.20128886 -0.3436733 0.049219534
00000000: 2fb0 80bb c81c c2be 0df0 61be 9f4c 40bd
00000010: 98ea bcbe cebf aabe f177 a73f 64bb ac3d
00000020: f121 d83f bab9 75be 9d29 86be cb90 c1be
00000030: 4819 90be e28c d13f 4a11 c4be 1d0d 4ebe
00000040: ae5c 87bd 2c88 a73c 1297 d7be fb24 adbe
00000050: 420e da3f 3237 debe 1c3a d73f 9e14 ffbe
00000060: 4c12 96be 86b6 6c3c f45e 03bf 47a9 88bf
00000070: 545b e93f 4f7c b1be 2370 a93f 38e0 52be
00000080: b934 8abe a268 5cbf 4924 adbe e7bb d9bd
00000090: f51c 8abe a545 92be 27d1 92be 3fa5 02bf
000000a0: e871 a2be 13fe 0f3f 953e a6bf f324 01bd
000000b0: a3dd d8be 00e4 d83d bc2d c7be 796d 1cbe
000000c0: 7757 e8be 8219 9d3f 97bc dd3f 193f e4be
000000d0: 2e51 a9be 4ad6 ca3e 9ef5 c0be 0db0 a1be
000000e0: e49d 013f 47c4 a8bd aa98 9bbe dfd4 c3be
000000f0: 125f 0640 6f23 c4bd 87de 81be 3e64 c0be
00000100: a8e5 3cbf 1acd acbe 28d2 c4be f38d 18bf
00000110: 9d97 adbe 2c6b afbe f6c3 b2be eac9 a8bd
00000120: b89b e2be 114a 5ebe 631e e8bd 9231 b0be
00000130: 4e78 083b e58c 8bbe 5827 bc3f 6ce5 7cbe
00000140: 995a 8dbe ca8b 07bd 0a10 92be 9ffd 9cbe
00000150: 55d8 19be 2eac eabe f23e a6be c352 b6be
00000160: 7a5c a7be 222f 6b3d f566 da3a a6a4 72be
00000170: b190 f93f d46d debe 841b a93d 1351 babe
00000180: 7d91 d5be b565 97bc 75df 27be 70b6 bc3d
00000190: d983 a2bf deeb a83f 5c99 8bbe 4157 e6be
000001a0: 5b79 8cbd 8ecc 70be eece 84be 369a bcbe
000001b0: c56e 37be 902c ca3c 63e8 85bf 5128 9cbe
000001c0: 3680 c2be 0b74 80bd 4b37 9bbe 36e9 293d
000001d0: 528f a2be 8f49 98be 4155 223d 844c a93c
000001e0: 708f a8be 5dbd c8be 6399 babe 4c3d 9f3f
000001f0: 0add b9be a64c cdbe 2123 c5be 4c73 4cbe
00000200: 6ff3 5dbd 199c 353f 1e61 bebe ab6a 123d
00000210: 75df 84be 546b afbe 372c 473f 771d 82bd
00000220: 341d cb3f 5836 a6be 895a 78be 5ef3 c0be
00000230: d39c 9fbe e251 b53f 5de8 87be a502 1abe
00000240: 6c1b d5bc 917a 6fbd 483c c0be 4ff3 ccbe
00000250: 1172 f73f 00dd bfbe c392 d43f d726 aebe
00000260: 5f32 c2be d844 4d3d 43df 13bf b324 e7bf
00000270: fd2f c23f 0849 53be f40c c13f c92e c0be
00000280: 16dc 8cbe a6ca bbbf 2d68 bebe 575d 3cbe
00000290: ba4f 9abe 8311 a3be b2dd 4bbe 6090 74bf
000002a0: 3c83 5ebe 70c7 c53f ec08 9bbf 6546 9e3f
000002b0: 74c4 0abf e925 3dbe d4ef d7be da8b 9bbe
000002c0: 5d35 f7be 8935 983f 8b08 c23f 5ed1 07bf
000002d0: 2154 9ebe bf36 483f dda1 17bf 48cb e0be
000002e0: 407d 4a3f 1389 85bf ba51 bcbe b6fd 86be
000002f0: 6454 0340 3dc0 ba3b b967 89be d17a c3be
00000300: 76b2 c03e 4115 cabe cf1a c7be 5aaf cabe
00000310: af71 d3be 2e2b e2be adf1 c9be 5c30 fb3c
00000320: 2dc3 7bbe 77ed 57be 5fc7 24be 64e0 8bbe
00000330: 6449 9dbd e8e7 e4be e90f b43f 1066 85be
00000340: 8ad3 ecbe 3e1e 8d3d f662 d0be ec1c 38bf
00000350: b2a7 c1be f8cc b8be 16ed cdbe 29f4 d3be
00000360: bf43 92be 5929 ae3d 9cd9 a03c 7e9b 77be
00000370: aea5 e73f c75e f03c 05f9 7d3e db80 d6be
00000380: 905a 78be 0f11 183d 5d0e 65be eff4 623e
00000390: c23e bcbf 1864 343f f919 95be 2980 f0be
000003a0: cc2b dbbc 95b8 ddbe c82b 91be 8cff 5ebe
000003b0: c9cd 9dbe f9b1 633d 9794 bbbf 8f75 7cbe
000003c0: e94b 3dbe 9c28 a43d 31f1 5abe 0040 1338
000003d0: f101 66be a252 5abe 2f92 0a3d c895 1c3c
000003e0: 5f7e 69be 464c 92be cd14 c8be 04f3 673f
000003f0: 729b 47be ab1e 4ebe f2f5 afbe 6c9a 493d

net.4.bias f4 [4]
-0.15883945 0.08423138 -0.037917018 -0.12841816
00000000: cfa6 22be 8081 ac3d e04e 1bbd 0d80 03be
