SARSA/dsqn/300_model_weights.pth (torch, 75917 bytes, 6 tensors)

net.0.weight f4 [128, 8]
00000000: babe 4b3f 6c3f 82bd 7bd7 ca3e cea4 6ebe
00000010: 2159 0abf adf8 0c3e 00d0 103e a323 333e
00000020: 2ce0 a93f 5eea 473e 19b6 4b3f 226a 93be
00000030: 8332 2ebf d495 d43e 04d1 bcbd d6bd 12bd
00000040: eda4 82bf 7f12 963f 900a d3be d64c e0be
00000050: 492d f5bc 5cf3 d8bd 87d3 9b3b e47e dfbc
00000060: 3c33 f73d 9473 5d3f c18d 13be fa6b 37bf
00000070: 6cc2 9b3d 3e37 bb3d e8c0 25bd c8da 17be
00000080: 909d 6cbe fc3f 67bd 2717 0abd a9ed 6e3d
00000090: 5546 3c3f 40f2 823f 6549 4b3f d810 9e3e
000000a0: 312a 7cbe 79bb 54be 8c84 673f 10b9 9bba
000000b0: e347 21bc 6880 e7be ac27 223f b60e a3be
000000c0: 0752 cebe f414 9cbf 5209 4b3f ca0d 25be
000000d0: 8556 d3be 5769 373f 5735 6c3c cb36 cfbe
000000e0: a882 26bf dc5d 533f c190 a8bd 86f6 8f3f
000000f0: 04d8 2c3e a9e1 183e 05d0 3fbc b736 9a3c
00000100: 5348 d7be 724a 033d 15b5 4dbe d2c0 9ebe
00000110: 7a80 443f 54d0 053f dbeb 8f3d 01f9 b53e
00000120: 164e 21bd 0637 023e 745e bf3f fa7d b93e
00000130: 4025 213f 6c79 893f 3299 71be 72e4 703d
00000140: c781 a53e ff5b 343f 46ac 84be 84e7 c43e
00000150: 9a14 b03c 9681 24bd 144c 6f3e 2181 68be
00000160: 2bc4 c0bf 9dc7 99be 72e8 52bf 17c6 1b3e
00000170: f7c1 36be 075e 86bd c052 133f 1cf8 a23e
00000180: aa72 bbbd 6d99 463f 0c2a 06be 8192 703e
00000190: c206 02bd af5f 4e3e 4089 343e 862b b03e
000001a0: f224 30be 97cf 55be 834b 87be ea0e 2cbe
000001b0: 8660 523f 93a1 103f 0cdb 2a3f 0c4d aebc
000001c0: 75b6 f0bd b0d5 8abe 0dd7 a13e 828b 9abc
000001d0: 7ca1 d73e 9bd6 943f d21b f63e 2f08 953d
000001e0: cd83 f3be d353 573d 87ab 0f3f c6d8 e23e
000001f0: b7ac 3cbe ead8 553e 0fb9 923e 9d05 bb3c
00000200: 3fdb 22bf d0bd 1b3e 843b 20bc 4b9e 7e3d
00000210: 5990 fc3e 094b 173f 5dbc 5ebd e0d2 ebbe
00000220: 2366 3fbd 7549 633f cb22 793d 5f81 173f
00000230: 213b a33d d71f 0bbc f1f0 0a3f 0f20 393f
00000240: 88b0 933e 5fbd f73e 9497 f1be 7be1 02bf
00000250: 0677 5ebe c073 a93f 76fc 903e 0662 4cbf
00000260: 5cfc 3bbd 138d 603f 5221 3f3d f61e 22be
00000270: 6f75 8dbf ed92 69bf e2a8 6dbe 14db 3ebf
00000280: 2386 d6be 6bf7 6ebe 2085 bc3e bb02 b93d
00000290: bbf4 7b3f f18b 883f c1fa 243e f473 d3bd
000002a0: e4e4 9f3c b3c3 803e a645 5b3e 645c 353f
000002b0: 161d 433f ab0f ac3f 125c f13e 4b14 703e
000002c0: 06b5 3fbd 8607 aa3e 7a49 ffbe a973 4cbd
000002d0: 0e35 f63e ad60 e03e f9c9 5c3f 02bc bc3e
000002e0: cb9e 04bf 03aa 9cbe 2395 c63d b078 8bbe
000002f0: 541c 583e 2249 683f 0a5a 243e 1014 b93d
00000300: 9ad2 6fbf 3520 213e f589 9ebf ce84 bf3e
00000310: 992e e3bd a448 9c3d cb99 0d3f ede0 5fbe
00000320: cf33 b23e c5b8 a7bd 4c68 f13d b9a2 70be
00000330: 84a8 d63e d629 773f 142a cf3e 1863 f33d
00000340: a18b 61be 552a 28bf 1d93 98bf 5838 91bc
00000350: b9d0 123f 905c ea3e bc46 aebc 0267 58bf
00000360: cbec cd3e 1c8e 373d 8362 8abe e480 75bd
00000370: 94e4 89be e2d6 97bf 7d4d b3be f08c c5bd
00000380: 6ec7 a3bd 73e5 87be f4db 673e c7bb c6bc
00000390: 207d 4d3f 94c9 e73f e233 99be 3ee4 8cbe
000003a0: 6f24 e2be 2b4c 82be ab8d 5b3e 4955 95be
000003b0: bbed 803e 558b 5d3f b927 943e 3bb8 e93d
000003c0: a662 8bbe a9ca afbd e5f4 a3be 1797 b7bd
000003d0: dca7 0abf 30ec 9bbf ecda c73e 5e03 523f
000003e0: 6a71 b83f 7aa3 903e c355 463f dcdc b2be
000003f0: 230a 1ebf 1ace a23e 4726 bdbd 43b0 62bc
0.795879 -0.06359753 0.39617524 -0.23305055 -0.5404225 0.13766737 0.14141846 0.17494063
1.3271537 0.19522998 0.79574734 -0.2879191 -0.68045825 0.4152056 -0.09219554 -0.035825573
-1.0206581 1.1724395 -0.41218996 -0.4380862 -0.02992882 -0.10593292 0.0047554406 -0.027282186
0.12070319 0.86504483 -0.14409544 -0.71649134 0.076054424 0.09141396 -0.040467173 -0.14829552
-0.2310698 -0.056457505 -0.033713486 0.05833212 0.7354482 1.0230179 0.79408866 0.30872226
-0.2462547 -0.2077464 0.90436625 -0.0011880714 -0.009843799 -0.45215154 0.63341784 -0.3184716
-0.40296957 -1.2193894 0.79311097 -0.16118541 -0.41276947 0.7164511 0.014417014 -0.4047149
-0.65043116 0.82565093 -0.082307346 1.1247108 0.16879278 0.14929833 -0.011707311 0.018824918
-0.42047366 0.03205342 -0.20088609 -0.31006485 0.7675854 0.5227101 0.07027408 0.35541537
-0.03938111 0.12716302 1.49507 0.36228925 0.62947464 1.074018 -0.23593596 0.058811612
0.32325575 0.70452875 -0.25912684 0.38457882 0.021494199 -0.040162645 0.23368865 -0.22705509
-1.5059866 -0.30035105 -0.82385933 0.15212284 -0.17847429 -0.06560903 0.5754814 0.31829917
-0.0915273 0.7757786 -0.13101977 0.23493387 -0.031744726 0.20153688 0.17630482 0.34408206
-0.17201594 -0.2087997 -0.26424798 -0.16802564 0.82178533 0.5649654 0.6674049 -0.021276973
-0.11753551 -0.27116156 0.31609383 -0.01886535 0.4211539 1.1627992 0.480681 0.072769515
-0.47561494 0.052570175 0.56121105 0.4430601 -0.1842526 0.20883527 0.28656814 0.022829825
-0.63615793 0.15209126 -0.009779815 0.06216268 0.4932888 0.5909887 -0.054378856 -0.46059322
-0.046728265 0.8878396 0.060824197 0.5918178 0.07970262 -0.008491478 0.542739 0.7231454
0.2884562 0.48386666 -0.47185957 -0.51125306 -0.21725091 1.3238449 0.28317612 -0.7983707
-0.045894966 0.8771526 0.046662636 -0.15832123 -1.1051463 -0.91239816 -0.23208955 -0.74553037
-0.41899213 -0.2333657 0.36820316 0.09033724 0.98420304 1.0667707 0.1611128 -0.10324851
0.019518323 0.25149307 0.21413288 0.708441 0.76216257 1.3442281 0.47140557 0.23445241
-0.046803497 0.33208865 -0.49860746 -0.04991499 0.48087353 0.43823758 0.86245686 0.3686219
-0.518048 -0.3059846 0.09696414 -0.27240515 0.21104556 0.9073659 0.16049972 0.0903703
-0.9368073 0.15734942 -1.2385851 0.3740601 -0.11092872 0.076310426 0.55312794 -0.21863146
0.34805152 -0.08189539 0.11787471 -0.23499574 0.41925442 0.9654821 0.4046179 0.11884135
-0.2202592 -0.65689594 -1.1919895 -0.017727062 0.57349735 0.45773745 -0.021273963 -0.8453218
0.4021972 0.04481326 -0.27028283 -0.059937373 -0.26932204 -1.1862452 -0.35020056 -0.09646022
-0.079970226 -0.26542243 0.22642499 -0.024259461 0.8026905 1.8108392 -0.29922396 -0.27517885
-0.44168422 -0.25448737 0.21440761 -0.2916663 0.25181374 0.8654073 0.28936556 0.11412092
-0.272237 -0.08583576 -0.32022777 -0.08964365 -0.54162383 -1.2181454 0.39034212 0.8203639
1.4409611 0.28249723 0.7747461 -0.34934127 -0.6173422 0.31797868 -0.092358164 -0.013835969

net.0.bias f4 [128]
00000000: 5a08 d23e ed8f eabd f6c4 cc3d 68f1 9e3e
00000010: 260d 823e e755 afbe 0073 f7be f6f5 183e
00000020: 3599 9ebe 3257 75bd e22b 293f 63d4 ae3d
00000030: 70cb 52bd 5d1a 5e3e 35b0 bf3e bfd9 b4be
00000040: 7f88 c2be c3d4 d13d 6efd 013f 9afc 723e
00000050: 4d73 e93e 33a8 f93e 1ab4 4e3f 05e4 283f
00000060: 56f1 b53e 545f c63e ee97 68bf e1e3 23bd
00000070: aa38 c53d cabc 0c3f 2af5 c73e e72a 1abe
00000080: 387f ccbe 681c b9be 3809 f83e 335b b1be
00000090: 42a7 67bd 8c17 053e 55ed b63e 9aae b53e
000000a0: 89fa adbe e36c 93be aeae 4d3e 0ed8 bfbe
000000b0: d2ab 1c3f 9b36 3dbe db0c ff3e 2270 1f3c
000000c0: 229d d13e 574d a43e bfc5 183e 4918 333e
000000d0: fbe8 1d3f 43c0 cc3d c483 443e 295d e6be
000000e0: 6a32 593f d1ce 2f3e 4e60 353f 9b64 b0be
000000f0: 708b 273f 2768 1b3e 849d 1d3f 6372 503f
00000100: cc7b 87bc 225b 9d3d 1158 80be 95dd e83e
00000110: da00 25bf 27c3 1b3d fc93 51bf e123 d43e
00000120: 5146 473f 0d74 9abe 281b 423e 4446 253e
00000130: dfe0 8dbe 61b4 473e 828b 563e 8d2e 023e
00000140: 9b22 1a3f 5d4f 2bbf 123a c9be f1cd 5b3e
00000150: 3a33 573e a070 fe3c d768 1b3f 7f9b 8f3e
00000160: 3e3e b23d f6fa bfbe c891 ab3e 934e abbe
00000170: 6a99 fa3e c814 db3e 105b 813e 6dfa a13e
00000180: 219a 7ebe 8a22 5f3f c624 10bf 695b fa3c
00000190: d9f9 1e3f 7614 d63e 5b05 41be 76fd 17be
000001a0: 6bf1 123f 1d55 033f 8118 803d 5bfb d43e
000001b0: 9270 17bf 8b01 97be de19 103f 0bfd b4be
000001c0: 82e7 1b3e ecb8 853e a2c5 073f 07d1 af3e
000001d0: 0808 4dbe 1068 f1bd b680 353f 4ed8 073f
000001e0: 9a8e 643f 50b6 203f e21f 09bf 53ec 5c3f
000001f0: d387 3e3e d170 88be 4382 9d3c af7d 1abe
0.41021997 -0.11453233 0.09998505 0.31043553 0.25400656 -0.34245226 -0.48329926 0.14937577
-0.30976263 -0.05989761 0.66082585 0.08536603 -0.051463544 0.21689744 0.37439123 -0.35322377
-0.37994763 0.10245659 0.5077733 0.23729172 0.4559578 0.48761138 0.80743563 0.6597293
0.35535687 0.38744605 -0.90856826 -0.040012244 0.096299484 0.5497557 0.39054233 -0.15055428
-0.3994081 -0.36154485 0.48444533 -0.34639892 -0.056555994 0.12997264 0.35727945 0.35484773
-0.33980206 -0.2879401 0.20086166 -0.37469524 0.61199677 -0.18477862 0.49814495 0.009731324
0.40940195 0.32090256 0.14919184 0.17489733 0.61683625 0.099976085 0.1919089 -0.4499295
0.8484255 0.17168738 0.70850074 -0.34451756 0.6544714 0.1517645 0.61568475 0.8142454
-0.016538523 0.07683398 -0.2506719 0.45481554 -0.64454424 0.03802791 -0.8186643 0.41433623
0.7784167 -0.30166665 0.18955672 0.16140085 -0.27710626 0.19502403 0.20951656 0.1271307
0.60209054 -0.66917974 -0.39302117 0.21465279 0.21015635 0.031059563 0.6070685 0.28048322
0.08703278 -0.37496156 0.3350966 -0.33458385 0.4894517 0.42789292 0.25264788 0.31636372
-0.24863483 0.8716208 -0.5630611 0.030561166 0.6209999 0.41812485 -0.18849699 -0.14842781
0.57399625 0.5130175 0.06254674 0.4159802 -0.59156144 -0.29493365 0.5628947 -0.35349306
0.15225032 0.26117647 0.5303594 0.34339163 -0.20022595 -0.117874265 0.7089952 0.5306443
0.8928009 0.62778187 -0.53564274 0.862981 0.186065 -0.26648572 0.019227153 -0.15087007

net.2.weight f4 [128, 128]
00000000: 5ddd 603d ad5e 71bd 2359 85bd ff6a 9ebd
00000010: 3f10 a9bd da7d 5dbd 0d0b 92bd 7a97 563c
00000020: a8d2 b83c 40e6 b13b 30da eb3c f2a7 533c
00000030: d73f 3e3d f19e 453d c7f9 b7bd 5165 863d
00000040: 6288 293d 07c9 453d 267b bfbc 803c 993d
00000050: 5c84 c73c b179 3f3d 0af2 8b3a 3d13 1dbd
00000060: 79b2 8fbd 28e2 b13c 2e01 9dbd f62f 9ebd
00000070: 89bc 8d3d 31d1 9fbc 0fbe 06bc 9d1b 8d3d
00000080: 8c7c d43b 0ed8 2bbd 3cd4 2d3c f935 983d
00000090: ae45 1ebd 68f6 3ebd 48c3 febc 73b9 8c3c
000000a0: 524e 88bd 07eb 6fbd 29c3 853d 5474 81bd
000000b0: 9ae1 9bbd 7f60 993c d490 71bd 4509 773d
000000c0: 9cb7 4ebc 8dfd 6bbd 8dbf 6d3d 54de 373d
000000d0: 43d9 c4bd b877 f0bc 1af3 813d 203e f33c
000000e0: 528a 72bd 121e 833c 5fa7 593c f2b4 b4bd
000000f0: 8036 6d3a f0f9 243c 4a83 95bd 8e1c febc
00000100: af33 e03c 6d28 77bc c485 6c3d 6cdf c43c
00000110: 9639 2e3d 7f38 c4bd 3f5f 35bd b347 1c3d
00000120: ab4e edba fd35 f33c d08e c7bc bdfc 2c3d
00000130: 1636 153d 466b e6bc 1b10 86bd bbbb 1dbc
00000140: d85b be3c 4480 aabd cae6 6ebc 455a 99bd
00000150: 702c 0a3c ca74 90bd a0e4 423d 8441 c9bb
00000160: 80f6 5cba 3979 abbd b3fe ec3c 000f 4ebd
00000170: 4495 07bc 4f9c 8cbc 29ad 2d3d 26a6 033d
00000180: 1e03 85bc 5000 953d 4a16 1dbd 0d32 993d
00000190: 2bd8 a9bd 7241 43bd 8693 1a3d b58d 973d
000001a0: 189d 4d3d d407 04bc e9ca 8ebd 9c3d 4ebd
000001b0: 0b37 643d e3cc 5b3d fc16 02bd 5026 b8bd
000001c0: c321 1bbd 4583 5cbd 00c1 493d 679e 6b3d
000001d0: 1999 80bd 09b2 173d 58d9 66bd 6471 843c
000001e0: 2f88 bbbc 6976 82bd c8bf 2e3c 9561 733d
000001f0: df5b fd3c e5b5 8e3b 7e75 30bd 9603 70bd
00000200: 613c 02c0 3339 01c0 4423 f4be 456e 9bbe
00000210: f7e7 5d3e da4c 4dbe 1ea2 3a3f 73c7 94bf
00000220: c8ca ee3e b3b1 493d 6f30 c8bf 0628 0bbf
00000230: 964f 0fbf 63cc 2b3d 5d0a 803e ba88 93bc
00000240: 018c 473e 107c 35bf 965f 99bd bf15 94bf
00000250: 9a9d a43e 4ef8 0ebe fe66 07be 727a 4f3e
00000260: 5141 25bf 0431 9b3d e373 423f d344 bdbd
00000270: c69c 1abd 2df8 cf3b 594e aebf 5f3d 03c0
00000280: 8128 9e3e dfef 343f 48f7 45bf f335 fc3e
00000290: b8f6 10c0 33b4 10c0 d9ab aebe c184 69be
000002a0: 08da ccbe ac87 643e 7019 29be a145 173f
000002b0: f27e f4be d735 f93d 3bf7 86bd 0b1e f33c
000002c0: 0eb7 b33d b042 433d e7b6 b2bf 1e90 01c0
000002d0: 4418 37c0 5937 cd3e 0446 08be 92a5 dabf
000002e0: 3d96 84bc 615e 41bf e140 28be c6da fd3d
000002f0: cb95 23bf 5b48 393e 00b4 c1bf f523 febf
00000300: 85c5 dbbb 4d31 18c0 bcd6 e2bf 85f3 0cbf
00000310: b106 90bf 8f96 36bf 5278 bebf 7eaa fcbe
00000320: 9e17 81bf ae8c 04c0 7827 8bbe 606e a13e
00000330: e8b4 be3d 1c8b 2ebf 0a0a a7bf 1cbf 0e3f
00000340: feaf f3bc 8b67 783f 20e0 163f e4e6 2ec0
00000350: 7b65 90bc 3761 d4bd b072 2d3b 91ae 15bf
00000360: f5b5 f23e 1b86 753e 8aa5 65bf 2738 c83d
00000370: 48b2 6fbf b7a3 52be 9bb7 9abe 0276 53bf
00000380: 4e4a 12c0 23db c9be e185 013f 4951 b63e
00000390: 26ad 02be 9567 86be d130 623e 9f2c 56be
000003a0: 613b ee3d ebfe 61be 6d14 bfbf c964 ba3d
000003b0: 62d1 4ebe 4c1e dfbf b664 debf 02e7 a73e
000003c0: e602 95bd a0f6 173f 223a 8c3e 665a 16bf
000003d0: 0ae7 603e b593 3d3f 30b7 d0bf b185 103f
000003e0: 53ce 72be b60b 7cbe 5149 5c3d 5ae7 0fbf
000003f0: d2ef 1cbe 2899 d73d af3f c33e e113 b13e
0.05489861 -0.05892818 -0.06511142 -0.07735252 -0.08255052 -0.0540751 -0.07131014 0.013097638
0.022561386 0.0054290593 0.028790563 0.012918459 0.0464476 0.04824728 -0.08983188 0.06562293
0.04138983 0.048287418 -0.023374151 0.074822426 0.024355106 0.046746913 0.0010676992 -0.038348425
-0.07016463 0.021714285 -0.07666241 -0.077239916 0.06920726 -0.01950893 -0.008224024 0.068900324
0.0064845737 -0.041954093 0.010609683 0.074321695 -0.03864067 -0.04662171 -0.031098977 0.017178273
-0.066555634 -0.05857375 0.065313645 -0.06321016 -0.076113895 0.01872277 -0.05897601 0.060311574
-0.012617018 -0.05761485 0.058044005 0.044889763 -0.09611752 -0.029353961 0.06345196 0.02969271
-0.059213944 0.01600555 0.013284533 -0.08823575 0.00090489537 0.010069355 -0.07300432 -0.031019475
0.027368395 -0.015085322 0.057744756 0.024032317 0.042535387 -0.09581088 -0.044280287 0.038154315
-0.001810511 0.02968883 -0.02436009 0.042233218 0.036428533 -0.028127324 -0.065460406 -0.009627278
0.023237154 -0.08325246 -0.014581392 -0.07487921 0.008433446 -0.07053526 0.047581315 -0.0061418433
-0.00084290653 -0.08372731 0.028930044 -0.050307274 -0.008275334 -0.017164377 0.042401467 0.032140873
-0.016236838 0.0727545 -0.038351335 0.074802496 -0.08293184 -0.047669835 0.037738346 0.07400075
0.050198644 -0.008058507 -0.06972296 -0.050351724 0.055716556 0.053662192 -0.0317602 -0.089916825
-0.037873995 -0.053836126 0.049256325 0.05752411 -0.06279201 0.037035022 -0.05635962 0.01616735
-0.022892086 -0.06370241 0.010665841 0.059419233 0.030927597 0.0043551796 -0.0430808 -0.05859717
-2.0349352 -2.0191162 -0.47683156 -0.30357566 0.21670519 -0.20048848 0.7290362 -1.1623367
0.46639085 0.049241733 -1.5639781 -0.54357946 -0.55980814 0.041942965 0.25007907 -0.018009532
0.19487001 -0.7089243 -0.07488935 -1.1569136 0.3215149 -0.13961908 -0.13222882 0.20261553
-0.6455279 0.07577708 0.7595808 -0.09241643 -0.037747167 0.0063467235 -1.361766 -2.0506208
0.30890277 0.70678514 -0.77330446 0.4925991 -2.2650585 -2.2609985 -0.34115484 -0.22804548
-0.40010095 0.2231738 -0.1651361 0.5909062 -0.47753102 0.12168472 -0.06590124 0.029677412
0.08775149 0.04767102 -1.3962067 -2.0244212 -2.860856 0.4008129 -0.13307959 -1.7081778
-0.01618492 -0.75534636 -0.16431 0.12395243 -0.6390044 0.18094008 -1.5133057 -1.9854723
-0.006706896 -2.378009 -1.7721782 -0.5505908 -1.1252042 -0.71323484 -1.4880469 -0.49348825
-1.0085332 -2.0710864 -0.2717855 0.31529522 0.09311849 -0.68181014 -1.3049939 0.5576036
-0.029747006 0.97032994 0.5893574 -2.7328424 -0.017626515 -0.10370105 0.0026466064 -0.5846949
0.47404447 0.23976938 -0.8970572 0.09776335 -0.9363141 -0.20570265 -0.30218205 -0.8260194
-2.2857852 -0.39425 0.5059491 0.3560889 -0.12761363 -0.26250902 0.22088934 -0.20915459
0.116324194 -0.220699 -1.4928108 0.091012545 -0.2019706 -1.7431121 -1.7374485 0.32793432
-0.072759435 0.59360695 0.27388102 -0.5873169 0.21963134 0.7405351 -1.6305904 0.56453997
-0.23711519 -0.24613842 0.053780857 -0.5621239 -0.15325859 0.10527259 0.38134524 0.3458548

net.2.bias f4 [128]
00000000: de44 b4bd 3018 94bf b9a8 a8bc 765b 6abd
00000010: 2b87 733c ef27 093d 3a0a 2f3f c5cc d13c
00000020: 6cbe 95be b35b 67bd 65cb 073d 4ec3 703d
00000030: 11a4 b0bc fd95 7d3e 6970 bdbc 1d47 463d
00000040: 6b78 03bd 7fb7 6abc fe27 563d 0bd4 afbd
00000050: 273c a33e b0ae 82bd ee43 483f 1568 da3d
00000060: 834e 9bbd 1092 bebd 6ac3 593d 2364 febd
00000070: 4915 763c 50b3 76bd d61a 0e3f 4116 5d3c
00000080: e4e6 f1bd c074 37be 6aa9 bebd 48bf 5f3d
00000090: 7cfb dfbd e662 a3bc 2a6a f13c 7b52 80bd
000000a0: fc9d 833d f594 a23d a60a 28bd 31d9 94be
000000b0: 20e9 d0bc 6170 1c3d c4e4 6b3c 5e24 77bb
000000c0: 3bfb b3bb 8556 243f ff0c d73c 969c cdbd
000000d0: fc32 023d ee82 d23e 3657 0ebd 27cb 553d
000000e0: 35ad c13e cbbb b63d b5a6 1bbd 0799 5d3d
000000f0: f278 14be 4f86 803d ef78 8c3c 1fa9 ac3d
00000100: e230 5039 93fb 3dbd 2154 50bd e5e5 f2bd
00000110: c298 abbc 4ae3 063d 1490 f7bd 3c3c 47bb
00000120: bbf2 7abc cf35 bcbd 8cd9 2a3c 39f1 3bbd
00000130: 7456 53bd 8f8f 113c 392c 173f d247 243d
00000140: dba3 6dbd 697e 5c3c 6825 f8bd eb23 0c3e
00000150: 4eda 443d 5458 f6bc e694 3f3d c0f0 5e3d
00000160: 4c78 83bd 5b30 bbbd 52ed b9bd 3f47 00bd
00000170: b5c2 49bd f8d4 84bc 101d 393e bfd6 be3c
00000180: d8b4 0d3d c6f9 b4bd 334e 313d 50f7 463e
00000190: 4fed 223b 8f25 4e3e 1730 973d aa9b d7bc
000001a0: ff82 cd3c d4eb 513a c74c 013c b52d 2b3d
000001b0: 83a6 1bbb c9ad 8e3d 8627 413b ccf2 de3b
000001c0: 92fa 13b9 2962 78bd 7b69 96bd f133 5abd
000001d0: 41ee cbbd bbb2 183d 6e45 87bd 789d bebd
000001e0: 347f ac3c 5055 11be faa9 b0bc e367 a03e
000001f0: edf7 903c 8a13 35bd faf6 453c fca0 263e
-0.08802198 -1.1569881 -0.020588266 -0.05721613 0.0148637695 0.03348535 0.6837498 0.025610337
-0.29246843 -0.056483936 0.033152957 0.058780007 -0.021562608 0.24764247 -0.02312489 0.048407663
-0.03209726 -0.014325975 0.052284233 -0.08585366 0.3188183 -0.06380975 0.7822865 0.10664383
-0.07583334 -0.09305203 0.053164877 -0.12421443 0.015019723 -0.0602296 0.555097 0.013494075
-0.11811617 -0.1791563 -0.09309657 0.05462578 -0.10936639 -0.01994462 0.029469568 -0.06265732
0.064266175 0.079385675 -0.04102578 -0.29071954 -0.025501788 0.03819311 0.014397804 -0.0037710886
-0.0054925955 0.6419452 0.026251314 -0.10039632 0.031786904 0.41115516 -0.03475114 0.052195694
0.3782746 0.089225374 -0.03800078 0.054101016 -0.14499262 0.06275617 0.01714751 0.08430695
0.00019854636 -0.046382498 -0.05086148 -0.11860255 -0.020946864 0.032931603 -0.120880276 -0.0030400893
-0.0153166605 -0.09189951 0.010427844 -0.045884345 -0.05159612 0.008884325 0.59051853 0.040107556
-0.058017593 0.013457873 -0.1211651 0.13685577 0.048059754 -0.030071415 0.04677286 0.054428816
-0.06419429 -0.091400824 -0.090784684 -0.031317946 -0.049257953 -0.016214833 0.18077493 0.023295758
0.034596294 -0.08836703 0.043287467 0.1943028 0.0024860685 0.20131515 0.07382219 -0.026319344
0.025086878 0.00080078584 0.00789184 0.041791636 -0.0023750372 0.06966741 0.002947302 0.006803846
-0.00014112357 -0.060640488 -0.073443376 -0.05327219 -0.09957553 0.037279826 -0.066050395 -0.093073785
0.021056749 -0.141927 -0.021565426 0.3132926 0.017696345 -0.044208087 0.01208281 0.16272348

net.4.weight f4 [4, 128]
00000000: 2fb0 80bb c81c c2be 56a9 71be 9f4c 40bd
00000010: ec4d bcbe 5657 afbe fee5 a63f 64bb ac3d
00000020: ec7d df3f 8d9c 80be dc82 8abe 6aea c4be
00000030: 4268 94be 49cc d53f 7225 c6be 1c17 50be
00000040: ae5c 87bd 2c88 a73c 7de7 dbbe bc41 b2be
00000050: b047 d83f 4470 e1be d01f d83f 0e2e 07bf
00000060: c031 8fbe 86b6 6c3c 285e 05bf f101 bcbf
00000070: aa3e eb3f 01bc b5be 4221 aa3f 4c5e 5bbe
00000080: bbc0 91be 829b a6bf 2f34 b4be bd10 15be
00000090: c26c 95be a705 98be 112b 95be 4239 04bf
000000a0: 1dca a5be 1f86 063f 0a2f cfbf 3265 3b3e
000000b0: 3e2d dabe fde7 713e 4f18 ccbe 3ab8 27be
000000c0: fe29 ebbe 405f 9d3f 4473 df3f 91c5 eabe
000000d0: d743 adbe f476 d33e 244a d1be f83d a8be
000000e0: 7024 9c3e e177 3bbd 1b5f a0be 2968 c6be
000000f0: 9d8c 0d40 fc96 eebd a595 84be 87bc c8be
00000100: 5ff3 46bf 1519 b7be 1710 ccbe 94e0 1abf
00000110: a965 b2be db22 aebe e8b3 b9be eac9 a8bd
00000120: ec86 e5be d9cf 6abe 5503 febd e495 b4be
00000130: 4e78 083b 0023 99be cf0a be3f 788e 83be
00000140: bc45 8ebe ca8b 07bd a86d 9cbe 7f69 acbe
00000150: aecb 31be c941 eabe 243e abbe 99c6 babe
00000160: d32e a9be 222f 6b3d f566 da3a 2c76 7bbe
00000170: c680 0540 de48 dabe 4159 8f3d 0f2e bdbe
00000180: a0fd d7be b565 97bc e957 31be dee3 ad3d
00000190: 309e dabf e893 ac3f e92d 8fbe 3419 dabe
000001a0: 5b79 8cbd 3dbe 7fbe c90e 90be a0b7 bfbe
000001b0: 88c0 44be 902c ca3c 04a9 b8bf b460 9ebe
000001c0: c962 c5be 0b74 80bd ff38 a1be 36e9 293d
000001d0: 11ce a5be bb65 99be 4155 223d da5d 373c
000001e0: 1900 abbe f795 c1be 4354 c0be aaa0 a03f
000001f0: 0436 bcbe 5c45 d3be cb21 cabe a3c4 4cbe
00000200: 6ff3 5dbd 6126 3f3f 32a1 afbe ab6a 123d
00000210: 65d6 a4be 3edc adbe 2c2c 473f 771d 82bd
00000220: 5a57 ce3f 4f1a a1be 2cf6 5fbe 3657 f0be
00000230: e35c 9bbe 6d3e c23f 6137 92be cbf7 ffbd
00000240: 6c1b d5bc 917a 6fbd a794 c9be fedb cabe
00000250: dd46 f33f 64be d7be 8dad d73f 6469 18bd
00000260: baac bebe d844 4d3d 6815 1fbf 26a5 c9bf
00000270: 35e1 b93f 175f 58be fdd2 c13f 07f7 babe
00000280: 10b0 89be 8d68 abbf 7ba3 c2be 5ad7 29bd
00000290: 64de 77be 1911 9ebe fea2 4abe 9736 86bf
000002a0: 89ef 53be 81a3 bd3f bac6 87bf 84bd a33f
000002b0: ac0c 23bf 9886 09be b37e d2be e076 8cbe
000002c0: 1ebf 0fbf a888 973f 88e3 bd3f c96c 15bf
000002d0: b13c 9fbe d7cd 3c3f d3c8 23bf 78d3 f1be
000002e0: 8f91 673f c762 86bf 90ea b9be 276c 87be
000002f0: 197f 0e40 3054 a93d 8ad5 85be 8f63 cfbe
00000300: 0d9f a63e 929b ccbe 55c5 d0be 8b34 debe
00000310: 1073 dbbe cfd1 fdbe 0740 cfbe 5c30 fb3c
00000320: 048f 95be 4490 43be 62ef d9bd a6c7 86be
00000330: 6449 9dbd 9e74 eabe 650f af3f 8ea2 7fbe
00000340: 810b 00bf 3e1e 8d3d c869 d0be 9542 32bf
00000350: 99d3 a9be 6e65 d7be e5b9 d3be 8c0c d8be
00000360: 237b 9abe 5929 ae3d 9cd9 a03c 4d8c 6dbe
00000370: 0526 f13f b9d9 5a3b 6762 923e 3f5c e9be
00000380: 3010 76be 0f11 183d 0c4e 4cbe 1896 883e
00000390: 7a74 a3bf fd1b 463f a8ef 95be aeef 07bf
000003a0: cc2b dbbc 091c e3be 8d8e 82be 8f16 59be
000003b0: 4fcd 8bbe f9b1 633d bc57 a4bf df8c 80be
000003c0: 4e06 36be 9c28 a43d 0480 45be 0040 1338
000003d0: 2e35 69be 5169 45be 2f92 0a3d c895 1c3c
000003e0: d3b3 60be 3c09 a5be b8d4 ccbe 5044 863f
000003f0: c331 3cbe 7537 65be 7b71 b1be 3e30 143d
-0.0039272527 -0.37912583 -0.23599753 -0.04694807 -0.367782 -0.3424632 1.3038938 0.084341794
1.7460303 -0.2511944 -0.27052963 -0.38460094 -0.28985792 1.6702968 -0.38700444 -0.20321316
-0.06609474 0.020450674 -0.4295005 -0.34815776 1.6896877 -0.44030964 1.6884708 -0.5280465
-0.27967644 0.014447814 -0.52096796 -1.4688092 1.8378499 -0.35494998 1.32914 -0.2142269
-0.28467354 -1.3016207 -0.35196063 -0.14557166 -0.29184538 -0.29691812 -0.2913442 -0.5164987
-0.32380763 0.525484 -1.618623 0.18300322 -0.42612642 0.23623653 -0.39862296 -0.1637887
-0.45930475 1.2294693 1.7457051 -0.45853856 -0.3384082 0.41301692 -0.40876877 -0.32859778
0.3049655 -0.045768622 -0.3132256 -0.38751343 2.2117074 -0.11649892 -0.2589542 -0.39206335
-0.77715105 -0.35761324 -0.39856026 -0.6049893 -0.34843186 -0.34010968 -0.3627007 -0.08241637
-0.448295 -0.2293085 -0.12402979 -0.35270607 0.002082366 -0.29909515 1.4847049 -0.25694633
-0.27787578 -0.033092298 -0.3055241 -0.33674237 -0.17362854 -0.45753315 -0.33445847 -0.36479643
-0.33043537 0.057417996 0.0016662764 -0.24556798 2.0859847 -0.42633718 0.06999446 -0.36949202
-0.42185688 -0.018481115 -0.17318691 0.08490728 -1.7079525 1.3482637 -0.27964714 -0.42597353
-0.06859084 -0.24974914 -0.2813628 -0.37444782 -0.1921407 0.024679452 -1.442658 -0.30933154
-0.3855193 -0.062721334 -0.31488797 0.041482173 -0.3238378 -0.29960427 0.039632086 0.01119181
-0.33398512 -0.37809727 -0.37564287 1.2549031 -0.3675996 -0.41263855 -0.39478907 -0.19996886
-0.054187234 0.74667937 -0.3430267 0.035746258 -0.3219482 -0.33957094 0.77801776 -0.06353276
1.6120408 -0.31465384 -0.21871251 -0.46941537 -0.30344304 1.5175301 -0.28557876 -0.12498435
-0.026014052 -0.058466498 -0.39371225 -0.39620966 1.9006001 -0.42137444 1.6849838 -0.037209883
-0.37241155 0.050114483 -0.6214204 -1.5753524 1.4521853 -0.21130024 1.5142514 -0.36516592
-0.26892138 -1.3391281 -0.3801535 -0.04146514 -0.24205929 -0.3087242 -0.19788739 -1.048541
-0.20696844 1.4815522 -1.0607522 1.279221 -0.6369121 -0.1343025 -0.4111229 -0.27434444
-0.56150997 1.1838579 1.4835062 -0.5836912 -0.3110099 0.73751587 -0.6397831 -0.4723165
0.9045648 -1.0498894 -0.3631177 -0.264497 2.2265074 0.082680106 -0.2613948 -0.40505645
0.3254322 -0.3996244 -0.40775552 -0.43399462 -0.42861223 -0.49574134 -0.40478536 0.030662708
-0.29210675 -0.19098002 -0.10641362 -0.26324195 -0.07680014 -0.45792097 1.3676573 -0.24964353
-0.50017554 0.06890534 -0.40705705 -0.69632846 -0.3316925 -0.42069572 -0.41352764 -0.42197073
-0.3017207 0.0850398 0.019635014 -0.23198052 1.8839728 0.0033393933 0.285907 -0.4557819
-0.24029613 0.037125643 -0.19951648 0.26677012 -1.2769921 0.77386457 -0.29284406 -0.531001
-0.026754282 -0.44357327 -0.25499383 -0.21200012 -0.27305076 0.05558965 -1.2839274 -0.25107476
-0.17775843 0.08015558 -0.19287115 3.5107136e-05 -0.22774193 -0.19278456 0.033830818 0.009557195
-0.21943597 -0.32233608 -0.40006042 1.0489597 -0.18378358 -0.22384436 -0.3465689 0.03617882

net.4.bias f4 [4]
00000000: 3aa3 2dbe f86d b03d c705 16bc b153 9fbd
-0.16956797 0.08614725 -0.009156651 -0.07779635
