SARSA/dsqn/350_model_weights.pth (torch, 75917 bytes, 6 tensors)

net.0.weight f4 [128, 8]
0.7797821 -0.06123927 0.4111685 -0.23294029 -0.5415206 0.12967916 0.14432749 0.17474113
1.3902069 0.15710062 0.7598286 -0.31184247 -0.6739637 0.37630397 -0.099085115 -0.036423158
-1.1202887 1.1678551 -0.45782644 -0.41642144 -0.0013039928 -0.029466474 0.020686345 -0.08600665
0.11955602 0.8751514 -0.11475885 -0.7919912 0.10716227 0.12858506 -0.03154604 -0.15046968
-0.23413691 -0.03132897 0.018144675 0.028349422 0.7185166 1.0114086 0.78900814 0.30184513
-0.32804534 -0.26821867 0.9560283 0.020127375 -0.0029854376 -0.58358127 0.60203534 -0.328591
-0.3234545 -1.6184245 0.7616505 -0.19407044 -0.39495373 0.70717216 -0.082021736 -0.26025736
-0.7379462 0.8488749 -0.05114021 1.0580045 0.2039751 0.16656472 0.0063831317 0.024473589
-0.42254362 0.031727917 -0.21785505 -0.4293918 0.79245293 0.61073464 0.055949725 0.3339411
-0.104512095 0.11290059 1.4997677 0.41992173 0.54256296 1.0819726 -0.036108166 0.036594
0.28580573 0.71745837 -0.26094133 0.39725465 0.030912623 -0.013480767 0.22194724 -0.23773772
-1.5082661 -0.33704832 -0.8768252 0.19927 -0.18443368 -0.009196671 0.58866185 0.33717465
-0.11406528 0.7700238 -0.09349133 0.3024186 0.06515112 0.31533828 0.16229661 0.3295494
-0.23311293 -0.22817686 -0.3223299 -0.163505 0.70691353 0.58398134 0.66254634 -0.036249433
-0.110844895 -0.241181 0.3372449 -0.09949216 0.3772689 1.1046345 0.4873763 0.07064782
-0.58101016 -0.05408106 0.5692265 0.56944233 -0.20631056 0.2638015 0.29715022 0.038572695
-0.5701743 0.1373307 0.22508669 0.18148576 0.15383182 0.7012388 0.05793903 -0.59852654
-0.16920957 0.84176046 0.08197749 0.6244064 -0.0036262246 -0.0029183913 0.5680136 0.7220427
0.3160226 0.4960439 -0.41451976 -0.5294373 -0.2250871 1.4495847 0.29812312 -0.794652
-0.063227445 0.9161028 0.02994028 -0.15009238 -1.1482757 -0.90997076 -0.27478093 -0.75775623
-0.3488219 -0.20931388 0.44315004 0.03595067 0.9779676 1.1041064 0.14847466 -0.122864604
-0.021664545 0.22651091 0.13483153 0.7572277 0.7016276 1.2945043 0.47065988 0.24618833
-0.015379045 0.3565933 -0.487243 -0.06614121 0.58199227 0.42292172 0.83099717 0.35856602
-0.5411386 -0.30051804 0.08187888 -0.31646314 0.09051945 0.8562853 0.15722075 0.08025489
-0.94179744 0.22302294 -1.2569157 0.35291198 -0.08178592 0.12108104 0.5374578 -0.2016775
0.39627826 -0.05799631 0.19049677 -0.30368578 0.40417945 0.87638706 0.39593163 0.11701937
-0.19422095 -0.7801423 -1.1700449 -0.06642535 0.68331563 0.41138577 0.019882526 -0.8453218
0.3245032 0.050718337 -0.30370814 -0.06307807 -0.31281665 -1.1013303 -0.2929646 -0.08314093
-0.14338227 -0.26554215 0.22625537 -0.105133295 0.7593573 1.8220177 -0.32014325 -0.3183917
-0.44769 -0.2325755 0.17764024 -0.3464266 0.1675082 0.7947758 0.2853223 0.09770935
-0.35285145 -0.10024341 -0.45984802 0.018861411 -0.5581936 -1.3172177 0.3607071 0.8142591
1.4886167 0.3281087 0.7646892 -0.43161768 -0.6045022 0.3004991 -0.10608299 -0.04030248
00000000: cd9f 473f 07d6 7abd ad84 d23e e687 6ebe
00000010: 18a1 0abf 9dca 043e 96ca 133e 57ef 323e
00000020: 4df2 b13f fcde 203e 2184 423f d1a9 9fbe
00000030: e388 2cbf eaaa c03e 23ed cabd 7330 15bd
00000040: 9f65 8fbf 477c 953f 3a68 eabe 3135 d5be
00000050: bdea aaba ad63 f1bc 6976 a93c 4124 b0bd
00000060: c9d9 f43d ec09 603f b006 ebbd efbf 4abf
00000070: e477 db3d cdab 033e 6c36 01bd b914 1abe
00000080: 96c1 6fbe ce52 00bd 24a4 943c 0c3d e83c
00000090: b4f0 373f d675 813f 70fc 493f 728b 9a3e
000000a0: 8ff5 a7be f553 89be 45be 743f 2ae2 a43c
000000b0: 55a7 43bb 9565 15bf fd1e 1a3f 143d a8be
000000c0: d49b a5be 8928 cfbf 87fb 423f 67ba 46be
000000d0: 6037 cabe 3c09 353f 03fb a7bd 7440 85be
000000e0: 0bea 3cbf de4f 593f 6678 51bd b16c 873f
000000f0: d9de 503e f18f 2a3e 9729 d13b d67c c83c
00000100: a357 d8be 22f5 013d 6515 5fbe 3ed9 dbbe
00000110: 32de 4a3f 1b59 1c3f 8a2b 653d 54fa aa3e
00000120: 700a d6bd 6d38 e73d 63f8 bf3f fbff d63e
00000130: 68e5 0a3f 147e 8a3f 28e6 13bd 97e3 153d
00000140: 2155 923e 5aab 373f 1a9a 85be f664 cb3e
00000150: 783c fd3c 6fde 5cbc 2346 633e 8471 73be
00000160: dd0e c1bf 9991 acbe 9e77 60bf 6f0d 4c3e
00000170: 2fdc 3cbe a2ad 16bc 8bb2 163f 28a2 ac3e
00000180: 0f9b e9bd 4820 453f 6278 bfbd 9cd6 9a3e
00000190: f36d 853d 0574 a13e 1531 263e b3ba a83e
000001a0: 28b5 6ebe 32a7 69be 6d08 a5be db6d 27be
000001b0: 49f8 343f cd7f 153f a39c 293f 497a 14bd
000001c0: a602 e3bd 27f8 76be 5dab ac3e 8cc2 cbbd
000001d0: 6429 c13e aa64 8d3f 6389 f93e ceaf 903d
000001e0: 15bd 14bf 1a84 5dbd d4b8 113f f9c6 113f
000001f0: 1343 53be fd10 873e 1324 983e 67fe 1d3d
00000200: f1f6 11bf 6ba0 0c3e 207d 663e 67d7 393e
00000210: 1786 1d3e 6384 333f 7a51 6d3d 0939 19bf
00000220: 4645 2dbe 9d7d 573f d0e3 a73d 19d9 1f3f
00000230: f4a5 6dbb 7b42 3fbb 5769 113f cad7 383f
00000240: b7cd a13e 77f9 fd3e ef3b d4be 3489 07bf
00000250: 3c7d 66be fe8b b93f 98a3 983e 506e 4bbf
00000260: 647d 81bd b785 6a3f 5145 f53c d1b1 19be
00000270: b3fa 92bf d8f3 68bf 16b0 8cbe 50fc 41bf
00000280: c998 b2be 6156 56be 90e4 e23e 0241 133d
00000290: 165c 7a3f 5c53 8d3f be09 183e 70a0 fbbd
000002a0: d879 b1bc 7af2 673e 4711 0a3e add9 413f
000002b0: de9d 333f 51b2 a53f 55fa f03e cb18 7c3e
000002c0: 64f8 7bbc 6693 b63e ea77 f9be 0b75 87bd
000002d0: 72fd 143f 3289 d83e 3bbc 543f f795 b73e
000002e0: 0f88 0abf 80dd 99be 1db0 a73d 7507 a2be
000002f0: 4362 b93d 8335 5b3f 7afe 203e ad5c a43d
00000300: a319 71bf 2060 643e 9de2 a0bf e1b0 b43e
00000310: 607f a7bd 56f9 f73d d696 093f 8c84 4ebe
00000320: fce4 ca3e 8a8d 6dbd 9611 433e b47c 9bbe
00000330: 9cf0 ce3e e75a 603f 8db7 ca3e daa7 ef3d
00000340: dbe1 46be 68b7 47bf 08c4 95bf 040a 88bd
00000350: c6ed 2e3f 28a1 d23e aee0 a23c 0267 58bf
00000360: 4925 a63e 08be 4f3d a27f 9bbe 132f 81bd
00000370: 8129 a0be 64f8 8cbf 75ff 95be cb45 aabd
00000380: cdd2 12be 24f5 87be 7daf 673e 2050 d7bd
00000390: 3d65 423f e037 e93f d1e9 a3be 3d04 a3be
000003a0: a037 e5be 4628 6ebe 53e7 353e d45e b1be
000003b0: 4587 2b3e 6d76 4b3f c415 923e d71b c83d
000003c0: f2a8 b4be 6b4c cdbd 3371 ebbe 3f83 9a3c
000003d0: c7e5 0ebf 979a a8bf 9aae b83e 4973 503f
000003e0: fe8a be3f ddfd a73e acc2 433f fefc dcbe
000003f0: a8c0 1abf 05db 993e 0a42 d9bd 3714 25bd

net.0.bias f4 [128]
0.41476062 -0.111891985 0.11249816 0.29993367 0.2612699 -0.31984848 -0.41612267 0.14780232
-0.33774963 -0.079172954 0.64802545 0.060283024 -0.083169915 0.20795591 0.4002702 -0.3260806
-0.4512375 0.13415967 0.4914853 0.20432487 0.46974155 0.4973339 0.8128975 0.67929244
0.37158492 0.41619217 -0.9469217 -0.07747748 0.10556198 0.5765665 0.3922114 -0.099764094
-0.4457913 -0.3672346 0.3565695 -0.38072172 0.01042841 0.11769384 0.311428 0.32520092
-0.3745326 -0.31392267 0.21229972 -0.41627225 0.60525084 -0.16366991 0.5038797 0.06826994
0.42071602 0.32619253 0.12591557 0.15622044 0.63032275 0.12033807 0.15859096 -0.5416647
0.8443956 0.192747 0.7113567 -0.36882046 0.6522554 0.1529832 0.625441 0.82803565
-0.0013205742 0.09867039 -0.24200527 0.43726024 -0.6853356 -0.062370215 -0.7910074 0.40236226
0.7822943 -0.29500708 0.16990127 0.19196075 -0.3075808 0.1856775 0.1930011 0.06034991
0.58641255 -0.65648156 -0.5094609 0.20864591 0.2510048 0.03553121 0.60203373 0.27487907
0.16082148 -0.46532157 0.34166372 -0.49295917 0.48211193 0.43609583 0.23937798 0.28644857
-0.2707794 0.87899655 -0.5568591 -0.023192184 0.6027028 0.37894925 -0.21516883 -0.09580134
0.58616346 0.50977236 -0.047969837 0.46475947 -0.6219648 -0.3019008 0.56507605 -0.39497194
0.21503407 0.266986 0.5190322 0.33555922 -0.22949886 -0.19609632 0.7096136 0.57479125
0.91056985 0.6162663 -0.47244054 0.87068224 0.1605767 -0.2690665 0.0052045765 -0.1923283
00000000: 815b d43e a027 e5bd 6f65 e63d e890 993e
00000010: 2bc5 853e 2ec3 a3be 080e d5be 7e59 173e
00000020: 85ed acbe 6e25 a2bd ffe4 253f 55eb 763d
00000030: fd54 aabd 65f2 543e 37f0 cc3e 09f4 a6be
00000040: 9a08 e7be 2761 093e f6a3 fb3e 8a3a 513e
00000050: f781 f03e 8da2 fe3e 0d1a 503f 1ce6 2d3f
00000060: 6140 be3e 2417 d53e 7669 72bf 83ac 9ebd
00000070: e130 d83d dd99 133f efcf c83e 1e51 ccbd
00000080: c23e e4be 2c06 bcbe 4790 b63e f5ed c2be
00000090: ecdb 2a3c 7809 f13d 7e73 9f3e bc80 a63e
000000a0: bdc2 bfbe 79ba a0be 1965 593e a321 d5be
000000b0: b8f1 1a3f 1699 27be 43fe 003f 1cd1 8b3d
000000c0: 1768 d73e b502 a73e 03f0 003e 40f8 1f3e
000000d0: d55c 213f ce73 f63d ab65 223e 8aaa 0abf
000000e0: 4f2a 583f 785f 453e 791b 363f 09d6 bcbe
000000f0: 36fa 263f a1a7 1c3e e71c 203f 25fa 533f
00000100: 1e17 adba b413 ca3d 3bd0 77be 93e0 df3e
00000110: 2772 2fbf e977 7fbd 767f 4abf 6d02 ce3e
00000120: 7044 483f 2b0b 97be 99fa 2d3e 5c91 443e
00000130: 3b7b 9dbe 3e22 3e3e 15a2 453e 7831 773d
00000140: 221f 163f 2d0f 28bf 086c 02bf 46a7 553e
00000150: b383 803e 2d89 113d e21e 1a3f f3bc 8c3e
00000160: 63ae 243e a13e eebe 8cee ae3e 2565 fcbe
00000170: 60d7 f63e f447 df3e 801f 753e 63a9 923e
00000180: 99a3 8abe eb05 613f 518e 0ebf 89fd bdbc
00000190: bb4a 1a3f a305 c23e 3855 5cbe 7e33 c4bd
000001a0: cf0e 163f 7180 023f 057c 44bd f4f4 ed3e
000001b0: 1639 1fbf be92 9abe d3a8 103f c339 cabe
000001c0: e431 5c3e 64b2 883e 4bdf 043f 6bce ab3e
000001d0: c001 6bbe 79cd 48be 3da9 353f 8525 133f
000001e0: 1b1b 693f a1c3 1d3f bae3 f1be 08e5 5e3f
000001f0: 386e 243e 16c3 89be 278b aa3b b6f1 44be

net.2.weight f4 [128, 128]
0.05489861 -0.05892818 -0.06511142 -0.07735252 -0.08255052 -0.0540751 -0.07131014 0.013097638
0.022561386 0.0054290593 0.028790563 0.012918459 0.0464476 0.04824728 -0.08983188 0.06562293
0.04138983 0.048287418 -0.023374151 0.074822426 0.024355106 0.046746913 0.0010676992 -0.038348425
-0.07016463 0.021714285 -0.07666241 -0.077239916 0.06920726 -0.01950893 -0.008224024 0.068900324
0.0064845737 -0.041954093 0.010609683 0.074321695 -0.03864067 -0.04662171 -0.031098977 0.017178273
-0.066555634 -0.05857375 0.065313645 -0.06321016 -0.076113895 0.01872277 -0.05897601 0.060311574
-0.012617018 -0.05761485 0.058044005 0.044889763 -0.09611752 -0.029353961 0.06345196 0.02969271
-0.059213944 0.01600555 0.013284533 -0.08823575 0.00090489537 0.010069355 -0.07300432 -0.031019475
0.027368395 -0.015085322 0.057744756 0.024032317 0.042535387 -0.09581088 -0.044280287 0.038154315
-0.001810511 0.02968883 -0.02436009 0.042233218 0.036428533 -0.028127324 -0.065460406 -0.009627278
0.023237154 -0.08325246 -0.014581392 -0.07487921 0.008433446 -0.07053526 0.047581315 -0.0061418433
-0.00084290653 -0.08372731 0.028930044 -0.050307274 -0.008275334 -0.017164377 0.042401467 0.032140873
-0.016236838 0.0727545 -0.038351335 0.074802496 -0.08293184 -0.047669835 0.037738346 0.07400075
0.050198644 -0.008058507 -0.06972296 -0.050351724 0.055716556 0.053662192 -0.0317602 -0.089916825
-0.037873995 -0.053836126 0.049256325 0.05752411 -0.06279201 0.037035022 -0.05635962 0.01616735
-0.022892086 -0.06370241 0.010665841 0.059419233 0.030927597 0.0043551796 -0.0430808 -0.05859717
-2.0349352 -2.0191162 -0.47683156 -0.30357566 0.21670519 -0.20048848 0.7290362 -1.1623367
0.46639085 0.049241733 -1.5639781 -0.54357946 -0.55980814 0.041942965 0.25007907 -0.018009532
0.19487001 -0.7089243 -0.07488935 -1.1569136 0.3215149 -0.13961908 -0.13222882 0.20261553
-0.6455279 0.07577708 0.7595808 -0.09241643 -0.037747167 0.0063467235 -1.361766 -2.0506208
0.30890277 0.70678514 -0.77330446 0.4925991 -2.2650585 -2.2609985 -0.34115484 -0.22804548
-0.40010095 0.2231738 -0.1651361 0.5909062 -0.47753102 0.12168472 -0.06590124 0.029677412
0.08775149 0.04767102 -1.3962067 -2.0244212 -2.860856 0.4008129 -0.13307959 -1.7081778
-0.01618492 -0.75534636 -0.16431 0.12395243 -0.6390044 0.18094008 -1.5133057 -1.9854723
-0.006706896 -2.378009 -1.7721782 -0.5505908 -1.1252042 -0.71323484 -1.4880469 -0.49348825
-1.0085332 -2.0710864 -0.2717855 0.31529522 0.09311849 -0.68181014 -1.3049939 0.5576036
-0.029747006 0.97032994 0.5893574 -2.7328424 -0.017626515 -0.10370105 0.0026466064 -0.5846949
0.47404447 0.23976938 -0.8970572 0.09776335 -0.9363141 -0.20570265 -0.30218205 -0.8260194
-2.2857852 -0.39425 0.5059491 0.3560889 -0.12761363 -0.26250902 0.22088934 -0.20915459
0.116324194 -0.220699 -1.4928108 0.091012545 -0.2019706 -1.7431121 -1.7374485 0.32793432
-0.072759435 0.59360695 0.27388102 -0.5873169 0.21963134 0.7405351 -1.6305904 0.56453997
-0.23711519 -0.24613842 0.053780857 -0.5621239 -0.15325859 0.10527259 0.38134524 0.3458548
00000000: 5ddd 603d ad5e 71bd 2359 85bd ff6a 9ebd
00000010: 3f10 a9bd da7d 5dbd 0d0b 92bd 7a97 563c
00000020: a8d2 b83c 40e6 b13b 30da eb3c f2a7 533c
00000030: d73f 3e3d f19e 453d c7f9 b7bd 5165 863d
00000040: 6288 293d 07c9 453d 267b bfbc 803c 993d
00000050: 5c84 c73c b179 3f3d 0af2 8b3a 3d13 1dbd
00000060: 79b2 8fbd 28e2 b13c 2e01 9dbd f62f 9ebd
00000070: 89bc 8d3d 31d1 9fbc 0fbe 06bc 9d1b 8d3d
00000080: 8c7c d43b 0ed8 2bbd 3cd4 2d3c f935 983d
00000090: ae45 1ebd 68f6 3ebd 48c3 febc 73b9 8c3c
000000a0: 524e 88bd 07eb 6fbd 29c3 853d 5474 81bd
000000b0: 9ae1 9bbd 7f60 993c d490 71bd 4509 773d
000000c0: 9cb7 4ebc 8dfd 6bbd 8dbf 6d3d 54de 373d
000000d0: 43d9 c4bd b877 f0bc 1af3 813d 203e f33c
000000e0: 528a 72bd 121e 833c 5fa7 593c f2b4 b4bd
000000f0: 8036 6d3a f0f9 243c 4a83 95bd 8e1c febc
00000100: af33 e03c 6d28 77bc c485 6c3d 6cdf c43c
00000110: 9639 2e3d 7f38 c4bd 3f5f 35bd b347 1c3d
00000120: ab4e edba fd35 f33c d08e c7bc bdfc 2c3d
00000130: 1636 153d 466b e6bc 1b10 86bd bbbb 1dbc
00000140: d85b be3c 4480 aabd cae6 6ebc 455a 99bd
00000150: 702c 0a3c ca74 90bd a0e4 423d 8441 c9bb
00000160: 80f6 5cba 3979 abbd b3fe ec3c 000f 4ebd
00000170: 4495 07bc 4f9c 8cbc 29ad 2d3d 26a6 033d
00000180: 1e03 85bc 5000 953d 4a16 1dbd 0d32 993d
00000190: 2bd8 a9bd 7241 43bd 8693 1a3d b58d 973d
000001a0: 189d 4d3d d407 04bc e9ca 8ebd 9c3d 4ebd
000001b0: 0b37 643d e3cc 5b3d fc16 02bd 5026 b8bd
000001c0: c321 1bbd 4583 5cbd 00c1 493d 679e 6b3d
000001d0: 1999 80bd 09b2 173d 58d9 66bd 6471 843c
000001e0: 2f88 bbbc 6976 82bd c8bf 2e3c 9561 733d
000001f0: df5b fd3c e5b5 8e3b 7e75 30bd 9603 70bd
00000200: 613c 02c0 3339 01c0 4423 f4be 456e 9bbe
00000210: f7e7 5d3e da4c 4dbe 1ea2 3a3f 73c7 94bf
00000220: c8ca ee3e b3b1 493d 6f30 c8bf 0628 0bbf
00000230: 964f 0fbf 63cc 2b3d 5d0a 803e ba88 93bc
00000240: 018c 473e 107c 35bf 965f 99bd bf15 94bf
00000250: 9a9d a43e 4ef8 0ebe fe66 07be 727a 4f3e
00000260: 5141 25bf 0431 9b3d e373 423f d344 bdbd
00000270: c69c 1abd 2df8 cf3b 594e aebf 5f3d 03c0
00000280: 8128 9e3e dfef 343f 48f7 45bf f335 fc3e
00000290: b8f6 10c0 33b4 10c0 d9ab aebe c184 69be
000002a0: 08da ccbe ac87 643e 7019 29be a145 173f
000002b0: f27e f4be d735 f93d 3bf7 86bd 0b1e f33c
000002c0: 0eb7 b33d b042 433d e7b6 b2bf 1e90 01c0
000002d0: 4418 37c0 5937 cd3e 0446 08be 92a5 dabf
000002e0: 3d96 84bc 615e 41bf e140 28be c6da fd3d
000002f0: cb95 23bf 5b48 393e 00b4 c1bf f523 febf
00000300: 85c5 dbbb 4d31 18c0 bcd6 e2bf 85f3 0cbf
00000310: b106 90bf 8f96 36bf 5278 bebf 7eaa fcbe
00000320: 9e17 81bf ae8c 04c0 7827 8bbe 606e a13e
00000330: e8b4 be3d 1c8b 2ebf 0a0a a7bf 1cbf 0e3f
00000340: feaf f3bc 8b67 783f 20e0 163f e4e6 2ec0
00000350: 7b65 90bc 3761 d4bd b072 2d3b 91ae 15bf
00000360: f5b5 f23e 1b86 753e 8aa5 65bf 2738 c83d
00000370: 48b2 6fbf b7a3 52be 9bb7 9abe 0276 53bf
00000380: 4e4a 12c0 23db c9be e185 013f 4951 b63e
00000390: 26ad 02be 9567 86be d130 623e 9f2c 56be
000003a0: 613b ee3d ebfe 61be 6d14 bfbf c964 ba3d
000003b0: 62d1 4ebe 4c1e dfbf b664 debf 02e7 a73e
000003c0: e602 95bd a0f6 173f 223a 8c3e 665a 16bf
000003d0: 0ae7 603e b593 3d3f 30b7 d0bf b185 103f
000003e0: 53ce 72be b60b 7cbe 5149 5c3d 5ae7 0fbf
000003f0: d2ef 1cbe 2899 d73d af3f c33e e113 b13e

net.2.bias f4 [128]
-0.08802198 -1.1569881 -0.039308704 -0.05721613 0.019832555 0.014253853 0.6976829 0.025610337
-0.32308775 -0.06739521 0.017215872 0.04944377 -0.0417826 0.22382638 -0.041999876 0.034088224
-0.03209726 -0.014325975 0.026649287 -0.096411385 0.28940904 -0.05878973 0.81301457 0.12432756
-0.073422074 -0.09305203 0.05948705 -0.15307926 -0.1036408 -0.08217606 0.576828 -0.0023676443
-0.1230709 -0.18406497 -0.08592616 0.07987608 -0.14476205 -0.038431615 0.0132947005 -0.07841316
0.041534275 0.07607912 -0.014627014 -0.28185806 -0.034843083 0.067461714 -0.0048761736 -0.026618883
-0.005900532 0.633837 -0.0026374536 -0.10035595 0.010689369 0.4607632 -0.04314585 0.038340483
0.44178763 0.12411001 -0.054873742 0.038401004 -0.14564489 0.06933811 -0.0031060735 0.08101584
-0.011000531 -0.042333577 -0.070299834 -0.101434946 -0.0398981 0.029819475 -0.11956542 -0.0030400893
-0.030009517 -0.099365175 0.004608753 -0.059250113 -0.05159612 0.012322355 0.61958283 0.023684
-0.05929668 0.013457873 -0.123174995 0.124936946 0.039214663 -0.024822544 0.026124315 0.043466046
-0.08394746 -0.091400824 -0.090784684 -0.045395233 -0.09821151 -0.023019353 0.20961125 0.025998142
0.023509396 -0.08836703 0.02890116 0.21583271 0.021553481 0.18992233 0.056400795 -0.021487962
0.015558036 -0.003846055 0.017382974 0.025615314 -0.0017239444 0.06966741 0.01584248 -0.017262895
-0.018579222 -0.060640488 -0.069937035 -0.05327219 -0.10226097 0.023555681 -0.066050395 -0.093073785
0.0042477357 -0.14273953 -0.027495842 0.3230024 0.006481099 -0.05517523 -0.008394917 0.17953156
00000000: de44 b4bd 3018 94bf 2a02 21bd 765b 6abd
00000010: e277 a23c fe88 693c 599b 323f c5cc d13c
00000020: c26b a5be 8006 8abd 4d08 8d3c 8d85 4a3d
00000030: 3b24 2bbd be32 653e 1008 2cbd 18a0 0b3d
00000040: 6b78 03bd 7fb7 6abc 9b4f da3c 5573 c5bd
00000050: 6c2d 943e 80cd 70bd b921 503f 739f fe3d
00000060: 505e 96bd 1092 bebd b1a8 733d cfc0 1cbe
00000070: a141 d4bd ec4b a8bd 00ab 133f 7b2a 1bbb
00000080: 990c fcbd 877b 3cbe 0efa afbd 1296 a33d
00000090: 813c 14be 786a 1dbd 04d2 593c 1497 a0bd
000000a0: d81f 2a3d 5fcf 9b3d 25a6 6fbc b34f 90be
000000b0: 9fb7 0ebd 5e29 8a3d 4fc8 9fbb d80f dabc
000000c0: 4059 c1bb 2443 223f 21d9 2cbb 6c87 cdbd
000000d0: 7722 2f3c 27e9 eb3e b4b9 30bd e90a 1d3d
000000e0: fd31 e23e 642d fe3d 4ac3 60bd 5f4a 1d3d
000000f0: ef23 15be 2401 8e3d 448f 4bbb a2eb a53d
00000100: 923b 34bc f965 2dbd 5cf9 8fbd 20bd cfbd
00000110: 316c 23bd f947 f43c b7de f4bd 3c3c 47bb
00000120: 85d6 f5bc f87f cbbd 0605 973b 3fb0 72bd
00000130: 7456 53bd b4e3 493c fb9c 1e3f f304 c23c
00000140: 13e1 72bd 697e 5c3c 2c43 fcbd f1de ff3d
00000150: 8e9f 203d a658 cbbc a902 d63c 7409 323d
00000160: a5ec abbd 5b30 bbbd 52ed b9bd 5af0 39bd
00000170: 1e23 c9bd 1593 bcbc 55a4 563e 0efa d43c
00000180: c796 c03c c6f9 b4bd 20c2 ec3c 4003 5d3e
00000190: ed90 b03c 007b 423e 8504 673d 8607 b0bc
000001a0: 22e7 7e3c 180e 7cbb bd66 8e3c 35d7 d13c
000001b0: faf5 e1ba c9ad 8e3d 17c8 813c ea6a 8dbc
000001c0: 7433 98bc 2962 78bd 263b 8fbd f133 5abd
000001d0: 336e d1bd d8f7 c03c 6e45 87bd 789d bebd
000001e0: 9730 8b3b 502a 12be f63e e1bc 9260 a53e
000001f0: 665f d43b 6cff 61bd d58a 09bc 1fd7 373e

net.4.weight f4 [4, 128]
-0.0039272527 -0.37912583 -0.23659447 -0.04694807 -0.35762474 -0.3359464 1.309607 0.084341794
1.7940031 -0.25206563 -0.2687295 -0.3671704 -0.2832241 1.6708125 -0.3755377 -0.2053338
-0.06609474 0.020450674 -0.41930193 -0.3409484 1.7058806 -0.43838605 1.687739 -0.5402731
-0.28204814 0.014447814 -0.5079268 -1.6938164 1.8744999 -0.34413642 1.3353124 -0.21519503
-0.28362793 -1.5132502 -0.3498657 -0.15025656 -0.2850005 -0.2923566 -0.2846342 -0.5085832
-0.31760973 0.6085944 -1.4557366 0.4363348 -0.40918717 0.42512915 -0.3949582 -0.16436012
-0.45136282 1.2424204 1.8063533 -0.44234166 -0.3291327 0.42276794 -0.4164062 -0.31838825
0.27740416 -0.1764545 -0.31217754 -0.3785319 2.3465207 -0.12150845 -0.2549624 -0.3823206
-0.8609608 -0.35980445 -0.39170492 -0.6304736 -0.34247914 -0.34235823 -0.36021236 -0.08241637
-0.44046348 -0.22840133 -0.12981685 -0.34801614 0.002082366 -0.2991608 1.4975622 -0.25398335
-0.280775 -0.033092298 -0.3088342 -0.39415234 -0.18002014 -0.4465526 -0.3260174 -0.36009073
-0.32367986 0.057417996 0.0016662764 -0.242661 2.1421971 -0.40440422 0.07569276 -0.36383316
-0.41430363 -0.018481115 -0.176186 0.087912954 -1.7526313 1.3732283 -0.27442458 -0.42193496
-0.06859084 -0.24503806 -0.2813416 -0.36759105 -0.1966041 0.024679452 -1.4908001 -0.29980737
-0.37816772 -0.062721334 -0.30909237 0.041482173 -0.3127392 -0.2952481 0.039632086 0.01119181
-0.32934377 -0.37263998 -0.37198293 1.3358072 -0.36133054 -0.39641473 -0.38557246 -0.18094878
-0.054187234 0.74667937 -0.3274723 0.035746258 -0.34609672 -0.33763802 0.8216906 -0.06353276
1.7514541 -0.31143975 -0.20373319 -0.4809976 -0.30427685 1.6033146 -0.29297093 -0.107398435
-0.026014052 -0.058466498 -0.40253177 -0.39175645 1.8821981 -0.43125126 1.7323432 0.09214364
-0.3449786 0.050114483 -0.6239096 -1.3756311 1.4679239 -0.20863217 1.5230494 -0.36596882
-0.26160225 -1.3665217 -0.3851952 0.05083674 -0.22560386 -0.3017092 -0.20056129 -1.0874943
-0.19699462 1.4498413 -1.0261561 1.4157134 -0.6564059 -0.12960127 -0.400118 -0.26143304
-0.5863258 1.2190737 1.4997815 -0.5885429 -0.3089395 0.7290808 -0.6709527 -0.48573434
0.9779673 -1.1263361 -0.3655901 -0.2619285 2.381049 0.19815136 -0.25754565 -0.40417993
0.31083846 -0.40142545 -0.41635594 -0.42219007 -0.43411914 -0.5029567 -0.40937105 0.030662708
-0.29584232 -0.18158971 -0.06559161 -0.26228845 -0.07680014 -0.45741937 1.3666526 -0.24391843
-0.5100233 0.06890534 -0.40752068 -0.7249546 -0.30741215 -0.44466087 -0.41986984 -0.42883453
-0.313177 0.0850398 0.019635014 -0.22750989 1.9651467 -0.0060815555 0.31578726 -0.47583628
-0.23346108 0.037125643 -0.18916346 0.3019824 -1.2554553 0.85737836 -0.29730532 -0.5429038
-0.01725078 -0.44643235 -0.22780344 -0.2060506 -0.25117183 0.05558965 -1.2643864 -0.25073126
-0.17005435 0.08015558 -0.17378326 3.5107136e-05 -0.23314269 -0.1816507 0.033830818 0.009557195
-0.21382184 -0.34587467 -0.4028851 1.0962226 -0.17224285 -0.20410174 -0.34591293 0.013698492
00000000: 2fb0 80bb c81c c2be d245 72be 9f4c 40bd
00000010: 971a b7be 2b01 acbe 34a1 a73f 64bb ac3d
00000020: e5a1 e53f bf0e 81be ea96 89be c2fd bbbe
00000030: c002 91be 2fdd d53f 7a46 c0be 0643 52be
00000040: ae5c 87bd 2c88 a73c beae d6be ca90 aebe
00000050: 4c5a da3f 2374 e0be d507 d83f 564f 0abf
00000060: 9d68 90be 86b6 6c3c 7e07 02bf face d8bf
00000070: 9def ef3f a632 b0be 84eb aa3f 165c 5cbe
00000080: ae37 91be 2fb2 c1bf 9921 b3be dbdc 19be
00000090: 96eb 91be c4af 95be 93bb 91be 8232 02bf
000000a0: be9d a2be d8cc 1b3f 9455 babf 4667 df3e
000000b0: fb80 d1be 87aa d93e f637 cabe 054e 28be
000000c0: 0719 e7be a207 9f3f 9636 e73f 9b7a e2be
000000d0: 1584 a8be 0a75 d83e 3233 d5be c903 a3be
000000e0: eb07 8e3e 7db0 34be bcd5 9fbe efce c1be
000000f0: 652d 1640 6cd9 f8bd 6f8a 82be 87bf c3be
00000100: ed67 5cbf 4a38 b8be 8c8d c8be b866 21bf
00000110: 6d59 afbe 9449 afbe c16d b8be eac9 a8bd
00000120: 6e84 e1be 0ae2 69be b5ee 04be 2c2f b2be
00000130: 4e78 083b 9b2b 99be 1eb0 bf3f 1b0a 82be
00000140: bec1 8fbe ca8b 07bd 841f 9ebe 56ce c9be
00000150: 3357 38be 8ba2 e4be c1eb a6be d05d b8be
00000160: 5eb9 a5be 222f 6b3d f566 da3a 207c 78be
00000170: c219 0940 120e cfbe ce04 9b3d 5748 babe
00000180: 9b1f d4be b565 97bc 1a6a 34be b50b b43d
00000190: 3956 e0bf f2c5 af3f 6181 8cbe dc07 d8be
000001a0: 5b79 8cbd 42eb 7abe 020c 90be e534 bcbe
000001b0: 9652 49be 902c ca3c 8ad2 bebf 5a80 99be
000001c0: 339f c1be 0b74 80bd 5b41 9ebe 36e9 293d
000001d0: 5a1f a0be c22a 97be 4155 223d da5d 373c
000001e0: bf9f a8be abca bebe 8c74 bebe bbfb aa3f
000001f0: 5100 b9be dff6 cabe c169 c5be a34a 39be
00000200: 6ff3 5dbd 6126 3f3f 73aa a7be ab6a 123d
00000210: 9733 b1be e4de acbe 515a 523f 771d 82bd
00000220: a62f e03f 0875 9fbe 6f9f 50be 5145 f6be
00000230: 2dca 9bbe 6a39 cd3f 4900 96be b6f3 dbbd
00000240: 6c1b d5bc 917a 6fbd a518 cebe 4d94 c8be
00000250: deeb f03f f7cc dcbe 6cbd dd3f ceb5 bc3d
00000260: 09a1 b0be d844 4d3d 8ab8 1fbf ae14 b0bf
00000270: eee4 bb3f aca3 55be 48f3 c23f 4460 bbbe
00000280: bbf0 85be 2fea aebf 4e38 c5be 2f3a 503d
00000290: b304 67be a179 9abe f05f 4dbe 0333 8bbf
000002a0: f5b8 49be 6694 b93f 1559 83bf 1936 b53f
000002b0: 380a 28bf 32b6 04be 44dc ccbe 8dda 85be
000002c0: 7319 16bf 9b0a 9c3f d7f8 bf3f bfaa 16bf
000002d0: 512d 9ebe 0aa5 3a3f 8ec3 2bbf 2cb2 f8be
000002e0: 115c 7a3f c82b 90bf a02e bbbe 7e1b 86be
000002f0: 1b63 1840 31e8 4a3e 06dd 83be acf0 cebe
00000300: 3826 9f3e a387 cdbe 9b2c d5be 4c29 d8be
00000310: dd44 debe c5c1 00bf 1599 d1be 5c30 fb3c
00000320: a578 97be a7f2 39be e554 86bd ac4a 86be
00000330: 6449 9dbd df32 eabe 79ee ae3f c1c5 79be
00000340: e390 02bf 3e1e 8d3d 8da6 d0be a096 39bf
00000350: 2065 9dbe 97aa e3be 2ef9 d6be 3390 dbbe
00000360: bc58 a0be 5929 ae3d 9cd9 a03c 5af8 68be
00000370: ed89 fb3f c947 c7bb deae a13e d0a0 f3be
00000380: 6c10 6fbe 0f11 183d 11b4 41be 709d 9a3e
00000390: c2b2 a0bf 267d 5b3f 6738 98be befb 0abf
000003a0: 8251 8dbc c892 e4be 4e45 69be eefe 52be
000003b0: 9899 80be f9b1 633d 6ad7 a1bf d95f 80be
000003c0: ba22 2ebe 9c28 a43d 3df4 31be 0040 1338
000003d0: f5bc 6ebe a402 3abe 2f92 0a3d c895 1c3c
000003e0: 1df4 5abe 7c16 b1be f546 cebe 0651 8c3f
000003f0: 6e60 30be 0c00 51be 801b b1be a46f 603c

net.4.bias f4 [4]
-0.16542189 0.12754476 0.017180508 -0.06633824
00000000: 5b64 29be 189b 023e 23be 8c3c 58dc 87bd
