SARSA/dsqn/450_model_weights.pth (torch, 75917 bytes, 6 tensors)

net.0.weight f4 [128, 8]
000000 35 b5 3b 3f f3 5e 07 be ec 42 db 3e bf 76 9a be
       0.73323375 -0.13219814 0.42824495 -0.3016872
000010 24 3c 1f bf 88 2a fb 3d f8 31 0b 3e af 4f af 3d
       -0.6220114 0.122639716 0.1359328 0.0856012
000020 7d 13 b5 3f 57 11 6d 3e 40 9a 49 3f 0e cf a8 be
       1.4146572 0.23151146 0.7875099 -0.3297047
000030 b0 9a ed be 61 3a 7a 3e 4a a2 3b be 50 f1 8b bd
       -0.4640708 0.24436332 -0.18323627 -0.06833136
000040 c5 d2 9b bf 1c bf 9b 3f f7 fc ca be 63 48 e4 be
       -1.2173697 1.2167697 -0.39646122 -0.44586477
000050 83 31 f4 3c 28 ac 53 3d 98 21 12 bd b5 28 10 be
       0.029808765 0.051677853 -0.03567657 -0.14078029
000060 9a da 1e 3e 0b 4c 68 3f 97 1e 4c 3c 13 eb 67 bf
       0.15513077 0.9074103 0.012458465 -0.9059307
000070 43 be 18 3e 63 e4 c7 3d 75 f2 d7 bc 9a fc 20 be
       0.14916329 0.09760358 -0.02636073 -0.1572136
000080 81 34 81 be 4d 1e ad bc 0c f2 d5 3d 45 b6 ff bc
       -0.2523537 -0.021132613 0.104465574 -0.031214843
000090 c4 ad 23 3f a0 bb 79 3f dc 74 4b 3f e8 28 9c 3e
       0.6393702 0.9755192 0.7947519 0.3049996
0000a0 25 51 d9 be da 0f cd be 63 a1 76 3f 4d 16 bc bd
       -0.4244472 -0.40051156 0.96340007 -0.09183941
0000b0 e7 f0 6d bd b6 87 60 bf 6a b9 0f 3f 06 de 8b be
       -0.05809107 -0.8770708 0.56142294 -0.27317828
0000c0 5a a0 23 bd c5 d3 bc bf 77 39 2f 3f 6d 29 41 be
       -0.039947845 -1.4752127 0.6844706 -0.18863459
0000d0 c7 a1 f5 be 91 0f 56 3f 97 b7 27 be cf 64 58 be
       -0.4797499 0.836175 -0.16378628 -0.21132205
0000e0 62 da 45 bf 63 bd 5e 3f 97 2d ca 3d 57 fe 89 3f
       -0.7728635 0.8700773 0.09871977 1.0780743
0000f0 1f 85 68 bd 63 e9 15 3e 79 2d 0a 3d 58 e3 63 3d
       -0.05676758 0.14639811 0.033734772 0.055636734
000100 03 e2 b4 be 24 69 50 3d ac 9c e2 be 90 65 07 bf
       -0.35328683 0.05088152 -0.44260156 -0.5288935
000110 90 36 57 3f 96 f2 26 3f 3e 4f 7f 3d c6 84 9c 3e
       0.8406763 0.65213907 0.06233143 0.30570048
000120 e5 e2 37 be f9 33 c5 3d 47 22 c6 3f 37 06 17 3f
       -0.17957647 0.096290536 1.5479211 0.5899386
000130 92 50 1f 3f 91 a5 86 3f 58 91 89 3d 9f 01 04 be
       0.62232316 1.0519277 0.06717175 -0.12891243
000140 8c 58 6e 3e 3a 24 3c 3f 5a 1e a2 be bb 52 d5 3e
       0.23275965 0.7349278 -0.3166378 0.4166468
000150 d2 54 4c 3d 04 46 62 bd d0 e9 27 3e f9 64 68 be
       0.04988558 -0.055242553 0.16397786 -0.22694768
000160 fd a9 c6 bf 8e 05 a3 be ac 5d 85 bf 2b 7e 6d 3e
       -1.5520626 -0.31840175 -1.0419211 0.2319266
000170 00 1a 68 be 14 e7 1d 3d b4 dc 12 3f c8 a8 b1 3e
       -0.22666168 0.03855045 0.57368016 0.34699082
000180 2d 68 3a be 9c 81 51 3f 44 c7 13 bd a5 5d 8c 3e
       -0.18203802 0.81838393 -0.036078706 0.27415195
000190 0e a0 8d 3e a3 e3 c1 3e 9f 81 2c 3e 04 09 cc 3e
       0.27661175 0.37868986 0.16846322 0.39850628
0001a0 a2 30 0e be 4d 4c 83 be 94 75 a1 be 22 61 80 bd
       -0.1388574 -0.2564415 -0.31535017 -0.062685266
0001b0 25 8d 19 3f f3 f2 23 3f c5 28 29 3f ab d8 73 bd
       0.59980994 0.64042586 0.66077834 -0.059532803
0001c0 9b 12 e9 bd b9 67 2b be 78 fe ce 3e a6 0f 86 be
       -0.11380502 -0.16738786 0.4042852 -0.26183814
0001d0 b0 d6 b0 3e a2 22 8e 3f 02 a1 f5 3e e1 a6 71 3d
       0.34538794 1.1104319 0.47974402 0.05899704
0001e0 5e 85 20 bf 15 7f 77 3d 79 52 c5 3e 32 37 17 3f
       -0.627035 0.06042393 0.38539484 0.59068596
0001f0 ef c0 63 be df 03 f8 3e b9 32 b4 3e 07 21 e9 3b
       -0.22241567 0.48440453 0.35194948 0.007114533
000200 7e 80 59 bf 4d 3e 1c be a7 70 7f 3e 80 85 7e 3e
       -0.8496169 -0.15258141 0.24945317 0.24855614
000210 2a 50 b7 bd 16 b5 1a 3f 16 f3 2a 3e eb 79 0d bf
       -0.08950837 0.60432565 0.16694292 -0.5526416
000220 4d 83 5a be 6b cf 42 3f 30 b6 a1 bc e1 5e 28 3f
       -0.2133915 0.76097745 -0.019740194 0.65769774
000230 7e a6 9d bb 54 b4 fc bb 63 ff 07 3f 4e 97 5f 3f
       -0.004811107 -0.0077119265 0.53124064 0.8734025
000240 53 43 c1 3e 0a 97 0d 3f c3 03 d1 be 32 33 17 bf
       0.37746677 0.5530859 -0.40823182 -0.5906249
000250 13 04 95 be f7 5b c8 3f 5a 7d 8f 3e 68 e5 4c bf
       -0.2910467 1.5653065 0.28025323 -0.80037546
000260 f3 1f 9d bc ae 5d 78 3f cc 55 0e be 9d 49 68 be
       -0.019180274 0.97017944 -0.13899916 -0.22684331
000270 c6 35 9b bf 55 71 61 bf 98 b9 c1 be 88 5d 80 bf
       -1.2125785 -0.88063556 -0.3783691 -1.0028543
000280 aa 6c 70 be 55 c0 3a be 4e 27 11 3f d4 90 65 3d
       -0.23478952 -0.18237431 0.567006 0.056046322
000290 2e 4f 60 3f 53 37 9d 3f e6 8e f9 3d 3d 13 14 be
       0.8762082 1.2282509 0.12185459 -0.14460464
0002a0 b6 65 47 bd ef 29 29 3e 4f 48 40 3d 43 d9 6c 3f
       -0.048680983 0.16519903 0.04694396 0.92519015
0002b0 99 3f 22 3f a0 a2 9c 3f 20 e7 ea 3e 44 8a 83 3e
       0.6337829 1.2237129 0.4587946 0.25691426
0002c0 96 d0 2d bd 0e 48 d6 3e 67 10 cd be 6e b3 8e bd
       -0.04243525 0.41851848 -0.40051576 -0.06967817
0002d0 a6 e6 38 3f 50 d2 ee 3e 38 73 49 3f 2b 73 a3 3e
       0.7222694 0.4664483 0.78691435 0.31923804
0002e0 7a 8f 17 bf 4d c0 94 be 42 44 89 3d 3e 71 c9 be
       -0.592033 -0.29052964 0.06702472 -0.3934421
0002f0 19 e3 bd bd 79 50 49 3f 54 59 27 3e be b6 7f 3d
       -0.09271831 0.78638417 0.1634267 0.062430136
000300 89 43 83 bf 84 06 4a 3d 3e d1 a0 bf 98 ab d7 3e
       -1.0254985 0.04932262 -1.2563856 0.42123103
000310 cf 88 bb bd 77 20 06 3e ef a3 06 3f be 9c 29 be
       -0.091569535 0.13098322 0.5259389 -0.16563699
000320 cd d8 f1 3e 0a 68 bb bc c5 c8 7d 3e fb 4a da be
       0.47235718 -0.022876758 0.24783619 -0.4263533
000330 af 9b b0 3e 01 75 5b 3f a9 9d d0 3e bf d2 b8 3d
       0.34493777 0.8572541 0.40745285 0.090245716
000340 8a c0 af be f8 7f 66 bf ef 85 90 bf ad 2d 3e be
       -0.34326583 -0.90039015 -1.1290873 -0.18572111
000350 d1 1b 73 3f 42 d1 27 3f aa 56 49 3e 3b bf 63 bf
       0.9496432 0.6555368 0.19661966 -0.8896367
000360 e4 c1 8f 3e c2 7d 1a 3e 06 d7 9f be 04 d2 59 bd
       0.28077614 0.15087035 -0.31218737 -0.053178802
000370 a9 7f 37 be 3b fb 82 bf 42 f7 5b be 95 5b 1d bb
       -0.17919792 -1.023292 -0.2148104 -0.0024010886
000380 8d 76 06 bd 8a f4 97 be 4e 4c a1 3e 54 a3 4f bc
       -0.032827903 -0.29678756 0.31503528 -0.012673218
000390 7b c5 46 3f 37 7d da 3f 7c 2a 9f be 53 1b e9 be
       0.7764508 1.7069463 -0.310871 -0.4552866
0003a0 04 68 f3 be 0c b2 59 be 58 95 16 3e 9a 20 df be
       -0.47540295 -0.21259326 0.14705408 -0.4357956
0003b0 5d 96 84 3d 97 89 3c 3f 8d 99 93 3e 7e 6b 9e 3d
       0.06473992 0.73647445 0.28828087 0.07735346
0003c0 b2 e0 c6 be b0 1c 0a bd a6 2d 13 bf ec b0 51 3e
       -0.38843304 -0.033718765 -0.5749153 0.20477647
0003d0 31 2e 18 bf 4a 28 bd bf ee eb a4 3e 75 5a 49 3f
       -0.5944548 -1.477792 0.3221125 0.7865365
0003e0 34 7f ca 3f cb d1 d5 3e 58 41 43 3f 0c cd 5e be
       1.5820069 0.41761622 0.7627158 -0.21757907
0003f0 d6 87 d7 be 58 ab 45 3e aa 25 af bd c3 28 f6 3c
       -0.42095822 0.19303644 -0.08552106 0.030048734

net.0.bias f4 [128]
000000 41 63 be 3e c1 f6 f2 bd 21 a7 06 3e 9a 88 95 3e
       0.371851 -0.11863471 0.13149692 0.2920578
000010 e2 60 86 3e 94 a2 4a be 48 63 ca be 08 82 3f 3e
       0.2624579 -0.19788581 -0.3952887 0.18701947
000020 55 7d c2 be 5d 8c 5b bd 95 ea 2c 3f 8f ce c4 3d
       -0.37986246 -0.053600658 0.67545444 0.096097104
000030 a7 1b e4 bd cc 00 7d 3e e2 1c c9 3e 55 a1 91 be
       -0.11138087 0.24707335 0.39279848 -0.284434
000040 c6 56 fe be 1f 1b 53 3e c8 80 fa 3e 94 08 bf 3d
       -0.49675578 0.20615815 0.48926377 0.09327808
000050 a1 db f8 3e 39 70 07 3f 9f 5e 50 3f bb b9 33 3f
       0.48605064 0.52905613 0.8139438 0.7020528
000060 55 a7 b5 3e 47 b2 d9 3e fa c7 43 bf c5 3f 1d be
       0.35479227 0.42518827 -0.76477015 -0.15356357
000070 36 65 38 3e 49 a7 19 3f 83 0e d2 3e b4 f5 45 bd
       0.18007359 0.6002088 0.41026697 -0.048330024
000080 77 bd dd be d7 31 ce be c1 1f fd 3e c7 c9 c2 be
       -0.43308613 -0.402724 0.4943829 -0.3804457
000090 2f 53 26 3d fc 99 74 3b 04 fe 9b 3e 4e 89 97 3e
       0.040606674 0.0037323227 0.30467236 0.29596943
0000a0 ea 19 ca be 5a 6e a7 be 24 fa 3c 3e 60 6d f4 be
       -0.39472896 -0.3270138 0.18454796 -0.47739697
0000b0 a4 be 21 3f df b0 f2 bd 59 15 09 3f 61 6a a1 3e
       0.6318152 -0.11850142 0.535482 0.31526473
0000c0 23 04 dd 3e 49 6e bd 3e e4 9d 1f 3e e3 80 20 3e
       0.4316722 0.36998203 0.15587574 0.15674166
0000d0 03 7c 38 3f cd 29 0a 3e 05 1d 04 3e 9a 60 20 bf
       0.72064227 0.13492508 0.12901695 -0.626474
0000e0 9e 36 5b 3f 7b bb 5f 3e 5a 75 33 3f e5 71 cd be
       0.85630214 0.21848862 0.7010094 -0.40125957
0000f0 f2 8e 2e 3f e5 1e b2 3d 85 1f 20 3f c9 49 5b 3f
       0.6818687 0.08697299 0.62548095 0.8565946
000100 a5 4a cb 3d 8a 2e d7 3d d3 f3 11 be 16 cf df 3e
       0.09926347 0.105069235 -0.14253168 0.43712682
000110 15 6d 35 bf 27 39 2b be c6 55 2d bf 10 18 d9 3e
       -0.7086957 -0.1672102 -0.67709005 0.4240117
000120 b5 72 4f 3f 10 b7 aa be 3d c4 23 3e dc 34 28 3e
       0.81034404 -0.3334279 0.15992828 0.16426414
000130 e2 8c a5 be 6f 47 2b 3e a8 54 3a 3e 2e 50 08 3e
       -0.32334048 0.16726469 0.18196356 0.13311836
000140 07 c8 23 3f 41 26 10 bf 17 46 05 bf 73 1e 7c 3e
       0.6397709 -0.5630837 -0.52060074 0.2462099
000150 9c 43 8e 3e ea b8 99 3c 0e 17 1d 3f 3a dd 55 3e
       0.27785957 0.018764932 0.61363304 0.20885172
000160 00 19 1e 3e bb 2c 12 bf 6d 34 d0 3e 9a 6a 23 bf
       0.15439224 -0.57099503 0.40664998 -0.63834536
000170 b0 f4 01 3f 8a 30 f6 3e c5 4a 77 3e c7 e9 89 3e
       0.5076399 0.48083907 0.24149616 0.2693617
000180 b8 cd 74 be 87 e6 65 3f cb ef 0f bf 26 86 1a be
       -0.239066 0.8980488 -0.5622527 -0.15090236
000190 ea c0 17 3f 95 2b a2 3e 59 88 53 be 38 11 48 bd
       0.5927874 0.31673875 -0.20657481 -0.048844546
0001a0 f8 9c 20 3f 47 9d 03 3f c1 30 90 be 25 00 f6 3e
       0.62739515 0.5141186 -0.28162196 0.48046985
0001b0 89 48 35 bf 67 51 a4 be a9 55 2d 3f a3 af ca be
       -0.70813805 -0.32093355 0.6770883 -0.39587125
0001c0 5f b9 4e 3e f5 40 85 3e 7a fa ff 3e 34 d6 af 3e
       0.20187901 0.2602612 0.49995786 0.34343112
0001d0 4f 60 68 be 4b 79 88 be c4 e2 3f 3f 0d 64 32 3f
       -0.22692989 -0.2665504 0.7495539 0.69683915
0001e0 52 f7 6b 3f 9e f9 19 3f 3f f0 02 bf 5c a4 65 3f
       0.92174256 0.6014651 -0.51147836 0.8970392
0001f0 94 e5 0f 3e aa bb 63 be 2a 26 ec 3c ee 2b 90 be
       0.14052421 -0.22239557 0.028826792 -0.28158516

net.2.weight f4 [128, 128]
000000 5d dd 60 3d ad 5e 71 bd 23 59 85 bd ff 6a 9e bd
       0.05489861 -0.05892818 -0.06511142 -0.07735252
000010 3f 10 a9 bd da 7d 5d bd 0d 0b 92 bd 7a 97 56 3c
       -0.08255052 -0.0540751 -0.07131014 0.013097638
000020 a8 d2 b8 3c 40 e6 b1 3b 30 da eb 3c f2 a7 53 3c
       0.022561386 0.0054290593 0.028790563 0.012918459
000030 d7 3f 3e 3d f1 9e 45 3d c7 f9 b7 bd 51 65 86 3d
       0.0464476 0.04824728 -0.08983188 0.06562293
000040 62 88 29 3d 07 c9 45 3d 26 7b bf bc 80 3c 99 3d
       0.04138983 0.048287418 -0.023374151 0.074822426
000050 5c 84 c7 3c b1 79 3f 3d 0a f2 8b 3a 3d 13 1d bd
       0.024355106 0.046746913 0.0010676992 -0.038348425
000060 79 b2 8f bd 28 e2 b1 3c 2e 01 9d bd f6 2f 9e bd
       -0.07016463 0.021714285 -0.07666241 -0.077239916
000070 89 bc 8d 3d 31 d1 9f bc 0f be 06 bc 9d 1b 8d 3d
       0.06920726 -0.01950893 -0.008224024 0.068900324
000080 8c 7c d4 3b 0e d8 2b bd 3c d4 2d 3c f9 35 98 3d
       0.0064845737 -0.041954093 0.010609683 0.074321695
000090 ae 45 1e bd 68 f6 3e bd 48 c3 fe bc 73 b9 8c 3c
       -0.03864067 -0.04662171 -0.031098977 0.017178273
0000a0 52 4e 88 bd 07 eb 6f bd 29 c3 85 3d 54 74 81 bd
       -0.066555634 -0.05857375 0.065313645 -0.06321016
0000b0 9a e1 9b bd 7f 60 99 3c d4 90 71 bd 45 09 77 3d
       -0.076113895 0.01872277 -0.05897601 0.060311574
0000c0 9c b7 4e bc 8d fd 6b bd 8d bf 6d 3d 54 de 37 3d
       -0.012617018 -0.05761485 0.058044005 0.044889763
0000d0 43 d9 c4 bd b8 77 f0 bc 1a f3 81 3d 20 3e f3 3c
       -0.09611752 -0.029353961 0.06345196 0.02969271
0000e0 52 8a 72 bd 12 1e 83 3c 5f a7 59 3c f2 b4 b4 bd
       -0.059213944 0.01600555 0.013284533 -0.08823575
0000f0 80 36 6d 3a f0 f9 24 3c 4a 83 95 bd 8e 1c fe bc
       0.00090489537 0.010069355 -0.07300432 -0.031019475
000100 af 33 e0 3c 6d 28 77 bc c4 85 6c 3d 6c df c4 3c
       0.027368395 -0.015085322 0.057744756 0.024032317
000110 96 39 2e 3d 7f 38 c4 bd 3f 5f 35 bd b3 47 1c 3d
       0.042535387 -0.09581088 -0.044280287 0.038154315
000120 ab 4e ed ba fd 35 f3 3c d0 8e c7 bc bd fc 2c 3d
       -0.001810511 0.02968883 -0.02436009 0.042233218
000130 16 36 15 3d 46 6b e6 bc 1b 10 86 bd bb bb 1d bc
       0.036428533 -0.028127324 -0.065460406 -0.009627278
000140 d8 5b be 3c 44 80 aa bd ca e6 6e bc 45 5a 99 bd
       0.023237154 -0.08325246 -0.014581392 -0.07487921
000150 70 2c 0a 3c ca 74 90 bd a0 e4 42 3d 84 41 c9 bb
       0.008433446 -0.07053526 0.047581315 -0.0061418433
000160 80 f6 5c ba 39 79 ab bd b3 fe ec 3c 00 0f 4e bd
       -0.00084290653 -0.08372731 0.028930044 -0.050307274
000170 44 95 07 bc 4f 9c 8c bc 29 ad 2d 3d 26 a6 03 3d
       -0.008275334 -0.017164377 0.042401467 0.032140873
000180 1e 03 85 bc 50 00 95 3d 4a 16 1d bd 0d 32 99 3d
       -0.016236838 0.0727545 -0.038351335 0.074802496
000190 2b d8 a9 bd 72 41 43 bd 86 93 1a 3d b5 8d 97 3d
       -0.08293184 -0.047669835 0.037738346 0.07400075
0001a0 18 9d 4d 3d d4 07 04 bc e9 ca 8e bd 9c 3d 4e bd
       0.050198644 -0.008058507 -0.06972296 -0.050351724
0001b0 0b 37 64 3d e3 cc 5b 3d fc 16 02 bd 50 26 b8 bd
       0.055716556 0.053662192 -0.0317602 -0.089916825
0001c0 c3 21 1b bd 45 83 5c bd 00 c1 49 3d 67 9e 6b 3d
       -0.037873995 -0.053836126 0.049256325 0.05752411
0001d0 19 99 80 bd 09 b2 17 3d 58 d9 66 bd 64 71 84 3c
       -0.06279201 0.037035022 -0.05635962 0.01616735
0001e0 2f 88 bb bc 69 76 82 bd c8 bf 2e 3c 95 61 73 3d
       -0.022892086 -0.06370241 0.010665841 0.059419233
0001f0 df 5b fd 3c e5 b5 8e 3b 7e 75 30 bd 96 03 70 bd
       0.030927597 0.0043551796 -0.0430808 -0.05859717
000200 61 3c 02 c0 33 39 01 c0 44 23 f4 be 45 6e 9b be
       -2.0349352 -2.0191162 -0.47683156 -0.30357566
000210 f7 e7 5d 3e da 4c 4d be 1e a2 3a 3f 73 c7 94 bf
       0.21670519 -0.20048848 0.7290362 -1.1623367
000220 c8 ca ee 3e b3 b1 49 3d 6f 30 c8 bf 06 28 0b bf
       0.46639085 0.049241733 -1.5639781 -0.54357946
000230 96 4f 0f bf 63 cc 2b 3d 5d 0a 80 3e ba 88 93 bc
       -0.55980814 0.041942965 0.25007907 -0.018009532
000240 01 8c 47 3e 10 7c 35 bf 96 5f 99 bd bf 15 94 bf
       0.19487001 -0.7089243 -0.07488935 -1.1569136
000250 9a 9d a4 3e 4e f8 0e be fe 66 07 be 72 7a 4f 3e
       0.3215149 -0.13961908 -0.13222882 0.20261553
000260 51 41 25 bf 04 31 9b 3d e3 73 42 3f d3 44 bd bd
       -0.6455279 0.07577708 0.7595808 -0.09241643
000270 c6 9c 1a bd 2d f8 cf 3b 59 4e ae bf 5f 3d 03 c0
       -0.037747167 0.0063467235 -1.361766 -2.0506208
000280 81 28 9e 3e df ef 34 3f 48 f7 45 bf f3 35 fc 3e
       0.30890277 0.70678514 -0.77330446 0.4925991
000290 b8 f6 10 c0 33 b4 10 c0 d9 ab ae be c1 84 69 be
       -2.2650585 -2.2609985 -0.34115484 -0.22804548
0002a0 08 da cc be ac 87 64 3e 70 19 29 be a1 45 17 3f
       -0.40010095 0.2231738 -0.1651361 0.5909062
0002b0 f2 7e f4 be d7 35 f9 3d 3b f7 86 bd 0b 1e f3 3c
       -0.47753102 0.12168472 -0.06590124 0.029677412
0002c0 0e b7 b3 3d b0 42 43 3d e7 b6 b2 bf 1e 90 01 c0
       0.08775149 0.04767102 -1.3962067 -2.0244212
0002d0 44 18 37 c0 59 37 cd 3e 04 46 08 be 92 a5 da bf
       -2.860856 0.4008129 -0.13307959 -1.7081778
0002e0 3d 96 84 bc 61 5e 41 bf e1 40 28 be c6 da fd 3d
       -0.01618492 -0.75534636 -0.16431 0.12395243
0002f0 cb 95 23 bf 5b 48 39 3e 00 b4 c1 bf f5 23 fe bf
       -0.6390044 0.18094008 -1.5133057 -1.9854723
000300 85 c5 db bb 4d 31 18 c0 bc d6 e2 bf 85 f3 0c bf
       -0.006706896 -2.378009 -1.7721782 -0.5505908
000310 b1 06 90 bf 8f 96 36 bf 52 78 be bf 7e aa fc be
       -1.1252042 -0.71323484 -1.4880469 -0.49348825
000320 9e 17 81 bf ae 8c 04 c0 78 27 8b be 60 6e a1 3e
       -1.0085332 -2.0710864 -0.2717855 0.31529522
000330 e8 b4 be 3d 1c 8b 2e bf 0a 0a a7 bf 1c bf 0e 3f
       0.09311849 -0.68181014 -1.3049939 0.5576036
000340 fe af f3 bc 8b 67 78 3f 20 e0 16 3f e4 e6 2e c0
       -0.029747006 0.97032994 0.5893574 -2.7328424
000350 7b 65 90 bc 37 61 d4 bd b0 72 2d 3b 91 ae 15 bf
       -0.017626515 -0.10370105 0.0026466064 -0.5846949
000360 f5 b5 f2 3e 1b 86 75 3e 8a a5 65 bf 27 38 c8 3d
       0.47404447 0.23976938 -0.8970572 0.09776335
000370 48 b2 6f bf b7 a3 52 be 9b b7 9a be 02 76 53 bf
       -0.9363141 -0.20570265 -0.30218205 -0.8260194
000380 4e 4a 12 c0 23 db c9 be e1 85 01 3f 49 51 b6 3e
       -2.2857852 -0.39425 0.5059491 0.3560889
000390 26 ad 02 be 95 67 86 be d1 30 62 3e 9f 2c 56 be
       -0.12761363 -0.26250902 0.22088934 -0.20915459
0003a0 61 3b ee 3d eb fe 61 be 6d 14 bf bf c9 64 ba 3d
       0.116324194 -0.220699 -1.4928108 0.091012545
0003b0 62 d1 4e be 4c 1e df bf b6 64 de bf 02 e7 a7 3e
       -0.2019706 -1.7431121 -1.7374485 0.32793432
0003c0 e6 02 95 bd a0 f6 17 3f 22 3a 8c 3e 66 5a 16 bf
       -0.072759435 0.59360695 0.27388102 -0.5873169
0003d0 0a e7 60 3e b5 93 3d 3f 30 b7 d0 bf b1 85 10 3f
       0.21963134 0.7405351 -1.6305904 0.56453997
0003e0 53 ce 72 be b6 0b 7c be 51 49 5c 3d 5a e7 0f bf
       -0.23711519 -0.24613842 0.053780857 -0.5621239
0003f0 d2 ef 1c be 28 99 d7 3d af 3f c3 3e e1 13 b1 3e
       -0.15325859 0.10527259 0.38134524 0.3458548

net.2.bias f4 [128]
000000 de 44 b4 bd 30 18 94 bf 3c 6c 2f bd ad b1 88 bd
       -0.08802198 -1.1569881 -0.04282783 -0.06674514
000010 f8 d5 d2 3c ab 0e 81 3b d7 06 3a 3f c5 cc d1 3c
       0.025736794 0.003938516 0.72666687 0.025610337
000020 bf 1d b6 be 3d 2b 83 bd 84 fe 3a 3c f9 d6 50 3d
       -0.3556957 -0.064047314 0.01141322 0.050986264
000030 a9 36 46 bd 7e d7 00 3e 69 f0 6d bd ec fa f3 3c
       -0.04839197 0.12582204 -0.0580906 0.029782735
000040 6b 78 03 bd 7f b7 6a bc 19 91 9a 3b ee 82 b8 bd
       -0.03209726 -0.014325975 0.004717004 -0.09009348
000050 99 26 89 3e db 12 3b bd 84 de 5b 3f f6 83 12 3e
       0.2678726 -0.04567228 0.85886407 0.14308152
000060 9c 66 8f bd 10 92 be bd 73 99 31 3d c2 12 f6 bd
       -0.07001993 -0.09305203 0.04335923 -0.120152965
000070 61 d4 c0 bd f8 77 e2 bd 26 4b 23 3f 9a 0f 86 ba
       -0.09415508 -0.110580385 0.6378654 -0.0010228038
000080 2f 64 df bd f9 28 3b be d3 af a8 bd 84 96 0a 3e
       -0.109077804 -0.18277349 -0.08236661 0.1353398
000090 af 6f 32 be 76 c5 ff bc 92 f7 0d 3c 83 5c ed bd
       -0.17425416 -0.031222086 0.008664982 -0.11589911
0000a0 8e 84 ff 3b a1 67 9b 3d e2 9c 7e bd 3e 01 4b be
       0.007797784 0.07588125 -0.062161334 -0.19824693
0000b0 73 dd 0d bd 6f 73 0b 3e e9 11 d6 bb 97 f2 51 bc
       -0.03463502 0.13618253 -0.006532897 -0.012814186
0000c0 d6 c0 37 bc 0c 8b 27 3f f0 bc df bd 2a ac cc bd
       -0.011215409 0.65446544 -0.10924709 -0.09993775
0000d0 78 d4 d3 b9 c0 d1 09 3f fe c6 be bc cb 1d d2 3c
       -0.00040403358 0.5383568 -0.023288246 0.025648972
0000e0 ba 8a e9 3e 9f 92 31 3e 20 cd 40 bd 62 89 c5 3c
       0.45613652 0.17341088 -0.047070622 0.02411336
0000f0 d2 cf 47 be c0 fa d8 3d d8 f0 56 bb 5c e1 a3 3d
       -0.19512871 0.10594702 -0.0032797363 0.08001968
000100 33 26 c1 3d b3 38 be bc d7 a3 88 bd 14 c6 f4 bd
       0.09431114 -0.023220396 -0.06671875 -0.11951843
000110 85 39 6b bd 62 c7 55 3d b0 7c d7 bd 3c 3c 47 bb
       -0.0574279 0.0521921 -0.10521829 -0.0030400893
000120 45 07 25 bd af 92 a9 bd b8 e8 09 3d 6c 98 94 bd
       -0.040290136 -0.08279931 0.033669204 -0.07255635
000130 8e b4 19 bd c3 6e 81 3c 2f 78 2f 3f 2a 24 cc 3c
       -0.037525706 0.015799886 0.6854276 0.024919588
000140 1d ea 52 bd 69 7e 5c 3c 7d a0 d8 bd d2 b6 13 3e
       -0.0514928 0.013457873 -0.10577486 0.14425209
000150 7f 00 62 3d 5a 0e 37 bc 1b 19 ba 3c b9 01 07 3d
       0.055176254 -0.011172855 0.02271705 0.032960627
000160 80 f7 c5 bd 5b 30 bb bd 52 ed b9 bd 65 aa 0c bd
       -0.096663475 -0.091400824 -0.090784684 -0.03434219
000170 ac 5d c6 bd 67 a0 5c bd d3 62 86 3e 89 19 20 3d
       -0.09685835 -0.05386391 0.26247272 0.039086852
000180 0e b8 ab 3c c6 f9 b4 bd e5 01 40 3d 60 55 89 3e
       0.020961788 -0.08836703 0.046876807 0.26822948
000190 7a 67 8d 3c b6 a4 63 3e d5 5a 54 3d 10 25 10 bd
       0.017261256 0.22230801 0.051844437 -0.035191596
0001a0 22 e7 7e 3c 55 7f db bb 87 af ff 3c 4c 91 54 3b
       0.015558036 -0.006698529 0.031211628 0.0032435236
0001b0 73 09 b2 3c c9 ad 8e 3d 8b e5 1c 3c 31 e9 21 bd
       0.021733021 0.06966741 0.009576212 -0.03952903
0001c0 7e 6b 44 bd 29 62 78 bd 96 63 6d bd f1 33 5a bd
       -0.047954075 -0.060640488 -0.0579563 -0.05327219
0001d0 eb 6e d7 bd 13 fe d7 3c 6e 45 87 bd 78 9d be bd
       -0.10519203 0.02636627 -0.066050395 -0.093073785
0001e0 b9 e4 87 bb 66 11 04 be 15 a9 96 bc 64 b8 a1 3e
       -0.004147139 -0.12897262 -0.018391171 0.3158599
0001f0 62 61 bb 3a 82 fc 75 bd 34 70 c5 bc 7e ce 24 3e
       0.001429599 -0.060055263 -0.024101354 0.16094396

net.4.weight f4 [4, 128]
000000 2f b0 80 bb c8 1c c2 be 3a f7 80 be 9f 4c 40 bd
       -0.0039272527 -0.37912583 -0.2518862 -0.04694807
000010 c0 cc b7 be be d9 ae be a0 ab aa 3f 64 bb ac 3d
       -0.358984 -0.341505 1.3333626 0.084341794
000020 0c 4b f6 3f f9 10 89 be 9f 94 92 be 2a 21 ba be
       1.9241652 -0.26770762 -0.28629014 -0.36353427
000030 56 8f 8f be 8b 8b dd 3f 43 b1 c2 be 76 26 71 be
       -0.28039044 1.730821 -0.38025865 -0.23549828
000040 ae 5c 87 bd 2c 88 a7 3c bf c9 d2 be d2 22 ac be
       -0.06609474 0.020450674 -0.41169545 -0.33620316
000050 99 2c e1 3f 10 f6 e3 be 72 54 d9 3f 4a 2c 4a bf
       1.7591735 -0.44523668 1.6978896 -0.7897383
000060 af 74 ac be 86 b6 6c 3c 6f 75 ff be 73 38 0f c0
       -0.33682773 0.014447814 -0.49894282 -2.2378204
000070 5d 10 00 40 b8 d3 b1 be a3 83 ae 3f 50 7d 69 be
       2.0009987 -0.3473184 1.3633922 -0.22801709
000080 a6 fc 9e be 30 6d d7 bf 12 67 b2 be 05 51 1b be
       -0.3105213 -1.6830196 -0.3484426 -0.15167625
000090 66 45 e3 be 70 81 99 be 9b 97 97 be e9 96 fe be
       -0.44388884 -0.29981565 -0.29607853 -0.4972451
0000a0 b5 72 a5 be f1 8b 39 3f 1b eb 98 bf 0f 65 08 3f
       -0.32314077 0.7247916 -1.1946748 0.53279203
0000b0 d6 55 d6 be c6 b5 07 3f 60 b5 cf be 9b 70 2e be
       -0.41862363 0.5301174 -0.40568066 -0.17035143
0000c0 9d 53 e6 be a3 c5 a2 3f 9b 59 f2 3f cb 13 d7 be
       -0.44985667 1.2716564 1.8933595 -0.42007288
0000d0 26 17 a8 be 39 eb e9 3e b2 6b ce be a5 e0 9d be
       -0.3283016 0.45687273 -0.4031654 -0.30835453
0000e0 4f 05 48 3e b0 12 92 be 4d a6 a3 be a2 35 c3 be
       0.19533275 -0.28529882 -0.31962815 -0.38126856
0000f0 8f 53 1d 40 c9 76 05 be d7 4b 88 be ef 99 bf be
       2.458225 -0.13033594 -0.2662036 -0.3742213
000100 87 9c 77 bf 19 50 bf be 22 59 ca be db c0 42 bf
       -0.96723217 -0.37365797 -0.39521128 -0.76075524
000110 30 37 b4 be 9a 82 bc be d3 fe b9 be ea c9 a8 bd
       -0.35198355 -0.3681839 -0.36327228 -0.08241637
000120 60 5d ef be 06 af 79 be 6e 52 2a be 14 cb b9 be
       -0.46750927 -0.24383172 -0.16633007 -0.3628775
000130 9f 12 81 3d 57 b7 95 be 14 6b c4 3f 1d 0b 88 be
       0.0630238 -0.2924144 1.5345178 -0.2657098
000140 80 9a 95 be ca 8b 07 bd d0 ce a5 be 79 65 11 bf
       -0.29219437 -0.033092298 -0.32384348 -0.5679546
000150 27 31 44 be 9d b4 e4 be d5 7b a5 be 0e bf bd be
       -0.19159375 -0.44669047 -0.3232104 -0.37059826
000160 ee 14 a8 be 22 2f 6b 3d f5 66 da 3a 3a cc 84 be
       -0.32828468 0.057417996 0.0016662764 -0.25937063
000170 a1 df 12 40 14 c0 c3 be 80 83 d4 3d dc 05 bc be
       2.2948992 -0.3823248 0.10376644 -0.3672322
000180 27 5b db be b5 65 97 bc f1 be 4c be 55 b2 da 3d
       -0.4284298 -0.018481115 -0.19994713 0.106785454
000190 f0 d9 eb bf 7a 6d b1 3f a7 92 91 be 40 49 e0 be
       -1.8425884 1.3861535 -0.284322 -0.43805885
0001a0 5b 79 8c bd ba 62 74 be 99 69 a4 be 59 e9 bf be
       -0.06859084 -0.23865786 -0.32111815 -0.37482718
0001b0 9b 39 7f be 90 2c ca 3c 6a c8 c7 bf 73 58 9c be
       -0.24924318 0.024679452 -1.5608037 -0.3053623
0001c0 28 37 c3 be 0b 74 80 bd 68 52 a8 be 36 e9 29 3d
       -0.38128018 -0.062721334 -0.3287537 0.041482173
0001d0 17 81 a7 be c6 19 9c be 41 55 22 3d da 5d 37 3c
       -0.32715675 -0.30488414 0.039632086 0.01119181
0001e0 4e 21 ae be 3e 14 c4 be 53 ee c2 be 85 3d b5 3f
       -0.34009784 -0.38296694 -0.38072452 1.4159399
0001f0 3a 2f be be e5 75 c9 be 80 e8 c5 be 03 2b 03 be
       -0.37145406 -0.3934776 -0.38653946 -0.12809376
000200 6f f3 5d bd 61 26 3f 3f 7c 80 aa be 02 df d6 3c
       -0.054187234 0.74667937 -0.3330115 0.026229385
000210 fa 35 cc be ea 71 b5 be 57 3c 65 3f 77 1d 82 bd
       -0.3988493 -0.35438472 0.89545196 -0.06353276
000220 a0 25 01 40 43 4a a0 be 55 8e 40 be da 46 03 bf
       2.0179214 -0.31306657 -0.18804295 -0.51279986
000230 77 81 ad be f7 fc dc 3f 26 ac a7 be ad 7a 7e bd
       -0.33887836 1.7264699 -0.32748526 -0.06212871
000240 6c 1b d5 bc 91 7a 6f bd d6 b0 e6 be 65 eb da be
       -0.026014052 -0.058466498 -0.4505679 -0.42757717
000250 8f 3a f3 3f 64 05 e6 be 1e 5e ea 3f b3 98 a4 bc
       1.9002246 -0.44925988 1.8309972 -0.020092344
000260 5f 2d 8b be d8 44 4d 3d b4 5e 2b bf 01 74 99 bf
       -0.27183053 0.050114483 -0.6694138 -1.1988527
000270 7d 34 e4 3f 59 5a 68 be b6 33 ca 3f 8c 24 bf be
       1.7828518 -0.22690715 1.5797031 -0.3733257
000280 d2 c5 7e be e6 40 d5 bf 99 e7 db be e2 98 12 3e
       -0.2488015 -1.666043 -0.42950132 0.14316133
000290 8f 17 93 be 5e ee a3 be f8 24 4f be 9b 69 96 bf
       -0.2872891 -0.32017797 -0.20228946 -1.1750978
0002a0 84 06 4f be f4 5d a5 3f eb 6e 90 bf 36 a4 b4 3f
       -0.2021733 1.2919297 -1.128385 1.4112613
0002b0 30 4c 33 bf 88 f1 5f 3e 24 86 d4 be 16 0a 83 be
       -0.7003813 0.2186948 -0.4150859 -0.25593632
0002c0 33 28 20 bf 1c f8 a7 3f 21 67 cc 3f 83 7f 1f bf
       -0.6256134 1.3122592 1.5968972 -0.6230394
0002d0 a0 7f ad be 8b 6f 44 3f 10 8c 40 bf d4 94 0b bf
       -0.33886433 0.767327 -0.7521372 -0.5452397
0002e0 35 3b 99 3f 59 50 9c bf bb 7d cc be 92 3a 91 be
       1.1971194 -1.221202 -0.39939675 -0.28364998
0002f0 a1 c9 23 40 a4 f1 74 3e 98 cc 83 be c4 d4 de be
       2.5591815 0.23920304 -0.2574203 -0.43521702
000300 14 50 d5 3e 85 52 d0 be 83 e6 e9 be 9e 8f fb be
       0.41662657 -0.40687957 -0.4568368 -0.4913301
000310 d0 67 f0 be eb 9a fc be 43 60 de be 5c 30 fb 3c
       -0.46954203 -0.49336943 -0.43432817 0.030662708
000320 aa f8 a5 be a9 0f 1b be e2 10 d3 3b 48 f3 8e be
       -0.32416278 -0.15142693 0.0064412216 -0.27919984
000330 5a 3b ab bd 2e 24 fb be a3 6d b2 3f 5a 20 81 be
       -0.0836093 -0.4905104 1.3939708 -0.25219995
000340 c6 02 08 bf 3e 1e 8d 3d 00 39 d7 be e5 27 5f bf
       -0.5312923 0.06890534 -0.42035675 -0.8717025
000350 18 68 9e be da ad f3 be ab 9b e9 be a5 e8 eb be
       -0.30938792 -0.47593576 -0.45626578 -0.4607593
000360 3d b3 b1 be 59 29 ae 3d 9c d9 a0 3c 4b fe 5c be
       -0.3470706 0.0850398 0.019635014 -0.2158138
000370 22 bd 13 40 1a 1e cb 3c fd 8e c0 3e 2e 92 00 bf
       2.3084188 0.024794627 0.3760909 -0.5022305
000380 c0 80 68 be 0f 11 18 3d b4 85 1f be ce 4c ba 3e
       -0.22705364 0.037125643 -0.15578347 0.36386722
000390 a2 b8 c0 bf 6d b6 65 3f ce ea a3 be 89 53 09 bf
       -1.5056345 0.89731485 -0.3201508 -0.5364309
0003a0 82 51 8d bc 7e a8 f6 be 2b 0a 39 be da 83 54 be
       -0.01725078 -0.48175424 -0.18070285 -0.20753422
0003b0 2d fd 4c be f9 b1 63 3d 77 96 c0 bf 0c 9f 8e be
       -0.20018454 0.05558965 -1.5045918 -0.27855718
0003c0 3e 7d 26 be 9c 28 a4 3d 24 7e 23 be 00 40 13 38
       -0.16258714 0.08015558 -0.15966088 3.5107136e-05
0003d0 d5 bc 83 be 33 32 2a be 2f 92 0a 3d c8 95 1c 3c
       -0.25730005 -0.16620712 0.033830818 0.009557195
0003e0 98 58 59 be 64 a5 b3 be 62 2e dc be e5 74 9a 3f
       -0.21225202 -0.3508712 -0.43004137 1.2066923
0003f0 c2 6f 2a be e7 57 49 be 08 07 bf be 80 63 ff 3c
       -0.16644195 -0.19662438 -0.37310052 0.031175375

net.4.bias f4 [4]
000000 7b 3d 0f be 42 73 72 3e d3 28 96 3c 1a b7 72 bd
       -0.13988297 0.2367678 0.018330013 -0.05925665
