SARSA/dsqn/500_model_weights.pth (torch, 75917 bytes, 6 tensors)

net.0.weight f4 [128, 8]
0.7371221 -0.14570841 0.45641893 -0.3483468 -0.6088967 0.1421574 0.110749036 0.04392405
1.3920722 0.21631426 0.81686735 -0.27594987 -0.2527687 0.22247827 -0.2128272 -0.10046289
-1.2645032 1.262988 -0.4189097 -0.52913535 0.005112906 0.04376094 -0.028615486 -0.15478285
0.14597966 0.93207085 0.038629353 -0.8923922 0.11274954 0.06582875 -0.03181154 -0.13922395
-0.27170935 -0.020921525 0.11009023 -0.095037065 0.6713437 0.9512603 0.7965625 0.3062142
-0.40055028 -0.38235185 0.95762765 -0.19595434 -0.075922415 -0.9505635 0.54813105 -0.2890356
0.051479142 -1.222 0.728668 -0.30770013 -0.599892 0.91684395 -0.05278719 -0.1906641
-0.776762 0.86755747 0.13715401 1.0939279 -0.1332739 0.14890483 0.04082864 0.074286364
-0.25118193 0.04030745 -0.48371255 -0.5030693 0.85463464 0.69076407 0.08126816 0.32167622
-0.29595962 0.05307993 1.6002761 0.64705175 0.6574741 0.96465695 0.074061476 -0.10307482
0.23110995 0.7301274 -0.2722171 0.46214575 0.022034243 -0.06705253 0.14097369 -0.20845671
-1.6161042 -0.33335736 -1.0480351 0.18325584 -0.26482412 0.02588515 0.5844289 0.3583921
-0.24218717 0.85878426 -0.06651215 0.29276133 0.35033897 0.4021668 0.17800233 0.40884733
-0.15136468 -0.22812103 -0.34258053 -0.034375817 0.6511327 0.6355686 0.6578587 -0.080297165
-0.11520679 -0.15337338 0.43424395 -0.33457798 0.41517708 1.0819974 0.46738774 0.06867657
-0.68017757 0.09646636 0.3255399 0.4226058 -0.31711888 0.49121293 0.3521767 0.0124035785
-0.9546387 -0.35690445 0.2837084 0.16947964 -0.1668147 0.56702375 0.17541474 -0.4785142
-0.22389407 0.7038619 0.005856336 0.66101253 -0.04137498 -0.017499968 0.48029512 0.9429881
0.38767818 0.60284805 -0.38783333 -0.63264763 -0.40747344 1.6148334 0.32061577 -0.7451899
0.03560357 1.0166596 -0.20137681 -0.28327587 -1.2713119 -0.84209424 -0.3660538 -1.1842036
-0.24198696 -0.16051213 0.5761245 -0.008302303 0.83128554 1.2621907 0.113485225 -0.14176421
-0.08406719 0.14705095 0.054490853 1.019835 0.6070727 1.2112325 0.46067724 0.2613189
-0.04460501 0.44944134 -0.36277586 -0.06459446 0.71009314 0.41407892 0.7842574 0.3129711
-0.6260099 -0.28451422 0.04789805 -0.4612204 -0.1188275 0.76754814 0.16083759 0.037197623
-1.1003212 -0.04362978 -1.1899813 0.4045899 -0.12350094 0.08237689 0.5370389 -0.13359988
0.50348675 -0.009533688 0.20360962 -0.48167497 0.41947207 0.82942235 0.415218 0.0773905
-0.40904096 -0.8797755 -1.0652158 -0.104265176 0.9247144 0.68636215 0.20894028 -0.9004195
0.23557815 0.10146887 -0.2965013 -0.03245582 -0.12949392 -1.0440512 -0.1845793 -0.0074480744
0.006129251 -0.22184487 0.31708214 -0.061502628 0.6787957 1.5633861 -0.3608728 -0.7006788
-0.50126076 -0.20190904 0.123473 -0.5257273 0.0635347 0.73170364 0.28421918 0.04730889
-0.34936112 0.04292448 -0.6008939 0.1328267 -0.61217934 -1.5065672 0.30459636 0.7849742
1.6435734 0.36425436 0.7605388 0.025291538 -0.30459568 0.2128794 -0.033739313 0.064151324
00000000: 09b4 3c3f 9634 15be beaf e93e 835a b2be
00000010: a7e0 1bbf b691 113e 64d0 e23d b4e9 333d
00000020: 6c2f b23f 7c81 5d3e 381e 513f 4d49 8dbe
00000030: e66a 81be 58d1 633e 60ef 59be 7dbf cdbd
00000040: 3edb a1bf 97a9 a13f 557b d6be 6a75 07bf
00000050: 2a8a a73b ac3e 333d 066b eabc 657f 1ebe
00000060: b17b 153e 329c 6e3f d039 1e3d d173 64bf
00000070: 3be9 e63d 39d1 863d d14c 02bd b990 0ebe
00000080: 7d1d 8bbe 9e63 abbc fd76 e13d cba2 c2bd
00000090: 2edd 2b3f cc85 733f 85eb 4b3f 1cc8 9c3e
000000a0: ed14 cdbe 9fc3 c3be 1627 753f 41a8 48be
000000b0: 367d 9bbd 2158 73bf 5152 0c3f 79fc 93be
000000c0: cbdb 523d 7f6a 9cbf fc89 3a3f df8a 9dbe
000000d0: 8692 19bf 49b6 6a3f 6137 58bd 733d 43be
000000e0: e0d9 46bf 3f18 5e3f 1a72 0c3e d405 8c3f
000000f0: f478 08be 827a 183e ef3b 273d 7323 983d
00000100: eb9a 80be 6d19 253d 2ca9 f7be 26c9 00bf
00000110: 56c9 5a3f ead5 303f ec6f a63d bfb2 a43e
00000120: 0588 97be 576a 593d d9d5 cc3f 2fa5 253f
00000130: 3950 283f c2f3 763f 8bad 973d e418 d3bd
00000140: 16a8 6c3e a1e9 3a3f 0a60 8bbe 5e9e ec3e
00000150: 2881 b43c d652 89bd 685b 103e ad75 55be
00000160: 81dc cebf d1ad aabe 0426 86bf 6ba7 3b3e
00000170: 0797 87be 180d d43c 229d 153f 2b7f b73e
00000180: eaff 77be 49d9 5b3f 8637 88bd d0e4 953e
00000190: a15f b33e cfe8 cd3e 3e46 363e 7054 d13e
000001a0: 58ff 1abe 8f98 69be b766 afbe a8cd 0cbd
000001b0: a2b0 263f a0b4 223f 6e69 283f d772 a4bd
000001c0: 8af1 ebbd e90d 1dbe 3955 de3e ce4d abbe
000001d0: 1792 d43e e47e 8a3f 724d ef3e 4da6 8c3d
000001e0: 1e20 2ebf 2890 c53d 2aad a63e ca5f d83e
000001f0: 685d a2be 4380 fb3e 8150 b43e 6138 4b3c
00000200: 3463 74bf 2ebc b6be 3a42 913e 128c 2d3e
00000210: 79d1 2abe 7828 113f ec9f 333e d0ff f4be
00000220: 7d44 65be 4b30 343f 82e6 bf3b 1e38 293f
00000230: d078 29bd 185c 8fbc 3ee9 f53e ab67 713f
00000240: c17d c63e 4054 1a3f 1792 c6be 32f5 21bf
00000250: 5ca0 d0be dcb2 ce3f c027 a43e c4c4 3ebf
00000260: 0dd5 113d e721 823f b935 4ebe 8909 91be
00000270: 59ba a2bf 7d93 57bf 676b bbbe fc93 97bf
00000280: 6ecb 77be 4b5d 24be e57c 133f 6206 08bc
00000290: 21cf 543f 778f a13f f16a e83d a32a 11be
000002a0: 6b2b acbd 8694 163e cd31 5f3d f489 823f
000002b0: 1e69 1b3f ab09 9b3f e3dd eb3e 97cb 853e
000002c0: beb3 36bd 2d1d e63e c2bd b9be 1a4a 84bd
000002d0: aac8 353f 2702 d43e 18c5 483f bf3d a03e
000002e0: 2f42 20bf d9ab 91be bf30 443d 1525 ecbe
000002f0: d55b f3bd 097e 443f 9cb2 243e 895c 183d
00000300: 53d7 8cbf 24b5 32bd 4f51 98bf 6826 cf3e
00000310: 10ee fcbd 37b5 a83d 627b 093f 68ce 08be
00000320: 82e4 003f 3033 1cbc 0a7f 503e 1a9e f6be
00000330: 0bc5 d63e 0655 543f 7497 d43e e97e 9e3d
00000340: d16d d1be f838 61bf fe58 88bf fb88 d5bd
00000350: 15ba 6c3f 6eb5 2f3f 71f4 553e e481 66bf
00000360: 663b 713e e9ce cf3d 05cf 97be 65f0 04bd
00000370: 0e9a 04be 78a3 85bf 5b02 3dbe fa0e f4bb
00000380: e2d7 c83b 4d2b 63be 9758 a23e 2eea 7bbd
00000390: 8ec5 2d3f 091d c83f 52c4 b8be b05f 33bf
000003a0: a052 00bf 3ec1 4ebe 6adf fc3d 1096 06bf
000003b0: 7b1e 823d ee50 3b3f 2d85 913e f7c6 413d
000003c0: 76df b2be 94d1 2f3d 2fd4 19bf b903 083e
000003d0: c9b7 1cbf 32d7 c0bf 0ef4 9b3e 12f4 483f
000003e0: 9d60 d23f 8c7f ba3e acb2 423f 3330 cf3c
000003f0: f7f3 9bbe 0ffd 593e 3c32 0abd c561 833d

net.0.bias f4 [128]
0.37642527 -0.13464311 0.12977979 0.25756 0.27488887 -0.1574984 -0.23982432 0.19835493
-0.4141151 -0.05487598 0.69520885 0.12512742 -0.15297031 0.28374276 0.39493972 -0.26563293
-0.48959714 0.2337423 0.51111454 0.032210838 0.5036564 0.5246379 0.8209244 0.73310393
0.3796309 0.44250485 -0.8061102 -0.17538151 0.19223455 0.6329718 0.41685233 -0.007352129
-0.46767756 -0.4531772 0.5502265 -0.38247246 0.074407555 -0.04693737 0.3190135 0.31051904
-0.37675965 -0.3554826 0.15833548 -0.50611955 0.646395 -0.14887612 0.5848335 0.37887266
0.41642484 0.4098068 0.16068132 0.16422391 0.8222487 0.11346649 0.11548751 -0.68449295
0.8562559 0.22499534 0.6960486 -0.4233583 0.70882636 0.07803457 0.6364197 0.87094116
0.10901856 0.12382796 -0.112933666 0.4339046 -0.756059 -0.23782958 -0.6400175 0.44151428
0.8246763 -0.33463112 0.16451627 0.19382994 -0.31925446 0.13879299 0.2054576 0.16382074
0.62077594 -0.510752 -0.5478705 0.2724477 0.27286947 0.009226984 0.61981356 0.21494336
0.19520788 -0.57428175 0.41788393 -0.6926109 0.50524145 0.48591098 0.2600404 0.24399191
-0.24015877 0.90734005 -0.5631253 -0.21685585 0.5778606 0.26887628 -0.17544919 -0.068871684
0.6453813 0.51261026 -0.44459096 0.5003892 -0.78132254 -0.32337832 0.8042851 -0.3760613
0.17535637 0.2740407 0.51888835 0.3481836 -0.27799025 -0.272252 0.77871865 0.7696865
0.9264024 0.6024221 -0.5251532 0.9095056 0.1341459 -0.21321185 0.007784866 -0.29882467
00000000: d0ba c03e e2df 09be fee4 043e e8de 833e
00000010: 3cbe 8c3e 4347 21be 8294 75be 8e1d 4b3e
00000020: e506 d4be a3c5 60bd 35f9 313f 6721 003e
00000030: 40a4 1cbe bb46 913e 8a35 ca3e 0a01 88be
00000040: 7aac fabe 245a 6f3e 67d8 023f 83ef 033d
00000050: a0ef 003f ab4e 063f 1a28 523f b3ac 3b3f
00000060: fb5e c23e ff8f e23e 3d5d 4ebf 3697 33be
00000070: 22d9 443e 710a 223f ab6d d53e 21ea f0bb
00000080: 6f73 efbe d806 e8be a5db 0c3f 6ed3 c3be
00000090: fd62 983d 6641 40bd bd55 a33e 5afc 9e3e
000000a0: a4e6 c0be d101 b6be b222 223e 0d91 01bf
000000b0: 257a 253f fb72 18be a6b7 153f 99fb c13e
000000c0: a335 d53e 32d2 d13e a589 243e 502a 283e
000000d0: e47e 523f 1e61 e83d b784 ec3d ee3a 2fbf
000000e0: 9633 5b3f 2e65 663e 3e30 323f 6bc2 d8be
000000f0: a575 353f 97d0 9f3d 67ec 223f 00f6 5e3f
00000100: 1f45 df3d 8399 fd3d c449 e7bd be28 de3e
00000110: 158d 41bf 9989 73be 30d8 23bf 290e e23e
00000120: fc1d 533f c554 abbe f476 283e 5b7b 463e
00000130: 5275 a3be c01f 0e3e 7a63 523e a0c0 273e
00000140: 2ceb 1e3f a5c0 02bf 3e41 0cbf 447e 8b3e
00000150: 8cb5 8b3e c72c 173c 1aac 1e3f 1d1a 5c3e
00000160: 93e4 473e 2104 13bf e2f4 d53e f34e 31bf
00000170: 8157 013f 53c9 f83e 0424 853e 04d9 793e
00000180: 2eec 75be 7047 683f fb28 10bf 760f 5ebe
00000190: acee 133f 27aa 893e f4a8 33be 990c 8dbd
000001a0: b537 253f 6d3a 033f 6da1 e3be 8219 003f
000001b0: c104 48bf d891 a5be a1e5 4d3f 1b8b c0be
000001c0: 9f90 333e 104f 8c3e ded5 043f 1f45 b23e
000001d0: bd54 8ebe 9d64 8bbe 1b5a 473f 2d0a 453f
000001e0: b528 6d3f 5638 1a3f 7170 06bf 5cd5 683f
000001f0: 8b5d 093e 3554 5abe 3018 ff3b 8cff 98be

net.2.weight f4 [128, 128]
0.05489861 -0.05892818 -0.06511142 -0.07735252 -0.08255052 -0.0540751 -0.07131014 0.013097638
0.022561386 0.0054290593 0.028790563 0.012918459 0.0464476 0.04824728 -0.08983188 0.06562293
0.04138983 0.048287418 -0.023374151 0.074822426 0.024355106 0.046746913 0.0010676992 -0.038348425
-0.07016463 0.021714285 -0.07666241 -0.077239916 0.06920726 -0.01950893 -0.008224024 0.068900324
0.0064845737 -0.041954093 0.010609683 0.074321695 -0.03864067 -0.04662171 -0.031098977 0.017178273
-0.066555634 -0.05857375 0.065313645 -0.06321016 -0.076113895 0.01872277 -0.05897601 0.060311574
-0.012617018 -0.05761485 0.058044005 0.044889763 -0.09611752 -0.029353961 0.06345196 0.02969271
-0.059213944 0.01600555 0.013284533 -0.08823575 0.00090489537 0.010069355 -0.07300432 -0.031019475
0.027368395 -0.015085322 0.057744756 0.024032317 0.042535387 -0.09581088 -0.044280287 0.038154315
-0.001810511 0.02968883 -0.02436009 0.042233218 0.036428533 -0.028127324 -0.065460406 -0.009627278
0.023237154 -0.08325246 -0.014581392 -0.07487921 0.008433446 -0.07053526 0.047581315 -0.0061418433
-0.00084290653 -0.08372731 0.028930044 -0.050307274 -0.008275334 -0.017164377 0.042401467 0.032140873
-0.016236838 0.0727545 -0.038351335 0.074802496 -0.08293184 -0.047669835 0.037738346 0.07400075
0.050198644 -0.008058507 -0.06972296 -0.050351724 0.055716556 0.053662192 -0.0317602 -0.089916825
-0.037873995 -0.053836126 0.049256325 0.05752411 -0.06279201 0.037035022 -0.05635962 0.01616735
-0.022892086 -0.06370241 0.010665841 0.059419233 0.030927597 0.0043551796 -0.0430808 -0.05859717
-2.0349352 -2.0191162 -0.47683156 -0.30357566 0.21670519 -0.20048848 0.7290362 -1.1623367
0.46639085 0.049241733 -1.5639781 -0.54357946 -0.55980814 0.041942965 0.25007907 -0.018009532
0.19487001 -0.7089243 -0.07488935 -1.1569136 0.3215149 -0.13961908 -0.13222882 0.20261553
-0.6455279 0.07577708 0.7595808 -0.09241643 -0.037747167 0.0063467235 -1.361766 -2.0506208
0.30890277 0.70678514 -0.77330446 0.4925991 -2.2650585 -2.2609985 -0.34115484 -0.22804548
-0.40010095 0.2231738 -0.1651361 0.5909062 -0.47753102 0.12168472 -0.06590124 0.029677412
0.08775149 0.04767102 -1.3962067 -2.0244212 -2.860856 0.4008129 -0.13307959 -1.7081778
-0.01618492 -0.75534636 -0.16431 0.12395243 -0.6390044 0.18094008 -1.5133057 -1.9854723
-0.006706896 -2.378009 -1.7721782 -0.5505908 -1.1252042 -0.71323484 -1.4880469 -0.49348825
-1.0085332 -2.0710864 -0.2717855 0.31529522 0.09311849 -0.68181014 -1.3049939 0.5576036
-0.029747006 0.97032994 0.5893574 -2.7328424 -0.017626515 -0.10370105 0.0026466064 -0.5846949
0.47404447 0.23976938 -0.8970572 0.09776335 -0.9363141 -0.20570265 -0.30218205 -0.8260194
-2.2857852 -0.39425 0.5059491 0.3560889 -0.12761363 -0.26250902 0.22088934 -0.20915459
0.116324194 -0.220699 -1.4928108 0.091012545 -0.2019706 -1.7431121 -1.7374485 0.32793432
-0.072759435 0.59360695 0.27388102 -0.5873169 0.21963134 0.7405351 -1.6305904 0.56453997
-0.23711519 -0.24613842 0.053780857 -0.5621239 -0.15325859 0.10527259 0.38134524 0.3458548
00000000: 5ddd 603d ad5e 71bd 2359 85bd ff6a 9ebd
00000010: 3f10 a9bd da7d 5dbd 0d0b 92bd 7a97 563c
00000020: a8d2 b83c 40e6 b13b 30da eb3c f2a7 533c
00000030: d73f 3e3d f19e 453d c7f9 b7bd 5165 863d
00000040: 6288 293d 07c9 453d 267b bfbc 803c 993d
00000050: 5c84 c73c b179 3f3d 0af2 8b3a 3d13 1dbd
00000060: 79b2 8fbd 28e2 b13c 2e01 9dbd f62f 9ebd
00000070: 89bc 8d3d 31d1 9fbc 0fbe 06bc 9d1b 8d3d
00000080: 8c7c d43b 0ed8 2bbd 3cd4 2d3c f935 983d
00000090: ae45 1ebd 68f6 3ebd 48c3 febc 73b9 8c3c
000000a0: 524e 88bd 07eb 6fbd 29c3 853d 5474 81bd
000000b0: 9ae1 9bbd 7f60 993c d490 71bd 4509 773d
000000c0: 9cb7 4ebc 8dfd 6bbd 8dbf 6d3d 54de 373d
000000d0: 43d9 c4bd b877 f0bc 1af3 813d 203e f33c
000000e0: 528a 72bd 121e 833c 5fa7 593c f2b4 b4bd
000000f0: 8036 6d3a f0f9 243c 4a83 95bd 8e1c febc
00000100: af33 e03c 6d28 77bc c485 6c3d 6cdf c43c
00000110: 9639 2e3d 7f38 c4bd 3f5f 35bd b347 1c3d
00000120: ab4e edba fd35 f33c d08e c7bc bdfc 2c3d
00000130: 1636 153d 466b e6bc 1b10 86bd bbbb 1dbc
00000140: d85b be3c 4480 aabd cae6 6ebc 455a 99bd
00000150: 702c 0a3c ca74 90bd a0e4 423d 8441 c9bb
00000160: 80f6 5cba 3979 abbd b3fe ec3c 000f 4ebd
00000170: 4495 07bc 4f9c 8cbc 29ad 2d3d 26a6 033d
00000180: 1e03 85bc 5000 953d 4a16 1dbd 0d32 993d
00000190: 2bd8 a9bd 7241 43bd 8693 1a3d b58d 973d
000001a0: 189d 4d3d d407 04bc e9ca 8ebd 9c3d 4ebd
000001b0: 0b37 643d e3cc 5b3d fc16 02bd 5026 b8bd
000001c0: c321 1bbd 4583 5cbd 00c1 493d 679e 6b3d
000001d0: 1999 80bd 09b2 173d 58d9 66bd 6471 843c
000001e0: 2f88 bbbc 6976 82bd c8bf 2e3c 9561 733d
000001f0: df5b fd3c e5b5 8e3b 7e75 30bd 9603 70bd
00000200: 613c 02c0 3339 01c0 4423 f4be 456e 9bbe
00000210: f7e7 5d3e da4c 4dbe 1ea2 3a3f 73c7 94bf
00000220: c8ca ee3e b3b1 493d 6f30 c8bf 0628 0bbf
00000230: 964f 0fbf 63cc 2b3d 5d0a 803e ba88 93bc
00000240: 018c 473e 107c 35bf 965f 99bd bf15 94bf
00000250: 9a9d a43e 4ef8 0ebe fe66 07be 727a 4f3e
00000260: 5141 25bf 0431 9b3d e373 423f d344 bdbd
00000270: c69c 1abd 2df8 cf3b 594e aebf 5f3d 03c0
00000280: 8128 9e3e dfef 343f 48f7 45bf f335 fc3e
00000290: b8f6 10c0 33b4 10c0 d9ab aebe c184 69be
000002a0: 08da ccbe ac87 643e 7019 29be a145 173f
000002b0: f27e f4be d735 f93d 3bf7 86bd 0b1e f33c
000002c0: 0eb7 b33d b042 433d e7b6 b2bf 1e90 01c0
000002d0: 4418 37c0 5937 cd3e 0446 08be 92a5 dabf
000002e0: 3d96 84bc 615e 41bf e140 28be c6da fd3d
000002f0: cb95 23bf 5b48 393e 00b4 c1bf f523 febf
00000300: 85c5 dbbb 4d31 18c0 bcd6 e2bf 85f3 0cbf
00000310: b106 90bf 8f96 36bf 5278 bebf 7eaa fcbe
00000320: 9e17 81bf ae8c 04c0 7827 8bbe 606e a13e
00000330: e8b4 be3d 1c8b 2ebf 0a0a a7bf 1cbf 0e3f
00000340: feaf f3bc 8b67 783f 20e0 163f e4e6 2ec0
00000350: 7b65 90bc 3761 d4bd b072 2d3b 91ae 15bf
00000360: f5b5 f23e 1b86 753e 8aa5 65bf 2738 c83d
00000370: 48b2 6fbf b7a3 52be 9bb7 9abe 0276 53bf
00000380: 4e4a 12c0 23db c9be e185 013f 4951 b63e
00000390: 26ad 02be 9567 86be d130 623e 9f2c 56be
000003a0: 613b ee3d ebfe 61be 6d14 bfbf c964 ba3d
000003b0: 62d1 4ebe 4c1e dfbf b664 debf 02e7 a73e
000003c0: e602 95bd a0f6 173f 223a 8c3e 665a 16bf
000003d0: 0ae7 603e b593 3d3f 30b7 d0bf b185 103f
000003e0: 53ce 72be b60b 7cbe 5149 5c3d 5ae7 0fbf
000003f0: d2ef 1cbe 2899 d73d af3f c33e e113 b13e

net.2.bias f4 [128]
-0.08802198 -1.1569881 -0.035921715 -0.06674514 0.031735778 0.012578908 0.75723314 0.025610337
-0.36315784 -0.05720982 0.020518668 0.061052296 -0.03528691 0.05333046 -0.052620847 0.034319624
-0.03209726 -0.014325975 0.011764692 -0.08148222 0.16036126 -0.03691542 0.8745398 0.1811346
-0.06283837 -0.09305203 0.05153568 -0.09157016 -0.09329236 -0.106747024 0.65920126 0.011285173
-0.100216195 -0.2058886 -0.08085561 0.13527256 -0.20194967 -0.026368963 0.016567826 -0.11375775
0.0144356275 0.083240844 -0.105604 -0.17347606 -0.024891157 0.19473559 0.0002578149 -0.004246352
0.00022077028 0.69424254 -0.111904435 -0.104386784 0.009958682 0.5658328 -0.019295594 0.035039477
0.51317227 0.21772416 -0.043353762 0.031360034 -0.24064513 0.091405146 0.0061117345 0.09085792
0.112222314 -0.013448418 -0.056999024 -0.12452918 -0.048523072 0.05610871 -0.09482041 -0.0030400893
-0.030766131 -0.080394685 0.02820947 -0.06283343 -0.017970212 0.026749533 0.7089818 0.034833483
-0.049499772 0.013457873 -0.09276497 0.15395708 0.06355941 0.0026740946 0.03125041 0.041862145
-0.08986389 -0.091400824 -0.090784684 -0.028885957 -0.16380571 -0.065896526 0.27505875 0.054327752
0.02826166 -0.08836703 0.04775551 0.27920258 -0.015245304 0.24254344 0.062126976 -0.03213737
0.015558036 -0.00938367 0.035871647 0.013287656 0.035440184 0.06966741 -0.020450639 -0.03282111
-0.04634534 -0.060640488 -0.049834613 -0.05327219 -0.09794969 0.03360927 -0.066050395 -0.093073785
0.0021304695 -0.11835206 -0.010755727 0.3029877 0.012545745 -0.05465131 -0.016147114 0.16399786
00000000: de44 b4bd 3018 94bf a622 13bd adb1 88bd
00000010: 60fd 013d c417 4e3c 08da 413f c5cc d13c
00000020: d3ef b9be d854 6abd c416 a83c f911 7a3d
00000030: 0289 10bd 0a71 5a3d f588 57bd bc92 0c3d
00000040: 6b78 03bd 7fb7 6abc b2c0 403c 26e0 a6bd
00000050: be35 243e a034 17bd d7e1 5f3f 597b 393e
00000060: 67b1 80bd 1092 bebd 1417 533d 2389 bbbd
00000070: 1110 bfbd 2f9e dabd 6ac1 283f 72e5 383c
00000080: 263e cdbd 76d4 52be a097 a5bd e484 0a3e
00000090: e5cb 4ebe b903 d8bc 40b9 873c d3f9 e8bd
000000a0: 6983 6c3c 2d7a aa3d e946 d8bd b5a3 31be
000000b0: 8ae8 cbbc c468 473e 552b 8739 fb24 8bbb
000000c0: 927e 6739 e1b9 313f 272e e5bd bdc8 d5bd
000000d0: bd29 233c 6bda 103f cb11 9ebc 8e85 0f3d
000000e0: 425f 033f 15f3 5e3e b793 31bd 6173 003d
000000f0: ad6b 76be 9f32 bb3d f244 c83b b813 ba3d
00000100: d0d4 e53d c156 5cbc cf77 69bd 2809 ffbd
00000110: 21c0 46bd 3fd2 653d 3431 c2bd 3c3c 47bb
00000120: 4109 fcbc f8a5 a4bd 8c17 e73c d0ae 80bd
00000130: 4436 93bc d621 db3c d57f 353f 8ead 0e3d
00000140: 46c0 4abd 697e 5c3c 90fb bdbd eda6 1d3e
00000150: 702b 823d dd3f 2f3b 6e00 003d a477 2b3d
00000160: 8f0a b8bd 5b30 bbbd 52ed b9bd 3ea2 ecbc
00000170: afbc 27be c2f4 86bd 80d4 8c3e c786 5e3d
00000180: ff84 e73c c6f9 b4bd 489b 433d a4f3 8e3e
00000190: 71c7 79bc 4f5d 783e db78 7e3d 7aa2 03bd
000001a0: 22e7 7e3c f7bd 19bc 26ee 123d 78b4 593c
000001b0: ba29 113d c9ad 8e3d 1988 a7bc 6e6f 06bd
000001c0: 9cd4 3dbd 2962 78bd 611f 4cbd f133 5abd
000001d0: d999 c8bd e0a9 093d 6e45 87bd 789d bebd
000001e0: 599f 0b3b 9162 f2bd ca38 30bc 3421 9b3e
000001f0: ab8c 4d3c 0dda 5fbd f446 84bc 0eef 273e

net.4.weight f4 [4, 128]
-0.0039272527 -0.37912583 -0.27313966 -0.04694807 -0.38279885 -0.35979527 1.3551806 0.084341794
1.9601815 -0.28780264 -0.3124991 -0.3802283 -0.29368994 1.7849345 -0.4064113 -0.26759234
-0.06609474 0.020450674 -0.42245358 -0.3506888 1.8333342 -0.46052477 1.7093655 -1.0761441
-0.3734616 0.014447814 -0.5080619 -2.4284678 2.263182 -0.37576777 1.3862859 -0.23989472
-0.33766255 -1.6746453 -0.36474568 -0.16798957 -0.60035646 -0.32085797 -0.32120925 -0.4943609
-0.35010913 0.91984063 -1.2082311 0.6340704 -0.42170057 0.7566691 -0.42215574 -0.1869571
-0.4600556 1.3022978 2.0479722 -0.4295372 -0.34388655 0.48681894 -0.4101026 -0.31468108
-0.03552854 -0.2631089 -0.33542395 -0.40404558 2.4176655 -0.14571862 -0.28409433 -0.3841556
-1.0440716 -0.38889745 -0.41500792 -0.8544368 -0.37022057 -0.38309056 -0.37530866 -0.08241637
-0.49598292 -0.26930374 -0.20476034 -0.38685167 0.07225983 -0.29895496 1.5648587 -0.28873762
-0.30635357 -0.033092298 -0.3392652 -0.6527494 -0.20609723 -0.46190256 -0.33381715 -0.38639346
-0.3452095 0.057417996 0.0016662764 -0.2827835 2.2951186 -0.4087379 0.12618333 -0.38001263
-0.45137873 -0.018481115 -0.22251523 0.12762052 -1.8888711 1.4151164 -0.30684242 -0.46533656
-0.06859084 -0.24601546 -0.35284865 -0.40271726 -0.27425554 0.024679452 -1.6197401 -0.32876933
-0.40620357 -0.062721334 -0.35848475 0.041482173 -0.3499788 -0.3276268 0.039632086 0.01119181
-0.3651715 -0.3982099 -0.39830095 1.4529046 -0.39546883 -0.41920555 -0.40878582 -0.09739883
-0.054187234 0.74667937 -0.3569424 0.026229385 -0.43364692 -0.37797692 0.92244285 -0.06353276
2.131165 -0.331147 -0.19497319 -0.54085994 -0.3598364 1.8205024 -0.35234693 -0.060692593
-0.026014052 -0.058466498 -0.47450185 -0.45344064 1.8926939 -0.46335024 1.8736061 0.08857531
-0.2753477 0.050114483 -0.6977381 -1.1454966 2.1434968 -0.24426654 1.6033952 -0.39530182
-0.27756965 -1.7715802 -0.47107542 0.15677045 -0.36059496 -0.3451899 -0.21740638 -1.2226948
-0.2201689 1.2141355 -1.1715223 1.523899 -0.7143528 0.35773435 -0.43448892 -0.27695766
-0.65142787 1.3139746 1.8066374 -0.6665974 -0.3648359 0.79077584 -0.78953457 -0.5853091
1.4299898 -1.2400504 -0.43229908 -0.30373642 2.5936108 0.24164161 -0.27493858 -0.45817426
0.47471634 -0.42601871 -0.49062276 -0.5401697 -0.5006703 -0.51572996 -0.45703438 0.030662708
-0.3316842 -0.1557434 0.008510781 -0.3040715 -0.13508353 -0.5168969 1.4038821 -0.27067983
-0.56178594 0.06890534 -0.44413492 -0.96286994 -0.33623332 -0.49402145 -0.4811823 -0.48501018
-0.3728026 0.0850398 0.019635014 -0.22851588 2.3546224 0.05660514 0.4229762 -0.5253666
-0.23316407 0.037125643 -0.1602725 0.41134724 -1.6114982 0.9376868 -0.34395757 -0.56217384
-0.01725078 -0.5135998 -0.18040441 -0.21956693 -0.20298062 0.05558965 -1.6067263 -0.30361426
-0.16500792 0.08015558 -0.17957854 3.5107136e-05 -0.2880373 -0.17185085 0.033830818 0.009557195
-0.21965116 -0.36501285 -0.45551273 1.3092558 -0.17420536 -0.20266135 -0.39991206 0.05562767
00000000: 2fb0 80bb c81c c2be f6d8 8bbe 9f4c 40bd
00000010: 36fe c3be 1637 b8be 8f76 ad3f 64bb ac3d
00000020: 3ae7 fa3f de5a 93be e2ff 9fbe 49ad c2be
00000030: 875e 96be bc78 e43f 2415 d0be dd01 89be
00000040: ae5c 87bd 2c88 a73c d64b d8be 7b8d b3be
00000050: b2aa ea3f e7c9 ebbe 7dcc da3f 17bf 89bf
00000060: 5c36 bfbe 86b6 6c3c 5810 02bf 046c 1bc0
00000070: f9d7 1040 a264 c0be d171 b13f f6a6 75be
00000080: 1be2 acbe c75a d6bf f2bf babe 7505 2cbe
00000090: f6b0 19bf 7f47 a4be 8a75 a4be df1c fdbe
000000a0: 8141 b3be ad7a 6b3f 51a7 9abf 7052 223f
000000b0: 23e9 d7be 11b5 413f cc24 d8be af71 3fbe
000000c0: 688c ebbe b2b1 a63f fa11 0340 4dec dbbe
000000d0: e611 b0be 5540 f93e f8f8 d1be e11d a1be
000000e0: 6086 11bd 36b6 86be b0bc abbe 10df cebe
000000f0: 08bb 1a40 4337 15be d074 91be 0bb0 c4be
00000100: 23a4 85bf 911d c7be eb7b d4be 5fbc 5abf
00000110: 8d8d bdbe 7224 c4be 7528 c0be eac9 a8bd
00000120: 79f1 fdbe 2ee2 89be b2ac 51be 6c11 c6be
00000130: f6fc 933d a010 99be 4a4d c83f 6bd5 93be
00000140: 60da 9cbe ca8b 07bd 2bb4 adbe 961a 27bf
00000150: 270b 53be 7e7e ecbe 15ea aabe 5dd5 c5be
00000160: 4dbf b0be 222f 6b3d f566 da3a 00c9 90be
00000170: 39e3 1240 1846 d1be 3436 013e 0491 c2be
00000180: 1d1b e7be b565 97bc 08db 63be f4ae 023e
00000190: 87c6 f1bf 8922 b53f 731a 9dbe 9840 eebe
000001a0: 5b79 8cbd 7aeb 7bbe 94a8 b4be f530 cebe
000001b0: 396b 8cbe 902c ca3c a553 cfbf 7454 a8be
000001c0: eaf9 cfbe 0b74 80bd 508b b7be 36e9 293d
000001d0: 6c30 b3be b3be a7be 4155 223d da5d 373c
000001e0: c2f7 babe 2be2 cbbe 1aee cbbe c7f8 b93f
000001f0: e47a cabe 1ca2 d6be 604c d1be 0a79 c7bd
00000200: 6ff3 5dbd 6126 3f3f 27c1 b6be 02df d63c
00000210: f806 debe 3186 c1be 3725 6c3f 771d 82bd
00000220: 0265 0840 198c a9be 0da7 47be cc75 0abf
00000230: 7a3c b8be 3906 e93f d166 b4be cc98 78bd
00000240: 6c1b d5bc 917a 6fbd e8f1 f2be 5f29 e8be
00000250: cb43 f23f 3e3c edbe 53d2 ef3f f966 b53d
00000260: 60fa 8cbe d844 4d3d f79e 32bf a29f 92bf
00000270: 0d2f 0940 0221 7abe 0e3c cd3f 0065 cabe
00000280: 9c1d 8ebe 24c3 e2bf cc30 f1be 6f88 203e
00000290: e79f b8be bbbc b0be c79f 5ebe 4381 9cbf
000002a0: f573 61be cb68 9b3f 71f4 95bf 1f0f c33f
000002b0: d3df 36bf f528 b73e 5575 debe 65cd 8dbe
000002c0: fac3 26bf 5230 a83f e53f e73f 21a6 2abf
000002d0: c5cb babe 4970 4a3f f01e 4abf d1d6 15bf
000002e0: e809 b73f f9b9 9ebf 4e56 ddbe 5783 9bbe
000002f0: b8fd 2540 e670 773e c0c4 8cbe d195 eabe
00000300: 050e f33e 201f dabe e832 fbbe 9048 0abf
00000310: ee2b 00bf e106 04bf 6900 eabe 5c30 fb3c
00000320: 83d2 a9be 337b 1fbe ce70 0b3c 42af 9bbe
00000330: 5653 0abe 5b53 04bf 69b2 b33f 8c96 8abe
00000340: 34d1 0fbf 3e1e 8d3d a765 e3be a57e 76bf
00000350: c626 acbe 61f0 fcbe 875d f6be 4153 f8be
00000360: fbdf bebe 5929 ae3d 9cd9 a03c 1100 6abe
00000370: 22b2 1640 cbda 673d 5690 d83e 6d7e 06bf
00000380: 90c2 6ebe 0f11 183d 791e 24be 1b9c d23e
00000390: 9345 cebf 3e0c 703f 351b b0be a0ea 0fbf
000003a0: 8251 8dbc 477b 03bf efbb 38be 27d6 60be
000003b0: 27da 4fbe f9b1 633d 35a9 cdbf 5473 9bbe
000003c0: d6f7 28be 9c28 a43d 70e3 37be 0040 1338
000003d0: a079 93be abf9 2fbe 2f92 0a3d c895 1c3c
000003e0: 3cec 60be f7e2 babe f738 e9be b295 a73f
000003f0: e462 32be 7586 4fbe 46c1 ccbe d7d9 633d

net.4.bias f4 [4]
-0.11960225 0.2669934 0.014150993 -0.042768784
00000000: 06f2 f4bd 5cb3 883e 91d9 673c 522e 2fbd
