SARSA/dsqn/50_model_weights.pth (torch, 75905 bytes, 6 tensors)

net.0.weight f4 [128, 8]
000000 f0 1d c7 3e 83 4b 40 be 53 d8 db 3e 31 b2 9b 3d
       0.38890028 -0.18778805 0.4293848 0.07602347
000010 de 46 23 bf 69 ef 02 bc 14 f3 ff 3d 2a dc 8e 3e
       -0.6378001 -0.00799165 0.12497535 0.27902347
000020 68 55 29 3e 7a bd 12 be d5 30 1f 3f 5b ff 9d be
       0.16536486 -0.14330092 0.62183887 -0.30858883
000030 03 4d 2d bf 7a ab 07 3e 3c d0 68 bd 92 80 1f 3e
       -0.67695636 0.13249007 -0.056839213 0.1557639
000040 9b 36 72 be 91 18 5e 3f 19 e7 78 bd 0e ea b7 be
       -0.23653643 0.86756235 -0.060767267 -0.35920757
000050 5c fd 50 be 5a 26 25 be 70 24 03 be 97 05 ec 3c
       -0.20409149 -0.16127911 -0.12806869 0.02881126
000060 2d 28 12 bc 7d d8 36 3f f7 30 e7 3b 46 90 c1 be
       -0.008920711 0.71424085 0.0070553976 -0.37805384
000070 75 8c bd 3d d2 24 a8 3d 6b 0d a8 3c 0b fe 71 be
       0.09255306 0.08210148 0.02051421 -0.23632066
000080 73 47 47 bd 38 96 61 bd ef 97 ef be 24 d4 5f 3e
       -0.048652124 -0.0550749 -0.46795604 0.21858269
000090 62 1c 37 3f 43 da 1e 3f 45 84 f6 3e 99 91 99 3e
       0.71527684 0.6205179 0.4814779 0.29993895
0000a0 fb 27 22 3e 8e c4 4b 3d 9c db fd bd e1 e1 b6 bc
       0.15835564 0.049747996 -0.12395403 -0.022324504
0000b0 c4 4a 17 3e c0 e2 86 be 44 31 ea 3e 65 30 54 be
       0.14774615 -0.26344872 0.45740712 -0.20721586
0000c0 7c 7b ce bd ba 04 dd be 37 7b 49 bb 1d 75 65 3e
       -0.100821465 -0.4316767 -0.0030743608 0.22407956
0000d0 ce df 17 be 29 c2 15 3f a0 e2 89 be 41 0c c5 3d
       -0.14831468 0.5849939 -0.26930714 0.09621478
0000e0 80 53 93 be 59 56 2d 3f 81 0c 4c 3c b0 37 62 3e
       -0.28774643 0.6770988 0.012454153 0.22091556
0000f0 87 29 db bd 62 02 71 bc 6a fd 9f bb 0a bc 7a 3e
       -0.1070128 -0.014710041 -0.004882504 0.24485794
000100 3e c9 ac be df ec e8 3d 38 da c3 be 11 a7 00 3e
       -0.33747286 0.113733046 -0.38252425 0.12563731
000110 55 7a e3 3e b7 13 a7 3e bc 0f eb 3c 35 0d 6e 3e
       0.4442927 0.3263223 0.028694026 0.23247226
000120 b1 f9 26 3f 5e 90 fd 3d a8 b7 11 3f 4b 0e 89 bd
       0.6522475 0.123810515 0.5692086 -0.06692179
000130 b7 1f e8 3e 29 70 55 3f 98 1e ad bd 50 a8 0e 3e
       0.45336697 0.8337427 -0.08453101 0.13931394
000140 89 78 b0 3e e3 71 3c 3f 00 d5 54 be 28 13 0b 3e
       0.3446696 0.7361128 -0.20784378 0.13581526
000150 aa ad cf bc 4a 83 92 3b b1 f0 8a 3e 99 7e 81 be
       -0.025351364 0.0044712173 0.27136758 -0.252919
000160 d6 73 19 bf 37 67 4a be 17 9c 02 bf 70 27 e4 3c
       -0.59942377 -0.19765936 -0.51019424 0.027850837
000170 01 12 10 be 3a b7 02 be 19 a8 0f 3f bc 28 39 3e
       -0.14069368 -0.12765208 0.5611587 0.18081945
000180 67 fa 2e bc 0f a3 42 3f 4b 63 28 3d 42 39 f2 bd
       -0.010679818 0.7603006 0.04111032 -0.11827327
000190 58 21 5f be d6 1f a7 bb 7c 82 68 3e 3b 83 88 3e
       -0.21790063 -0.0051002307 0.22706026 0.2666262
0001a0 80 40 15 3e 02 e7 c5 bd 95 ef e0 be d4 ac 14 3e
       0.14575386 -0.09663202 -0.43932787 0.14519054
0001b0 a6 12 43 3f c8 b6 0f 3e 76 d4 23 3f c4 ff d5 3d
       0.7620033 0.1403457 0.63996065 0.10449174
0001c0 50 11 91 3e ce a6 e9 bd 14 ba 9a be c3 b6 08 bd
       0.2833352 -0.114087686 -0.3022009 -0.03337742
0001d0 df 42 38 3f b9 f4 34 3f e2 d4 03 3f 59 ab 43 3d
       0.7197704 0.7068592 0.5149671 0.04777083
0001e0 8d 0f 92 bc a6 3a 08 3e 4d 1a d2 3d 9e 8d c6 3d
       -0.01782968 0.13303623 0.10258923 0.0969498
0001f0 63 8c 56 bc 28 a4 d9 3c 47 3c 84 3e 98 bf b7 bd
       -0.013094994 0.026567534 0.25827238 -0.089720905
000200 95 7f 46 3e ff ee 22 3e a0 0f e3 be 53 6a f7 3c
       0.19384606 0.15911482 -0.44347858 0.030202067
000210 a8 7b 1c 3f e0 ae 34 3e 65 40 d8 3c ad a4 b5 bd
       0.61126184 0.17644835 0.026397893 -0.088693
000220 e1 7c 84 be b2 de 27 3f 57 fe b8 3e b8 b0 96 bb
       -0.25876525 0.6557418 0.36131546 -0.0045987032
000230 1c 89 43 bd 23 00 ab 3d 8c a7 04 3f b5 0e c4 3e
       -0.04773818 0.083496355 0.51818156 0.3829247
000240 f1 a0 42 3e 1e 7e e5 3e c4 7e a8 be 2a 92 c7 be
       0.19006707 0.44822782 -0.32909214 -0.38978702
000250 ef 15 6b bb af b0 9a 3e 7d e2 b2 3e 88 6d 9b be
       -0.0035871228 0.30212924 0.34938422 -0.30357003
000260 6c 9f b0 bd 5f 86 3e 3e 1b 41 10 be 06 ed ee be
       -0.08624157 0.18605946 -0.14087336 -0.4666521
000270 d7 9f 9d be a5 cd f2 be ab 8f 96 be 19 fb 11 be
       -0.3078601 -0.4742252 -0.29406485 -0.14255942
000280 6c 16 aa be a8 6a 17 be b0 86 a3 bb 23 bb cb bc
       -0.33220232 -0.1478678 -0.0049904212 -0.024869507
000290 0a 94 55 3f 15 b2 2f 3f 6b 6b fd 3d 9b 02 8e bc
       0.83429015 0.68631107 0.12374004 -0.017335227
0002a0 8a 1b 85 3e 39 b7 d8 3e 40 f0 f1 3d a9 9e 80 3e
       0.25997573 0.42327288 0.11813402 0.25121048
0002b0 6c 8e 0b 3e 80 2f de 3e c3 5c aa 3e d3 89 8e be
       0.13628548 0.43395615 0.33273897 -0.27839527
0002c0 bd 33 dc 3d 8d 37 ac 3e a2 c1 e6 be 61 84 cb be
       0.10752056 0.33636132 -0.45069605 -0.39749435
0002d0 64 3a 90 3e 19 a3 ff 3d dd 56 bd 3e 6e 94 d7 3d
       0.2816955 0.1248228 0.36980334 0.105263576
0002e0 e4 0c 33 be 02 6e 6b be e2 be 16 bd d4 fa e8 3d
       -0.17485386 -0.22991183 -0.036803134 0.11375967
0002f0 1c 1a e0 3e e2 b4 f7 3e 15 18 43 3e 50 e6 43 3e
       0.4376992 0.4838019 0.19052155 0.19130826
000300 26 72 9d be 36 0c 3e 3e 1d e6 c5 be 11 a6 2a bd
       -0.3075115 0.18559346 -0.38652125 -0.04166228
000310 25 df 1e bd a8 a3 8e bd 87 bf d9 3e a5 57 78 be
       -0.038787026 -0.06964809 0.42528936 -0.24252184
000320 13 2a 67 3e 52 a9 77 bd a8 ce 05 bf e8 6a 92 be
       0.22574644 -0.06046421 -0.5226846 -0.28597188
000330 df cc 09 3f 33 bf 23 3f 30 cb b4 3e dd 74 1a be
       0.53828233 0.6396362 0.3531127 -0.15083642
000340 4e e1 27 3e 00 5d f5 be 48 17 d7 be 07 bb 5a 3e
       0.1639454 -0.47922516 -0.4200995 0.21360408
000350 8e b9 92 3d db f5 fc 3e 6e 99 df 3c 96 33 29 bc
       0.07164298 0.49406323 0.02729484 -0.01032724
000360 71 98 72 3e 01 b0 4a 3d 19 8a 2c 3e 3d f2 32 3e
       0.23690964 0.049484257 0.16849555 0.17475219
000370 5d 17 0b bf 16 16 30 bf 1f 9c 11 3d 8e 5b e2 bc
       -0.54332525 -0.687837 0.03554928 -0.027631547
000380 7b d9 ae 3e 34 37 79 3b ee d6 3f be 9d fc 3e be
       0.341503 0.0038027288 -0.18734333 -0.18651052
000390 2c 64 e8 3e 89 21 7f 3e 28 59 8e be b7 1e d8 3e
       0.45388925 0.24915136 -0.27802396 0.42210934
0003a0 1b 09 0e be 21 81 ea bd fa 75 35 bd 98 91 9c 3d
       -0.13870661 -0.11450411 -0.044301964 0.07644957
0003b0 91 15 28 3f 25 fa b3 3e d5 01 f9 3e be ce 35 3e
       0.6565791 0.35151783 0.4863421 0.17754647
0003c0 5c 69 8a be 27 15 76 be c0 a5 9e 3e 59 aa a2 be
       -0.27033508 -0.24031506 0.30985832 -0.3177059
0003d0 60 47 cc be f2 2d 1f be be a0 d4 3e 68 80 e6 3e
       -0.39898205 -0.1554487 0.41528887 0.4501984
0003e0 e5 40 b7 3e 0a b2 c7 bc f8 92 1f 3f ba b1 c9 be
       0.35791698 -0.024376888 0.6233363 -0.39393407
0003f0 d7 b0 00 bf dd 34 64 3e c6 fa 26 3e df c7 2d bd
       -0.50269836 0.2228579 0.163066 -0.04242694

net.0.bias f4 [128]
000000 3e c7 90 3e 2a 74 3d 3e 21 c6 1a 3d b1 14 95 3e
       0.2827701 0.18501344 0.037786607 0.2911735
000010 1f de 3b 3e 1f fb a9 be 8f 2e 49 3d 57 ef f7 bd
       0.18346451 -0.33199403 0.049116667 -0.12106197
000020 34 d4 90 bd 5c e7 f8 bc a4 9c 0d 3f 0b d3 c6 3d
       -0.070717245 -0.030383758 0.5531714 0.09708222
000030 b9 04 2b 3e fb b5 58 3e 51 55 25 3e 39 8d ae be
       0.1670102 0.2116317 0.16145827 -0.3409212
000040 e2 13 f6 bd f4 02 57 3d 9b 3c e3 3e 2d 9d cd bd
       -0.12015511 0.05249305 0.44382176 -0.100397445
000050 c9 b4 4b 3e ea f9 d5 3e ca fd fa 3e 2f 96 af 3e
       0.19893183 0.41792232 0.4902175 0.34294268
000060 8d 5b ba 3e 50 41 07 3c 5f 89 50 be 74 e7 9d bb
       0.36397973 0.008255318 -0.20364903 -0.004818851
000070 c5 ba ec bc b0 d4 3f 3e be 75 32 3e a0 9f 26 bd
       -0.028897652 0.18733478 0.17427728 -0.040679574
000080 b5 07 b2 bd 77 d2 95 be be 40 0d 3f e6 31 31 bd
       -0.08692876 -0.29262134 0.55176914 -0.043260477
000090 9d 4f 67 3e b0 17 cc 3e 80 22 b8 3e 05 3a 00 3e
       0.22588964 0.39861822 0.3596382 0.12522133
0000a0 9f 2a e5 bd c6 19 4d bd 2e f5 31 3e 46 25 8a bd
       -0.1118977 -0.050073408 0.17378685 -0.067453906
0000b0 20 0e fb 3e ca 0d 74 bd 0c 28 06 3e 04 45 00 be
       0.49034214 -0.059583463 0.13101214 -0.12526327
0000c0 02 66 c2 3e b3 8b 87 3e a2 1e 94 3e c3 43 fe 3d
       0.3796845 0.2647377 0.2892962 0.12415268
0000d0 b8 ce d5 3e c3 1a 87 bc 6d 12 30 3e 81 e0 a9 3c
       0.41759276 -0.016492253 0.17194529 0.020736935
0000e0 ce 01 06 3f bc 1a 7e 3e 85 f4 ea 3e e0 0b 44 be
       0.52346504 0.24814886 0.4588968 -0.19145155
0000f0 70 a7 90 3c ee 4e 82 be 62 20 bb 3e 2b 88 cd 3e
       0.017657965 -0.25450844 0.36548144 0.4014295
000100 6a bf 82 3d ca cc 08 3e 09 98 5e be 32 c0 f9 3e
       0.063841656 0.13359371 -0.21737684 0.48779446
000110 7c 30 33 be de a7 0b 3d 41 0d 67 be e6 00 d2 3e
       -0.17498964 0.034095638 -0.2256365 0.4101631
000120 7c cd f5 3e 92 d4 b4 3b c3 19 cf 3e 5e 72 82 bd
       0.48008335 0.0055185044 0.40449342 -0.0636947
000130 75 73 8b be 7f 1f 47 3e da 8a e8 3e 5a f7 9d 3e
       -0.27236524 0.19445609 0.45418435 0.30852777
000140 59 41 f5 3e 9e 37 84 be 53 13 92 be 0a 89 87 3e
       0.4790142 -0.25823683 -0.28530368 0.2647174
000150 b2 4b f9 3d f4 31 8b bd 85 08 ea 3e b9 78 e1 bd
       0.12172641 -0.06796637 0.45709625 -0.11009354
000160 fa 94 40 be 26 d7 d4 bc c8 ba 89 3e bb 91 77 bd
       -0.1880683 -0.025981497 0.26900315 -0.060441714
000170 d4 7f ea 3e 13 50 b6 3e 66 1a 1a 3d b7 6e a9 3e
       0.4580065 0.35607967 0.03762283 0.3309228
000180 2f 08 91 bd 37 50 14 3f 84 d0 c1 be 17 00 24 3d
       -0.07081639 0.579349 -0.37854397 0.04003915
000190 31 95 f2 3e 4e dc 36 3e 66 14 ff ba fd c9 ed bd
       0.4737945 0.17857477 -0.0019461035 -0.11610792
0001a0 96 54 5d 3e 1e e5 55 3e ba b5 cb bd d0 42 8a 3d
       0.21614298 0.20888183 -0.09946771 0.06751025
0001b0 b5 f6 53 be 8b 09 1b be d0 d5 da 3e cf 1b de bc
       -0.2069958 -0.15140359 0.4274125 -0.02711287
0001c0 0d f9 09 bd 5b 6e c2 bd 85 43 62 3e 88 da 8a 3e
       -0.03368478 -0.09493705 0.22096069 0.2711985
0001d0 e2 b4 c3 bd 55 a9 52 bd ca 72 00 3f 35 4a 8b be
       -0.09555985 -0.05143102 0.50175154 -0.27205053
0001e0 0a 25 01 3f bb 5a d2 3e f7 1e a1 be e4 2b db 3e
       0.5044714 0.41084847 -0.31468937 0.42806923
0001f0 23 47 9c 3e 9e 18 08 bc 29 7b 6c 3c 8a 00 0e be
       0.30523023 -0.00830665 0.014433661 -0.13867393

net.2.weight f4 [128, 128]
000000 5d dd 60 3d ad 5e 71 bd 23 59 85 bd ff 6a 9e bd
       0.05489861 -0.05892818 -0.06511142 -0.07735252
000010 3f 10 a9 bd da 7d 5d bd 0d 0b 92 bd 7a 97 56 3c
       -0.08255052 -0.0540751 -0.07131014 0.013097638
000020 a8 d2 b8 3c 40 e6 b1 3b 30 da eb 3c f2 a7 53 3c
       0.022561386 0.0054290593 0.028790563 0.012918459
000030 d7 3f 3e 3d f1 9e 45 3d c7 f9 b7 bd 51 65 86 3d
       0.0464476 0.04824728 -0.08983188 0.06562293
000040 62 88 29 3d 07 c9 45 3d 26 7b bf bc 80 3c 99 3d
       0.04138983 0.048287418 -0.023374151 0.074822426
000050 5c 84 c7 3c b1 79 3f 3d 0a f2 8b 3a 3d 13 1d bd
       0.024355106 0.046746913 0.0010676992 -0.038348425
000060 79 b2 8f bd 28 e2 b1 3c 2e 01 9d bd f6 2f 9e bd
       -0.07016463 0.021714285 -0.07666241 -0.077239916
000070 89 bc 8d 3d 31 d1 9f bc 0f be 06 bc 9d 1b 8d 3d
       0.06920726 -0.01950893 -0.008224024 0.068900324
000080 8c 7c d4 3b 0e d8 2b bd 3c d4 2d 3c f9 35 98 3d
       0.0064845737 -0.041954093 0.010609683 0.074321695
000090 ae 45 1e bd 68 f6 3e bd 48 c3 fe bc 73 b9 8c 3c
       -0.03864067 -0.04662171 -0.031098977 0.017178273
0000a0 52 4e 88 bd 07 eb 6f bd 29 c3 85 3d 54 74 81 bd
       -0.066555634 -0.05857375 0.065313645 -0.06321016
0000b0 9a e1 9b bd 7f 60 99 3c d4 90 71 bd 45 09 77 3d
       -0.076113895 0.01872277 -0.05897601 0.060311574
0000c0 9c b7 4e bc 8d fd 6b bd 8d bf 6d 3d 54 de 37 3d
       -0.012617018 -0.05761485 0.058044005 0.044889763
0000d0 43 d9 c4 bd b8 77 f0 bc 1a f3 81 3d 20 3e f3 3c
       -0.09611752 -0.029353961 0.06345196 0.02969271
0000e0 52 8a 72 bd 12 1e 83 3c 5f a7 59 3c f2 b4 b4 bd
       -0.059213944 0.01600555 0.013284533 -0.08823575
0000f0 80 36 6d 3a f0 f9 24 3c 4a 83 95 bd 8e 1c fe bc
       0.00090489537 0.010069355 -0.07300432 -0.031019475
000100 af 33 e0 3c 6d 28 77 bc c4 85 6c 3d 6c df c4 3c
       0.027368395 -0.015085322 0.057744756 0.024032317
000110 96 39 2e 3d 7f 38 c4 bd 3f 5f 35 bd b3 47 1c 3d
       0.042535387 -0.09581088 -0.044280287 0.038154315
000120 ab 4e ed ba fd 35 f3 3c d0 8e c7 bc bd fc 2c 3d
       -0.001810511 0.02968883 -0.02436009 0.042233218
000130 16 36 15 3d 46 6b e6 bc 1b 10 86 bd bb bb 1d bc
       0.036428533 -0.028127324 -0.065460406 -0.009627278
000140 d8 5b be 3c 44 80 aa bd ca e6 6e bc 45 5a 99 bd
       0.023237154 -0.08325246 -0.014581392 -0.07487921
000150 70 2c 0a 3c ca 74 90 bd a0 e4 42 3d 84 41 c9 bb
       0.008433446 -0.07053526 0.047581315 -0.0061418433
000160 80 f6 5c ba 39 79 ab bd b3 fe ec 3c 00 0f 4e bd
       -0.00084290653 -0.08372731 0.028930044 -0.050307274
000170 44 95 07 bc 4f 9c 8c bc 29 ad 2d 3d 26 a6 03 3d
       -0.008275334 -0.017164377 0.042401467 0.032140873
000180 1e 03 85 bc 50 00 95 3d 4a 16 1d bd 0d 32 99 3d
       -0.016236838 0.0727545 -0.038351335 0.074802496
000190 2b d8 a9 bd 72 41 43 bd 86 93 1a 3d b5 8d 97 3d
       -0.08293184 -0.047669835 0.037738346 0.07400075
0001a0 18 9d 4d 3d d4 07 04 bc e9 ca 8e bd 9c 3d 4e bd
       0.050198644 -0.008058507 -0.06972296 -0.050351724
0001b0 0b 37 64 3d e3 cc 5b 3d fc 16 02 bd 50 26 b8 bd
       0.055716556 0.053662192 -0.0317602 -0.089916825
0001c0 c3 21 1b bd 45 83 5c bd 00 c1 49 3d 67 9e 6b 3d
       -0.037873995 -0.053836126 0.049256325 0.05752411
0001d0 19 99 80 bd 09 b2 17 3d 58 d9 66 bd 64 71 84 3c
       -0.06279201 0.037035022 -0.05635962 0.01616735
0001e0 2f 88 bb bc 69 76 82 bd c8 bf 2e 3c 95 61 73 3d
       -0.022892086 -0.06370241 0.010665841 0.059419233
0001f0 df 5b fd 3c e5 b5 8e 3b 7e 75 30 bd 96 03 70 bd
       0.030927597 0.0043551796 -0.0430808 -0.05859717
000200 d3 8f ab bd a9 b9 4b bd 80 22 2d bf f0 a6 a0 bd
       -0.08377042 -0.049737606 -0.6763077 -0.07844341
000210 12 a8 a6 3e cc 45 d5 3d 78 37 d6 3e 39 7f 7d be
       0.32550102 0.10413703 0.41839194 -0.24755563
000220 a4 d7 a0 3e c2 1b a1 3e 4e 60 0d bf f3 35 c0 be
       0.3141452 0.3146649 -0.55225074 -0.3754116
000230 c6 14 14 bf 6e 3e 10 3e e7 7f e4 3e 0c 85 a7 3c
       -0.578442 0.14086315 0.44628832 0.020449184
000240 86 7f 6e 3e c6 ee b6 bb b2 42 a4 3d 6a 01 2d bf
       0.23290834 -0.005582663 0.080205336 -0.6758028
000250 5b 3f df 3e 18 aa ef 3d c4 0a 56 3a 4a 94 cc 3e
       0.43603024 0.11702365 0.00081650564 0.39956886
000260 34 f9 95 be 66 d9 75 3e 2b 8e b7 3e 5c ac e4 bd
       -0.2929169 0.24008712 0.35850653 -0.111656874
000270 d4 8d e0 3d 55 dd 35 3e 40 fd 59 be 24 bb a7 3d
       0.109645516 0.17760213 -0.21288013 0.08189991
000280 b3 49 b1 3e d7 c3 2c 3c d8 7c c2 be a7 29 1d 3f
       0.3462654 0.010544739 -0.37985873 0.6139168
000290 43 ef 85 be af 4c 04 bf d0 17 e5 bd f6 44 1c bd
       -0.26159105 -0.5167951 -0.111861825 -0.038151704
0002a0 08 da cc be 5a 11 55 3e 1f c7 92 3d 55 d9 24 3e
       -0.40010095 0.208074 0.071668856 0.1609853
0002b0 ea 20 50 be 89 5c 45 3e bc 2a e0 3d 62 c1 c7 3e
       -0.20325056 0.1927358 0.10945651 0.39014727
0002c0 01 9b 80 3e 2d 33 52 3d c7 1c 2a bd 74 2e 10 bf
       0.2511826 0.051318336 -0.04153135 -0.5632088
0002d0 be 58 9e be 7a 48 29 be 49 0a 28 be 39 41 89 be
       -0.3092708 -0.16531554 -0.16410173 -0.26807573
0002e0 46 07 58 3e 55 e6 82 be 59 43 12 bd 18 5a 40 3e
       0.21096525 -0.25566354 -0.03570876 0.18784368
0002f0 bd 47 6d 3e d2 4b 0a bd e5 b2 81 3e ea fe da bd
       0.23171897 -0.033763714 0.25331798 -0.10693152
000300 e0 9c 0b bc 3f df 9a 3d b9 e0 4a bc e0 23 9a be
       -0.008521289 0.07562112 -0.01238268 -0.30105495
000310 69 b5 3b be 77 6a 65 bd 6f a4 8d be f6 1d 7b be
       -0.18330921 -0.056009736 -0.27664515 -0.24523148
000320 f6 09 ba be e0 64 05 be 71 af ae be 6b 8a b3 3d
       -0.36335725 -0.13026762 -0.34118226 0.087666355
000330 38 56 81 bd e6 e1 81 be 16 ae 9b bd 5f 6c 85 3e
       -0.06315273 -0.2536766 -0.07601564 0.26059243
000340 7a d3 16 3e cc 75 03 3f 3f 02 13 be 56 75 43 be
       0.1472911 0.5135162 -0.14356326 -0.19087729
000350 0b d8 68 3d 01 f7 f3 bd 8b 0b 91 3e 39 62 df 3d
       0.05684666 -0.11912347 0.2832912 0.10907406
000360 d3 8b 00 be a0 ae 90 3e a6 bf cc be 12 f5 e3 3c
       -0.12553339 0.28258228 -0.39989966 0.02782682
000370 6f 71 10 bf d2 91 cd bd 4b 69 8d 3d 68 d8 3a 3d
       -0.56423086 -0.10037579 0.06904849 0.045616537
000380 ea 8b 43 3e 4f 72 43 bc ce d6 8b bd f5 ed bf bd
       0.19096342 -0.011929109 -0.0682808 -0.093715586
000390 a3 40 c9 3d 9e 3b c4 3d f3 dc 91 3e 74 cd 1e be
       0.098267816 0.095816836 0.28488883 -0.15508062
0003a0 29 cf 9f 3e f9 a4 2b 3d 52 25 9a bd 2a db 73 3e
       0.31212738 0.041905377 -0.075266495 0.23814073
0003b0 62 d1 4e be 37 d9 18 bf ab 0e 5e be 7b 9a cb 3e
       -0.2019706 -0.59706444 -0.21685283 0.39766297
0003c0 c2 03 9b bd 58 43 8a 3e 24 45 d1 3e 44 80 48 be
       -0.07569076 0.27004504 0.40873063 -0.1958018
0003d0 71 84 b0 3e b3 b6 01 bd cf dc 14 bf 6d 90 bd bd
       0.34476045 -0.031668376 -0.5814943 -0.09256063
0003e0 88 85 c7 3d 15 f3 3c 3e fd ac 48 bd f5 5d 90 3d
       0.09742266 0.18452103 -0.0489931 0.07049171
0003f0 02 02 c4 3d 1b cb 47 3e 8b 35 99 3d 06 c3 92 be
       0.095706955 0.19511072 0.07480916 -0.28664416

net.2.bias f4 [128]
000000 de 44 b4 bd e1 88 8e be 6b 77 ed 3d 76 5b 6a bd
       -0.08802198 -0.27838805 0.11595043 -0.05721613
000010 71 f1 30 3e 8a c2 32 3e 63 b4 a8 3d 6f 1f ea 3c
       0.17279603 0.17457023 0.08237531 0.028579442
000020 08 7f 9f bd f5 24 80 3d c8 ed 32 3e d3 2b 32 3e
       -0.07787901 0.06257049 0.17473519 0.1739953
000030 e1 3a e2 3d 72 21 e4 3d 80 63 c6 3d c4 83 3d 3e
       0.110463865 0.11139192 0.09686947 0.18507296
000040 86 28 9e bc 50 63 9d bb ec 59 3e 3e 30 b5 34 3d
       -0.019306432 -0.0048030987 0.1858899 0.044118106
000050 83 b6 d3 3d 7f 2d 92 3d 81 97 5f 3e 5b 11 37 bc
       0.10337546 0.07137584 0.21835138 -0.011173571
000060 b1 1c 61 bd 54 29 ab bd a8 2e 08 3e bc 14 6b bd
       -0.054959003 -0.08357492 0.13299048 -0.05739282
000070 72 65 22 3e df 15 59 3d 36 1d 2e 3e ad 52 1a 3e
       0.15859011 0.052999374 0.1700333 0.15070601
000080 5f 41 b9 3c ba 76 38 bc 79 1a 94 3d 83 0e 17 3e
       0.02261418 -0.011258775 0.07231612 0.1475163
000090 42 53 39 bd a9 a0 db 3d 43 34 27 3e 4c e6 6e bd
       -0.045245416 0.10724003 0.1632853 -0.058325097
0000a0 d9 86 44 3e cc b1 6b 3d 9f c9 76 3c ec 3a af bd
       0.19192065 0.057542607 0.015062719 -0.0855616
0000b0 ca 4e 14 3d 4c 4b 99 bc 32 17 1f 3e 54 50 eb 3d
       0.03620795 -0.018712662 0.15536192 0.11489931
0000c0 0f f3 0b 3e 35 38 26 bc c3 2d c8 3d 3f c5 a3 bc
       0.13666938 -0.010145237 0.09774353 -0.019991515
0000d0 9d 93 2e 3e 2e ce 35 3e 90 8a 1f bc 0f c8 06 3e
       0.17048497 0.17754433 -0.009737626 0.13162254
0000e0 c9 9f de 3d 09 d2 04 3e b7 79 b9 3d 69 6b 43 3e
       0.1087032 0.12970747 0.090564184 0.19083942
0000f0 9c ef 46 3e a9 03 0c 3e 6d 36 24 3e 21 56 58 3e
       0.19427341 0.13673271 0.16036387 0.21126606
000100 63 99 88 3d 75 dc b2 3d ce c0 99 3d 5b 52 bc 3c
       0.06669881 0.08733455 0.07507478 0.022988489
000110 dc 68 ea 3d 29 8b 17 3e 2c 0a 16 3d 3c 3c 47 bb
       0.114457816 0.14799179 0.036630794 -0.0030400893
000120 30 45 d3 3d 43 81 1b 3d d5 b3 d5 3d 01 12 c8 3d
       0.10315931 0.03796507 0.10434691 0.09769059
000130 eb 4d 2c bd 0b f2 1b 3e 77 01 84 3e 95 52 31 3e
       -0.042066496 0.15229051 0.25782368 0.17316659
000140 4e 45 2e 3d 69 7e 5c 3c bb 07 c8 3c c4 e6 78 bc
       0.042546563 0.013457873 0.024417749 -0.015191738
000150 da a4 20 3e 21 5d 15 3e ca 8f 38 3e 56 fb 47 3e
       0.15687886 0.14586307 0.18023601 0.19529471
000160 50 cc 8f 3d 5b 30 bb bd 52 ed b9 bd 84 25 b5 3d
       0.070213914 -0.091400824 -0.090784684 0.08845046
000170 3f 80 25 3e f8 1b 70 3c dd 40 9c 3d fa 76 22 3e
       0.16162203 0.014655106 0.07629559 0.15865698
000180 20 52 37 3e 1e 57 90 bd b5 fe 27 3e 0c 91 ea 3d
       0.17902422 -0.07047866 0.16405757 0.11453447
000190 c4 00 09 3e f6 01 c2 3d 1b fa 51 3e 61 a1 47 bd
       0.13379198 0.0947303 0.20505564 -0.048737887
0001a0 00 c6 0d 3d 45 f8 07 3e e9 55 fe 3d 54 bd 2c 3e
       0.034612656 0.13278301 0.1241873 0.16869098
0001b0 35 9e 77 3d c9 ad 8e 3d eb 1f 03 3e ce 65 06 3e
       0.060453612 0.06966741 0.12805144 0.13124773
0001c0 ec 46 f0 3d 54 5e 5a bd 99 a9 a4 3d f1 33 5a bd
       0.11732277 -0.053312615 0.08040161 -0.05327219
0001d0 29 f2 73 3d 84 25 29 3e 6b 82 67 bd 76 1a ab bd
       0.059557114 0.16518217 -0.05652086 -0.083546564
0001e0 b6 ca 18 3e 20 49 12 bb fd fe 03 3e 5e 91 91 3e
       0.14921078 -0.0022321418 0.12890239 0.2843122
0001f0 7a 48 11 3e e0 b2 a4 3d ac 27 11 3e 0d 86 19 3e
       0.14187804 0.0804193 0.1417529 0.14992543

net.4.weight f4 [4, 128]
000000 2f b0 80 bb 5b 57 c9 be 14 49 04 be 9f 4c 40 bd
       -0.0039272527 -0.3932446 -0.12918502 -0.04694807
000010 7e 0b 6a be a0 9f 66 be a3 32 2b 3f 64 bb ac 3d
       -0.22855946 -0.2252183 0.6687414 0.084341794
000020 7d 86 b2 3d b3 99 09 be e5 5b 2b be 81 6e 4b be
       0.08717058 -0.13437538 -0.16734274 -0.19866373
000030 92 bc 34 be 26 fb 53 3f 28 a9 85 be 73 3c 0e be
       -0.17650059 0.828051 -0.26105618 -0.13890247
000040 d4 bc 96 bd 2c 88 a7 3c d0 e6 94 be 47 25 58 be
       -0.07360235 0.020450674 -0.29082346 -0.2110797
000050 a4 a1 32 3f 8d 2a 74 be b7 80 6d 3f a1 9c 83 bd
       0.69777894 -0.23844357 0.9277453 -0.06426359
000060 82 46 f1 bd 86 b6 6c 3c fb 17 62 be 5f 59 cf bc
       -0.117810264 0.014447814 -0.2207946 -0.02531117
000070 cc cf 41 3f 3b 15 65 be 8f 6e 4f 3f 10 98 f6 bd
       0.757077 -0.2237138 0.81028074 -0.12040722
000080 01 87 0c be db e6 79 be a9 4c 51 be f2 bf 1b 3c
       -0.13723375 -0.2440447 -0.204394 0.009506213
000090 19 90 a6 bd ae fd 27 be 67 f9 46 be 23 8a e1 bd
       -0.08132953 -0.16405365 -0.19431077 -0.110126756
0000a0 74 86 69 be 95 ed 02 be 70 4c 71 be 64 2f 8a be
       -0.22805196 -0.12785943 -0.23564315 -0.2698928
0000b0 28 1f 1a be 80 cb bd bb 42 d9 8c be a1 2d 31 bd
       -0.15050948 -0.0057920814 -0.27509505 -0.043256406
0000c0 bd fe 73 be d5 f9 ea bc 78 fc 3a 3f c4 09 20 be
       -0.23827644 -0.028683582 0.73041487 -0.15628725
0000d0 c3 ca 66 be 52 70 ff 3c d3 e2 24 bd 1f 72 0f be
       -0.22538285 0.031181488 -0.04025538 -0.14008377
0000e0 5d dd 1a 3e 52 8b 2b be 4f b1 3e be 77 4a 8e be
       0.15123506 -0.16752365 -0.18622325 -0.27791187
0000f0 8f af 64 3f d9 0d f1 bc 3e 46 10 be 06 56 5b be
       0.8933038 -0.029425548 -0.14089295 -0.21419534
000100 03 f1 1e be 58 97 32 be a2 70 80 be 63 8f 9f be
       -0.15521626 -0.17440546 -0.25085932 -0.31164083
000110 1c a8 49 be f3 aa 1b be 6d 30 6c be ea c9 a8 bd
       -0.19693035 -0.1520193 -0.23065348 -0.08241637
000120 f1 94 95 be 3d 23 d4 bd d3 a0 94 bc 97 7c 80 be
       -0.29215196 -0.10358284 -0.018143093 -0.25095055
000130 4e 78 08 3b 84 08 0b be c1 64 39 3f e7 33 0b be
       0.002082366 -0.13577467 0.72419363 -0.13594018
000140 59 ff e7 bd ca 8b 07 bd a8 af 18 be c3 95 a4 bd
       -0.113280006 -0.033092298 -0.14910758 -0.08036377
000150 e5 d6 fe bc f0 22 98 be 8c 86 5b be 20 5b 80 be
       -0.03110833 -0.29714155 -0.21438044 -0.25069523
000160 9c d0 62 be 22 2f 6b 3d f5 66 da 3a 58 ca fc bd
       -0.2214989 0.057417996 0.0016662764 -0.123432815
000170 54 78 46 3f 8e 4a 6b be 54 86 e4 bb 05 7c 53 be
       0.77527356 -0.22977659 -0.006974021 -0.20652778
000180 86 75 9b be b5 65 97 bc 8f fd 8a bd 58 d6 92 3c
       -0.303631 -0.018481115 -0.06786644 0.017924473
000190 bb c3 b6 be 70 5f 0b 3f 58 ba 26 be 54 26 13 be
       -0.35696205 0.544425 -0.16282022 -0.1437009
0001a0 5b 79 8c bd 53 1f d7 bd cc b3 be bd 86 55 90 be
       -0.06859084 -0.105040215 -0.09311637 -0.2819025
0001b0 34 7a 25 bd 90 2c ca 3c 0c e1 92 be bf f2 53 be
       -0.040399745 0.024679452 -0.28687322 -0.20698069
0001c0 a3 0c 95 be 0b 74 80 bd 03 a0 4d be 36 e9 29 3d
       -0.29111204 -0.062721334 -0.20080571 0.041482173
0001d0 40 f2 68 be 4c 86 3d be 41 55 22 3d 84 4c a9 3c
       -0.22748661 -0.18508261 0.039632086 0.020666368
0001e0 90 2d 6c be 9c fc 65 be 3b 43 7b be a8 b3 54 3f
       -0.23064256 -0.22459644 -0.24537365 0.83086634
0001f0 46 26 8c be 82 41 64 be 20 ec 8d be f0 92 81 be
       -0.2737295 -0.22290614 -0.27719212 -0.25307417
000200 6f f3 5d bd a9 f7 54 3e 59 8e 80 be ab 6a 12 3d
       -0.054187234 0.207976 -0.25108603 0.035746258
000210 2b 68 e3 bd a8 b7 63 be 13 51 28 3e 7e 24 75 bd
       -0.11103853 -0.22238028 0.16437177 -0.059849255
000220 33 1b 18 bd bd 07 53 be 40 f7 12 be ea 58 59 be
       -0.037135314 -0.2060842 -0.14352131 -0.21225324
000230 ef ce 4a be 03 80 3e 3f f6 4f 15 be 32 67 b3 bd
       -0.19805501 0.7441408 -0.14581284 -0.08759917
000240 5c 99 10 bd 91 7a 6f bd 03 6e 72 be 15 03 85 be
       -0.035302505 -0.058466498 -0.23674779 -0.25978914
000250 03 84 8b 3f f5 94 24 be 08 37 71 3f ae e1 8f bd
       1.0899662 -0.16072448 0.94224596 -0.07025467
000260 d7 ae 22 be f3 f0 70 3d 97 81 92 be a3 ee da be
       -0.15887009 0.058823537 -0.28614494 -0.4276019
000270 3b 6a 33 3f 24 d9 f2 bd 55 7c 96 3e 55 c3 7c be
       0.7008397 -0.118578225 0.29391733 -0.24683888
000280 36 f0 20 be 3a f7 14 bf ea 90 6b be 99 e5 af bd
       -0.15716633 -0.5818974 -0.23004499 -0.08588714
000290 55 48 06 be a8 7a 42 be 8b 5c ef bd c7 0a c4 be
       -0.1311353 -0.18992102 -0.11687573 -0.38289472
0002a0 7b 30 07 be 36 ef 85 3e 9c 8b d5 be 24 1e ab 3e
       -0.13202088 0.26159066 -0.41708076 0.33421433
0002b0 48 0f 76 be e2 c7 0a bd dd 30 8c be 14 13 3c be
       -0.24029267 -0.03388203 -0.2738103 -0.18366653
0002c0 a9 26 8a be d2 77 99 3d cb c9 41 3f c4 f5 7d be
       -0.2698262 0.07493557 0.75698537 -0.24800783
0002d0 30 e8 40 be 36 bd c0 3e 1f 3f 54 be 52 47 5c be
       -0.18838573 0.37644356 -0.20727204 -0.21511582
0002e0 0f 44 0b 3e 60 27 a8 be 28 de 6f be 22 29 21 be
       0.13600181 -0.3284254 -0.2342459 -0.15738347
0002f0 45 51 83 3f 9c 39 99 3b 98 c5 31 be b8 b1 3d be
       1.0259176 0.004676057 -0.17360532 -0.18524826
000300 93 ab 81 be 4d 88 48 be dd 1b 79 be 04 cd 22 be
       -0.25326213 -0.19583245 -0.24327035 -0.1589852
000310 3a 00 8f be 00 62 4f be 9a cc 6c be 5c 30 fb 3c
       -0.2792986 -0.20252228 -0.23124924 0.030662708
000320 77 bb ed bd b7 96 dd bd 31 37 8d bd 8a 3f 24 be
       -0.11608022 -0.10819762 -0.068952926 -0.16039863
000330 d8 cc b0 bd b1 5e 86 be be 20 c1 3e f1 f7 28 be
       -0.08632821 -0.2624412 0.37720293 -0.16500832
000340 dd 32 7a be 3e 1e 8d 3d 6e 45 75 be 21 89 a2 be
       -0.24433465 0.06890534 -0.23952267 -0.31745246
000350 e4 7f 6c be c8 1a 56 be 66 49 8b be d6 2f 90 be
       -0.23095661 -0.20908654 -0.27204436 -0.28161496
000360 14 4d 30 be 59 29 ae 3d 9c d9 a0 3c 40 18 1e be
       -0.17216903 0.0850398 0.019635014 -0.15438938
000370 77 b4 87 3f 82 60 26 39 a7 e7 1e 3e d3 ba 76 be
       1.0601948 0.00015866946 0.15518056 -0.24094705
000380 79 da 03 be 30 95 57 3d 75 52 02 be ec c7 12 3e
       -0.1287631 0.05263251 -0.12726767 0.14334077
000390 6f 10 fc be 59 b9 18 bd 0d cf 2b be b4 16 08 be
       -0.49231288 -0.037286136 -0.16778202 -0.1328991
0003a0 cc 2b db bc 5f 7b 8a be d4 bc e2 bd b5 64 10 be
       -0.026754282 -0.2704725 -0.11071172 -0.14100917
0003b0 7e f4 18 be f9 b1 63 3d 73 5e fd be 7b 7e 20 be
       -0.14937016 0.05558965 -0.49486122 -0.15673248
0003c0 1e 0b ea bd 9c 28 a4 3d 4c 8c d4 bd 00 40 13 38
       -0.11427902 0.08015558 -0.10378322 3.5107136e-05
0003d0 f0 4b 06 be 79 2a 04 be 2f 92 0a 3d c8 95 1c 3c
       -0.13114905 -0.12906827 0.033830818 0.009557195
0003e0 bc 59 06 be 0d fc 09 be 1b 87 65 be ff 5b 55 3e
       -0.13120168 -0.13475056 -0.2241482 0.20835875
0003f0 26 00 d2 bd 38 64 7b bd cf 1b 74 be ba a0 85 3c
       -0.102539346 -0.061374873 -0.23838733 0.016311992

net.4.bias f4 [4]
000000 38 30 5d be 29 97 c2 3c 62 6c fc bd 5d 3f b7 bd
       -0.21600425 0.02375372 -0.1232536 -0.089476325
