SARSA/dsqn/550_model_weights.pth (torch, 75917 bytes, 6 tensors)

net.0.weight f4 [128, 8]
00000000: 03fd 3f3f 1a6d 11be 497a fb3e 7647 aebe
00000010: 41f4 27bf 63fe 143e eff1 cb3d 0234 9f3c
00000020: e1c2 a63f 9cb9 2a3e fd40 703f daee 51be
00000030: 367e 14be 21e5 313e 677e 72be 7aa8 88be
00000040: 5984 a0bf eb3d a63f 1dd2 bbbe 5f38 10bf
00000050: ef90 023c 5923 bc3d 977e abbc 92be 24be
00000060: 3afc 383e 7c28 723f f2db c43d 654d 61bf
00000070: c87c 1e3e 1d43 323d f2e3 39bd 0696 0ebe
00000080: 2d69 9fbe 5248 9bbc ac8b 073e dc74 0abe
00000090: 9288 273f 0c73 733f 9351 4a3f fc9a 9c3e
000000a0: 0d26 cdbe 84ae cebe abe9 773f 02ef 6fbe
000000b0: 0fb8 95bd 4bf2 75bf 83b0 073f d62b 9ebe
000000c0: ae35 b53d 206d 61bf 78f6 433f 9084 c8be
000000d0: 777a 48bf 03ea 6a3f 3926 1cbd e05d 67be
000000e0: 8e3f 4dbf 5989 563f a221 7e3e 1158 943f
000000f0: 9169 77be 091e f83d 3d31 0f3d 7e94 c13d
00000100: 6a0f 0cbe bc86 9b3d 7e97 06bf c536 06bf
00000110: d78e 693f 6ad2 3c3f b6a8 9d3d 9bf2 a63e
00000120: a85c d7be 9245 923c 4809 cd3f f2e4 4a3f
00000130: 471d 4d3f 7e96 5f3f 50b8 563d 3fd4 05be
00000140: 6f0d 943e 37da 373f 3f79 9dbe 60e5 fc3e
00000150: 2857 ea3c 3d3f e4bd 4443 043e 3148 5ebe
00000160: 05e6 c9bf 1c48 abbe f986 8dbf 9614 0c3e
00000170: 2496 88be 2b99 5c3d ca6f 163f 3228 c13e
00000180: d648 80be 6908 5b3f 971d b9bb 7227 9f3e
00000190: e5af e13e 4b60 dc3e 3421 3c3e 0e04 d53e
000001a0: 3c77 3fbe ae84 7bbe 5223 e0be 48f0 e43c
000001b0: 4f88 273f 38b0 1b3f 33aa 283f c1b6 debd
000001c0: a7ac 21be 3231 09be af0a ea3e 31c4 d5be
000001d0: e6e3 cc3e c6d4 8a3f 8e55 e63e 4610 923d
000001e0: 733b 46bf fdae 5b3e 1b7a 243e a7a9 b83e
000001f0: 398b cebe 9a2e df3e 7719 b33e c105 d93b
00000200: 67ea 84bf 3ea9 e5be 3510 ac3e 843d 833d
00000210: b31c b1be bf09 ff3e eea0 fc3d 98cb 0cbf
00000220: 60d3 a3bd ba7f 223f c85a 03bb 0fe9 3b3f
00000230: bb71 78bd 6619 f1bc c5a0 f93e d45a 6e3f
00000240: 52be cb3e d2c1 1f3f 8c83 d2be cafb 27bf
00000250: 6ff8 00bf 2705 cf3f 75d0 a53e 689d 3cbf
00000260: 83df 003d 22f9 893f ace2 5cbe 2714 a8be
00000270: 16db b4bf c0c0 4dbf a866 b5be 5a0c 94bf
00000280: edde 81be 6cbe 28be 3400 133f 4979 58bd
00000290: d453 483f 782d a93f ddd3 e63d e232 13be
000002a0: b387 b6bd 689d f43d 31d9 523d f227 8f3f
000002b0: 49fe 1e3f 2354 963f a18e ea3e 4f77 883e
000002c0: 946b 4bbd 736a e83e f265 b8be a1d4 3cbd
000002d0: 5b5b 383f 6ce2 d03e ffc9 443f c9ff a03e
000002e0: c987 25bf c67a 8abe 3013 e83b dc64 06bf
000002f0: 0fbf 01be 36e4 393f 5914 313e 18c1 aa3c
00000300: 46e5 85bf 6d47 aabd fa26 9abf 7ce1 cc3e
00000310: b2ad 0bbe 3b7b 953d e985 063f e7f2 d9bd
00000320: 1e65 fb3e c2c8 77bb d470 473e b000 02bf
00000330: aa4e e63e c62e 503f eb2c d73e 2947 833d
00000340: 4285 11bf 44b1 8abf e303 80bf 0785 a3bc
00000350: decd 833f 44bc 383f 8d02 993e 9d2c 62bf
00000360: 7824 8f3e 62f9 cb3d 6aa9 a8be 1083 97bd
00000370: bd9a ddbc a4d3 87bf 9672 54be a764 01bc
00000380: 9ebf 9ebc efa3 13be d04a 963e b443 99bd
00000390: 8518 093f 35b1 bd3f 437c d2be 01b5 70bf
000003a0: d57b 05bf 6426 43be 2ec7 923d 28e1 1bbf
000003b0: e22d 563d 1fd8 2a3f 53f5 973e 1c03 d93c
000003c0: 09dc 9fbe 5e27 e0bc 3675 28bf cd69 0a3e
000003d0: 0b61 2abf adcd c3bf eaf5 933e fa5c 4b3f
000003e0: b035 d23f 64fb 9d3e d38c 493f 3cd7 4c3e
000003f0: 3fdf 44be 60ba 783e 1b5d 95bc 6848 873d
0.7499544 -0.14201775 0.49116734 -0.34038895 -0.65607077 0.14550166 0.099582545 0.019433979
1.3028222 0.16672367 0.93849164 -0.20501271 -0.1450127 0.17372562 -0.23681031 -0.26691037
-1.2540389 1.2987646 -0.3668374 -0.56336015 0.007969125 0.091864295 -0.020934386 -0.16088322
0.18064967 0.94593024 0.09612264 -0.8800872 0.15477288 0.043521035 -0.0453834 -0.13924417
-0.3113493 -0.018955383 0.13236874 -0.13521141 0.65442765 0.9509742 0.7903072 0.30586994
-0.40068093 -0.4036752 0.96840924 -0.23431018 -0.07310497 -0.96072835 0.5300371 -0.3089282
0.08848129 -0.88057137 0.76547956 -0.39163637 -0.78311867 0.91763324 -0.03812239 -0.22594404
-0.801751 0.83803326 0.24817517 1.1589376 -0.24161364 0.12115104 0.034959067 0.09452151
-0.13677755 0.07594058 -0.5257491 -0.5242732 0.9123358 0.73758566 0.07698195 0.32606968
-0.4206288 0.01785544 1.6018457 0.7925559 0.801228 0.8733901 0.052421868 -0.13069247
0.289165 0.71817344 -0.30756566 0.4939375 0.028606012 -0.11144874 0.12916285 -0.21707226
-1.5773321 -0.33453453 -1.1056815 0.13679728 -0.26677048 0.05385701 0.58764327 0.3772598
-0.2505557 0.8555971 -0.0056492793 0.31084782 0.4407951 0.43042216 0.18372041 0.41604656
-0.18697828 -0.24562332 -0.43776947 0.027946606 0.65442365 0.60815763 0.65884703 -0.10874701
-0.15788518 -0.13397673 0.45711276 -0.41751245 0.40017623 1.0846183 0.44987148 0.0713201
-0.7743446 0.21453471 0.16062205 0.36066934 -0.40340593 0.43590242 0.34980366 0.0066230004
-1.0384034 -0.44855684 0.33606115 0.064082175 -0.34592208 0.49812123 0.123353824 -0.5499816
-0.07999301 0.63476145 -0.0020043124 0.73402494 -0.060655337 -0.029431056 0.4875547 0.9310734
0.3979364 0.6240512 -0.41115987 -0.65618575 -0.5037908 1.6173447 0.32385603 -0.7367768
0.031463157 1.0779154 -0.21570843 -0.32827875 -1.412936 -0.8037224 -0.35429883 -1.1566269
-0.2536539 -0.1647889 0.57422185 -0.05285004 0.7825291 1.3217001 0.112708785 -0.14374879
-0.08912601 0.11944085 0.05147666 1.1184065 0.6210676 1.1744426 0.45811942 0.26653525
-0.04966314 0.45393714 -0.36015278 -0.046101216 0.720144 0.40797746 0.7687072 0.3144515
-0.64660317 -0.27046794 0.0070823655 -0.5249765 -0.1267054 0.7261385 0.17292918 0.020844027
-1.0460594 -0.08314405 -1.2043145 0.4001578 -0.13640478 0.07298895 0.5254808 -0.10642033
0.49100584 -0.003780887 0.19476634 -0.507823 0.4498189 0.8132137 0.42026457 0.06410057
-0.5684396 -1.0835347 -1.0001186 -0.019960893 1.0297201 0.7216227 0.2988476 -0.88349324
0.2795751 0.09959675 -0.32941753 -0.07398045 -0.027051324 -1.0611463 -0.20746836 -0.007897533
-0.01937848 -0.14418004 0.29353952 -0.074836165 0.5355304 1.4819704 -0.4111043 -0.9402619
-0.5214208 -0.19057614 0.07166897 -0.60890436 0.05228985 0.66736025 0.29679355 0.02649074
-0.3122256 -0.027362522 -0.6580385 0.13516922 -0.66554326 -1.5297142 0.28898555 0.79438746
1.6422634 0.30855858 0.78730506 0.2000398 -0.19225787 0.24289846 -0.018232873 0.06605607

net.0.bias f4 [128]
00000000: 7d18 ca3e e676 f7bd 344e fa3d 65e4 7e3e
00000010: 0e88 8c3e 604f 11be 4f8b d9bd 5b62 443e
00000020: e918 d4be b198 70bd 5332 353f f586 0b3e
00000030: ba79 27be c77a 8a3e e1d0 cc3e 17d2 7abe
00000040: 9263 fcbe 29e3 793e 5df2 063f b97d 423c
00000050: 1541 ff3e b2b8 063f 2dfa 503f cf48 413f
00000060: a9b1 d13e e18b e23e 592c 3cbf ef9e 26be
00000070: de2d 5c3e f713 293f f0c7 d53e 68d3 6f3c
00000080: 9d62 fdbe 068d f3be 81bd 153f 63d9 c4be
00000090: ae5b f73d 5256 b6bd ad0d ac3e 7a2e a73e
000000a0: fd7e bfbe 90f1 bbbe 2036 253e 3623 05bf
000000b0: 0de4 283f f43b f4bd c86e 193f f584 bc3e
000000c0: abe0 c93e 963e d33e ce91 4d3e e1a2 393e
000000d0: 0f0f 623f a205 b13d 037f ec3d 01f5 29bf
000000e0: 476d 5b3f b01d 783e 5951 333f a8fb e5be
000000f0: bc54 3b3f 70df a73d e026 233f bb85 623f
00000100: 3dca dc3d cc40 fe3d 1368 d3bd 10e1 df3e
00000110: 7c7d 48bf ec0e 81be 4233 19bf 2ca5 ea3e
00000120: e31c 563f 6c86 b3be 6e7b 3a3e eafe 283e
00000130: c8d1 9ebe 3e82 103e fb2a 633e 127a 113e
00000140: 2e23 1c3f 8c0f eabe fe28 18bf d857 8b3e
00000150: b476 9a3e a326 053d a67f 1e3f 5c7b 633e
00000160: 74cc 663e 9d88 1abf 0b97 dd3e d13b 37bf
00000170: a338 023f 7e43 fd3e beac 903e 549e 7c3e
00000180: bf3e 7abe 04f8 693f fdc1 04bf 0912 26be
00000190: 41c7 113f b34e 803e 2f09 0bbe 5cd3 69bd
000001a0: 131b 293f 66ea 043f cbed 0fbf d244 093f
000001b0: f62e 48bf b6fe a1be 25c7 673f d7b6 c2be
000001c0: 4db2 123e 38e1 8c3e 15ab 073f 7470 b73e
000001d0: 70f5 99be 1f27 81be 642d 4c3f 9a99 483f
000001e0: 21b9 6c3f e6c2 193f aa52 15bf 193a 6c3f
000001f0: b7ed 133e 1dbc 48be 0082 c43a ac4b 93be
0.39471808 -0.12083225 0.12221947 0.24891813 0.2744755 -0.14190435 -0.10622274 0.19178145
-0.41425255 -0.058739368 0.70779914 0.13625701 -0.16355029 0.27046797 0.40003112 -0.24494205
-0.49294716 0.24403061 0.52713567 0.011870795 0.4985434 0.5262557 0.8163174 0.7550172
0.40955856 0.44247344 -0.7350517 -0.16271566 0.21501872 0.6604609 0.41754103 0.0146378055
-0.49489298 -0.4756853 0.58492285 -0.38447103 0.120780334 -0.08903183 0.33604184 0.32652646
-0.37401572 -0.36707735 0.16133928 -0.5200685 0.6597298 -0.11925498 0.59934664 0.36820188
0.3942922 0.41258687 0.20075151 0.1812854 0.8830423 0.086436525 0.11547663 -0.6638947
0.8571362 0.24230075 0.70046 -0.4491856 0.7317617 0.08196914 0.63731194 0.88485307
0.107807614 0.12414703 -0.10322585 0.43726397 -0.78316474 -0.25206697 -0.5984384 0.4582914
0.8363783 -0.35063493 0.18211147 0.16503492 -0.31019425 0.14112183 0.22184364 0.14206722
0.6099118 -0.45714986 -0.5943755 0.27215457 0.30168688 0.03250755 0.61913526 0.22215027
0.2253893 -0.60364705 0.432793 -0.7157565 0.5086767 0.49465555 0.28256792 0.24669772
-0.24437998 0.91394067 -0.518585 -0.16217817 0.5694466 0.25060043 -0.13577722 -0.057086334
0.66056937 0.51920164 -0.5622222 0.53620636 -0.78196657 -0.31639642 0.90538245 -0.3803012
0.14325829 0.27515578 0.52995425 0.35827982 -0.30070066 -0.2522516 0.7975676 0.7835938
0.92469984 0.60063016 -0.5832926 0.9227615 0.1444615 -0.1960301 0.0014992356 -0.2876867

net.2.weight f4 [128, 128]
00000000: 5ddd 603d ad5e 71bd 2359 85bd ff6a 9ebd
00000010: 3f10 a9bd da7d 5dbd 0d0b 92bd 7a97 563c
00000020: a8d2 b83c 40e6 b13b 30da eb3c f2a7 533c
00000030: d73f 3e3d f19e 453d c7f9 b7bd 5165 863d
00000040: 6288 293d 07c9 453d 267b bfbc 803c 993d
00000050: 5c84 c73c b179 3f3d 0af2 8b3a 3d13 1dbd
00000060: 79b2 8fbd 28e2 b13c 2e01 9dbd f62f 9ebd
00000070: 89bc 8d3d 31d1 9fbc 0fbe 06bc 9d1b 8d3d
00000080: 8c7c d43b 0ed8 2bbd 3cd4 2d3c f935 983d
00000090: ae45 1ebd 68f6 3ebd 48c3 febc 73b9 8c3c
000000a0: 524e 88bd 07eb 6fbd 29c3 853d 5474 81bd
000000b0: 9ae1 9bbd 7f60 993c d490 71bd 4509 773d
000000c0: 9cb7 4ebc 8dfd 6bbd 8dbf 6d3d 54de 373d
000000d0: 43d9 c4bd b877 f0bc 1af3 813d 203e f33c
000000e0: 528a 72bd 121e 833c 5fa7 593c f2b4 b4bd
000000f0: 8036 6d3a f0f9 243c 4a83 95bd 8e1c febc
00000100: af33 e03c 6d28 77bc c485 6c3d 6cdf c43c
00000110: 9639 2e3d 7f38 c4bd 3f5f 35bd b347 1c3d
00000120: ab4e edba fd35 f33c d08e c7bc bdfc 2c3d
00000130: 1636 153d 466b e6bc 1b10 86bd bbbb 1dbc
00000140: d85b be3c 4480 aabd cae6 6ebc 455a 99bd
00000150: 702c 0a3c ca74 90bd a0e4 423d 8441 c9bb
00000160: 80f6 5cba 3979 abbd b3fe ec3c 000f 4ebd
00000170: 4495 07bc 4f9c 8cbc 29ad 2d3d 26a6 033d
00000180: 1e03 85bc 5000 953d 4a16 1dbd 0d32 993d
00000190: 2bd8 a9bd 7241 43bd 8693 1a3d b58d 973d
000001a0: 189d 4d3d d407 04bc e9ca 8ebd 9c3d 4ebd
000001b0: 0b37 643d e3cc 5b3d fc16 02bd 5026 b8bd
000001c0: c321 1bbd 4583 5cbd 00c1 493d 679e 6b3d
000001d0: 1999 80bd 09b2 173d 58d9 66bd 6471 843c
000001e0: 2f88 bbbc 6976 82bd c8bf 2e3c 9561 733d
000001f0: df5b fd3c e5b5 8e3b 7e75 30bd 9603 70bd
00000200: 613c 02c0 3339 01c0 4423 f4be 456e 9bbe
00000210: f7e7 5d3e da4c 4dbe 1ea2 3a3f 73c7 94bf
00000220: c8ca ee3e b3b1 493d 6f30 c8bf 0628 0bbf
00000230: 964f 0fbf 63cc 2b3d 5d0a 803e ba88 93bc
00000240: 018c 473e 107c 35bf 965f 99bd bf15 94bf
00000250: 9a9d a43e 4ef8 0ebe fe66 07be 727a 4f3e
00000260: 5141 25bf 0431 9b3d e373 423f d344 bdbd
00000270: c69c 1abd 2df8 cf3b 594e aebf 5f3d 03c0
00000280: 8128 9e3e dfef 343f 48f7 45bf f335 fc3e
00000290: b8f6 10c0 33b4 10c0 d9ab aebe c184 69be
000002a0: 08da ccbe ac87 643e 7019 29be a145 173f
000002b0: f27e f4be d735 f93d 3bf7 86bd 0b1e f33c
000002c0: 0eb7 b33d b042 433d e7b6 b2bf 1e90 01c0
000002d0: 4418 37c0 5937 cd3e 0446 08be 92a5 dabf
000002e0: 3d96 84bc 615e 41bf e140 28be c6da fd3d
000002f0: cb95 23bf 5b48 393e 00b4 c1bf f523 febf
00000300: 85c5 dbbb 4d31 18c0 bcd6 e2bf 85f3 0cbf
00000310: b106 90bf 8f96 36bf 5278 bebf 7eaa fcbe
00000320: 9e17 81bf ae8c 04c0 7827 8bbe 606e a13e
00000330: e8b4 be3d 1c8b 2ebf 0a0a a7bf 1cbf 0e3f
00000340: feaf f3bc 8b67 783f 20e0 163f e4e6 2ec0
00000350: 7b65 90bc 3761 d4bd b072 2d3b 91ae 15bf
00000360: f5b5 f23e 1b86 753e 8aa5 65bf 2738 c83d
00000370: 48b2 6fbf b7a3 52be 9bb7 9abe 0276 53bf
00000380: 4e4a 12c0 23db c9be e185 013f 4951 b63e
00000390: 26ad 02be 9567 86be d130 623e 9f2c 56be
000003a0: 613b ee3d ebfe 61be 6d14 bfbf c964 ba3d
000003b0: 62d1 4ebe 4c1e dfbf b664 debf 02e7 a73e
000003c0: e602 95bd a0f6 173f 223a 8c3e 665a 16bf
000003d0: 0ae7 603e b593 3d3f 30b7 d0bf b185 103f
000003e0: 53ce 72be b60b 7cbe 5149 5c3d 5ae7 0fbf
000003f0: d2ef 1cbe 2899 d73d af3f c33e e113 b13e
0.05489861 -0.05892818 -0.06511142 -0.07735252 -0.08255052 -0.0540751 -0.07131014 0.013097638
0.022561386 0.0054290593 0.028790563 0.012918459 0.0464476 0.04824728 -0.08983188 0.06562293
0.04138983 0.048287418 -0.023374151 0.074822426 0.024355106 0.046746913 0.0010676992 -0.038348425
-0.07016463 0.021714285 -0.07666241 -0.077239916 0.06920726 -0.01950893 -0.008224024 0.068900324
0.0064845737 -0.041954093 0.010609683 0.074321695 -0.03864067 -0.04662171 -0.031098977 0.017178273
-0.066555634 -0.05857375 0.065313645 -0.06321016 -0.076113895 0.01872277 -0.05897601 0.060311574
-0.012617018 -0.05761485 0.058044005 0.044889763 -0.09611752 -0.029353961 0.06345196 0.02969271
-0.059213944 0.01600555 0.013284533 -0.08823575 0.00090489537 0.010069355 -0.07300432 -0.031019475
0.027368395 -0.015085322 0.057744756 0.024032317 0.042535387 -0.09581088 -0.044280287 0.038154315
-0.001810511 0.02968883 -0.02436009 0.042233218 0.036428533 -0.028127324 -0.065460406 -0.009627278
0.023237154 -0.08325246 -0.014581392 -0.07487921 0.008433446 -0.07053526 0.047581315 -0.0061418433
-0.00084290653 -0.08372731 0.028930044 -0.050307274 -0.008275334 -0.017164377 0.042401467 0.032140873
-0.016236838 0.0727545 -0.038351335 0.074802496 -0.08293184 -0.047669835 0.037738346 0.07400075
0.050198644 -0.008058507 -0.06972296 -0.050351724 0.055716556 0.053662192 -0.0317602 -0.089916825
-0.037873995 -0.053836126 0.049256325 0.05752411 -0.06279201 0.037035022 -0.05635962 0.01616735
-0.022892086 -0.06370241 0.010665841 0.059419233 0.030927597 0.0043551796 -0.0430808 -0.05859717
-2.0349352 -2.0191162 -0.47683156 -0.30357566 0.21670519 -0.20048848 0.7290362 -1.1623367
0.46639085 0.049241733 -1.5639781 -0.54357946 -0.55980814 0.041942965 0.25007907 -0.018009532
0.19487001 -0.7089243 -0.07488935 -1.1569136 0.3215149 -0.13961908 -0.13222882 0.20261553
-0.6455279 0.07577708 0.7595808 -0.09241643 -0.037747167 0.0063467235 -1.361766 -2.0506208
0.30890277 0.70678514 -0.77330446 0.4925991 -2.2650585 -2.2609985 -0.34115484 -0.22804548
-0.40010095 0.2231738 -0.1651361 0.5909062 -0.47753102 0.12168472 -0.06590124 0.029677412
0.08775149 0.04767102 -1.3962067 -2.0244212 -2.860856 0.4008129 -0.13307959 -1.7081778
-0.01618492 -0.75534636 -0.16431 0.12395243 -0.6390044 0.18094008 -1.5133057 -1.9854723
-0.006706896 -2.378009 -1.7721782 -0.5505908 -1.1252042 -0.71323484 -1.4880469 -0.49348825
-1.0085332 -2.0710864 -0.2717855 0.31529522 0.09311849 -0.68181014 -1.3049939 0.5576036
-0.029747006 0.97032994 0.5893574 -2.7328424 -0.017626515 -0.10370105 0.0026466064 -0.5846949
0.47404447 0.23976938 -0.8970572 0.09776335 -0.9363141 -0.20570265 -0.30218205 -0.8260194
-2.2857852 -0.39425 0.5059491 0.3560889 -0.12761363 -0.26250902 0.22088934 -0.20915459
0.116324194 -0.220699 -1.4928108 0.091012545 -0.2019706 -1.7431121 -1.7374485 0.32793432
-0.072759435 0.59360695 0.27388102 -0.5873169 0.21963134 0.7405351 -1.6305904 0.56453997
-0.23711519 -0.24613842 0.053780857 -0.5621239 -0.15325859 0.10527259 0.38134524 0.3458548

net.2.bias f4 [128]
00000000: de44 b4bd 3018 94bf 1629 1ebd adb1 88bd
00000010: e625 123d 5a45 2e3c 8ce5 473f c5cc d13c
00000020: 33dc acbe 6319 6fbd 6ad3 e33c ce5f 753d
00000030: c97d 0bbd 4e4f e83c f9e3 6bbd 86b4 2c3d
00000040: 67b2 1fbc 7fb7 6abc 20e1 3d3c 5bc3 a3bd
00000050: cdb2 a13d 0b09 0cbd 86a5 633f f02d 4f3e
00000060: 113d 7dbd 1092 bebd 97ba 563d 5f51 a3bd
00000070: 7c9e 23be 1d07 d9bd feae 2d3f aa8c 853c
00000080: 0d62 b7bd 49fb 4abe beab 9abd 077b 133e
00000090: dee1 65be 1052 95bc 1cf5 873c e627 f4bd
000000a0: e342 973c 2666 673d 20f5 fabd b5d8 27be
000000b0: a099 debc 3bf6 613e da7d eaba e6ee 02bb
000000c0: a01c a238 d80c 373f b891 f4bd a646 d4bd
000000d0: 407a 443c e7c7 143f 2f74 9cbc 4f0a 113d
000000e0: 4820 f83e 715e 583e c1a6 20bd af35 273d
000000f0: ad6b 76be 3788 cd3d 484f 903b a888 b53d
00000100: 2b4d c73d 2ae1 79bc 8bb2 58bd 2550 03be
00000110: 8134 5dbd e7e3 593d 0f7b babd 3c3c 47bb
00000120: dcca 05bd 336b a6bd 3ab2 223d f610 5ebd
00000130: 338b ba3c 50a0 f43c 65bd 383f f832 103d
00000140: c1ec 31bd 697e 5c3c 15d3 bbbd 6e85 1d3e
00000150: bbad 873d 58b3 c93b 4c22 e23c 0706 1b3d
00000160: 0dc0 bfbd 5b30 bbbd 52ed b9bd bf2f dcbc
00000170: ebd2 13be d8ef 93bd e8d7 8e3e 2346 5f3d
00000180: 96d9 ea3c c6f9 b4bd 4896 433d f4f0 8f3e
00000190: 1c77 3ebc a5c8 7b3e d0da 7e3d 7e3f 13bd
000001a0: 22e7 7e3c 0e90 8bbb 0f6c 1e3d 9e87 983c
000001b0: 26b9 1c3d 9990 a33d fd3e 99bc 4c9a 00bd
000001c0: acce 3ebd 2962 78bd c6ef 22bd f133 5abd
000001d0: 7d2d b6bd f6d2 0d3d 6e45 87bd 789d bebd
000001e0: 9368 07bb dccb eebd 374d 28bc 5379 8a3e
000001f0: 883d 603c 020e 61bd bf7a 5fbc b6c7 293e
-0.08802198 -1.1569881 -0.0386134 -0.06674514 0.035680674 0.010636652 0.78084636 0.025610337
-0.3376175 -0.05837382 0.027810771 0.05990582 -0.034055505 0.028358128 -0.05759046 0.042164348
-0.009747124 -0.014325975 0.0115893185 -0.079962455 0.07895432 -0.03418831 0.88924444 0.20232368
-0.061825816 -0.09305203 0.05242404 -0.07974505 -0.15978426 -0.1059706 0.6784514 0.016302425
-0.089542486 -0.1982242 -0.075522885 0.144024 -0.22449443 -0.018227607 0.01659637 -0.119216725
0.018464511 0.0564939 -0.12253785 -0.16391261 -0.027172863 0.22066586 -0.001789029 -0.001997882
7.730094e-05 0.71503973 -0.11941856 -0.103650376 0.011992037 0.58117527 -0.01909837 0.03541022
0.4846213 0.21129777 -0.03922153 0.04082268 -0.24064513 0.100357465 0.0044039823 0.08863956
0.097315155 -0.015251437 -0.052904647 -0.12823541 -0.05400515 0.05319586 -0.09105503 -0.0030400893
-0.032664165 -0.081259154 0.03972075 -0.054215394 0.022771453 0.0298616 0.72163993 0.035204858
-0.043438677 0.013457873 -0.0917112 0.1538293 0.06624933 0.0061554126 0.027604245 0.037847545
-0.09362803 -0.091400824 -0.090784684 -0.026878236 -0.14435928 -0.07223481 0.27899098 0.054510247
0.028668206 -0.08836703 0.04775074 0.2811352 -0.011625078 0.24588259 0.062220395 -0.035949223
0.015558036 -0.004259116 0.03867727 0.018619355 0.03826251 0.07986564 -0.018706793 -0.03139715
-0.046583816 -0.060640488 -0.039779447 -0.05327219 -0.08895395 0.034625016 -0.066050395 -0.093073785
-0.0020661696 -0.11659977 -0.010272316 0.27045688 0.013686545 -0.054945 -0.013640105 0.1658009

net.4.weight f4 [4, 128]
00000000: 2fb0 80bb c81c c2be 777a 94be 9f4c 40bd
00000010: a6f8 cdbe 2eb7 c0be 2d67 af3f 64bb ac3d
00000020: bf1f fb3f 1663 9dbe da47 a9be 23c5 c6be
00000030: 8407 9bbe a6b2 e93f 504a dbbe 6c32 93be
00000040: 9cfe 9cbd 2c88 a73c 3203 ddbe b55a b7be
00000050: 5ca2 ef3f 9a78 f2be 6e9c dc3f 40f2 97bf
00000060: e854 d4be 86b6 6c3c ea29 04bf 6191 19c0
00000070: 6265 1340 9820 cabe 5bc3 b33f 9620 80be
00000080: aefa b5be 07ad c0bf bae1 bfbe a77b 38be
00000090: b3d0 38bf 05a7 aabe 7a2a b0be 6b8f 03bf
000000a0: c742 bcbe 17a7 843f 00e6 9dbf 8b14 353f
000000b0: 1779 d9be ae78 523f ee3f dfbe f1bb 46be
000000c0: cf2e f2be 6b9a a83f cb41 0a40 759f d9be
000000d0: 78c2 b5be f58a 013f ec02 d9be 1fd1 a4be
000000e0: 4a15 5cbd b53a 95be 1521 b1be 83da d5be
000000f0: 08bb 1a40 cee9 10be 2bed 99be df3e c9be
00000100: d16c 5abf df79 cfbe 051c dcbe 0e97 6bbf
00000110: e0b4 c6be 3753 cfbe 5219 c6be eac9 a8bd
00000120: 8a02 03bf ceac 94be b694 5ebe e9a0 cdbe
00000130: ae41 913e 1105 9cbe 0fc6 ca3f c93f 9ebe
00000140: ffc8 a1be ca8b 07bd 3908 b5be f55a 39bf
00000150: e58c 56be 184e f3be 0173 b0be e537 cfbe
00000160: 2c0a babe 222f 6b3d f566 da3a 236d 9abe
00000170: 8b0b 1440 737c dfbe 5295 173e fcd2 cabe
00000180: 1ecd efbe b565 97bc 284d 73be 0ea8 193e
00000190: 2d73 e0bf 753c b83f fa9f a7be 542c fdbe
000001a0: 5b79 8cbd b66f 80be d51d c2be fd1e d8be
000001b0: 7386 96be 907a ee3c c66e bcbf 11d3 aebe
000001c0: 2167 d9be 0b74 80bd 5eda bebe 36e9 293d
000001d0: 185a bcbe 39ee b0be 4155 223d da5d 373c
000001e0: bf68 c5be 2b84 d3be 0c3e d2be 488d bd3f
000001f0: 12fd d2be bbee dfbe 4c1a d8be 9747 adbd
00000200: 6ff3 5dbd 6126 3f3f 4259 c6be 02df d63c
00000210: 00f7 e6be dd84 cdbe e495 713f 771d 82bd
00000220: bc63 0940 3ae4 b0be d5bb 4cbe 09af 11bf
00000230: 751e c4be caf1 f23f 36d7 bfbe 4bc8 5ebd
00000240: a3b2 8cbd 917a 6fbd 50cd ffbe b190 f9be
00000250: 25c7 ed3f b233 f5be daef f43f 7540 bf3d
00000260: 8cb3 83be d844 4d3d 1178 3bbf 9992 96bf
00000270: 4f06 0a40 f2aa 85be 8b70 ce3f 5458 d5be
00000280: 1f82 94be 8f58 eebf 54f9 ffbe 6178 0e3e
00000290: 24e5 eabe 74b5 bdbe 757f 64be 8061 9fbf
000002a0: 66e0 6cbe 26ed 8c3f 5fe0 9fbf c46a c73f
000002b0: 3fbf 3bbf 5ca9 e43e 288c e9be 999f a1be
000002c0: b0d6 2cbf 6729 ab3f ce1b 0040 1b16 38bf
000002d0: c83d c8be 4c9f 4c3f 08c4 53bf 88ed 20bf
000002e0: f1e2 b53f 36fd 95bf c96e e9be 4631 a3be
000002f0: b8fd 2540 120e 6d3e 1ccf 92be dac4 f9be
00000300: 5947 e83e 60e5 e1be bde9 04bf d06d 15bf
00000310: 8e75 06bf de7f 07bf c180 f4be 5c30 fb3c
00000320: 84c1 b1be b1dc 27be 5c30 fc3b 83c6 a0be
00000330: 446a 56be afc2 0dbf c67b b43f 3220 93be
00000340: 34e5 14bf 3e1e 8d3d 97c8 ecbe 3c2a 81bf
00000350: ffd4 c4be 07ad 01bf 2129 02bf 3c4b 01bf
00000360: d3cc c9be 5929 ae3d 9cd9 a03c b2a3 71be
00000370: e8f4 1540 b376 d43d 8c56 db3e e3de 0abf
00000380: 64ef 74be 0f11 183d 9b86 29be 892b d33e
00000390: aec6 dfbf d5f3 703f db37 b9be 475d 14bf
000003a0: 8251 8dbc 2a26 0dbf 8625 34be 29b6 68be
000003b0: 4415 4bbe e333 a93d 9eb5 e1bf 282c a8be
000003c0: c103 2ebe 9c28 a43d 6c84 40be 0040 1338
000003d0: 18a9 9abe 1c24 35be 2f92 0a3d c895 1c3c
000003e0: 6f53 68be cb1c bfbe b973 f7be e36a b43f
000003f0: 7c3a 3cbe 2cf3 5fbe 61ad d9be 5268 983d
-0.0039272527 -0.37912583 -0.28999683 -0.04694807 -0.40228766 -0.37639755 1.3703362 0.084341794
1.9619063 -0.3073966 -0.3306263 -0.38822278 -0.3027917 1.8257644 -0.42830133 -0.28749406
-0.076657504 0.020450674 -0.431665 -0.3581139 1.8721423 -0.47357637 1.7235239 -1.1870804
-0.41471028 0.014447814 -0.51626456 -2.3994982 2.303063 -0.39477992 1.4043993 -0.2502486
-0.35542816 -1.5052804 -0.37476903 -0.1801592 -0.7219345 -0.3333055 -0.34407407 -0.51390713
-0.36769697 1.0363492 -1.2335815 0.7073447 -0.42475197 0.8221539 -0.43603462 -0.19407631
-0.47301337 1.3172125 2.1602657 -0.4250447 -0.3549993 0.50602657 -0.42385042 -0.32190797
-0.05373124 -0.29146352 -0.34595552 -0.41768274 2.4176655 -0.1415169 -0.30063757 -0.3930578
-0.8532229 -0.40522668 -0.42990127 -0.92027366 -0.38809872 -0.40493175 -0.38691193 -0.08241637
-0.5117575 -0.2903809 -0.21736416 -0.40161827 0.28370422 -0.30472615 1.5841693 -0.3090804
-0.3159866 -0.033092298 -0.35357836 -0.72404414 -0.20952184 -0.47520518 -0.3446274 -0.40472332
-0.36335886 0.057417996 0.0016662764 -0.3016139 2.3132045 -0.43649635 0.14803055 -0.39614093
-0.4683618 -0.018481115 -0.23759902 0.15005514 -1.7535149 1.439345 -0.3273924 -0.49447882
-0.06859084 -0.2508523 -0.37913385 -0.42211142 -0.29399452 0.029111177 -1.4721305 -0.34145406
-0.42461494 -0.062721334 -0.37275976 0.041482173 -0.36787486 -0.3455675 0.039632086 0.01119181
-0.38556477 -0.41311774 -0.41062963 1.4808741 -0.41208702 -0.43736824 -0.42207563 -0.0846092
-0.054187234 0.74667937 -0.38739973 0.026229385 -0.4511032 -0.4014043 0.9436934 -0.06353276
2.1467123 -0.34549123 -0.19993527 -0.5690771 -0.38304487 1.8980038 -0.3746888 -0.054390233
-0.0687001 -0.058466498 -0.49961329 -0.48743203 1.8576399 -0.47891003 1.9135697 0.09338466
-0.2572292 0.050114483 -0.7323008 -1.1763488 2.156635 -0.26106983 1.6128095 -0.41668952
-0.29005525 -1.8620776 -0.4999491 0.13913108 -0.45877945 -0.370525 -0.22314246 -1.245163
-0.23132476 1.1009872 -1.2490348 1.5579457 -0.73338693 0.4466046 -0.45614743 -0.31567076
-0.6751509 1.337201 2.001697 -0.7190873 -0.39109635 0.7993057 -0.82720995 -0.62862444
1.4209882 -1.1717899 -0.45592335 -0.3187353 2.5936108 0.23149899 -0.28673637 -0.48782998
0.45366934 -0.44120312 -0.51919156 -0.58370686 -0.52523124 -0.52929485 -0.4775448 0.030662708
-0.34717953 -0.16392781 0.0076961946 -0.31401452 -0.20938975 -0.5537519 1.4100273 -0.287355
-0.58162236 0.06890534 -0.46246788 -1.0091014 -0.38443753 -0.50654644 -0.5084401 -0.50505424
-0.3941408 0.0850398 0.019635014 -0.23597601 2.343073 0.103742026 0.42839468 -0.5424635
-0.23919445 0.037125643 -0.16555254 0.41244152 -1.7482507 0.9412206 -0.36175427 -0.5795483
-0.01725078 -0.5513636 -0.17592439 -0.22725739 -0.19832331 0.0826185 -1.763355 -0.3284619
-0.1699362 0.08015558 -0.18800515 3.5107136e-05 -0.30207133 -0.17689556 0.033830818 0.009557195
-0.22688077 -0.37326655 -0.48330477 1.4095119 -0.18381685 -0.21870106 -0.4251509 0.074417725

net.4.bias f4 [4]
00000000: 3ee9 d2bd 3793 8f3e 90c0 233c bb25 b2bc
-0.10298394 0.28042004 0.009994641 -0.021746507
