SARSA/dsqn/600_model_weights.pth (torch, 75917 bytes, 6 tensors)

net.0.weight f4 [128, 8]
00000000: a538 463f bced 92bd 0972 073f 1273 a7be
00000010: 06d0 31bf 1cbd 083e 4017 a33d 7586 cc3c
00000020: 2487 a03f 562e 393e 222f 783f f905 1cbe
00000030: 3a33 d6bd 0a1a 363e 5d5c 6dbe 44b0 a6be
00000040: 994b 9dbf 0fe0 ac3f 961c a1be c31b 10bf
00000050: 3aa6 073d 46b5 0d3e 175d f43c e959 4fbe
00000060: a01f 733e d381 763f 78f4 cf3d ac3e 55bf
00000070: 8638 4e3e 26fe 963d 3b50 91bd 5a97 0abe
00000080: f161 aebe 20db 7a3a 2c5b 1b3e eb36 48be
00000090: e748 223f 4b8e 743f d4b9 4a3f 7784 9e3e
000000a0: 63e4 01bf 3654 f0be 16cd 793f c30b 94be
000000b0: 5fa8 3abe fd7d 74bf aa3b 043f 3c3c 9ebe
000000c0: 6ed5 603d 99f6 4fbf 745c 463f ef41 f1be
000000d0: 9f9f 87bf 116c 623f c202 96bb 7984 18be
000000e0: 9bfb 56bf 666e 533f 0249 943e 3578 923f
000000f0: f801 8abe b333 063e e9b6 113d a172 a73d
00000100: 85b2 96bd 2e56 4d3d d867 02bf 6764 00bf
00000110: e4ec 673f 7931 483f a345 ab3d 98e5 a93e
00000120: 9e75 1abf 955a a9bc 4427 ca3f 0f8a 7c3f
00000130: f7ae 483f 288a 473f 8813 903d 5dbb 49be
00000140: 0e8d b33e 9115 343f 6ccf b2be 11b8 013f
00000150: b478 1fbc a776 12be c211 f63d c25f 6bbe
00000160: c4b1 c6bf af39 8dbe 9f9f 8ebf edd8 df3d
00000170: 8714 8dbe a934 8e3d 52ea 163f f2ac b93e
00000180: 28c6 a1be dce8 593f 2854 0b3e 4056 9e3e
00000190: b8a6 073f 8b64 023f 29f2 2d3e 8450 d13e
000001a0: 0bf6 2ebe 36d6 78be d2a5 f5be 5a60 d43c
000001b0: 0bed 283f 2225 173f f928 293f 49d1 00be
000001c0: ea67 4cbe 297e 96bd 7b08 f53e 2c61 f8be
000001d0: cf6d c43e 8226 8c3f a07c e13e 0e0f 893d
000001e0: c0bc 58bf c378 543e d4c8 ab3d 52a4 d73e
000001f0: 1aa6 fbbe 170d b23e cc67 ad3e 9779 a23c
00000200: 69f0 7fbf 2b33 d6be 1d25 ae3e b22d a0bd
00000210: 3cd2 febe 0fa8 f23e 7560 b33d 7c1f f1be
00000220: 39e1 f53c 0205 1b3f 7cb9 39bc 3808 463f
00000230: c8c4 34bc 804f 31bd 3100 f83e 0b93 653f
00000240: 0cce dd3e 484a 203f 4f83 cfbe 0661 27bf
00000250: 47c2 18bf 019f c83f 0416 a73e 7ca0 3bbf
00000260: 39d7 273d 1833 923f fbe5 5abe 72fd adbe
00000270: e4d9 bebf dcbf 41bf 7d1c c0be db19 95bf
00000280: 7b51 85be e273 25be 9410 0b3f f4a0 ddbd
00000290: 3e12 363f 39f6 b33f a656 f83d 3e67 17be
000002a0: dd1f a5bd cfac 6ebc 3ca8 8a3d e363 9e3f
000002b0: 5a35 173f e499 923f a237 f23e 0802 8b3e
000002c0: 1941 6bbd 978b e03e 4236 b7be 6562 48bd
000002d0: be17 2d3f 5d59 cb3e b4e5 423f 391e a33e
000002e0: fbb8 2cbf 4de6 7ebe b67f fb3b 7071 12bf
000002f0: 72e1 eabd 5c9c 3c3f c69b 323e ed04 5b3b
00000300: c5a1 79bf caf4 7dbd 6249 a2bf da21 c83e
00000310: 39bc 2ebe 91ef 8a3d d046 053f f09b fdbd
00000320: 0423 f53e f45c 833c 5368 513e b23d 08bf
00000330: 18cb f03e 5107 4d3f 6c9a da3e 3463 903d
00000340: b102 30bf ef21 9bbf 7597 5cbf 4b4e a73d
00000350: 4cf4 8f3f afe7 313f 11b0 9a3e c2c6 60bf
00000360: 2557 a13e a8bb a93d f7d8 a7be b58c 8ebc
00000370: 604d 0f3e e82f 89bf 15c6 80be 1cc9 15bb
00000380: 03a7 0b3d 00fd 21be 755e 993e 4a07 42bd
00000390: f94c 163f a877 b93f 87e3 c9be 951a 85bf
000003a0: a4ad 09bf 9514 27be 17b0 703d c819 2dbf
000003b0: 0a74 8d3d bd5f 2c3f 6a4f 993e b0d4 0b3c
000003c0: df8e b0be 25fb d7bd b47b 34bf bfe6 1c3d
000003d0: 464e 33bf ddd6 c4bf 56bd 8d3e 2b08 503f
000003e0: 8fad d13f 00c8 713e 8fe2 443f 5702 8c3e
000003f0: a17d 0bbe e1e9 7e3e 902f 04bd 072e 5b3d
0.7743018 -0.071742505 0.5290838 -0.3270498 -0.69458044 0.1335339 0.07963419 0.024966458
1.2541242 0.18084082 0.9694692 -0.15236653 -0.104589894 0.1778337 -0.23179765 -0.32556355
-1.2288696 1.3505877 -0.31467122 -0.5629236 0.03311751 0.13838682 0.029829545 -0.20249142
0.23742533 0.96291846 0.101540506 -0.83298755 0.2013875 0.07372694 -0.07095381 -0.13534299
-0.34059098 0.00095693953 0.15171498 -0.195522 0.6339249 0.9552962 0.791898 0.30960438
-0.50739115 -0.46939248 0.9757856 -0.28915223 -0.18228291 -0.9550474 0.5165354 -0.3090533
0.054891042 -0.81235653 0.7748482 -0.47120616 -1.0595587 0.88446146 -0.0045779655 -0.14894284
-0.8397767 0.8259033 0.2896195 1.1442934 -0.26954627 0.13105659 0.035574827 0.081761606
-0.07358269 0.050131015 -0.50939703 -0.501532 0.9059584 0.7820049 0.083628915 0.3318298
-0.6033572 -0.020673076 1.5793233 0.9864816 0.78391975 0.77945185 0.07034975 -0.1970038
0.35068554 0.7034541 -0.34923875 0.5067149 -0.009733368 -0.14303075 0.12015106 -0.22985747
-1.5523 -0.27583072 -1.1142462 0.10930047 -0.27554724 0.06943638 0.58951294 0.3626476
-0.31596494 0.8512094 0.13606322 0.3092518 0.5298877 0.50934666 0.16986908 0.4088174
-0.17086045 -0.24300465 -0.47978073 0.02592485 0.659867 0.59041035 0.66078144 -0.12579836
-0.19961515 -0.07348282 0.47858033 -0.48511636 0.38365027 1.0949252 0.44040394 0.066923246
-0.8466301 0.20749192 0.08387914 0.42117554 -0.49150163 0.34775612 0.33868253 0.01983337
-0.9997621 -0.41835913 0.3401269 -0.07821216 -0.4976977 0.47393844 0.08758632 -0.47094333
0.030014621 0.60554516 -0.011335727 0.7735629 -0.011033244 -0.043288708 0.48437646 0.89677495
0.43321264 0.62613344 -0.40529868 -0.6538242 -0.59671444 1.5673524 0.32633984 -0.73291755
0.040976737 1.1421843 -0.21376793 -0.33982426 -1.4910245 -0.7568338 -0.37521735 -1.1648515
-0.26038727 -0.16157487 0.5432217 -0.10821715 0.71121585 1.4059516 0.12125902 -0.14785478
-0.08062718 -0.014567568 0.067703694 1.2374233 0.59065783 1.1453214 0.4730807 0.27149987
-0.05743513 0.438565 -0.35783583 -0.04892196 0.6761435 0.39716616 0.7613175 0.31858996
-0.6746976 -0.2489254 0.0076751364 -0.5720434 -0.114687815 0.73676085 0.17442235 0.0033419684
-0.97512466 -0.062001027 -1.2678645 0.39088327 -0.17063989 0.06783975 0.52061176 -0.12383258
0.47878277 0.016035534 0.20449953 -0.5321914 0.47029948 0.8008929 0.4269594 0.070501715
-0.68754107 -1.2119731 -0.86168605 0.0816923 1.1246428 0.69494146 0.30212453 -0.8780328
0.31511799 0.08287746 -0.3278272 -0.017401079 0.1399436 -1.0717745 -0.25151125 -0.0022855466
0.03409482 -0.15819168 0.29954877 -0.047370233 0.587112 1.4489641 -0.39431402 -1.0398737
-0.5378058 -0.16316445 0.058761682 -0.67617464 0.06906898 0.67333585 0.299434 0.008534595
-0.34484002 -0.10545949 -0.70501256 0.038305994 -0.7004131 -1.5378071 0.27683514 0.81262463
1.6381091 0.2361145 0.769082 0.27345535 -0.13622142 0.24893905 -0.03227192 0.053510692

net.0.bias f4 [128]
00000000: 460d c73e 6959 08be 1bca 133e e621 853e
00000010: b484 8c3e dee1 b2bd ec1e bd3b 7b00 4d3e
00000020: 45e4 d9be cf6f 39bd 1afd 3b3f dd70 073e
00000030: 0711 20be c235 8c3e 6322 d13e c216 80be
00000040: 6c3f 01bf 01fc 803e 2b1e 0d3f 11bb 093c
00000050: 8f45 fc3e 9a6e 043f b88e 523f f5ab 403f
00000060: 34bb dd3e 43b0 de3e 6c4a 2abf c106 35be
00000070: 1e13 533e f8f9 293f 6c45 d83e c257 a53b
00000080: 5c42 ffbe dd06 f4be f4bd 173f 728d cabe
00000090: 7bc7 033e dc40 e9bd 5c74 b43e c973 aa3e
000000a0: 36c0 bdbe 2710 c3be 903f 243e 87e3 05bf
000000b0: 688f 2a3f a0b6 ffbd c33b 193f 15b3 c43e
000000c0: 6568 be3e fef3 ce3e 0c3a 4d3e e0f7 343e
000000d0: eef0 6f3f 3261 993d a13d 603d f26b 35bf
000000e0: 4be1 573f 5960 833e 751c 333f 6149 e8be
000000f0: 1feb 3d3f bad2 c73d a0cd 273f b12d 663f
00000100: 15cd ea3d 3337 dd3d 265e bfbd 390e e43e
00000110: 7687 4ebf 1d2e 79be 3565 20bf 2249 f13e
00000120: c142 593f fda2 b6be 97b0 3f3e ed25 343e
00000130: 9212 99be 668b fc3d c15b 763e f891 143e
00000140: 186e 1c3f 5ebd d7be 34ed 10bf c6c9 903e
00000150: 1a29 a13e cd8a 643c eb14 1e3f 8410 663e
00000160: 493e 673e 7b41 32bf d08d e23e a7c0 41bf
00000170: f4e2 033f f4b2 003f 99ea 943e ecc7 873e
00000180: 6490 77be d378 6c3f fd76 03bf f8f9 06be
00000190: ebff 113f 1e41 703e 088e 25be 2eca 8bbd
000001a0: 754f 2b3f 4199 063f bbaa 36bf 8e85 0a3f
000001b0: c1be 4cbf ae5c 9cbe 0cc4 813f 6032 cebe
000001c0: 82b2 e83d d2fa 923e cb52 083f e8a7 bd3e
000001d0: d724 9ebe 469b 69be 4119 523f 5dfa 483f
000001e0: 9f83 6e3f 3833 173f f3dc 28bf 67fd 6e3f
000001f0: 39b3 0f3e 7bc9 53be 3f52 a9bb 1e09 89be
0.38877314 -0.13315357 0.14432566 0.26002425 0.27444994 -0.08734487 0.0057715084 0.20019715
-0.42556968 -0.045272645 0.7343308 0.13226648 -0.15631495 0.27384764 0.40846547 -0.25017363
-0.504874 0.25192264 0.5512416 0.0084064165 0.4927182 0.51731265 0.8224902 0.75262386
0.43306887 0.43493852 -0.6651981 -0.17678358 0.20612761 0.6639705 0.42240465 0.005045862
-0.49855316 -0.47661486 0.5927422 -0.3956104 0.12869065 -0.11389324 0.35245025 0.33291462
-0.37060708 -0.3809826 0.16039872 -0.52300304 0.6662507 -0.12486005 0.59856814 0.3841788
0.37189022 0.40420526 0.20041674 0.17672682 0.93727005 0.07489242 0.054746274 -0.70867836
0.84328145 0.25659445 0.69965297 -0.45368484 0.7418689 0.0975699 0.65548134 0.8991347
0.114648975 0.10801544 -0.09344129 0.445421 -0.80675447 -0.24333997 -0.6265443 0.47126108
0.84867483 -0.35671225 0.18719707 0.17592593 -0.2989698 0.12331276 0.24058439 0.14508808
0.6110549 -0.42136663 -0.56611943 0.2827894 0.3147667 0.013949108 0.6175067 0.22467238
0.22582354 -0.69631165 0.4424882 -0.7568459 0.5151818 0.5027306 0.29085234 0.26519716
-0.24176174 0.92371863 -0.51353437 -0.13181293 0.57031125 0.2346234 -0.16167462 -0.06825672
0.66918117 0.52577597 -0.71354264 0.5411004 -0.7997857 -0.3053946 1.0137954 -0.40272808
0.11362173 0.28706986 0.5325133 0.37042165 -0.30887482 -0.22813138 0.82069784 0.78507024
0.9316959 0.5906253 -0.6596214 0.9335541 0.14033212 -0.20682327 -0.005167275 -0.26764768

net.2.weight f4 [128, 128]
00000000: 5ddd 603d ad5e 71bd 2359 85bd ff6a 9ebd
00000010: 3f10 a9bd da7d 5dbd 0d0b 92bd 7a97 563c
00000020: a8d2 b83c 40e6 b13b 30da eb3c f2a7 533c
00000030: d73f 3e3d f19e 453d c7f9 b7bd 5165 863d
00000040: 6288 293d 07c9 453d 267b bfbc 803c 993d
00000050: 5c84 c73c b179 3f3d 0af2 8b3a 3d13 1dbd
00000060: 79b2 8fbd 28e2 b13c 2e01 9dbd f62f 9ebd
00000070: 89bc 8d3d 31d1 9fbc 0fbe 06bc 9d1b 8d3d
00000080: 8c7c d43b 0ed8 2bbd 3cd4 2d3c f935 983d
00000090: ae45 1ebd 68f6 3ebd 48c3 febc 73b9 8c3c
000000a0: 524e 88bd 07eb 6fbd 29c3 853d 5474 81bd
000000b0: 9ae1 9bbd 7f60 993c d490 71bd 4509 773d
000000c0: 9cb7 4ebc 8dfd 6bbd 8dbf 6d3d 54de 373d
000000d0: 43d9 c4bd b877 f0bc 1af3 813d 203e f33c
000000e0: 528a 72bd 121e 833c 5fa7 593c f2b4 b4bd
000000f0: 8036 6d3a f0f9 243c 4a83 95bd 8e1c febc
00000100: af33 e03c 6d28 77bc c485 6c3d 6cdf c43c
00000110: 9639 2e3d 7f38 c4bd 3f5f 35bd b347 1c3d
00000120: ab4e edba fd35 f33c d08e c7bc bdfc 2c3d
00000130: 1636 153d 466b e6bc 1b10 86bd bbbb 1dbc
00000140: d85b be3c 4480 aabd cae6 6ebc 455a 99bd
00000150: 702c 0a3c ca74 90bd a0e4 423d 8441 c9bb
00000160: 80f6 5cba 3979 abbd b3fe ec3c 000f 4ebd
00000170: 4495 07bc 4f9c 8cbc 29ad 2d3d 26a6 033d
00000180: 1e03 85bc 5000 953d 4a16 1dbd 0d32 993d
00000190: 2bd8 a9bd 7241 43bd 8693 1a3d b58d 973d
000001a0: 189d 4d3d d407 04bc e9ca 8ebd 9c3d 4ebd
000001b0: 0b37 643d e3cc 5b3d fc16 02bd 5026 b8bd
000001c0: c321 1bbd 4583 5cbd 00c1 493d 679e 6b3d
000001d0: 1999 80bd 09b2 173d 58d9 66bd 6471 843c
000001e0: 2f88 bbbc 6976 82bd c8bf 2e3c 9561 733d
000001f0: df5b fd3c e5b5 8e3b 7e75 30bd 9603 70bd
00000200: 613c 02c0 3339 01c0 4423 f4be 456e 9bbe
00000210: f7e7 5d3e da4c 4dbe 1ea2 3a3f 73c7 94bf
00000220: c8ca ee3e b3b1 493d 6f30 c8bf 0628 0bbf
00000230: 964f 0fbf 63cc 2b3d 5d0a 803e ba88 93bc
00000240: 018c 473e 107c 35bf 965f 99bd bf15 94bf
00000250: 9a9d a43e 4ef8 0ebe fe66 07be 727a 4f3e
00000260: 5141 25bf 0431 9b3d e373 423f d344 bdbd
00000270: c69c 1abd 2df8 cf3b 594e aebf 5f3d 03c0
00000280: 8128 9e3e dfef 343f 48f7 45bf f335 fc3e
00000290: b8f6 10c0 33b4 10c0 d9ab aebe c184 69be
000002a0: 08da ccbe ac87 643e 7019 29be a145 173f
000002b0: f27e f4be d735 f93d 3bf7 86bd 0b1e f33c
000002c0: 0eb7 b33d b042 433d e7b6 b2bf 1e90 01c0
000002d0: 4418 37c0 5937 cd3e 0446 08be 92a5 dabf
000002e0: 3d96 84bc 615e 41bf e140 28be c6da fd3d
000002f0: cb95 23bf 5b48 393e 00b4 c1bf f523 febf
00000300: 85c5 dbbb 4d31 18c0 bcd6 e2bf 85f3 0cbf
00000310: b106 90bf 8f96 36bf 5278 bebf 7eaa fcbe
00000320: 9e17 81bf ae8c 04c0 7827 8bbe 606e a13e
00000330: e8b4 be3d 1c8b 2ebf 0a0a a7bf 1cbf 0e3f
00000340: feaf f3bc 8b67 783f 20e0 163f e4e6 2ec0
00000350: 7b65 90bc 3761 d4bd b072 2d3b 91ae 15bf
00000360: f5b5 f23e 1b86 753e 8aa5 65bf 2738 c83d
00000370: 48b2 6fbf b7a3 52be 9bb7 9abe 0276 53bf
00000380: 4e4a 12c0 23db c9be e185 013f 4951 b63e
00000390: 26ad 02be 9567 86be d130 623e 9f2c 56be
000003a0: 613b ee3d ebfe 61be 6d14 bfbf c964 ba3d
000003b0: 62d1 4ebe 4c1e dfbf b664 debf 02e7 a73e
000003c0: e602 95bd a0f6 173f 223a 8c3e 665a 16bf
000003d0: 0ae7 603e b593 3d3f 30b7 d0bf b185 103f
000003e0: 53ce 72be b60b 7cbe 5149 5c3d 5ae7 0fbf
000003f0: d2ef 1cbe 2899 d73d af3f c33e e113 b13e
0.05489861 -0.05892818 -0.06511142 -0.07735252 -0.08255052 -0.0540751 -0.07131014 0.013097638
0.022561386 0.0054290593 0.028790563 0.012918459 0.0464476 0.04824728 -0.08983188 0.06562293
0.04138983 0.048287418 -0.023374151 0.074822426 0.024355106 0.046746913 0.0010676992 -0.038348425
-0.07016463 0.021714285 -0.07666241 -0.077239916 0.06920726 -0.01950893 -0.008224024 0.068900324
0.0064845737 -0.041954093 0.010609683 0.074321695 -0.03864067 -0.04662171 -0.031098977 0.017178273
-0.066555634 -0.05857375 0.065313645 -0.06321016 -0.076113895 0.01872277 -0.05897601 0.060311574
-0.012617018 -0.05761485 0.058044005 0.044889763 -0.09611752 -0.029353961 0.06345196 0.02969271
-0.059213944 0.01600555 0.013284533 -0.08823575 0.00090489537 0.010069355 -0.07300432 -0.031019475
0.027368395 -0.015085322 0.057744756 0.024032317 0.042535387 -0.09581088 -0.044280287 0.038154315
-0.001810511 0.02968883 -0.02436009 0.042233218 0.036428533 -0.028127324 -0.065460406 -0.009627278
0.023237154 -0.08325246 -0.014581392 -0.07487921 0.008433446 -0.07053526 0.047581315 -0.0061418433
-0.00084290653 -0.08372731 0.028930044 -0.050307274 -0.008275334 -0.017164377 0.042401467 0.032140873
-0.016236838 0.0727545 -0.038351335 0.074802496 -0.08293184 -0.047669835 0.037738346 0.07400075
0.050198644 -0.008058507 -0.06972296 -0.050351724 0.055716556 0.053662192 -0.0317602 -0.089916825
-0.037873995 -0.053836126 0.049256325 0.05752411 -0.06279201 0.037035022 -0.05635962 0.01616735
-0.022892086 -0.06370241 0.010665841 0.059419233 0.030927597 0.0043551796 -0.0430808 -0.05859717
-2.0349352 -2.0191162 -0.47683156 -0.30357566 0.21670519 -0.20048848 0.7290362 -1.1623367
0.46639085 0.049241733 -1.5639781 -0.54357946 -0.55980814 0.041942965 0.25007907 -0.018009532
0.19487001 -0.7089243 -0.07488935 -1.1569136 0.3215149 -0.13961908 -0.13222882 0.20261553
-0.6455279 0.07577708 0.7595808 -0.09241643 -0.037747167 0.0063467235 -1.361766 -2.0506208
0.30890277 0.70678514 -0.77330446 0.4925991 -2.2650585 -2.2609985 -0.34115484 -0.22804548
-0.40010095 0.2231738 -0.1651361 0.5909062 -0.47753102 0.12168472 -0.06590124 0.029677412
0.08775149 0.04767102 -1.3962067 -2.0244212 -2.860856 0.4008129 -0.13307959 -1.7081778
-0.01618492 -0.75534636 -0.16431 0.12395243 -0.6390044 0.18094008 -1.5133057 -1.9854723
-0.006706896 -2.378009 -1.7721782 -0.5505908 -1.1252042 -0.71323484 -1.4880469 -0.49348825
-1.0085332 -2.0710864 -0.2717855 0.31529522 0.09311849 -0.68181014 -1.3049939 0.5576036
-0.029747006 0.97032994 0.5893574 -2.7328424 -0.017626515 -0.10370105 0.0026466064 -0.5846949
0.47404447 0.23976938 -0.8970572 0.09776335 -0.9363141 -0.20570265 -0.30218205 -0.8260194
-2.2857852 -0.39425 0.5059491 0.3560889 -0.12761363 -0.26250902 0.22088934 -0.20915459
0.116324194 -0.220699 -1.4928108 0.091012545 -0.2019706 -1.7431121 -1.7374485 0.32793432
-0.072759435 0.59360695 0.27388102 -0.5873169 0.21963134 0.7405351 -1.6305904 0.56453997
-0.23711519 -0.24613842 0.053780857 -0.5621239 -0.15325859 0.10527259 0.38134524 0.3458548

net.2.bias f4 [128]
00000000: de44 b4bd 3018 94bf 0259 14bd adb1 88bd
00000010: 8722 383d 8268 503c 6045 4f3f c5cc d13c
00000020: ce19 acbe 416d 5dbd 3ff5 f73c ce51 7e3d
00000030: c453 07bd fabc 773c 0e5b 71bd 6b51 343d
00000040: f1e5 463c 7fb7 6abc 5471 c83b 5210 a8bd
00000050: c3ad 843d 36bf 24bd 8086 643f 40b0 4a3e
00000060: 594e 77bd 1092 bebd 38d8 3d3d 93f0 56bd
00000070: b745 4bbe 66c2 d3bd 4391 333f f771 6e3c
00000080: e81f a1bd e7a8 6bbe 1c34 a6bd 1c98 0c3e
00000090: 83b2 84be edff 8cbc 0330 943c 4d25 fcbd
000000a0: dd9b c03c 448f 5b3d cbea 0ebe d8d9 1fbe
000000b0: 9caa 03bd 2470 7d3e 4252 0db9 7cb1 c3ba
000000c0: 2cf3 51bb a582 3f3f 108e 2ebe 3297 d7bd
000000d0: abf3 463c 0187 1a3f 28a7 f4bc 351f 173d
000000e0: 0ea3 013f 08f4 453e fa5f 18bd 309f 333d
000000f0: ad6b 76be f85f c53d 2e03 5c3b a438 b03d
00000100: 3fad c73d ef95 3cbc de93 58bd 36a2 09be
00000110: 7089 6bbd 51fd 453d 3780 c3bd 3c3c 47bb
00000120: 408a 2dbd d0fa a3bd 1d82 513d 02e6 4abd
00000130: 12e8 353d f832 e63c 2d1e 3c3f b00d 103d
00000140: 669f 30bd 697e 5c3c 581e bfbd bff4 1c3e
00000150: 6e6a 883d 157a 653b a04d c83c acbd 153d
00000160: ba42 c4bd 5b30 bbbd 52ed b9bd c006 c4bc
00000170: b5a8 2cbe 6144 a5bd 647a 963e 0eb0 533d
00000180: ce3a e13c c6f9 b4bd 0d4b 3a3d cfd4 963e
00000190: 781e 90bc d50b 743e 36d9 803d ffd7 0ebd
000001a0: 22e7 7e3c e258 82ba fa72 293d 6130 a53c
000001b0: 4f30 1f3d 7838 013e 71b1 0ebd 01a7 f1bc
000001c0: 0895 3dbd 2962 78bd f7b6 15bd f133 5abd
000001d0: bcbf 9dbd 0bf5 083d 6e45 87bd 789d bebd
000001e0: 86b7 a53a 6042 efbd 2634 15bc f7bd 843e
000001f0: 8d2e 653c 7b9b 69bd c452 57bc 0e8d 333e
-0.08802198 -1.1569881 -0.036217697 -0.06674514 0.044954803 0.012720229 0.8096523 0.025610337
-0.33613437 -0.05405927 0.03026831 0.062089734 -0.03303887 0.015120739 -0.058924727 0.04402296
0.012139783 -0.014325975 0.0061170254 -0.08206238 0.06478455 -0.040221415 0.8926773 0.19793797
-0.060377453 -0.09305203 0.04634878 -0.052475523 -0.19850813 -0.10339813 0.70143527 0.0145535385
-0.07867414 -0.2301365 -0.08115408 0.137299 -0.25917444 -0.017211879 0.0180893 -0.12311802
0.023511821 0.053603426 -0.13956754 -0.15610445 -0.032145128 0.2474981 -0.00013477451 -0.0014930214
-0.003203581 0.7480872 -0.1704638 -0.10526885 0.012143056 0.6036225 -0.029864863 0.036894996
0.50639427 0.19331372 -0.037200905 0.043852985 -0.24064513 0.09637445 0.0033571231 0.08604553
0.09749841 -0.011510356 -0.052875392 -0.13440785 -0.057504117 0.048337284 -0.095459394 -0.0030400893
-0.042368174 -0.08006823 0.051149476 -0.04953576 0.044410773 0.028100476 0.73483545 0.035169303
-0.043120764 0.013457873 -0.093319595 0.15327738 0.06660925 0.0035015394 0.024451077 0.03655784
-0.095830396 -0.091400824 -0.090784684 -0.023929 -0.16861232 -0.08069683 0.29390252 0.05168157
0.02749386 -0.08836703 0.04548173 0.29459235 -0.017592654 0.23832639 0.0629143 -0.03487396
0.015558036 -0.0009944702 0.041369416 0.02016467 0.03886443 0.12619197 -0.03483719 -0.029498579
-0.046284705 -0.060640488 -0.036551442 -0.05327219 -0.07702586 0.033436816 -0.066050395 -0.093073785
0.0012643195 -0.11682582 -0.009106671 0.25926182 0.013988149 -0.057033043 -0.013142291 0.17534277

net.4.weight f4 [4, 128]
00000000: 2fb0 80bb c81c c2be 622b 96be 9f4c 40bd
00000010: b389 d5be 7fff c4be 4620 b13f 64bb ac3d
00000020: 0991 fa3f 5cbc a0be 534f adbe 17c5 c3be
00000030: 3d89 9bbe 7570 f33f 8147 e1be ab8b 97be
00000040: cc9b 5dbe 2c88 a73c 4dd8 ddbe 4a05 b6be
00000050: 217e f83f 4b82 f5be 4704 de3f 34c8 b0bf
00000060: 2943 debe 86b6 6c3c c079 03bf 4ff5 15c0
00000070: d309 0a40 c1ee cfbe 8c00 b63f 5e62 7dbe
00000080: c427 b7be c8a0 d6bf 68a3 c1be 7cfa 3dbe
00000090: f23c 47bf 50c0 acbe 27a4 b6be 0b4d 04bf
000000a0: 7130 c1be ff2c 953f 41b2 a0bf 136c 493f
000000b0: bffc e7be 6fc7 6a3f 1f79 e2be fb8c 3ebe
000000c0: 788e f4be 48e7 aa3f f0f4 0e40 56ad d1be
000000d0: cb17 b8be 6425 063f 2adc debe d6fb 9fbe
000000e0: 31d4 ffbd 39d9 85be e0be b2be 67fe d8be
000000f0: 08bb 1a40 81cb 03be b39d 9dbe a93c cabe
00000100: f667 35bf 6c78 d1be 0131 e0be 06c5 7bbf
00000110: 5485 c9be 4420 d5be c5dc c7be eac9 a8bd
00000120: 78d8 05bf 1ce4 9abe b48e 58be b2a4 d0be
00000130: 7ad9 c13e 5c82 98be 6402 cd3f b2da a2be
00000140: 9dd1 a1be ca8b 07bd 2925 b7be 2913 45bf
00000150: 677d 49be 3594 f7be fe10 b0be 6959 d2be
00000160: f032 bdbe 222f 6b3d f566 da3a 677e 9dbe
00000170: 4eb5 0c40 49a0 f3be 2a99 2c3e 9750 cfbe
00000180: 5d07 f5be b565 97bc e2e0 75be 573f 313e
00000190: db90 dfbf 4035 bb3f 2a3e acbe f4f5 01bf
000001a0: 5b79 8cbd 6ad2 78be 342f c7be 1336 debe
000001b0: df34 95be 7d67 3e3e 3418 b3bf b5aa afbe
000001c0: 5982 dfbe 0b74 80bd 5f54 c2be 36e9 293d
000001d0: ecc3 bfbe f3d6 b5be 4155 223d da5d 373c
000001e0: 4f73 cbbe c51b d7be fc5d d3be dac0 be3f
000001f0: 1648 d8be 5dde e4be c047 dbbe f435 95bd
00000200: 6ff3 5dbd 6126 3f3f 3eff cbbe 02df d63c
00000210: c46c e8be aaff d0be ad18 753f 771d 82bd
00000220: ce22 0a40 0e37 b3be 1bfd 4abe 8b6d 19bf
00000230: 8a7b c9be 9976 f93f 57ce c6be d3cb 2dbd
00000240: 1fe2 ffbc 917a 6fbd 1eb8 02bf 6f39 01bf
00000250: 8d9c f63f ad44 f8be df2c f63f 687e 003e
00000260: cedb 72be d844 4d3d dd74 3fbf 043f 99bf
00000270: e41e 0940 57b4 89be aad5 cd3f 9aae d9be
00000280: 38a1 97be 5380 edbf 888e 03bf ce38 093e
00000290: 0198 01bf c01e c3be 5b68 5fbe efd1 a1bf
000002a0: e5c2 6ebe a086 8d3f a0e8 a3bf b383 c93f
000002b0: 2175 3ebf 032a 173f de45 ecbe 8e3b acbe
000002c0: e8f0 2ebf 3853 ae3f f8da 0940 fd98 43bf
000002d0: cfe1 ccbe 143f 4f3f 3fc4 54bf f540 27bf
000002e0: 3187 bc3f d257 96bf 8f8a eebe a845 a6be
000002f0: b8fd 2540 3832 503e c272 92be 0a22 00bf
00000300: ace5 f63e f831 e9be 6b03 08bf d1b2 15bf
00000310: 6f18 09bf b778 08bf 5e6e f7be 5c30 fb3c
00000320: 42e3 bebe 20a0 27be c61d 653c 3bd9 a0be
00000330: 3b4e 30be 5999 12bf e319 b43f 6447 94be
00000340: 8760 17bf 3e1e 8d3d a0a1 eebe cab3 81bf
00000350: 6385 d0be 02eb 02bf a3c5 05bf 894e 03bf
00000360: 0b59 d0be 5929 ae3d 9cd9 a03c ffab 6ebe
00000370: 0f6f 1640 3863 213e b1c6 df3e 0857 0bbf
00000380: 8181 75be 0f11 183d d7d0 29be 5222 d53e
00000390: 3111 e6bf 365b 703f 8a12 bcbe efa1 15bf
000003a0: 8251 8dbc e0fb 12bf 2d67 33be e8d3 69be
000003b0: 07ad 50be aee5 823e a9b4 e9bf 12e1 b0be
000003c0: 6a72 2dbe 9c28 a43d 0efe 41be 0040 1338
000003d0: 120e 9dbe 0321 31be 2f92 0a3d c895 1c3c
000003e0: d616 68be fc56 c0be 8300 00bf c944 be3f
000003f0: b4de 3cbe d1d2 6bbe e15d dfbe a470 c43d
-0.0039272527 -0.37912583 -0.29329973 -0.04694807 -0.4170662 -0.38476178 1.3837974 0.084341794
1.9575511 -0.31393707 -0.33849582 -0.38236305 -0.30378142 1.9018694 -0.43999866 -0.29598746
-0.21641463 0.020450674 -0.43329087 -0.3555091 1.9413491 -0.47950968 1.7345055 -1.3811097
-0.43410614 0.014447814 -0.5135765 -2.3430974 2.1568496 -0.40611842 1.4218917 -0.24744555
-0.35772526 -1.6767817 -0.37819982 -0.18552583 -0.7782737 -0.33740473 -0.35672113 -0.5168006
-0.3773227 1.1654357 -1.2554399 0.78680533 -0.45310017 0.9171056 -0.44233033 -0.18608467
-0.47764945 1.3351831 2.2336998 -0.40952557 -0.35955653 0.52400804 -0.43527347 -0.31246823
-0.12491644 -0.2614229 -0.3491125 -0.42381594 2.4176655 -0.128706 -0.30784377 -0.39499405
-0.70861757 -0.40912187 -0.43787387 -0.9834751 -0.39359534 -0.4162618 -0.3903562 -0.08241637
-0.5228343 -0.3025216 -0.21148187 -0.40750653 0.37861234 -0.29786956 1.6016355 -0.31807476
-0.31605235 -0.033092298 -0.35770538 -0.7698236 -0.19676743 -0.4835526 -0.34387964 -0.4108384
-0.36952925 0.057417996 0.0016662764 -0.307605 2.198566 -0.47583225 0.16855302 -0.40491173
-0.4785718 -0.018481115 -0.24011567 0.17309318 -1.7466081 1.4625626 -0.33641177 -0.5076592
-0.06859084 -0.24299017 -0.389032 -0.4340063 -0.291419 0.18594165 -1.3991761 -0.34309927
-0.43654135 -0.062721334 -0.37954995 0.041482173 -0.37454164 -0.35515556 0.039632086 0.01119181
-0.3973641 -0.42013374 -0.41282642 1.4902604 -0.42242497 -0.447009 -0.42828178 -0.07285681
-0.054187234 0.74667937 -0.39843172 0.026229385 -0.45395482 -0.40820056 0.9574078 -0.06353276
2.1583743 -0.3500294 -0.19823115 -0.59932774 -0.39352065 1.9489318 -0.388293 -0.04243071
-0.031235753 -0.058466498 -0.5106219 -0.5047826 1.9266526 -0.48489895 1.9232444 0.1254822
-0.23716661 0.050114483 -0.74787694 -1.1972356 2.1425104 -0.268954 1.608083 -0.42516023
-0.29615188 -1.8554786 -0.5138936 0.13400576 -0.50622565 -0.38109398 -0.21817152 -1.2642192
-0.23316534 1.1056709 -1.2805367 1.5743316 -0.74397475 0.5904848 -0.46147054 -0.33639187
-0.68336344 1.3619146 2.1539898 -0.76405317 -0.40016028 0.80955625 -0.8311195 -0.6533349
1.4728757 -1.1745551 -0.46590087 -0.32475019 2.5936108 0.20331657 -0.28603178 -0.5005194
0.482221 -0.45545936 -0.53130215 -0.5847598 -0.5355291 -0.53309196 -0.4832639 0.030662708
-0.3728276 -0.16369677 0.013984149 -0.31415734 -0.17217343 -0.5726524 1.40704 -0.28960717
-0.59131664 0.06890534 -0.46607685 -1.0132992 -0.40726766 -0.51139843 -0.52254695 -0.5129171
-0.40692934 0.0850398 0.019635014 -0.23307799 2.3505285 0.15760505 0.43706277 -0.54429674
-0.23975183 0.037125643 -0.16583572 0.41627747 -1.7973996 0.93889177 -0.36732894 -0.58450216
-0.01725078 -0.5741558 -0.17519827 -0.22834742 -0.20378505 0.25565857 -1.8258258 -0.34546715
-0.16938177 0.08015558 -0.1894457 3.5107136e-05 -0.30674797 -0.17297749 0.033830818 0.009557195
-0.22664961 -0.37566364 -0.5000078 1.4864742 -0.1844433 -0.23029639 -0.4362631 0.09591797

net.4.bias f4 [4]
00000000: cc25 afbd 05fd 973e da52 793c 7180 22bc
-0.08552131 0.29685226 0.015217507 -0.009918318
