SARSA/dsqn/650_model_weights.pth (torch, 75917 bytes, 6 tensors)

net.0.weight f4 [128, 8]
000000 32 8d 45 3f ac 6e 6c bd e8 c3 0a 3f a6 07 b5 be
       0.7716857 -0.057722732 0.5420518 -0.35357398
000010 5c 61 2b bf b3 89 1f 3e d4 9b a7 3c 79 b0 c4 3b
       -0.66945434 0.15579872 0.020460047 0.0060024825
000020 93 f4 9f 3f 47 5b 2a 3e 1b 94 76 3f d4 50 3f be
       1.2496513 0.16636382 0.9631974 -0.18683177
000030 53 da c4 bd 4d 5d 49 3e a1 f6 7d be d7 d3 bb be
       -0.096119545 0.19664498 -0.24801113 -0.36685058
000040 23 c9 9e bf 09 44 ae 3f 02 69 80 be 01 34 09 bf
       -1.2405132 1.3614513 -0.25080115 -0.53594977
000050 90 dd b2 3d d7 4b 24 3e 13 47 59 3d f8 3e 72 be
       0.08733666 0.16044556 0.053046297 -0.23656833
000060 b0 f2 73 3e 7e bb 78 3f 0a 69 13 3e 3c 4b 4e bf
       0.23823047 0.9716109 0.14395538 -0.8058355
000070 ef e2 41 3e 35 f5 cb 3d 6e bb 6e bd 1e 45 0f be
       0.18934225 0.09958879 -0.058284216 -0.1399121
000080 96 a1 b2 be b3 cf ad 3c 18 ae 19 3e bc 76 68 be
       -0.34888905 0.021217203 0.15007818 -0.22701544
000090 36 ed 21 3f 76 14 75 3f 1e 94 4a 3f 6a 34 9e 3e
       0.6325258 0.95734346 0.7913226 0.30899364
0000a0 8f 97 16 bf a9 56 d4 be 2d 1a 78 3f ca ae ae be
       -0.5882501 -0.41472366 0.9691494 -0.34117728
0000b0 7f 52 83 be 1d 3c 74 bf 4b ff fe 3e 75 6a 9d be
       -0.25648877 -0.95404226 0.49804148 -0.30745283
0000c0 68 6e 20 bd 9d 5d 46 bf 12 f3 3a 3f d3 26 05 bf
       -0.03916779 -0.7748659 0.73027146 -0.52012366
0000d0 58 45 a7 bf 19 f3 49 3f 11 ca 9c bc c1 d2 2f be
       -1.3068037 0.7888656 -0.019139322 -0.1717024
0000e0 f1 09 5a bf f5 69 4b 3f 85 6b 96 3e 2e 4c 95 3f
       -0.8517142 0.7945855 0.29378906 1.1663873
0000f0 05 fa 8c be 81 58 09 3e fc 7c f4 3c 77 3e b2 3d
       -0.275345 0.13412668 0.029844753 0.087033205
000100 6a 58 30 bd f3 3a 1d 3b b1 70 f7 be 24 b6 14 bf
       -0.04305307 0.0023991435 -0.48328164 -0.58090425
000110 1c 73 62 3f 86 f5 4d 3f bf a4 b1 3d 62 f9 a7 3e
       0.8845689 0.80452764 0.08674001 0.3280745
000120 4f 01 42 bf c2 7c 16 3c d5 b0 c7 3f 7d 3a 81 3f
       -0.75783247 0.009185018 1.560084 1.0095974
000130 00 02 34 3f 16 dc 2d 3f 72 5f 91 3d 19 b4 a5 be
       0.7031555 0.6791395 0.07098283 -0.32363966
000140 80 b5 cd 3e 5e 9b 2f 3f 0e aa ae be ea 7b 02 3f
       0.40177536 0.68596447 -0.34114116 0.5097033
000150 67 48 a4 bd cd c3 20 be e5 ba fe 3d 7b 8d 78 be
       -0.08021622 -0.15699692 0.12437991 -0.2427272
000160 3f 0c c4 bf 7a 48 6f be 8e 4a 91 bf 2e 64 db 3d
       -1.5316237 -0.23367491 -1.1350877 0.10712467
000170 39 48 a5 be 58 26 6d 3d 94 6c 1c 3f 51 aa c2 3e
       -0.32281664 0.057897896 0.6110318 0.38020566
000180 df d8 cb be 97 89 59 3f ba 39 53 3e 8c 0e 9b 3e
       -0.39813897 0.8497557 0.2062749 0.30284536
000190 6e bb 15 3f 90 d4 15 3f de 55 3a 3e e2 64 d0 3e
       0.5848912 0.5852747 0.18196818 0.40701967
0001a0 1b 39 2a be 95 97 75 be 05 df 01 bf e7 1e 02 3d
       -0.16623347 -0.23983605 -0.50730926 0.031767752
0001b0 03 27 2f 3f c7 63 0d 3f 53 6d 27 3f 91 3b 0b be
       0.684189 0.55230373 0.6540119 -0.13596942
0001c0 0b 9c 67 be 52 7f 26 bd 8e e3 fb 3e 9e cb 05 bf
       -0.2261812 -0.040648766 0.49197048 -0.5226382
0001d0 c2 99 b9 3e 00 ce 8c 3f fe f8 da 3e 99 c4 60 3d
       0.3625012 1.1000366 0.4276809 0.05487499
0001e0 a4 c0 66 bf 61 51 2a 3e 73 3d 4b bc 52 38 d8 3e
       -0.90137696 0.16632606 -0.012404787 0.4223047
0001f0 9e ea 0b bf 37 ca 9c 3e 60 49 b1 3e 84 13 af 3c
       -0.5465487 0.30623028 0.34626293 0.02137161
000200 01 2c 83 bf a3 6f ed be c9 9b a9 3e 30 8a 10 be
       -1.0247804 -0.46374235 0.33126667 -0.14115214
000210 77 38 0e bf 41 af c6 3e 67 67 d1 3d e4 b1 dc be
       -0.5555491 0.38805583 0.102248006 -0.4310447
000220 7d a8 b3 3d 6d 46 de 3e 80 9e 9b bc 0d a2 4e 3f
       0.08772371 0.43413106 -0.018996477 0.8071602
000230 77 40 9f bb 0f 24 a8 bd 4b 4e 07 3f 25 61 65 3f
       -0.0048599797 -0.08210003 0.5285384 0.89601356
000240 9c 35 db 3e 82 20 27 3f c1 68 da be 15 9f 28 bf
       0.42814338 0.6528398 -0.42658046 -0.6586774
000250 59 6e 23 bf a1 0b c6 3f 63 55 b0 3e 2b 2f 3a bf
       -0.6384025 1.5472299 0.34440145 -0.7272822
000260 39 7b b1 3d 57 1c 9a 3f fd e8 8d be 73 2d b2 be
       0.08666081 1.2039899 -0.27716818 -0.348003
000270 0c 31 bf bf 03 86 3c bf e1 a8 b1 be 56 0e 9a bf
       -1.4936843 -0.73641986 -0.34699157 -1.2035625
000280 4e 5f 5b be 74 1a 4d be b3 99 0b 3f 98 7d 14 be
       -0.21423075 -0.20029622 0.545314 -0.14501035
000290 0c 5c 2c 3f 51 60 bb 3f c9 09 e3 3d 7b f3 1a be
       0.6732795 1.4638768 0.11085851 -0.15131943
0002a0 6b 1a 85 bd bd 22 49 be 39 ba a4 3d d2 89 b2 3f
       -0.064991795 -0.19642158 0.08043332 1.394831
0002b0 7e 1c 0f 3f 17 4a 8c 3f f2 9d fb 3e 1f bd 8e 3e
       0.5590285 1.096011 0.4914394 0.27878663
0002c0 0e c7 8f bd 77 66 e4 3e fe 93 a6 be 98 23 3b bd
       -0.070203885 0.44609424 -0.32534784 -0.04568824
0002d0 27 af 27 3f b4 38 ce 3e e7 c9 3f 3f 3f 08 a0 3e
       0.65501636 0.40277636 0.74917454 0.3125629
0002e0 e7 a9 2c bf 5f 7f 68 be e2 6c 4f bc a5 b6 1b bf
       -0.6744675 -0.22704838 -0.012660237 -0.6082557
0002f0 72 f3 e1 bd 46 a6 3c 3f ac 3c 35 3e a0 9a 85 bc
       -0.11032762 0.73691213 0.17698926 -0.016309083
000300 a0 58 6f bf 47 86 c7 bd ff 67 a4 bf be 01 a5 3e
       -0.93494606 -0.09742408 -1.2844237 0.32227892
000310 28 d9 80 be 38 e2 89 3d b1 38 08 3f 6f 7a ca bd
       -0.25165677 0.06732601 0.53211504 -0.098866336
000320 ea 39 ec 3e f0 69 96 3c 48 65 66 3e ed cd 0c bf
       0.46137935 0.018361062 0.22499573 -0.5500172
000330 2e 91 e8 3e 57 e3 4a 3f 3f 73 de 3e 21 87 a0 3d
       0.45423263 0.79253143 0.434473 0.07838274
000340 7a 1b 47 bf 98 19 a4 bf 32 e0 52 bf 52 bf 38 3d
       -0.777763 -1.282031 -0.82373345 0.045104332
000350 4b 3a 98 3f 2a 4e 45 3f 93 1d 9a 3e 07 22 40 bf
       1.189279 0.77072394 0.30100688 -0.7505192
000360 8e 01 91 3e d3 eb ae 3d c8 f1 a8 be d2 83 4c 3d
       0.283215 0.08541074 -0.32996964 0.0499304
000370 48 73 a1 3e b1 18 8a bf eb 50 6c be 70 b4 83 bb
       0.31533265 -1.0788785 -0.23077743 -0.0040193126
000380 52 ec 97 3d 37 0e 3f be 59 9c 98 3e 9c b6 73 bc
       0.074181214 -0.18657766 0.29806784 -0.01487508
000390 75 cf 3e 3f 72 c0 b7 3f 1f ff dc be 01 58 8a bf
       0.74535304 1.4355605 -0.43163392 -1.0808107
0003a0 cd f1 09 bf e7 a1 0b be 7d 90 0b 3d 1b 52 3a bf
       -0.53884584 -0.1363598 0.03407334 -0.72781533
0003b0 68 53 88 3d 3a 0c 2c 3f 43 6b 99 3e ee 83 21 bc
       0.066565335 0.67206156 0.29964647 -0.009858115
0003c0 12 3b c3 be 1f de 05 be 77 7c 3c bf 5f a8 0c bb
       -0.38131005 -0.13073014 -0.7362742 -0.0021462662
0003d0 a1 d1 2e bf 25 2e c4 bf b4 a7 88 3e 3c a5 52 3f
       -0.6828862 -1.5326582 0.26690447 0.8228338
0003e0 42 12 d8 3f f6 8b 23 3e 1b 36 3a 3f be 29 9c 3e
       1.6880572 0.1597136 0.7273881 0.30500597
0003f0 2b 29 19 be cf 5e 82 3e ea 0e f8 bc 9c ad 0d 3d
       -0.1495711 0.25462958 -0.03028055 0.034589395

net.0.bias f4 [128]
000000 df 63 c2 3e 18 92 af bd 49 6d 0f 3e 8d d2 82 3e
       0.3796682 -0.08572787 0.14006533 0.25551262
000010 59 de 8d 3e f5 af 63 bd e8 1a 99 3c 69 73 55 3e
       0.277087 -0.055587728 0.018689588 0.20844807
000020 42 2d dd be e1 3e 7b bd 69 90 3f 3f 99 53 fb 3d
       -0.4319859 -0.061339263 0.7482973 0.12271804
000030 cb 5e 38 be f3 e7 91 3e a7 3f d9 3e 89 a1 79 be
       -0.1800491 0.28497276 0.42431375 -0.24378027
000040 99 9e f2 be 2f fe 80 3e 12 52 0f 3f 9c 71 29 bb
       -0.47386625 0.25193927 0.55984604 -0.002585507
000050 31 36 f9 3e 06 32 fd 3e c0 63 51 3f 89 51 43 3f
       0.48674157 0.49452227 0.8179283 0.7629629
000060 dc da e3 3e 26 24 e1 3e b0 e6 12 bf 57 54 5c be
       0.44502914 0.43972892 -0.5738325 -0.21516548
000070 29 87 4c 3e fb db 2c 3f c6 00 d4 3e 8a 8e a5 3c
       0.19973435 0.67523164 0.4140684 0.02020957
000080 b0 f9 00 bf 3e b5 f4 be 3a de 16 3f 96 f2 d0 be
       -0.5038099 -0.47794527 0.5893284 -0.40810078
000090 ae 56 08 3e 18 e5 f0 bd d3 4a bb 3e ef 34 aa 3e
       0.13314316 -0.11762446 0.36580524 0.3324351
0000a0 ec 0c bd be 02 d7 cb be dc f0 22 3e 00 c4 01 bf
       -0.3692392 -0.39812475 0.15912193 -0.506897
0000b0 b9 8a 28 3f ba 3f e1 bd f6 b2 1a 3f 26 94 d8 3e
       0.65836674 -0.10998483 0.6042932 0.42300528
0000c0 71 f9 ac 3e ac b4 dc 3e 77 a0 5a 3e 4a 5e 39 3e
       0.3378406 0.43106592 0.21350275 0.18102375
0000d0 cd ce 7e 3f 2d 8d 6d 3d 23 4e 1c 3c f2 6b 35 bf
       0.995343 0.057995964 0.009540114 -0.70867836
0000e0 12 ab 54 3f f6 c5 8f 3e 83 c7 32 3f f7 12 e7 be
       0.8307353 0.2808072 0.6983568 -0.45131657
0000f0 d4 b0 41 3f cc 0d bb 3d ae ce 28 3f 01 dd 67 3f
       0.75660443 0.09133491 0.6594037 0.905716
000100 a2 2d 22 3e 70 81 e1 3d dc e6 ae bd f7 5c e0 3e
       0.1583772 0.11011016 -0.08540127 0.43820927
000110 2d f8 5d bf 0c cf 87 be d6 e5 19 bf 8a 65 f3 3e
       -0.8670681 -0.26525152 -0.60116327 0.47538406
000120 48 a1 5a 3f 90 cf aa be c5 a7 5a 3e a1 dd 42 3e
       0.85402346 -0.33361483 0.21353061 0.19029857
000130 6d 4f 97 be 5f 0f f2 3d 2e 15 7e 3e fd 7b 09 3e
       -0.29552785 0.11819338 0.24812767 0.13426204
000140 cd 72 18 3f d4 fa d4 be dd 15 05 bf 06 51 98 3e
       0.5955017 -0.41597617 -0.51986486 0.29749316
000150 f5 4b aa 3e e6 0e b3 3c 89 71 1d 3f da bd 68 3e
       0.33261076 0.02185769 0.61501366 0.22728673
000160 fc b8 6b 3e d2 88 33 bf ce 08 df 3e 2c 5d 4b bf
       0.23019785 -0.70130646 0.43561405 -0.79439044
000170 44 84 03 3f 51 25 01 3f 28 2d 97 3e fd 38 84 3e
       0.51373696 0.50447565 0.2952664 0.2582473
000180 c0 e5 70 be 87 b3 6c 3f 55 9e 09 bf fa 35 f1 bd
       -0.23525143 0.92461437 -0.5375722 -0.11777873
000190 8d 9d 10 3f 37 36 4b 3e b2 14 3a be b6 06 8a bd
       0.56490403 0.198449 -0.18171957 -0.06739561
0001a0 b1 58 2f 3f e5 aa 04 3f 76 90 5a bf 36 56 0f 3f
       0.6849471 0.51823264 -0.8537668 0.5599092
0001b0 ea 5a 4f bf 09 94 a3 be 40 ca 8c 3f 7e 65 df be
       -0.809981 -0.3194888 1.0999222 -0.4363212
0001c0 c6 e6 dc 3d 9f de 9e 3e 9c dc 08 3f a6 87 c4 3e
       0.10786204 0.3102922 0.53461623 0.38384742
0001d0 d3 e0 a4 be 33 bf 82 be f4 74 56 3f 20 8a 48 3f
       -0.32202777 -0.25536498 0.83772206 0.7833576
0001e0 25 bd 6d 3f 4e 2f 0f 3f 9c dd 2a bf 5b c5 6f 3f
       0.92866737 0.55931556 -0.667444 0.93660516
0001f0 aa 13 1f 3e 96 be 4f be 7a e5 8a 3a 99 83 84 be
       0.15534845 -0.20287547 0.0010596954 -0.2588165

net.2.weight f4 [128, 128]
000000 5d dd 60 3d ad 5e 71 bd 23 59 85 bd ff 6a 9e bd
       0.05489861 -0.05892818 -0.06511142 -0.07735252
000010 3f 10 a9 bd da 7d 5d bd 0d 0b 92 bd 7a 97 56 3c
       -0.08255052 -0.0540751 -0.07131014 0.013097638
000020 a8 d2 b8 3c 40 e6 b1 3b 30 da eb 3c f2 a7 53 3c
       0.022561386 0.0054290593 0.028790563 0.012918459
000030 d7 3f 3e 3d f1 9e 45 3d c7 f9 b7 bd 51 65 86 3d
       0.0464476 0.04824728 -0.08983188 0.06562293
000040 62 88 29 3d 07 c9 45 3d 26 7b bf bc 80 3c 99 3d
       0.04138983 0.048287418 -0.023374151 0.074822426
000050 5c 84 c7 3c b1 79 3f 3d 0a f2 8b 3a 3d 13 1d bd
       0.024355106 0.046746913 0.0010676992 -0.038348425
000060 79 b2 8f bd 28 e2 b1 3c 2e 01 9d bd f6 2f 9e bd
       -0.07016463 0.021714285 -0.07666241 -0.077239916
000070 89 bc 8d 3d 31 d1 9f bc 0f be 06 bc 9d 1b 8d 3d
       0.06920726 -0.01950893 -0.008224024 0.068900324
000080 8c 7c d4 3b 0e d8 2b bd 3c d4 2d 3c f9 35 98 3d
       0.0064845737 -0.041954093 0.010609683 0.074321695
000090 ae 45 1e bd 68 f6 3e bd 48 c3 fe bc 73 b9 8c 3c
       -0.03864067 -0.04662171 -0.031098977 0.017178273
0000a0 52 4e 88 bd 07 eb 6f bd 29 c3 85 3d 54 74 81 bd
       -0.066555634 -0.05857375 0.065313645 -0.06321016
0000b0 9a e1 9b bd 7f 60 99 3c d4 90 71 bd 45 09 77 3d
       -0.076113895 0.01872277 -0.05897601 0.060311574
0000c0 9c b7 4e bc 8d fd 6b bd 8d bf 6d 3d 54 de 37 3d
       -0.012617018 -0.05761485 0.058044005 0.044889763
0000d0 43 d9 c4 bd b8 77 f0 bc 1a f3 81 3d 20 3e f3 3c
       -0.09611752 -0.029353961 0.06345196 0.02969271
0000e0 52 8a 72 bd 12 1e 83 3c 5f a7 59 3c f2 b4 b4 bd
       -0.059213944 0.01600555 0.013284533 -0.08823575
0000f0 80 36 6d 3a f0 f9 24 3c 4a 83 95 bd 8e 1c fe bc
       0.00090489537 0.010069355 -0.07300432 -0.031019475
000100 af 33 e0 3c 6d 28 77 bc c4 85 6c 3d 6c df c4 3c
       0.027368395 -0.015085322 0.057744756 0.024032317
000110 96 39 2e 3d 7f 38 c4 bd 3f 5f 35 bd b3 47 1c 3d
       0.042535387 -0.09581088 -0.044280287 0.038154315
000120 ab 4e ed ba fd 35 f3 3c d0 8e c7 bc bd fc 2c 3d
       -0.001810511 0.02968883 -0.02436009 0.042233218
000130 16 36 15 3d 46 6b e6 bc 1b 10 86 bd bb bb 1d bc
       0.036428533 -0.028127324 -0.065460406 -0.009627278
000140 d8 5b be 3c 44 80 aa bd ca e6 6e bc 45 5a 99 bd
       0.023237154 -0.08325246 -0.014581392 -0.07487921
000150 70 2c 0a 3c ca 74 90 bd a0 e4 42 3d 84 41 c9 bb
       0.008433446 -0.07053526 0.047581315 -0.0061418433
000160 80 f6 5c ba 39 79 ab bd b3 fe ec 3c 00 0f 4e bd
       -0.00084290653 -0.08372731 0.028930044 -0.050307274
000170 44 95 07 bc 4f 9c 8c bc 29 ad 2d 3d 26 a6 03 3d
       -0.008275334 -0.017164377 0.042401467 0.032140873
000180 1e 03 85 bc 50 00 95 3d 4a 16 1d bd 0d 32 99 3d
       -0.016236838 0.0727545 -0.038351335 0.074802496
000190 2b d8 a9 bd 72 41 43 bd 86 93 1a 3d b5 8d 97 3d
       -0.08293184 -0.047669835 0.037738346 0.07400075
0001a0 18 9d 4d 3d d4 07 04 bc e9 ca 8e bd 9c 3d 4e bd
       0.050198644 -0.008058507 -0.06972296 -0.050351724
0001b0 0b 37 64 3d e3 cc 5b 3d fc 16 02 bd 50 26 b8 bd
       0.055716556 0.053662192 -0.0317602 -0.089916825
0001c0 c3 21 1b bd 45 83 5c bd 00 c1 49 3d 67 9e 6b 3d
       -0.037873995 -0.053836126 0.049256325 0.05752411
0001d0 19 99 80 bd 09 b2 17 3d 58 d9 66 bd 64 71 84 3c
       -0.06279201 0.037035022 -0.05635962 0.01616735
0001e0 2f 88 bb bc 69 76 82 bd c8 bf 2e 3c 95 61 73 3d
       -0.022892086 -0.06370241 0.010665841 0.059419233
0001f0 df 5b fd 3c e5 b5 8e 3b 7e 75 30 bd 96 03 70 bd
       0.030927597 0.0043551796 -0.0430808 -0.05859717
000200 61 3c 02 c0 33 39 01 c0 44 23 f4 be 45 6e 9b be
       -2.0349352 -2.0191162 -0.47683156 -0.30357566
000210 f7 e7 5d 3e da 4c 4d be 1e a2 3a 3f 73 c7 94 bf
       0.21670519 -0.20048848 0.7290362 -1.1623367
000220 c8 ca ee 3e b3 b1 49 3d 6f 30 c8 bf 06 28 0b bf
       0.46639085 0.049241733 -1.5639781 -0.54357946
000230 96 4f 0f bf 63 cc 2b 3d 5d 0a 80 3e ba 88 93 bc
       -0.55980814 0.041942965 0.25007907 -0.018009532
000240 01 8c 47 3e 10 7c 35 bf 96 5f 99 bd bf 15 94 bf
       0.19487001 -0.7089243 -0.07488935 -1.1569136
000250 9a 9d a4 3e 4e f8 0e be fe 66 07 be 72 7a 4f 3e
       0.3215149 -0.13961908 -0.13222882 0.20261553
000260 51 41 25 bf 04 31 9b 3d e3 73 42 3f d3 44 bd bd
       -0.6455279 0.07577708 0.7595808 -0.09241643
000270 c6 9c 1a bd 2d f8 cf 3b 59 4e ae bf 5f 3d 03 c0
       -0.037747167 0.0063467235 -1.361766 -2.0506208
000280 81 28 9e 3e df ef 34 3f 48 f7 45 bf f3 35 fc 3e
       0.30890277 0.70678514 -0.77330446 0.4925991
000290 b8 f6 10 c0 33 b4 10 c0 d9 ab ae be c1 84 69 be
       -2.2650585 -2.2609985 -0.34115484 -0.22804548
0002a0 08 da cc be ac 87 64 3e 70 19 29 be a1 45 17 3f
       -0.40010095 0.2231738 -0.1651361 0.5909062
0002b0 f2 7e f4 be d7 35 f9 3d 3b f7 86 bd 0b 1e f3 3c
       -0.47753102 0.12168472 -0.06590124 0.029677412
0002c0 0e b7 b3 3d b0 42 43 3d e7 b6 b2 bf 1e 90 01 c0
       0.08775149 0.04767102 -1.3962067 -2.0244212
0002d0 44 18 37 c0 59 37 cd 3e 04 46 08 be 92 a5 da bf
       -2.860856 0.4008129 -0.13307959 -1.7081778
0002e0 3d 96 84 bc 61 5e 41 bf e1 40 28 be c6 da fd 3d
       -0.01618492 -0.75534636 -0.16431 0.12395243
0002f0 cb 95 23 bf 5b 48 39 3e 00 b4 c1 bf f5 23 fe bf
       -0.6390044 0.18094008 -1.5133057 -1.9854723
000300 85 c5 db bb 4d 31 18 c0 bc d6 e2 bf 85 f3 0c bf
       -0.006706896 -2.378009 -1.7721782 -0.5505908
000310 b1 06 90 bf 8f 96 36 bf 52 78 be bf 7e aa fc be
       -1.1252042 -0.71323484 -1.4880469 -0.49348825
000320 9e 17 81 bf ae 8c 04 c0 78 27 8b be 60 6e a1 3e
       -1.0085332 -2.0710864 -0.2717855 0.31529522
000330 e8 b4 be 3d 1c 8b 2e bf 0a 0a a7 bf 1c bf 0e 3f
       0.09311849 -0.68181014 -1.3049939 0.5576036
000340 fe af f3 bc 8b 67 78 3f 20 e0 16 3f e4 e6 2e c0
       -0.029747006 0.97032994 0.5893574 -2.7328424
000350 7b 65 90 bc 37 61 d4 bd b0 72 2d 3b 91 ae 15 bf
       -0.017626515 -0.10370105 0.0026466064 -0.5846949
000360 f5 b5 f2 3e 1b 86 75 3e 8a a5 65 bf 27 38 c8 3d
       0.47404447 0.23976938 -0.8970572 0.09776335
000370 48 b2 6f bf b7 a3 52 be 9b b7 9a be 02 76 53 bf
       -0.9363141 -0.20570265 -0.30218205 -0.8260194
000380 4e 4a 12 c0 23 db c9 be e1 85 01 3f 49 51 b6 3e
       -2.2857852 -0.39425 0.5059491 0.3560889
000390 26 ad 02 be 95 67 86 be d1 30 62 3e 9f 2c 56 be
       -0.12761363 -0.26250902 0.22088934 -0.20915459
0003a0 61 3b ee 3d eb fe 61 be 6d 14 bf bf c9 64 ba 3d
       0.116324194 -0.220699 -1.4928108 0.091012545
0003b0 62 d1 4e be 4c 1e df bf b6 64 de bf 02 e7 a7 3e
       -0.2019706 -1.7431121 -1.7374485 0.32793432
0003c0 e6 02 95 bd a0 f6 17 3f 22 3a 8c 3e 66 5a 16 bf
       -0.072759435 0.59360695 0.27388102 -0.5873169
0003d0 0a e7 60 3e b5 93 3d 3f 30 b7 d0 bf b1 85 10 3f
       0.21963134 0.7405351 -1.6305904 0.56453997
0003e0 53 ce 72 be b6 0b 7c be 51 49 5c 3d 5a e7 0f bf
       -0.23711519 -0.24613842 0.053780857 -0.5621239
0003f0 d2 ef 1c be 28 99 d7 3d af 3f c3 3e e1 13 b1 3e
       -0.15325859 0.10527259 0.38134524 0.3458548

net.2.bias f4 [128]
000000 de 44 b4 bd 30 18 94 bf 35 f9 a3 bc ad b1 88 bd
       -0.08802198 -1.1569881 -0.020016292 -0.06674514
000010 c8 6c 24 3d b1 a7 a5 3c a9 2a 52 3f c5 cc d1 3c
       0.040142804 0.020221563 0.82096344 0.025610337
000020 66 f0 b2 be 38 90 21 bd ab 34 28 3d c1 b3 89 3d
       -0.34949034 -0.03944418 0.041065853 0.067237385
000030 07 8f d7 bc d4 25 a3 bc 6d a0 56 bd ad f8 5c 3d
       -0.026313318 -0.019915499 -0.052399088 0.053948093
000040 17 a9 40 3c 7f b7 6a bc 4e 52 c3 3b da d5 9f bd
       0.011759064 -0.014325975 0.005960739 -0.07804461
000050 46 2d 9b 3c 4b 26 1c bd 57 ab 65 3f 30 e3 34 3e
       0.018942486 -0.038122457 0.8971457 0.1766479
000060 56 6e 3e bd 10 92 be bd 03 24 47 3d 12 9b 6c bd
       -0.046491943 -0.09305203 0.048618328 -0.057765074
000070 fd cc 62 be 37 53 c1 bd 8b 5f 36 3f ef 1e c9 3c
       -0.2214851 -0.094397 0.71239537 0.024550883
000080 2e 62 80 bd ac 69 84 be cb 65 96 bd e4 7f 1a 3e
       -0.06268726 -0.2586187 -0.07343634 0.15087849
000090 fb 98 89 be 03 dd 27 bc 6c b4 03 3d e7 6d dd bd
       -0.26874527 -0.010245564 0.032154486 -0.10811978
0000a0 05 99 02 3d 13 ce ae 3d 0e f5 0c be ee 42 f5 bd
       0.031884212 0.08535399 -0.13765356 -0.119756564
0000b0 f4 e4 b2 bc db ea 94 3e ca 58 74 3b 54 af 13 3c
       -0.021837689 0.2908543 0.0037284368 0.009013969
0000c0 e5 21 08 bb 45 62 43 3f b5 f3 5c be 8c 03 c7 bd
       -0.0020772156 0.7632182 -0.21577342 -0.097174734
0000d0 45 1f 92 3c 4a 52 1d 3f 09 58 e3 bc 2d 13 37 3d
       0.017837176 0.6145369 -0.02775194 0.04469602
0000e0 77 c5 0a 3f 53 c1 52 3e dd 01 17 bd c8 ee 56 3d
       0.5420756 0.2058156 -0.03686701 0.052473813
0000f0 ad 6b 76 be 7f 45 d8 3d 14 62 68 3c 69 07 ae 3d
       -0.24064513 0.1056013 0.01418354 0.08497507
000100 9a 20 dc 3d 32 ae f7 ba 59 62 44 bd 48 c0 0b be
       0.10748406 -0.0018896519 -0.047945354 -0.13647568
000110 87 45 56 bd 0f 49 6a 3d e2 ba c0 bd 3c 3c 47 bb
       -0.0523124 0.05719858 -0.09410645 -0.0030400893
000120 6e a6 15 bd 67 e4 8c bd e5 06 85 3d 59 b7 1d bd
       -0.036535673 -0.06879502 0.06495456 -0.038504932
000130 40 f8 89 3d 4a 8a 05 3d b3 9f 3e 3f 9a 0c 4a 3d
       0.06736803 0.032602586 0.7446243 0.049328424
000140 72 8b 2f bd 69 7e 5c 3c 45 3f b2 bd 7b 44 2a 3e
       -0.042857595 0.013457873 -0.08703474 0.16627686
000150 64 6c 9a 3d 98 4c 02 3c 91 f0 0e 3d 3f 80 38 3d
       0.07540205 0.007952832 0.03489739 0.04504418
000160 1f 51 ba bd 5b 30 bb bd 52 ed b9 bd f8 93 12 bc
       -0.09097504 -0.091400824 -0.090784684 -0.008946411
000170 97 c4 2e be e0 9b b2 bd 5d a5 98 3e 17 81 78 3d
       -0.1706718 -0.08721137 0.29813662 0.060669985
000180 d0 cb 09 3d c6 f9 b4 bd 88 93 81 3d 88 1e 99 3e
       0.033641636 -0.08836703 0.063269675 0.29906106
000190 c2 9f 7e bc 07 f1 74 3e 4d 33 9d 3d 1d 49 d0 bc
       -0.015541019 0.2392007 0.076758005 -0.025425488
0001a0 22 e7 7e 3c 0e 1a 0e 3b 65 e2 4b 3d 23 b9 e8 3c
       0.015558036 0.002168301 0.049776454 0.028408593
0001b0 b5 43 47 3d 49 39 17 3e 39 aa bc bc e1 88 96 bc
       0.048648555 0.14767946 -0.023030387 -0.018375816
0001c0 db a3 1e bd 29 62 78 bd fb 27 be bc fa 09 80 bd
       -0.038730484 -0.060640488 -0.023212424 -0.06251903
0001d0 8f 0c 87 bd 76 cf 33 3d 6e 45 87 bd 78 9d be bd
       -0.06594192 0.043899022 -0.066050395 -0.093073785
0001e0 cf 4d 78 3c 47 a9 db bd ca 0b 8a bb f5 2a 81 3e
       0.01515527 -0.107256465 -0.004212831 0.25228086
0001f0 50 fa a7 3c 77 09 62 bd dc b9 f9 bb 84 02 32 3e
       0.0205051 -0.055184808 -0.007621033 0.17383772

net.4.weight f4 [4, 128]
000000 2f b0 80 bb c8 1c c2 be ec cf 96 be 9f 4c 40 bd
       -0.0039272527 -0.37912583 -0.29455507 -0.04694807
000010 b3 b5 dd be 3c 42 c9 be d1 c3 b1 3f 64 bb ac 3d
       -0.43302688 -0.39308345 1.3887883 0.084341794
000020 2b 2d fb 3f 80 72 a4 be 8f 12 b4 be a4 91 c2 be
       1.9623159 -0.32118607 -0.3517041 -0.3800174
000030 1d b6 9b be ed d9 fe 3f d0 97 e9 be 3e 83 a0 be
       -0.3041238 1.9910256 -0.45623636 -0.3135013
000040 db 39 8d be 2c 88 a7 3c 20 e3 de be ba ad b3 be
       -0.27583203 0.020450674 -0.43532658 -0.3509348
000050 2a 05 f5 3f 63 ab f9 be 99 9f de 3f a4 71 c3 bf
       1.9142201 -0.4876357 1.7392455 -1.5269055
000060 13 65 f6 be 86 b6 6c 3c 75 b6 01 bf dd 04 18 c0
       -0.48123989 0.014447814 -0.5066903 -2.3752968
000070 8b eb 04 40 5f 1a d9 be 86 26 b7 3f 87 26 7a be
       2.0768764 -0.42402932 1.4308631 -0.2442876
000080 1b e2 ba be 18 15 05 c0 a3 ec c2 be 54 ae 3f be
       -0.3650063 -2.0794125 -0.38071164 -0.18718845
000090 1d 18 4f bf bb e9 ae be f1 5c bf be 99 20 02 bf
       -0.8089617 -0.34162697 -0.37375596 -0.5083099
0000a0 9f e4 c8 be 85 81 c1 3f 2c be 9d bf 95 e8 71 3f
       -0.39236924 1.5117651 -1.2323661 0.94495517
0000b0 c2 54 03 bf 40 ea 86 3f b4 81 e6 be f6 cd 32 be
       -0.51301205 1.0540237 -0.4502083 -0.1746138
0000c0 de 4b f6 be 2b 1b ad 3f 69 90 fa 3f 5e 28 c7 be
       -0.48104757 1.3523916 1.957532 -0.38897985
0000d0 3c 92 ba be d9 9e 08 3f da b3 e5 be 89 31 97 be
       -0.36439693 0.5336738 -0.44863778 -0.2952998
0000e0 44 a1 5a 3d b3 96 5c be e4 54 b4 be ca ef dd be
       0.05337645 -0.21541862 -0.35221016 -0.43347007
0000f0 08 bb 1a 40 0c 50 f4 bd a1 b1 a3 be 07 ad c9 be
       2.4176655 -0.1192933 -0.31971458 -0.39389822
000100 bb cb 41 bf cd 78 d5 be 9b 19 e3 be b7 b8 82 bf
       -0.75701493 -0.41693726 -0.44355473 -1.021262
000110 c5 d4 cd be 50 85 dd be c7 96 c9 be ea c9 a8 bd
       -0.40201393 -0.43265772 -0.39372846 -0.08241637
000120 a3 fa 18 bf 04 8d a3 be 38 1c 60 be ad 18 d5 be
       -0.5975744 -0.31943524 -0.21885765 -0.4162039
000130 3c fb 16 3f ed 44 92 be fa 45 ce 3f 0a 19 a9 be
       0.58977103 -0.2856821 1.6115105 -0.33026916
000140 65 cd a0 be ca 8b 07 bd 02 ee b9 be 2c 56 53 bf
       -0.31406704 -0.033092298 -0.36314398 -0.8255336
000150 d3 25 35 be 62 cf fb be 03 2d b0 be 22 04 d7 be
       -0.1769021 -0.49181658 -0.3440934 -0.4199534
000160 ae db c2 be 22 2f 6b 3d f5 66 da 3a 4e 94 a2 be
       -0.38058227 0.057417996 0.0016662764 -0.31753772
000170 92 7d 0a 40 20 7e 0e bf 47 cd 38 3e 08 74 d2 be
       2.1639142 -0.556612 0.18047057 -0.4110415
000180 87 e9 fd be b5 65 97 bc 8b d7 7d be 5b d2 3e 3e
       -0.4959223 -0.018481115 -0.24789254 0.18634932
000190 55 ab e5 bf 0b d9 bc 3f 56 db b1 be 31 24 05 bf
       -1.7942911 1.4753736 -0.34737653 -0.5200835
0001a0 5b 79 8c bd b9 cf 69 be 04 6b d0 be 7d da e7 be
       -0.06859084 -0.22833146 -0.40706646 -0.4528388
0001b0 9f 06 98 be fc 14 d7 3e fb cc ae bf c3 bc b1 be
       -0.29692551 0.42008197 -1.3656305 -0.34714326
0001c0 32 bb e9 be 0b 74 80 bd 8b 94 c8 be 36 e9 29 3d
       -0.4565063 -0.062721334 -0.3917583 0.041482173
0001d0 a5 83 c5 be 3f a3 bf be 41 55 22 3d da 5d 37 3c
       -0.38577 -0.37429234 0.039632086 0.01119181
0001e0 9c ef d3 be b1 04 dd be aa 8d d4 be 6a 47 bc 3f
       -0.41393745 -0.43167642 -0.4151433 1.4709294
0001f0 e3 13 e1 be 18 b5 f0 be ac 17 de be 22 86 84 bd
       -0.43960485 -0.47013164 -0.43377435 -0.06470896
000200 6f f3 5d bd 61 26 3f 3f 9c 36 d5 be 02 df d6 3c
       -0.054187234 0.74667937 -0.41643226 0.026229385
000210 b8 7a eb be f9 08 d8 be 19 79 78 3f 77 1d 82 bd
       -0.45992064 -0.42194346 0.9705978 -0.06353276
000220 4e 55 0c 40 f1 e6 b6 be 47 bc 51 be 4f 9d 20 bf
       2.1927066 -0.3572307 -0.20481978 -0.62740034
000230 21 13 d1 be f0 f5 fd 3f f9 9d cf be 45 8c 2c bd
       -0.40834907 1.9840679 -0.4055021 -0.04212596
000240 d0 83 ae bb 91 7a 6f bd 35 85 06 bf d3 c5 07 bf
       -0.005325772 -0.058466498 -0.5254701 -0.5303623
000250 4f 9b f5 3f 3f 46 fc be 79 fb f8 3f 0c dd 86 3d
       1.9188021 -0.49272344 1.9451743 0.0658513
000260 38 7d 7d be d8 44 4d 3d 5f 5f 45 bf 73 9b 9a bf
       -0.24754798 0.050114483 -0.7709865 -1.2078689
000270 79 dc 07 40 2e ce 8e be e0 4f ce 3f d6 7b e0 be
       2.1228316 -0.27891678 1.6118126 -0.4384448
000280 94 70 9e be 06 fd f0 bf c6 17 08 bf 24 da 08 3e
       -0.30945265 -1.8827217 -0.53161275 0.13364464
000290 f2 04 05 bf cf 28 cb be c6 3c 60 be 30 e8 a7 bf
       -0.5196067 -0.39679572 -0.21898183 -1.3117733
0002a0 33 42 76 be 3f 16 9d 3f 93 22 ad bf f8 f6 c5 3f
       -0.2404869 1.2272414 -1.3526176 1.5465994
0002b0 83 41 48 bf b7 15 35 3f f2 62 f2 be 7b 55 be be
       -0.7822496 0.7073626 -0.47341114 -0.3717459
0002c0 3d a8 31 bf 25 47 b1 3f c6 17 0b 40 66 97 50 bf
       -0.69397336 1.3849837 2.173326 -0.81481016
0002d0 58 6e d4 be 45 14 52 3f de 22 52 bf 60 df 2f bf
       -0.41490436 0.8206218 -0.82084453 -0.6870022
0002e0 44 33 be 3f 97 0b a1 bf 43 e5 f4 be 6e c2 aa be
       1.4859395 -1.2581662 -0.47831163 -0.33351463
0002f0 b8 fd 25 40 27 9b 5a 3e c0 16 96 be 9f ef 05 bf
       2.5936108 0.21348248 -0.29314232 -0.5231876
000300 5e e4 f9 3e d5 17 f0 be 2a dd 0b bf f4 6b 17 bf
       0.48807043 -0.46893182 -0.54634345 -0.591491
000310 af be 0c bf e5 d3 09 bf a4 f7 fb be 5c 30 fb 3c
       -0.5497846 -0.5383895 -0.49212372 0.030662708
000320 72 28 d4 be 2b a3 30 be 68 96 d3 bb 9b e3 a4 be
       -0.41437107 -0.17249744 -0.006457139 -0.322049
000330 21 a5 e9 bd a7 0d 18 bf 16 e4 b4 3f e7 5e 97 be
       -0.11408449 -0.5939583 1.4132106 -0.29564592
000340 23 67 1a bf 3e 1e 8d 3d c6 e2 f2 be 7c 92 87 bf
       -0.60313624 0.06890534 -0.4743864 -1.0591578
000350 7a 25 e5 be e3 69 04 bf ba 66 0a bf 27 23 06 bf
       -0.44755155 -0.5172407 -0.54063 -0.5239739
000360 d6 52 d7 be 59 29 ae 3d 9c d9 a0 3c 4f dc 74 be
       -0.42055386 0.0850398 0.019635014 -0.23912166
000370 0f 6f 16 40 e9 f1 59 3e f5 1b e4 3e 60 4e 0d bf
       2.3505285 0.21283688 0.4455258 -0.55197716
000380 c5 8b 77 be 0f 11 18 3d 59 86 33 be 5f 9b d7 3e
       -0.24174412 0.037125643 -0.17531718 0.42110726
000390 53 ee f0 bf 25 c3 68 3f 4b 21 c1 be a6 67 1b bf
       -1.8822731 0.90922767 -0.37720713 -0.6070503
0003a0 82 51 8d bc d0 37 1a bf 70 ec 3e be f8 cc 6e be
       -0.01725078 -0.60241413 -0.18644881 -0.23320377
0003b0 ea da 64 be ed 6b e2 3e ec b1 f7 bf 6a 9b b9 be
       -0.22349134 0.44222966 -1.9351172 -0.36251384
0003c0 fe 41 2c be 9c 28 a4 3d 51 11 4a be 9f 82 1b bc
       -0.16822049 0.08015558 -0.19733168 -0.009491592
0003d0 af a3 a1 be 60 ca 34 be 2f 92 0a 3d c8 95 1c 3c
       -0.31570193 -0.17655325 0.033830818 0.009557195
0003e0 51 93 6b be 52 0a c2 be c4 06 05 bf 27 95 c1 3f
       -0.23005415 -0.378985 -0.5196345 1.5123643
0003f0 95 d0 40 be 5c 07 7e be ab 69 e7 be b3 97 f7 3d
       -0.18829568 -0.24807495 -0.45197806 0.12089481

net.4.bias f4 [4]
000000 60 7f 9a bd a4 e7 9e 3e bb ba 23 3c 85 37 b7 bb
       -0.07543826 0.31036103 0.0099932505 -0.0055913352
