SARSA/dsqn/700_model_weights.pth (torch, 75917 bytes, 6 tensors)

net.0.weight f4 [128, 8]
000000 da fa 2a 3f 58 fe 26 bd e3 03 05 3f 32 0b df be
       0.6678902 -0.040769905 0.51959056 -0.4356323
000010 b5 a0 1d bf ef b6 6c 3e 78 14 08 bd 2b 4a c3 3b
       -0.61573344 0.23116659 -0.033222646 0.0059597692
000020 6f 5e a8 3f c9 79 3f 3e 37 d8 61 3f 62 2b 38 be
       1.3153819 0.18698801 0.8822054 -0.17985299
000030 2f 22 36 be 0c f5 03 3e ff f8 14 be 63 87 a8 be
       -0.17786478 0.12886447 -0.1454811 -0.32915792
000040 39 9d 9e bf d8 88 ad 3f b5 2f 89 be 68 66 08 bf
       -1.239173 1.3557386 -0.2679421 -0.5328126
000050 82 24 24 3e 78 34 3a 3e 9f 6c 76 3d e8 20 7f be
       0.16029552 0.18184078 0.060162183 -0.24914896
000060 a7 ea 8c 3e 9c 7d 7a 3f 5c bc 4c 3e 44 ce 3f bf
       0.27522776 0.97847915 0.19993728 -0.7492411
000070 e8 42 f4 3d 9e dc a6 3d eb 1d 83 bd 3c 4b 0f be
       0.11926824 0.08147548 -0.06402191 -0.13993543
000080 b9 07 d1 be 0e 45 41 3d 9e ee 0d 3e 5c c2 85 be
       -0.40826204 0.047184996 0.13860556 -0.26124847
000090 58 22 2e 3f ef f0 7c 3f c9 96 46 3f bf 95 9c 3e
       0.68021154 0.98805135 0.7757383 0.30582997
0000a0 de 8a 26 bf 7e 59 d8 be f7 1b 69 3f 5f 69 c3 be
       -0.65055645 -0.42255777 0.91058296 -0.3816633
0000b0 31 02 93 be b3 c9 78 bf 40 b2 fa 3e 82 a9 96 be
       -0.2871261 -0.9718277 0.4896412 -0.294262
0000c0 ff 98 86 bd b1 ea 2f bf 56 f7 26 3f 84 bf 13 bf
       -0.065721504 -0.68717486 0.65221155 -0.57714105
0000d0 6e 67 ba bf 40 7c 3e 3f 7a 93 d3 bc 28 84 2e be
       -1.4562814 0.7440834 -0.025827158 -0.17042601
0000e0 2f ac 59 bf 2d 0b 45 3f 3e f2 a5 3e e8 23 95 3f
       -0.85028356 0.7697018 0.3241138 1.1651583
0000f0 08 78 96 be 9c e0 db 3d 0a c3 04 3d b6 e4 c8 3d
       -0.29388452 0.107362 0.032412566 0.09809248
000100 95 24 dc bc 55 7b d4 bd e3 87 e4 be c7 e9 16 bf
       -0.026872912 -0.10375086 -0.44634923 -0.58950466
000110 78 78 65 3f 1a 56 48 3f db b2 01 3e 2a c2 a7 3e
       0.89636946 0.7825638 0.12665884 0.32765323
000120 54 ba 65 bf 14 0e 81 3c 43 76 c6 3f 07 30 8a 3f
       -0.8973744 0.015753783 1.5504841 1.0795907
000130 31 e5 14 3f 59 83 13 3f 28 a2 cb 3d c8 c1 d1 be
       0.5816222 0.57622296 0.09943038 -0.40968156
000140 79 29 f8 3e c5 74 20 3f e1 4a a2 be 70 b3 18 3f
       0.4846914 0.62678176 -0.31697753 0.596488
000150 e6 7a 59 be ec 35 7c be 73 a6 06 3e 1d fe 74 be
       -0.21238288 -0.24629945 0.13149433 -0.23925062
000160 20 f6 be bf 3e c6 95 be b0 d7 93 bf 76 08 34 3e
       -1.4918861 -0.2925281 -1.1550198 0.17581353
000170 c5 16 b7 be 92 cc 98 3c d6 4e 24 3f 62 26 cb 3e
       -0.3575956 0.018652234 0.64182794 0.3967772
000180 44 a3 d5 be e2 93 5c 3f 7d 72 5f 3e ce 1e a7 3e
       -0.41726124 0.8616315 0.21821018 0.3264069
000190 65 3e 05 3f f4 53 24 3f f9 bb 43 3e a4 7c d1 3e
       0.5204833 0.641906 0.19114675 0.40915406
0001a0 24 98 60 be e8 11 4c be 33 0c 0e bf 8f e4 97 bc
       -0.21933037 -0.19928706 -0.55487365 -0.018541602
0001b0 fd 23 45 3f 7d 08 0e 3f 1c 6d 21 3f 4e 0e 22 be
       0.7700804 0.554817 0.6305711 -0.1582577
0001c0 71 fe 8d be fa 51 3c bc 2b 56 f5 3e 56 0b 13 bf
       -0.27733186 -0.011494154 0.47917303 -0.5743917
0001d0 db 6d cd 3e b4 c5 8f 3f f2 aa d4 3e c7 f6 68 3d
       0.40122876 1.1232209 0.4153667 0.05687597
0001e0 c8 cf 71 bf dd 3b 58 3e 69 54 32 bd 17 89 ca 3e
       -0.94457674 0.21116586 -0.04353753 0.39557716
0001f0 8a ac 17 bf 93 db 8a 3e 6e ef ab 3e 41 a7 28 3d
       -0.5924765 0.27120647 0.33581108 0.04117513
000200 d1 b7 80 bf f8 f6 c7 be ec 8e 6f 3e 30 f7 85 be
       -1.0056096 -0.3905561 0.23394364 -0.26165152
000210 b6 7d 29 bf 29 5e af 3e 8c 0f da 3d db 8c f3 be
       -0.66207445 0.34251526 0.106474966 -0.47568402
000220 04 76 4d 3e f5 e7 a7 3e 53 97 38 3c b1 df 47 3f
       0.2006455 0.32794157 0.011266547 0.780757
000230 7e 69 b5 bd d1 27 fe bd 0c 67 1a 3f 25 f1 64 3f
       -0.08858012 -0.12409938 0.6031349 0.8943046
000240 d5 e5 d5 3e a8 3f 2b 3f eb 8b e3 be 8b e3 24 bf
       0.4177691 0.66894007 -0.44442686 -0.64409703
000250 4e 46 25 bf af 21 ca 3f a4 70 b0 3e 2c 63 38 bf
       -0.645604 1.579153 0.34460938 -0.72026324
000260 0a cf 8e 3d 1b dd a0 3f 61 da a0 be 0e 3c a5 be
       0.06973083 1.2567476 -0.3141661 -0.3227238
000270 28 08 b1 bf e6 a4 34 bf ca 68 c1 be fd a6 a7 bf
       -1.3830614 -0.70564115 -0.3777526 -1.3097836
000280 a4 7e 73 be 06 fd 24 be 24 25 fb 3e 92 ae 53 be
       -0.23778778 -0.16112146 0.49051774 -0.20672062
000290 79 e7 31 3f be 72 bd 3f 53 93 e6 3d 38 79 17 be
       0.69493824 1.4800642 0.112585686 -0.14792335
0002a0 93 b5 9a 3c 8c 18 98 be fc 23 00 3e f2 60 be 3f
       0.01888541 -0.29706228 0.12513727 1.4873335
0002b0 16 27 09 3f be 4b 8a 3f a2 e9 01 3f 56 24 8c 3e
       0.53575265 1.0804365 0.5074712 0.27371472
0002c0 e1 ba b0 bd 7b ef e1 3e 76 fc 9b be 70 f2 e3 bc
       -0.08629394 0.44128022 -0.3046605 -0.027825564
0002d0 17 15 27 3f 78 98 cc 3e 08 61 3a 3f 40 5d 9d 3e
       0.65266556 0.39960074 0.7280431 0.30735207
0002e0 c8 db 2d bf bb e0 3f be b5 91 ee bc e2 40 2c bf
       -0.67913485 -0.18738072 -0.029122213 -0.67286503
0002f0 0b 7b 2d be 2a b7 34 3f 2e fd 3a 3e e4 a2 14 bd
       -0.16941468 0.70591986 0.18260643 -0.036288157
000300 4b 6f 69 bf 7e 4c 29 be 10 c8 ac bf 1b e7 b1 3e
       -0.91185445 -0.16533086 -1.3498554 0.34746632
000310 ea 0d 9d be 11 49 ca 3c be 80 0f 3f c7 05 86 bd
       -0.30674678 0.024693044 0.5605582 -0.06544071
000320 ff e5 ca 3e 9e 84 31 3d f5 f0 6a 3e b2 c4 15 bf
       0.39628598 0.043339364 0.2294348 -0.5850326
000330 5b 07 f4 3e 01 40 4b 3f 0f 09 da 3e 50 b5 b0 3d
       0.47661862 0.7939454 0.42585036 0.086283326
000340 4a 0b 4c bf 52 1d b5 bf 60 71 53 bf c7 12 8b 3d
       -0.79704726 -1.4149573 -0.8259487 0.06790691
000350 9e 6e a9 3f ea 75 3f 3f e5 2c 91 3e 26 f8 24 bf
       1.3236883 0.747893 0.28354564 -0.64441144
000360 4f 69 8c 3e 96 67 f6 3d fc 30 8e be 2c 23 7a 3d
       0.27424094 0.12031476 -0.27771747 0.0610687
000370 97 ff b3 3e 92 ca 8a bf 6f 88 76 be 04 08 9b 3b
       0.35155937 -1.084307 -0.24075483 0.00473118
000380 06 82 33 3d da 2c 20 be bc 48 90 3e 47 ab a4 bd
       0.043825172 -0.1564211 0.28180492 -0.08040481
000390 41 00 4f 3f 4e 25 c0 3f 2c c9 e4 be 07 17 9c bf
       0.8085976 1.5011384 -0.44684732 -1.2194527
0003a0 5f a7 0c bf 32 e7 b3 bd d3 e5 1c bc 71 93 49 bf
       -0.5494289 -0.087843314 -0.009576279 -0.787406
0003b0 f2 5c 9f 3d 89 2b 31 3f d0 e9 98 3e c2 7f f9 bc
       0.077814 0.69207054 0.29865885 -0.030456427
0003c0 55 b1 d6 be 8f fd e4 bd 40 6e 4a bf 3a 98 f8 bc
       -0.4193217 -0.11181175 -0.7907448 -0.030346025
0003d0 d4 64 21 bf 20 a3 c0 bf 4d 41 82 3e fd e1 55 3f
       -0.63044477 -1.5049782 0.25440446 0.83547956
0003e0 1f 5f db 3f 43 1c e9 3d e1 14 38 3f ac 37 b3 3e
       1.7138404 0.113823436 0.7190686 0.35003412
0003f0 a9 e3 55 be 36 dc e3 3d 61 2d d4 bc 9b 2b d6 3c
       -0.20887627 0.11125986 -0.025900545 0.02614384

net.0.bias f4 [128]
000000 62 ee c0 3e c1 41 99 bd 84 49 09 3e 7f 0f 77 3e
       0.37681872 -0.07483245 0.1340695 0.24127005
000010 08 22 8b 3e e7 27 c1 bc d0 9a 1c 3d 2b 64 60 3e
       0.271744 -0.023578597 0.03823358 0.21913211
000020 75 a4 ed be c4 d3 cf bd 24 55 3e 3f 78 ae de 3d
       -0.46414533 -0.10147813 0.74348664 0.10873121
000030 09 5c 58 be d7 7e 90 3e a1 12 d9 3e cd c8 81 be
       -0.21128859 0.2822177 0.42397025 -0.2534851
000040 5e 83 df be 0c 49 7c 3e 41 3a 11 3f 00 eb 8a bc
       -0.43654913 0.2463724 0.56729513 -0.01695776
000050 4c 96 00 3f 43 f6 fb 3e 73 17 54 3f 22 6a 44 3f
       0.50229335 0.4921132 0.8284828 0.76724446
000060 43 53 e8 3e e0 f9 e2 3e f7 0e 0a bf e8 94 7e be
       0.45376024 0.44331264 -0.53929085 -0.2486149
000070 0d 77 69 3e 7f 92 2b 3f 88 44 cf 3e 5b 60 b5 3c
       0.2279932 0.6702041 0.40481973 0.022140672
000080 0f 0d ff be 37 6d ed be 24 d7 0d 3f 4b 81 d5 be
       -0.4981465 -0.46372387 0.55406404 -0.41700205
000090 d0 a9 f6 3d 3a eb 14 be 27 23 ba 3e e8 8a a7 3e
       0.12044108 -0.14542857 0.36354944 0.32723165
0000a0 65 ab bd be f4 40 c9 be cd d2 27 3e 8f 45 f4 be
       -0.37044826 -0.39307368 0.16389008 -0.4770932
0000b0 03 ad 24 3f 5b bb 3c bd 06 6f 16 3f 01 11 00 3f
       0.64326495 -0.046077114 0.5876316 0.50025946
0000c0 ed c5 a6 3e b1 92 e0 3e 66 dc 66 3e 28 81 36 3e
       0.3257288 0.43861917 0.22545013 0.17822707
0000d0 dc d8 84 3f 00 96 78 3d 4b d2 9b bb f2 6b 35 bf
       1.037868 0.060689926 -0.0047552935 -0.70867836
0000e0 e4 e8 55 3f 54 2c 98 3e 23 77 34 3f fa d2 e8 be
       0.8355849 0.2972132 0.7049429 -0.45473462
0000f0 ee d1 45 3f 4d 9b cd 3d 34 32 2a 3f 0c 69 6a 3f
       0.7727345 0.10039387 0.66482854 0.9156654
000100 95 47 47 3e 09 2e f6 3d 4e ca 95 bd dc d4 d9 3e
       0.194609 0.12020499 -0.07313977 0.4254521
000110 a7 89 5f bf ee e3 94 be e4 f4 1b bf 2f 74 ed 3e
       -0.87319416 -0.29080147 -0.6092055 0.46377704
000120 54 30 5c 3f 74 e6 a4 be 6d 4f 5c 3e f3 f4 50 3e
       0.8601124 -0.32207072 0.21514674 0.2040594
000130 9a d8 94 be bc 1c b5 3d 71 2b 7a 3e 78 48 1d 3e
       -0.29071504 0.08843371 0.24430634 0.15359676
000140 56 91 18 3f d2 9c d5 be 59 75 0b bf d2 84 95 3e
       0.59596765 -0.41721207 -0.54475933 0.29202896
000150 e6 65 a8 3e a2 fd 2e 3d 27 ba 20 3f 01 e6 82 3e
       0.32890242 0.04272235 0.62784046 0.25566104
000160 8e bf 6c 3e 83 c5 2f bf 61 70 cf 3e 04 5b 45 bf
       0.23119947 -0.68660754 0.40515426 -0.77092004
000170 a9 d8 01 3f b0 1d 01 3f c9 d1 96 3e 27 68 66 3e
       0.5072122 0.50435925 0.29456928 0.22500668
000180 2b ab 65 be d1 41 6d 3f f8 d6 0a bf 87 fd 07 be
       -0.22428577 0.9267855 -0.54234266 -0.13280307
000190 7a 70 12 3f 0f 98 3f 3e 51 39 3a be 7a 84 d3 bc
       0.57202876 0.1871035 -0.18185927 -0.025820006
0001a0 6d 3a 2e 3f 26 f7 02 3f c1 0a 82 bf 3c ba 0d 3f
       0.680579 0.5115837 -1.0159532 0.55362296
0001b0 e0 12 50 bf 3b 9c a2 be 45 2a 96 3f 91 27 ec be
       -0.812788 -0.3175982 1.173165 -0.46123937
0001c0 57 da 05 3e 74 b2 a4 3e 96 9e 0b 3f 5d 56 d1 3e
       0.13071571 0.321674 0.5453886 0.40886202
0001d0 e7 df ad be 82 62 8c be 82 6f 58 3f ab f2 4c 3f
       -0.33959886 -0.27418905 0.8454515 0.8005778
0001e0 49 c2 70 3f df 8a 0d 3f 48 26 2e bf 1e f3 6f 3f
       0.94046456 0.55290025 -0.6802716 0.9373034
0001f0 49 f6 1d 3e 41 85 43 be ef 8b 4a 3b 7c b3 78 be
       0.15425982 -0.19093801 0.003090616 -0.24287218

net.2.weight f4 [128, 128]
000000 5d dd 60 3d ad 5e 71 bd 23 59 85 bd ff 6a 9e bd
       0.05489861 -0.05892818 -0.06511142 -0.07735252
000010 3f 10 a9 bd da 7d 5d bd 0d 0b 92 bd 7a 97 56 3c
       -0.08255052 -0.0540751 -0.07131014 0.013097638
000020 a8 d2 b8 3c 40 e6 b1 3b 30 da eb 3c f2 a7 53 3c
       0.022561386 0.0054290593 0.028790563 0.012918459
000030 d7 3f 3e 3d f1 9e 45 3d c7 f9 b7 bd 51 65 86 3d
       0.0464476 0.04824728 -0.08983188 0.06562293
000040 62 88 29 3d 07 c9 45 3d 26 7b bf bc 80 3c 99 3d
       0.04138983 0.048287418 -0.023374151 0.074822426
000050 5c 84 c7 3c b1 79 3f 3d 0a f2 8b 3a 3d 13 1d bd
       0.024355106 0.046746913 0.0010676992 -0.038348425
000060 79 b2 8f bd 28 e2 b1 3c 2e 01 9d bd f6 2f 9e bd
       -0.07016463 0.021714285 -0.07666241 -0.077239916
000070 89 bc 8d 3d 31 d1 9f bc 0f be 06 bc 9d 1b 8d 3d
       0.06920726 -0.01950893 -0.008224024 0.068900324
000080 8c 7c d4 3b 0e d8 2b bd 3c d4 2d 3c f9 35 98 3d
       0.0064845737 -0.041954093 0.010609683 0.074321695
000090 ae 45 1e bd 68 f6 3e bd 48 c3 fe bc 73 b9 8c 3c
       -0.03864067 -0.04662171 -0.031098977 0.017178273
0000a0 52 4e 88 bd 07 eb 6f bd 29 c3 85 3d 54 74 81 bd
       -0.066555634 -0.05857375 0.065313645 -0.06321016
0000b0 9a e1 9b bd 7f 60 99 3c d4 90 71 bd 45 09 77 3d
       -0.076113895 0.01872277 -0.05897601 0.060311574
0000c0 9c b7 4e bc 8d fd 6b bd 8d bf 6d 3d 54 de 37 3d
       -0.012617018 -0.05761485 0.058044005 0.044889763
0000d0 43 d9 c4 bd b8 77 f0 bc 1a f3 81 3d 20 3e f3 3c
       -0.09611752 -0.029353961 0.06345196 0.02969271
0000e0 52 8a 72 bd 12 1e 83 3c 5f a7 59 3c f2 b4 b4 bd
       -0.059213944 0.01600555 0.013284533 -0.08823575
0000f0 80 36 6d 3a f0 f9 24 3c 4a 83 95 bd 8e 1c fe bc
       0.00090489537 0.010069355 -0.07300432 -0.031019475
000100 af 33 e0 3c 6d 28 77 bc c4 85 6c 3d 6c df c4 3c
       0.027368395 -0.015085322 0.057744756 0.024032317
000110 96 39 2e 3d 7f 38 c4 bd 3f 5f 35 bd b3 47 1c 3d
       0.042535387 -0.09581088 -0.044280287 0.038154315
000120 ab 4e ed ba fd 35 f3 3c d0 8e c7 bc bd fc 2c 3d
       -0.001810511 0.02968883 -0.02436009 0.042233218
000130 16 36 15 3d 46 6b e6 bc 1b 10 86 bd bb bb 1d bc
       0.036428533 -0.028127324 -0.065460406 -0.009627278
000140 d8 5b be 3c 44 80 aa bd ca e6 6e bc 45 5a 99 bd
       0.023237154 -0.08325246 -0.014581392 -0.07487921
000150 70 2c 0a 3c ca 74 90 bd a0 e4 42 3d 84 41 c9 bb
       0.008433446 -0.07053526 0.047581315 -0.0061418433
000160 80 f6 5c ba 39 79 ab bd b3 fe ec 3c 00 0f 4e bd
       -0.00084290653 -0.08372731 0.028930044 -0.050307274
000170 44 95 07 bc 4f 9c 8c bc 29 ad 2d 3d 26 a6 03 3d
       -0.008275334 -0.017164377 0.042401467 0.032140873
000180 1e 03 85 bc 50 00 95 3d 4a 16 1d bd 0d 32 99 3d
       -0.016236838 0.0727545 -0.038351335 0.074802496
000190 2b d8 a9 bd 72 41 43 bd 86 93 1a 3d b5 8d 97 3d
       -0.08293184 -0.047669835 0.037738346 0.07400075
0001a0 18 9d 4d 3d d4 07 04 bc e9 ca 8e bd 9c 3d 4e bd
       0.050198644 -0.008058507 -0.06972296 -0.050351724
0001b0 0b 37 64 3d e3 cc 5b 3d fc 16 02 bd 50 26 b8 bd
       0.055716556 0.053662192 -0.0317602 -0.089916825
0001c0 c3 21 1b bd 45 83 5c bd 00 c1 49 3d 67 9e 6b 3d
       -0.037873995 -0.053836126 0.049256325 0.05752411
0001d0 19 99 80 bd 09 b2 17 3d 58 d9 66 bd 64 71 84 3c
       -0.06279201 0.037035022 -0.05635962 0.01616735
0001e0 2f 88 bb bc 69 76 82 bd c8 bf 2e 3c 95 61 73 3d
       -0.022892086 -0.06370241 0.010665841 0.059419233
0001f0 df 5b fd 3c e5 b5 8e 3b 7e 75 30 bd 96 03 70 bd
       0.030927597 0.0043551796 -0.0430808 -0.05859717
000200 61 3c 02 c0 33 39 01 c0 44 23 f4 be 45 6e 9b be
       -2.0349352 -2.0191162 -0.47683156 -0.30357566
000210 f7 e7 5d 3e da 4c 4d be 1e a2 3a 3f 73 c7 94 bf
       0.21670519 -0.20048848 0.7290362 -1.1623367
000220 c8 ca ee 3e b3 b1 49 3d 6f 30 c8 bf 06 28 0b bf
       0.46639085 0.049241733 -1.5639781 -0.54357946
000230 96 4f 0f bf 63 cc 2b 3d 5d 0a 80 3e ba 88 93 bc
       -0.55980814 0.041942965 0.25007907 -0.018009532
000240 01 8c 47 3e 10 7c 35 bf 96 5f 99 bd bf 15 94 bf
       0.19487001 -0.7089243 -0.07488935 -1.1569136
000250 9a 9d a4 3e 4e f8 0e be fe 66 07 be 72 7a 4f 3e
       0.3215149 -0.13961908 -0.13222882 0.20261553
000260 51 41 25 bf 04 31 9b 3d e3 73 42 3f d3 44 bd bd
       -0.6455279 0.07577708 0.7595808 -0.09241643
000270 c6 9c 1a bd 2d f8 cf 3b 59 4e ae bf 5f 3d 03 c0
       -0.037747167 0.0063467235 -1.361766 -2.0506208
000280 81 28 9e 3e df ef 34 3f 48 f7 45 bf f3 35 fc 3e
       0.30890277 0.70678514 -0.77330446 0.4925991
000290 b8 f6 10 c0 33 b4 10 c0 d9 ab ae be c1 84 69 be
       -2.2650585 -2.2609985 -0.34115484 -0.22804548
0002a0 08 da cc be ac 87 64 3e 70 19 29 be a1 45 17 3f
       -0.40010095 0.2231738 -0.1651361 0.5909062
0002b0 f2 7e f4 be d7 35 f9 3d 3b f7 86 bd 0b 1e f3 3c
       -0.47753102 0.12168472 -0.06590124 0.029677412
0002c0 0e b7 b3 3d b0 42 43 3d e7 b6 b2 bf 1e 90 01 c0
       0.08775149 0.04767102 -1.3962067 -2.0244212
0002d0 44 18 37 c0 59 37 cd 3e 04 46 08 be 92 a5 da bf
       -2.860856 0.4008129 -0.13307959 -1.7081778
0002e0 3d 96 84 bc 61 5e 41 bf e1 40 28 be c6 da fd 3d
       -0.01618492 -0.75534636 -0.16431 0.12395243
0002f0 cb 95 23 bf 5b 48 39 3e 00 b4 c1 bf f5 23 fe bf
       -0.6390044 0.18094008 -1.5133057 -1.9854723
000300 85 c5 db bb 4d 31 18 c0 bc d6 e2 bf 85 f3 0c bf
       -0.006706896 -2.378009 -1.7721782 -0.5505908
000310 b1 06 90 bf 8f 96 36 bf 52 78 be bf 7e aa fc be
       -1.1252042 -0.71323484 -1.4880469 -0.49348825
000320 9e 17 81 bf ae 8c 04 c0 78 27 8b be 60 6e a1 3e
       -1.0085332 -2.0710864 -0.2717855 0.31529522
000330 e8 b4 be 3d 1c 8b 2e bf 0a 0a a7 bf 1c bf 0e 3f
       0.09311849 -0.68181014 -1.3049939 0.5576036
000340 fe af f3 bc 8b 67 78 3f 20 e0 16 3f e4 e6 2e c0
       -0.029747006 0.97032994 0.5893574 -2.7328424
000350 7b 65 90 bc 37 61 d4 bd b0 72 2d 3b 91 ae 15 bf
       -0.017626515 -0.10370105 0.0026466064 -0.5846949
000360 f5 b5 f2 3e 1b 86 75 3e 8a a5 65 bf 27 38 c8 3d
       0.47404447 0.23976938 -0.8970572 0.09776335
000370 48 b2 6f bf b7 a3 52 be 9b b7 9a be 02 76 53 bf
       -0.9363141 -0.20570265 -0.30218205 -0.8260194
000380 4e 4a 12 c0 23 db c9 be e1 85 01 3f 49 51 b6 3e
       -2.2857852 -0.39425 0.5059491 0.3560889
000390 26 ad 02 be 95 67 86 be d1 30 62 3e 9f 2c 56 be
       -0.12761363 -0.26250902 0.22088934 -0.20915459
0003a0 61 3b ee 3d eb fe 61 be 6d 14 bf bf c9 64 ba 3d
       0.116324194 -0.220699 -1.4928108 0.091012545
0003b0 62 d1 4e be 4c 1e df bf b6 64 de bf 02 e7 a7 3e
       -0.2019706 -1.7431121 -1.7374485 0.32793432
0003c0 e6 02 95 bd a0 f6 17 3f 22 3a 8c 3e 66 5a 16 bf
       -0.072759435 0.59360695 0.27388102 -0.5873169
0003d0 0a e7 60 3e b5 93 3d 3f 30 b7 d0 bf b1 85 10 3f
       0.21963134 0.7405351 -1.6305904 0.56453997
0003e0 53 ce 72 be b6 0b 7c be 51 49 5c 3d 5a e7 0f bf
       -0.23711519 -0.24613842 0.053780857 -0.5621239
0003f0 d2 ef 1c be 28 99 d7 3d af 3f c3 3e e1 13 b1 3e
       -0.15325859 0.10527259 0.38134524 0.3458548

net.2.bias f4 [128]
000000 de 44 b4 bd 30 18 94 bf 53 6b c1 bc ad b1 88 bd
       -0.08802198 -1.1569881 -0.023610746 -0.06674514
000010 61 67 49 3d a7 9c 8b 3c 37 98 52 3f c5 cc d1 3c
       0.049170855 0.017042471 0.8226351 0.025610337
000020 62 51 b8 be de 7c 1e bd f8 36 38 3d d0 4a 87 3d
       -0.3599959 -0.0386933 0.044974297 0.06606066
000030 b3 1b b0 bc 62 1d 55 bd e4 d4 53 bd ba 0d 84 3d
       -0.021497583 -0.052029975 -0.0517167 0.06447931
000040 4c 64 81 3c 7f b7 6a bc 99 e3 41 bb 8e 54 a0 bd
       0.015794896 -0.014325975 -0.0029585122 -0.078286275
000050 da ca 72 bd 51 7c 0f bd 0a 9c 68 3f 5c 16 39 3e
       -0.059275486 -0.035030667 0.90863097 0.18074936
000060 ae 1a 16 bd 10 92 be bd fc 41 40 3d d4 43 8b bd
       -0.036646537 -0.09305203 0.046937928 -0.068000466
000070 fd cc 62 be cf f6 c0 bd b1 8b 38 3f 9d 6a fc 3c
       -0.2214851 -0.09422075 0.7208815 0.030812556
000080 09 9d 4d bd e1 c7 97 be cb 5c 7f bd 8c d6 1f 3e
       -0.05019859 -0.29644683 -0.062344354 0.15609187
000090 b8 4e 8b be 14 36 22 bc 12 4b 0f 3d 2e f5 de bd
       -0.27208495 -0.009900589 0.034983702 -0.10886608
0000a0 15 3d 0f 3d 74 79 c0 3d c3 a8 0a be f8 96 a5 bd
       0.03497036 0.09398165 -0.1354094 -0.08085436
0000b0 fe 01 88 bc 11 58 9f 3e 92 b7 ec 3a 0c f3 70 3c
       -0.016602512 0.31121877 0.0018060079 0.014706384
0000c0 5e 7c 70 bc 53 46 45 3f b0 7b 5d be fa b4 bd bd
       -0.014678089 0.7706043 -0.21629214 -0.09263034
0000d0 47 63 8a 3c 0e e1 1e 3f 37 d8 e0 bc 43 86 24 3d
       0.016893042 0.62062156 -0.02744685 0.040167104
0000e0 21 c6 18 3f 37 ea 55 3e b8 e4 e7 bc 9c 35 70 3d
       0.5967732 0.20890127 -0.028307304 0.058644876
0000f0 ad 6b 76 be 26 42 cd 3d 23 d8 8e 3c 7b d1 a1 3d
       -0.24064513 0.100223824 0.017437046 0.07901283
000100 f9 5c 2a 3e dd 85 9e 3a af 81 45 bd 35 80 0e be
       0.16637029 0.0012094338 -0.04821938 -0.13916095
000110 5e 9b 41 bd 7e 4f 80 3d e6 b6 b9 bd 3c 3c 47 bb
       -0.04726731 0.06265162 -0.09068088 -0.0030400893
000120 76 1a e8 bc b3 6d 89 bd 79 16 92 3d 31 c2 00 bd
       -0.02833293 -0.067103766 0.071331926 -0.031435195
000130 9d 1e e5 3d 2c 58 e6 3c b8 b4 41 3f dc 82 5d 3d
       0.1118748 0.028118216 0.7566638 0.054079875
000140 97 a7 0a bd 69 7e 5c 3c dd 0e b8 bd 00 6d 41 3e
       -0.033851232 0.013457873 -0.0898721 0.18889236
000150 66 90 9e 3d af 6f 4e 3c 5f a9 ec 3c bd e4 49 3d
       0.077423856 0.01259987 0.028889356 0.049290407
000160 3f 93 a8 bd 5b 30 bb bd 52 ed b9 bd 2c 24 02 bc
       -0.0823121 -0.091400824 -0.090784684 -0.007943194
000170 97 c4 2e be 49 97 b3 bd 96 25 9a 3e 07 0d 81 3d
       -0.1706718 -0.0876909 0.301068 0.06301313
000180 d5 52 29 3d c6 f9 b4 bd 39 fe 8e 3d 84 08 9b 3e
       0.04133876 -0.08836703 0.06982083 0.30279934
000190 68 2e 13 bd a1 39 6d 3e d2 41 a5 3d d5 99 8c bc
       -0.03593293 0.23166515 0.08069195 -0.017163197
0001a0 22 e7 7e 3c ed 65 17 3c 92 b0 63 3d e6 55 07 3d
       0.015558036 0.00924061 0.055588312 0.033040904
0001b0 c8 78 5e 3d c4 2b 19 3e b7 c7 30 bd 97 9a ac bc
       0.054314405 0.14958102 -0.043159213 -0.021069808
0001c0 c1 1d f6 bc 29 62 78 bd 6f 08 6e bc fa 09 80 bd
       -0.030043485 -0.060640488 -0.014528378 -0.06251903
0001d0 69 66 6b bd 8d a2 70 3d 6e 45 87 bd 78 9d be bd
       -0.057470713 0.05874877 -0.066050395 -0.093073785
0001e0 15 4d 8b 3c 6b 18 d6 bd e6 d5 15 bc 8e 46 70 3e
       0.017004529 -0.10453876 -0.009145236 0.23464414
0001f0 cd 44 f2 3c f1 09 37 bd 5d c8 04 bc 2c 47 2d 3e
       0.029573822 -0.044687215 -0.008104411 0.16921681

net.4.weight f4 [4, 128]
000000 2f b0 80 bb c8 1c c2 be bb 1f 9a be 9f 4c 40 bd
       -0.0039272527 -0.37912583 -0.30102333 -0.04694807
000010 f7 b1 e5 be 1f 57 cf be 27 aa b1 3f 64 bb ac 3d
       -0.4486234 -0.40496156 1.3880051 0.084341794
000020 96 15 fd 3f e5 9d a9 be b2 e3 bb be c6 5d c5 be
       1.9772213 -0.33128276 -0.36697155 -0.38548106
000030 5c 36 9f be 78 c8 07 40 33 95 f1 be 0b 4e aa be
       -0.3109616 2.1216106 -0.47184142 -0.33262667
000040 a8 4b a4 be 2c 88 a7 3c b4 3b e4 be c9 f5 b4 be
       -0.3208897 0.020450674 -0.445768 -0.3534377
000050 4c 05 00 40 5b 20 01 bf 6b 03 de 3f ed 9a d1 bf
       2.0003233 -0.50439996 1.7344793 -1.6375405
000060 b0 17 0d bf 86 b6 6c 3c 47 32 02 bf d8 cf 15 c0
       -0.5511427 0.014447814 -0.5085797 -2.3408108
000070 8b eb 04 40 01 80 e0 be d0 67 b7 3f e0 36 7f be
       2.0768764 -0.4384766 1.4328556 -0.24923277
000080 b5 26 c0 be 3b 48 1a c0 5c b4 c4 be 2e b4 44 be
       -0.3752953 -2.4106586 -0.38418853 -0.19209358
000090 a4 fc 4f bf b0 13 b4 be 60 5d c8 be fc 60 02 bf
       -0.81244874 -0.3517127 -0.3913374 -0.50929236
0000a0 d4 0a d0 be 48 c8 ad 3f b3 46 a1 bf 0a e4 89 3f
       -0.4063326 1.3576746 -1.2599701 1.0772717
0000b0 5c 52 12 bf 53 18 94 3f a4 53 ed be dd 5d 32 be
       -0.5715692 1.1569923 -0.46352875 -0.17418619
0000c0 d0 63 fc be 59 b0 ad 3f 33 c6 e8 3f d0 24 c3 be
       -0.492949 1.3569442 1.8185486 -0.38114023
0000d0 0a c7 c0 be d2 70 09 3f 75 47 e8 be 27 7b 93 be
       -0.37651855 0.53687775 -0.45367017 -0.28804895
0000e0 e5 02 04 3e 5b 22 3f be a4 d0 b8 be b4 3e e5 be
       0.12891729 -0.1866545 -0.3609668 -0.447744
0000f0 08 bb 1a 40 17 5c d6 bd 9c c9 ac be 1d 74 ce be
       2.4176655 -0.104667835 -0.33747566 -0.40322962
000100 e3 eb 3b bf a2 11 db be f8 da e8 be 4b 05 88 bf
       -0.7340681 -0.4278689 -0.4547956 -1.0626615
000110 19 47 d3 be ce 54 e6 be 3c fa ce be ea c9 a8 bd
       -0.4126518 -0.44986576 -0.4042529 -0.08241637
000120 e6 01 2c bf b7 b9 ae be 79 fe 71 be 5b 23 db be
       -0.67190397 -0.34126064 -0.2363223 -0.42800412
000130 7a 74 21 3f 5f 87 91 be 31 ae ce 3f f6 7f af be
       0.63068354 -0.28423592 1.6146909 -0.34277314
000140 cf 94 a3 be ca 8b 07 bd f7 e3 bf be 27 68 56 bf
       -0.3194947 -0.033092298 -0.3747861 -0.83752674
000150 30 ea 2e be 73 6c 01 bf 90 10 b3 be 09 6c dc be
       -0.17081523 -0.50556105 -0.34973574 -0.43051174
000160 6e 8d c9 be 22 2f 6b 3d f5 66 da 3a d2 e3 a9 be
       -0.39365715 0.057417996 0.0016662764 -0.33181626
000170 92 7d 0a 40 ef 00 23 bf 56 37 3d 3e 2a 03 d9 be
       2.1639142 -0.636733 0.1847814 -0.42385226
000180 7b ee 03 bf b5 65 97 bc a3 a6 85 be 49 f9 44 3e
       -0.5153577 -0.018481115 -0.26103696 0.1923572
000190 e2 0d f2 bf 08 64 bd 3f ac fe b7 be 70 91 0b bf
       -1.8910487 1.4796152 -0.35936487 -0.54518795
0001a0 5b 79 8c bd e5 a6 65 be dc 7b db be 5e ac f1 be
       -0.06859084 -0.22426946 -0.42867935 -0.47201818
0001b0 bd 44 9f be 7c 40 18 3f c1 b7 ab bf 86 0c b6 be
       -0.3110713 0.59473395 -1.3415452 -0.3555643
0001c0 b8 8c f3 be 0b 74 80 bd 13 3d d0 be 36 e9 29 3d
       -0.47568297 -0.062721334 -0.40671596 0.041482173
0001d0 ce 4c cb be 22 d7 c7 be 41 55 22 3d da 5d 37 3c
       -0.39707035 -0.3903132 0.039632086 0.01119181
0001e0 c3 68 dc be a3 d3 e5 be 09 e5 d9 be 87 77 bd 3f
       -0.43048677 -0.44888029 -0.42557552 1.4802102
0001f0 87 c8 ea be 43 ae ff be 98 98 e3 be 77 b0 84 bd
       -0.45856115 -0.4993764 -0.44452357 -0.064789705
000200 6f f3 5d bd 61 26 3f 3f bb e0 e2 be 02 df d6 3c
       -0.054187234 0.74667937 -0.4431208 0.026229385
000210 3a 3b f2 be 93 53 e3 be f3 21 7d 3f 77 1d 82 bd
       -0.4731081 -0.443997 0.9887993 -0.06353276
000220 14 82 0c 40 42 e6 bd be 99 70 60 be c2 77 25 bf
       2.1954393 -0.37089735 -0.21917953 -0.6463586
000230 a5 d7 dc be fd 85 03 40 88 6f db be 8a c7 49 bd
       -0.43133274 2.055053 -0.4285853 -0.04926256
000240 ca b6 41 bc 91 7a 6f bd b4 93 0c bf c7 54 0f bf
       -0.011823365 -0.058466498 -0.5491288 -0.55988735
000250 37 dd eb 3f 14 4c 02 bf e1 d7 fd 3f 89 f1 eb 3b
       1.8426884 -0.50897336 1.9831506 0.007200424
000260 85 a7 86 be d8 44 4d 3d a9 e6 4b bf 4c c9 96 bf
       -0.26299682 0.050114483 -0.79648834 -1.1780181
000270 79 dc 07 40 b9 6f 97 be 78 41 cf 3f 70 0f eb be
       2.1228316 -0.29577425 1.6191854 -0.45910215
000280 d6 f7 a2 be f3 81 fc bf 58 08 0d bf e3 7e fc 3d
       -0.3182971 -1.9727157 -0.55090857 0.12328889
000290 9f 22 e9 be 21 e2 d6 be b0 35 6b be 1e 87 af bf
       -0.45534226 -0.41969398 -0.22969699 -1.371311
0002a0 0e 94 82 be 32 b9 94 3f 32 4e b7 bf 35 2c c4 3f
       -0.25503582 1.1619017 -1.4320738 1.5325991
0002b0 ae e9 52 bf f3 cc 4a 3f 79 b2 fb be ea f9 cf be
       -0.82387817 0.7921898 -0.491596 -0.40620357
0002c0 93 ae 36 bf 74 98 b4 3f ec 35 0c 40 d7 f5 5a bf
       -0.7136013 1.4109025 2.1907911 -0.8553137
0002d0 57 23 e1 be c9 75 54 3f ce 3c 54 bf 2c 38 38 bf
       -0.43972275 0.82992226 -0.8290528 -0.7196071
0002e0 d3 96 bf 3f 24 37 aa bf bd a7 fe be 0d a1 b2 be
       1.4967903 -1.3298078 -0.4973735 -0.34888497
0002f0 b8 fd 25 40 31 23 4c 3e 91 e0 9e be 90 f9 0c bf
       2.5936108 0.199353 -0.31030706 -0.550683
000300 75 4f f7 3e 2e 52 f6 be 55 a7 10 bf c8 48 1c bf
       0.48302808 -0.48109573 -0.5650533 -0.61048555
000310 15 9c 10 bf 5f 56 0b bf 3e 04 02 bf 5c 30 fb 3c
       -0.5648816 -0.54428667 -0.50787723 0.030662708
000320 02 9e e1 be 51 56 47 be ed d6 01 bd 5d d1 ab be
       -0.44065863 -0.19466521 -0.03169911 -0.3355817
000330 ff e7 95 bd 4f 97 1e bf 82 43 b5 3f 56 5d 9c be
       -0.0731964 -0.6194963 1.4161227 -0.3053996
000340 c9 64 1e bf 3e 1e 8d 3d 98 76 fc be 02 c6 8f bf
       -0.61872536 0.06890534 -0.4930923 -1.1232302
000350 00 1b f9 be e0 7c 07 bf 77 52 10 bf 5d 39 09 bf
       -0.48653412 -0.5292492 -0.5637583 -0.53603154
000360 a5 3f dd be 59 29 ae 3d 9c d9 a0 3c 6c 71 81 be
       -0.4321262 0.0850398 0.019635014 -0.25281847
000370 0f 6f 16 40 d5 da 83 3e d1 d9 e6 3e d3 20 11 bf
       2.3505285 0.25752893 0.45088056 -0.5669071
000380 79 79 80 be 0f 11 18 3d ff 9d 44 be a6 c4 d8 3e
       -0.25092676 0.037125643 -0.19200896 0.4233753
000390 8f 51 fa bf be 77 62 3f ad fe c8 be c3 e7 20 bf
       -1.955614 0.8846396 -0.39256802 -0.6285364
0003a0 82 51 8d bc f2 70 23 bf 47 3d 4b be 19 dc 7d be
       -0.01725078 -0.63844216 -0.19847594 -0.24790992
0003b0 b4 7a 76 be c4 2b 10 3f 43 89 02 c0 7d 97 c3 be
       -0.24070245 0.5631678 -2.0396278 -0.38201514
0003c0 4d 53 34 be 9c 28 a4 3d c7 f6 58 be 9f 82 1b bc
       -0.17609902 0.08015558 -0.21187888 -0.009491592
0003d0 05 67 a3 be 3e c8 41 be 2f 92 0a 3d c8 95 1c 3c
       -0.31914535 -0.18924043 0.033830818 0.009557195
0003e0 9f 4b 78 be 6b e5 c7 be 3e d9 0a bf 2d 5a c3 3f
       -0.24247597 -0.3904222 -0.54237735 1.5261894
0003f0 a0 50 4b be 79 3d 86 be c0 6a f2 be b4 fe 16 3e
       -0.19854975 -0.26218775 -0.4734707 0.14745599

net.4.bias f4 [4]
000000 b4 f0 97 bd c7 85 a6 3e 03 47 b9 3b 1b a5 0c bc
       -0.07418957 0.3252394 0.005654217 -0.008584286
