SARSA/dsqn/750_model_weights.pth (torch, 75917 bytes, 6 tensors)

net.0.weight f4 [128, 8]
00000000: 685e 1d3f 26fd acbc 7e00 1b3f 565c f1be
00000010: 8740 12bf 511e a03e be67 66bd 4ea9 d1bc
00000020: e785 aa3f 72f5 3e3e 7385 623f c6db 06be
00000030: 1e23 42be a0a5 123e a66f e4bd 14ba bebe
00000040: c61b a1bf 8e33 aa3f 2df1 81be ab86 07bf
00000050: 555b 603e 58fb 4d3e 766e 633d d477 81be
00000060: aca1 913e 4682 7d3f 4936 733e ebbf 35bf
00000070: aeaa 883d 3dae 9e3d 2edb 8abd 3c45 04be
00000080: 03c2 e0be ec17 ad3d ed99 133e a1e7 92be
00000090: 66f3 313f 97a2 803f c2c5 423f b224 9e3e
000000a0: e534 37bf 106f cabe dbc3 673f 2de7 d9be
000000b0: 0a44 a9be c279 7bbf e6de f23e 68d0 92be
000000c0: 2ea7 54be 0247 03bf 318f 0d3f cad5 28bf
000000d0: 1b8b cbbf 6744 1f3f ddc4 41bd 9c87 28be
000000e0: 6655 61bf b6d6 3d3f ff80 9e3e edf3 913f
000000f0: 21fb 9bbe d7e0 e43d 26fe a33c 7ded b93d
00000100: bf78 c1bc ecdb 12be 1a4d d1be e03d 19bf
00000110: a595 5a3f c604 493f 44d1 193e af3a a83e
00000120: 5e9f 89bf d495 10bd bba3 c73f 053a 7a3f
00000130: 859b db3e acc4 033f b72c fa3d 8eea efbe
00000140: 7cf1 123f c571 ff3e cdd0 c6be 5080 293f
00000150: daa6 78be 0573 90be f912 f73d dea3 72be
00000160: 07ed bdbf 3ce2 a3be 2844 9bbf 83fa 403e
00000170: 8f76 b0be 4f4c 073c 84bb 253f b86a d73e
00000180: 79e0 f1be 0959 5c3f 1e36 3c3e d887 d13e
00000190: c923 ec3e bc35 2c3f bc3c 443e 297f d53e
000001a0: 89b7 8cbe 618f 43be 90f0 1bbf 6573 003c
000001b0: 4038 4c3f 3924 093f 833a 1c3f c4da 2ebe
000001c0: 3100 a6be 92ba ce3c e030 023f f2b1 1dbf
000001d0: 2726 d73e b766 933f 0a4a c93e db89 463d
000001e0: d90f 74bf 004e 4f3e a27e 1ebe cb4c ce3e
000001f0: 9702 22bf c3d2 783e 5369 b63e fe98 2b3d
00000200: d637 86bf 2dea b5be 7d8b d4ba 257b 9bbe
00000210: 64e6 24bf 5e0d bb3e c3f7 223e 77e8 edbe
00000220: a863 923e 51e6 833c a4de 23bd 31c9 4c3f
00000230: 1b49 01be fc65 fdbd 9c2f 223f 351e 6f3f
00000240: 016a cc3e b93d 2f3f 3e3a 00bf cbe1 21bf
00000250: 02eb 1fbf a8e0 cd3f 50e0 a93e 6e66 36bf
00000260: 76b9 aa3d 15f9 a53f 1cb4 b1be 8fff a7be
00000270: 96a7 b3bf 946a 3abf b900 98be 2655 b0bf
00000280: 54d6 96be f94e babd c5b3 023f 5b6a 8bbe
00000290: 3bd1 243f 4410 c03f 5b77 ea3d 4c66 1cbe
000002a0: 61dd bf3d c256 96be 5bbb 523e 72da be3f
000002b0: f7d7 053f b862 8c3f ae3d 043f 1811 8d3e
000002c0: ec53 01be 3806 e13e 3e62 97be dc36 03bb
000002d0: 7c46 323f ddaf d73e d826 2f3f 1196 9b3e
000002e0: 244a 30bf a8d4 16be 45f1 d3bc 809f 37bf
000002f0: 97ca 3bbe c48d 383f ded8 343e 5d59 6fbd
00000300: 1d70 6ebf ebeb 5fbe e048 b5bf 548d 913e
00000310: 42b2 94be e332 633d 04ce 113f abfe 74bd
00000320: 55c3 b63e 0c10 253d 79e0 5a3e 7242 20bf
00000330: b444 f73e 1933 4b3f 0c62 d83e 1ca8 bd3d
00000340: 5769 58bf 857c cabf 7ace 55bf 867b fe3d
00000350: 6454 b73f f6c7 3a3f d7a5 903e 5652 1ebf
00000360: 0d72 6e3e 5031 a83d 8a6b 86be 9b7e 063e
00000370: e9ab ba3e 8293 8bbf e419 4fbe 0549 c8bb
00000380: 770c 503d 9240 0abe c6dd 973e 1666 a2bc
00000390: 2cbc 6c3f ffa3 ca3f 66fe fbbe b2cc a3bf
000003a0: d989 10bf ba89 15bd 65c4 543b e979 57bf
000003b0: 3fda 663d 51b8 343f c7c9 993e 8f38 5abd
000003c0: a0e0 d9be 263b d7bd 6fe6 4abf 5577 0f3b
000003d0: fb4d 1bbf 6012 bfbf ad34 733e c060 583f
000003e0: 2fed df3f 3b56 103a 5a50 2d3f 5c3f b93e
000003f0: 094a 55be 4e5f ee3d 7ea0 37bc 58d6 ef3c
0.6147218 -0.021116804 0.60547626 -0.4714076 -0.5712971 0.3127313 -0.05625128 -0.025593426
1.3322114 0.18648317 0.8848488 -0.13169774 -0.18958709 0.14320993 -0.11154108 -0.3725134
-1.2586601 1.3296983 -0.25379315 -0.5293986 0.2190984 0.20115411 0.055525266 -0.25286734
0.28443658 0.99026906 0.23751177 -0.7099597 0.066731796 0.07748077 -0.067800865 -0.12917036
-0.4389802 0.08451828 0.14414187 -0.28692344 0.6951202 1.0049618 0.76083004 0.3088737
-0.71565086 -0.3953786 0.90533227 -0.42559186 -0.33059722 -0.9823266 0.47435683 -0.28674626
-0.20766899 -0.51280224 0.5529662 -0.65951216 -1.5901827 0.6221375 -0.047306884 -0.16457981
-0.8802093 0.7415575 0.3095779 1.1402565 -0.30465034 0.11175697 0.020018648 0.090785004
-0.023617147 -0.14341706 -0.40879136 -0.5986004 0.8538459 0.7852291 0.15021235 0.32857272
-1.075176 -0.035299137 1.5596842 0.9774478 0.4289209 0.5147197 0.1221556 -0.4685864
0.57399726 0.49891487 -0.38831177 0.66211414 -0.24282399 -0.28212753 0.120641656 -0.23695323
-1.483796 -0.3200854 -1.2130175 0.18845563 -0.34465453 0.0082579395 0.6473925 0.42073607
-0.47241572 0.86073357 0.18380019 0.40923953 0.46121052 0.6726949 0.19163793 0.41698578
-0.27483776 -0.19097663 -0.60913944 0.007840012 0.7977333 0.53570896 0.6102678 -0.1707564
-0.3242202 0.025235448 0.5085583 -0.6159965 0.42021295 1.1515721 0.393143 0.048471313
-0.9533668 0.20244598 -0.15477994 0.40292963 -0.632852 0.24299149 0.3562723 0.04189395
-1.048579 -0.35530224 -0.0016215887 -0.3036739 -0.6441405 0.36533636 0.15914826 -0.4646642
0.28591657 0.016101034 -0.04000725 0.79994494 -0.12625544 -0.123729676 0.63353896 0.9340547
0.39924625 0.68453556 -0.5008887 -0.6323516 -0.6246797 1.6084185 0.3317895 -0.71250045
0.08336155 1.2966639 -0.34707725 -0.32812163 -1.4035518 -0.72818875 -0.2968805 -1.3775985
-0.29460394 -0.09097094 0.51055557 -0.2722958 0.6438176 1.5004964 0.114485465 -0.15273398
0.093683966 -0.29363066 0.20579283 1.4910414 0.5228266 1.0967627 0.51656616 0.27552104
-0.1262967 0.43950057 -0.2956714 -0.0020021712 0.696388 0.4212636 0.68418646 0.3038793
-0.6886313 -0.1472956 -0.025871882 -0.7172775 -0.18339 0.7209132 0.17660853 -0.058434833
-0.9313982 -0.2186734 -1.4162865 0.28428137 -0.2904225 0.05546845 0.5695498 -0.059813183
0.35695902 0.040298507 0.21374692 -0.6260139 0.48294604 0.79374844 0.42262304 0.0926058
-0.84535736 -1.581925 -0.83518183 0.12425904 1.4322629 0.72961366 0.28251526 -0.61844385
0.23285694 0.082125306 -0.2625392 0.13134234 0.36459282 -1.0904391 -0.2022472 -0.00611222
0.050793137 -0.13501194 0.29661387 -0.019824069 0.9247463 1.5831298 -0.49217528 -1.2796843
-0.5646034 -0.0365083 0.0032465693 -0.84170395 0.05636048 0.70593745 0.30036756 -0.053276595
-0.42554188 -0.105093285 -0.79257864 0.0021891196 -0.60665864 -1.4927483 0.23750563 0.8452263
1.7494258 0.00055060134 0.6770073 0.36181152 -0.20829023 0.11639272 -0.011207698 0.029277012

net.0.bias f4 [128]
00000000: d44c a33e 6cbc aebd 013b 063e be83 6f3e
00000010: a3c9 8b3e c8d0 d1bc 0291 413d 0de1 633e
00000020: 33bd fbbe 056d 9cbd 5508 3d3f 8b45 c73d
00000030: 3f2c 74be 98a7 903e 9aee d83e 8a52 7abe
00000040: 8ba4 bdbe 79aa 7c3e 07e1 113f 2dbe 0e3b
00000050: 127f 033f 7707 003f 60d9 513f 4a74 443f
00000060: 23e3 e63e a10f e73e 4044 04bf 8917 7fbe
00000070: 359d 453e cb1c 2c3f 7947 c43e bd91 ae3c
00000080: 4557 01bf dc8d e6be 5de7 103f 585f d9be
00000090: 77a9 ef3d febb 14be d876 bd3e af0c a03e
000000a0: e8f5 bebe 224e c7be 73c5 403e f4cd f4be
000000b0: 6c9c 273f 9160 3bbc 71d7 183f 1e7e 0e3f
000000c0: 6b75 9e3e 3e53 e13e f0e1 703e 8cde 363e
000000d0: da24 853f 3081 be3d f834 293c f26b 35bf
000000e0: 5d96 513f 7ec1 a23e af4e 323f e689 e9be
000000f0: c4ed 483f afbf 0e3e 2ede 263f 1676 6a3f
00000100: 5b62 733e ed63 dd3d f78d 9bbd dcaa d53e
00000110: a789 5fbf 97b0 a3be 4131 18bf 745a f13e
00000120: f5a2 5b3f 8349 9dbe 4764 693e 50c4 5c3e
00000130: cdc4 90be f07c a03d 097c 963e 6029 323e
00000140: b39c 163f c999 dcbe 613e 0bbf 5d96 8a3e
00000150: 7169 b23e 25da 263d 0592 1f3f d309 943e
00000160: 84ba 803e df40 28bf e440 c63e b4da 42bf
00000170: 6aac 003f 5c75 013f 7fe1 933e a293 623e
00000180: e272 73be 4fd8 6b3f 7ed2 15bf 011a 0bbe
00000190: fc00 123f d67e 263e 5a33 4ebe 5134 26bd
000001a0: dafe 313f 1e93 003f 699b 91bf 50af 113f
000001b0: 8a38 56bf 9559 a6be 06c4 9a3f 2f10 fabe
000001c0: 09d7 173e 38c7 ae3e 8a35 0d3f 337f d43e
000001d0: 90c6 b9be 5be5 91be 881a 583f 0f3a 4c3f
000001e0: e656 733f 9770 013f 9022 31bf 1ab9 6e3f
000001f0: a500 2a3e 43b6 4cbe e500 f63a ab26 65be
0.31894553 -0.08532032 0.13108446 0.233901 0.27302274 -0.02561225 0.04725743 0.22253819
-0.49167785 -0.07637981 0.7384084 0.09730061 -0.23845004 0.28252864 0.4236954 -0.24445549
-0.370396 0.24674405 0.5698399 0.0021780834 0.5136577 0.5001139 0.8197231 0.76739943
0.45095167 0.4512911 -0.5166664 -0.24911322 0.19298251 0.67231435 0.3833578 0.021309728
-0.5052379 -0.45030105 0.5660303 -0.42455554 0.11702245 -0.14524838 0.37004733 0.31259677
-0.37296987 -0.38926798 0.18825321 -0.4781338 0.65473056 -0.011436597 0.5970374 0.5566119
0.30948958 0.4400882 0.23523688 0.17858332 1.0401871 0.09301984 0.01032757 -0.70867836
0.8187006 0.31788248 0.6965131 -0.4561302 0.784878 0.13940309 0.6518277 0.91586435
0.23767988 0.10810075 -0.07595437 0.41731918 -0.87319416 -0.31970665 -0.59450155 0.47139323
0.8579553 -0.30720147 0.22792159 0.21559262 -0.28275147 0.0783633 0.29391506 0.17398596
0.58832854 -0.4308608 -0.5439206 0.27067843 0.3484607 0.040735383 0.62332183 0.28913745
0.251423 -0.65723985 0.38721383 -0.76114964 0.50263083 0.505697 0.28882977 0.2212663
-0.23774293 0.92126936 -0.5852431 -0.13584138 0.5703275 0.16259322 -0.20136777 -0.040577237
0.695295 0.50224483 -1.1375552 0.5690813 -0.8368002 -0.3249022 1.2091072 -0.48840472
0.14828123 0.34136367 0.5515982 0.41503295 -0.36284304 -0.28495297 0.84415483 0.7977609
0.9505447 0.50562423 -0.69193363 0.9325119 0.16601808 -0.19991402 0.0018768577 -0.22378032

net.2.weight f4 [128, 128]
00000000: 5ddd 603d ad5e 71bd 2359 85bd ff6a 9ebd
00000010: 3f10 a9bd da7d 5dbd 0d0b 92bd 7a97 563c
00000020: a8d2 b83c 40e6 b13b 30da eb3c f2a7 533c
00000030: d73f 3e3d f19e 453d c7f9 b7bd 5165 863d
00000040: 6288 293d 07c9 453d 267b bfbc 803c 993d
00000050: 5c84 c73c b179 3f3d 0af2 8b3a 3d13 1dbd
00000060: 79b2 8fbd 28e2 b13c 2e01 9dbd f62f 9ebd
00000070: 89bc 8d3d 31d1 9fbc 0fbe 06bc 9d1b 8d3d
00000080: 8c7c d43b 0ed8 2bbd 3cd4 2d3c f935 983d
00000090: ae45 1ebd 68f6 3ebd 48c3 febc 73b9 8c3c
000000a0: 524e 88bd 07eb 6fbd 29c3 853d 5474 81bd
000000b0: 9ae1 9bbd 7f60 993c d490 71bd 4509 773d
000000c0: 9cb7 4ebc 8dfd 6bbd 8dbf 6d3d 54de 373d
000000d0: 43d9 c4bd b877 f0bc 1af3 813d 203e f33c
000000e0: 528a 72bd 121e 833c 5fa7 593c f2b4 b4bd
000000f0: 8036 6d3a f0f9 243c 4a83 95bd 8e1c febc
00000100: af33 e03c 6d28 77bc c485 6c3d 6cdf c43c
00000110: 9639 2e3d 7f38 c4bd 3f5f 35bd b347 1c3d
00000120: ab4e edba fd35 f33c d08e c7bc bdfc 2c3d
00000130: 1636 153d 466b e6bc 1b10 86bd bbbb 1dbc
00000140: d85b be3c 4480 aabd cae6 6ebc 455a 99bd
00000150: 702c 0a3c ca74 90bd a0e4 423d 8441 c9bb
00000160: 80f6 5cba 3979 abbd b3fe ec3c 000f 4ebd
00000170: 4495 07bc 4f9c 8cbc 29ad 2d3d 26a6 033d
00000180: 1e03 85bc 5000 953d 4a16 1dbd 0d32 993d
00000190: 2bd8 a9bd 7241 43bd 8693 1a3d b58d 973d
000001a0: 189d 4d3d d407 04bc e9ca 8ebd 9c3d 4ebd
000001b0: 0b37 643d e3cc 5b3d fc16 02bd 5026 b8bd
000001c0: c321 1bbd 4583 5cbd 00c1 493d 679e 6b3d
000001d0: 1999 80bd 09b2 173d 58d9 66bd 6471 843c
000001e0: 2f88 bbbc 6976 82bd c8bf 2e3c 9561 733d
000001f0: df5b fd3c e5b5 8e3b 7e75 30bd 9603 70bd
00000200: 613c 02c0 3339 01c0 4423 f4be 456e 9bbe
00000210: f7e7 5d3e da4c 4dbe 1ea2 3a3f 73c7 94bf
00000220: c8ca ee3e b3b1 493d 6f30 c8bf 0628 0bbf
00000230: 964f 0fbf 63cc 2b3d 5d0a 803e ba88 93bc
00000240: 018c 473e 107c 35bf 965f 99bd bf15 94bf
00000250: 9a9d a43e 4ef8 0ebe fe66 07be 727a 4f3e
00000260: 5141 25bf 0431 9b3d e373 423f d344 bdbd
00000270: c69c 1abd 2df8 cf3b 594e aebf 5f3d 03c0
00000280: 8128 9e3e dfef 343f 48f7 45bf f335 fc3e
00000290: b8f6 10c0 33b4 10c0 d9ab aebe c184 69be
000002a0: 08da ccbe ac87 643e 7019 29be a145 173f
000002b0: f27e f4be d735 f93d 3bf7 86bd 0b1e f33c
000002c0: 0eb7 b33d b042 433d e7b6 b2bf 1e90 01c0
000002d0: 4418 37c0 5937 cd3e 0446 08be 92a5 dabf
000002e0: 3d96 84bc 615e 41bf e140 28be c6da fd3d
000002f0: cb95 23bf 5b48 393e 00b4 c1bf f523 febf
00000300: 85c5 dbbb 4d31 18c0 bcd6 e2bf 85f3 0cbf
00000310: b106 90bf 8f96 36bf 5278 bebf 7eaa fcbe
00000320: 9e17 81bf ae8c 04c0 7827 8bbe 606e a13e
00000330: e8b4 be3d 1c8b 2ebf 0a0a a7bf 1cbf 0e3f
00000340: feaf f3bc 8b67 783f 20e0 163f e4e6 2ec0
00000350: 7b65 90bc 3761 d4bd b072 2d3b 91ae 15bf
00000360: f5b5 f23e 1b86 753e 8aa5 65bf 2738 c83d
00000370: 48b2 6fbf b7a3 52be 9bb7 9abe 0276 53bf
00000380: 4e4a 12c0 23db c9be e185 013f 4951 b63e
00000390: 26ad 02be 9567 86be d130 623e 9f2c 56be
000003a0: 613b ee3d ebfe 61be 6d14 bfbf c964 ba3d
000003b0: 62d1 4ebe 4c1e dfbf b664 debf 02e7 a73e
000003c0: e602 95bd a0f6 173f 223a 8c3e 665a 16bf
000003d0: 0ae7 603e b593 3d3f 30b7 d0bf b185 103f
000003e0: 53ce 72be b60b 7cbe 5149 5c3d 5ae7 0fbf
000003f0: d2ef 1cbe 2899 d73d af3f c33e e113 b13e
0.05489861 -0.05892818 -0.06511142 -0.07735252 -0.08255052 -0.0540751 -0.07131014 0.013097638
0.022561386 0.0054290593 0.028790563 0.012918459 0.0464476 0.04824728 -0.08983188 0.06562293
0.04138983 0.048287418 -0.023374151 0.074822426 0.024355106 0.046746913 0.0010676992 -0.038348425
-0.07016463 0.021714285 -0.07666241 -0.077239916 0.06920726 -0.01950893 -0.008224024 0.068900324
0.0064845737 -0.041954093 0.010609683 0.074321695 -0.03864067 -0.04662171 -0.031098977 0.017178273
-0.066555634 -0.05857375 0.065313645 -0.06321016 -0.076113895 0.01872277 -0.05897601 0.060311574
-0.012617018 -0.05761485 0.058044005 0.044889763 -0.09611752 -0.029353961 0.06345196 0.02969271
-0.059213944 0.01600555 0.013284533 -0.08823575 0.00090489537 0.010069355 -0.07300432 -0.031019475
0.027368395 -0.015085322 0.057744756 0.024032317 0.042535387 -0.09581088 -0.044280287 0.038154315
-0.001810511 0.02968883 -0.02436009 0.042233218 0.036428533 -0.028127324 -0.065460406 -0.009627278
0.023237154 -0.08325246 -0.014581392 -0.07487921 0.008433446 -0.07053526 0.047581315 -0.0061418433
-0.00084290653 -0.08372731 0.028930044 -0.050307274 -0.008275334 -0.017164377 0.042401467 0.032140873
-0.016236838 0.0727545 -0.038351335 0.074802496 -0.08293184 -0.047669835 0.037738346 0.07400075
0.050198644 -0.008058507 -0.06972296 -0.050351724 0.055716556 0.053662192 -0.0317602 -0.089916825
-0.037873995 -0.053836126 0.049256325 0.05752411 -0.06279201 0.037035022 -0.05635962 0.01616735
-0.022892086 -0.06370241 0.010665841 0.059419233 0.030927597 0.0043551796 -0.0430808 -0.05859717
-2.0349352 -2.0191162 -0.47683156 -0.30357566 0.21670519 -0.20048848 0.7290362 -1.1623367
0.46639085 0.049241733 -1.5639781 -0.54357946 -0.55980814 0.041942965 0.25007907 -0.018009532
0.19487001 -0.7089243 -0.07488935 -1.1569136 0.3215149 -0.13961908 -0.13222882 0.20261553
-0.6455279 0.07577708 0.7595808 -0.09241643 -0.037747167 0.0063467235 -1.361766 -2.0506208
0.30890277 0.70678514 -0.77330446 0.4925991 -2.2650585 -2.2609985 -0.34115484 -0.22804548
-0.40010095 0.2231738 -0.1651361 0.5909062 -0.47753102 0.12168472 -0.06590124 0.029677412
0.08775149 0.04767102 -1.3962067 -2.0244212 -2.860856 0.4008129 -0.13307959 -1.7081778
-0.01618492 -0.75534636 -0.16431 0.12395243 -0.6390044 0.18094008 -1.5133057 -1.9854723
-0.006706896 -2.378009 -1.7721782 -0.5505908 -1.1252042 -0.71323484 -1.4880469 -0.49348825
-1.0085332 -2.0710864 -0.2717855 0.31529522 0.09311849 -0.68181014 -1.3049939 0.5576036
-0.029747006 0.97032994 0.5893574 -2.7328424 -0.017626515 -0.10370105 0.0026466064 -0.5846949
0.47404447 0.23976938 -0.8970572 0.09776335 -0.9363141 -0.20570265 -0.30218205 -0.8260194
-2.2857852 -0.39425 0.5059491 0.3560889 -0.12761363 -0.26250902 0.22088934 -0.20915459
0.116324194 -0.220699 -1.4928108 0.091012545 -0.2019706 -1.7431121 -1.7374485 0.32793432
-0.072759435 0.59360695 0.27388102 -0.5873169 0.21963134 0.7405351 -1.6305904 0.56453997
-0.23711519 -0.24613842 0.053780857 -0.5621239 -0.15325859 0.10527259 0.38134524 0.3458548

net.2.bias f4 [128]
00000000: de44 b4bd 3018 94bf 8490 9abc adb1 88bd
00000010: 6e49 9b3d 9d62 c13c cf44 513f c5cc d13c
00000020: f0ef b8be a2eb 02bd 0c5c 5a3d 3d46 943d
00000030: 95d8 39bc f6ed f3bc ef11 4bbd b0dd 933d
00000040: 5938 313c 7fb7 6abc 4100 b03b 0c20 8dbd
00000050: 729f 1abe ac06 d6bc 09bd 683f 629e 323e
00000060: 4321 19bd 1092 bebd 23e7 503d d244 afbd
00000070: fdcc 62be 832f bbbd bc9b 373f e9ea 2b3d
00000080: 2b08 fbbc 1e31 9abe 455a 38bd 63a8 153e
00000090: a13b 83be ed21 ea3a 84c8 1d3d ced3 e5bd
000000a0: edeb 323d 4d8d b93d 5cc8 d8bd 98be 2ebd
000000b0: 76b0 10bc 7d01 a63e 9f59 293c f53f dd3c
000000c0: ab09 1abc 8d2c 453f 96fa 69be 332b 8bbd
000000d0: 0d61 e73c 3566 1e3f 5a2a 213a 3c58 463d
000000e0: 2575 1e3f 9e46 613e dcf8 b5bc 0b45 8c3d
000000f0: ad6b 76be 3650 ab3d 84e5 bd3c 30c3 b03d
00000100: ece5 283e 2f98 c03b c0ce 1bbd 46fc fdbd
00000110: 2820 43bd b90f 843d 5797 a3bd 3c3c 47bb
00000120: 8823 9ebc 6bc6 6dbd 447f a33d 93a4 bbbc
00000130: 2267 0b3e b9ee 0c3d deaf 413f 8d98 743d
00000140: cfcd a9bc 697e 5c3c a7ae a0bd e472 483e
00000150: c190 ba3d 1a51 c43c c2f5 fe3c 6cae 413d
00000160: a5f6 a9bd 5b30 bbbd 52ed b9bd d6c9 9a39
00000170: 97c4 2ebe 2b80 a9bd 83c0 973e 4ff1 953d
00000180: c5a6 4e3d c6f9 b4bd 9bb3 9b3d e1f0 983e
00000190: 147f 18bd 1a89 6f3e 6b55 a63d dacc 53bc
000001a0: 22e7 7e3c bf5c 323d 4322 843d 73ee 293d
000001b0: f5c7 7d3d a4db 163e de69 71bd ff92 96bc
000001c0: 0ec4 b2bc 2962 78bd 6304 efbb fa09 80bd
000001d0: 6aab 1ebd 2be8 8c3d 6e45 87bd 789d bebd
000001e0: d12b c53c b69a bfbd 271c fcba 609d 693e
000001f0: f51c 1e3d 9d53 0dbd 29a9 643b 4410 263e
-0.08802198 -1.1569881 -0.018867739 -0.06674514 0.07582365 0.023606593 0.8174562 0.025610337
-0.36120558 -0.031963 0.05331044 0.072399594 -0.011343141 -0.029776555 -0.04957765 0.07220018
0.010816657 -0.014325975 0.005371124 -0.06890878 -0.15099886 -0.026126228 0.90913445 0.17443231
-0.037385236 -0.09305203 0.05100168 -0.08558048 -0.2214851 -0.091399215 0.71722007 0.041972075
-0.030643543 -0.30115598 -0.045007963 0.14615016 -0.2563143 0.0017862894 0.038521305 -0.11222039
0.043682028 0.09060154 -0.105850905 -0.042662233 -0.008831134 0.3242301 0.010336309 0.027008036
-0.009401719 0.77021104 -0.22849497 -0.06795349 0.02824452 0.61874706 0.00061479735 0.04842399
0.618975 0.21999595 -0.022213392 0.068491064 -0.24064513 0.083649084 0.02318073 0.08630979
0.16493958 0.0058775167 -0.03803897 -0.12401633 -0.04763809 0.06448311 -0.0798785 -0.0030400893
-0.019304052 -0.058050554 0.07983258 -0.022905624 0.13613561 0.03440735 0.7565898 0.059715796
-0.02072802 0.013457873 -0.07845812 0.19575077 0.09109641 0.023964453 0.031123046 0.047285482
-0.08298997 -0.091400824 -0.090784684 0.00029523548 -0.1706718 -0.08276399 0.29639062 0.073214166
0.050452013 -0.08836703 0.076026164 0.29871276 -0.037230566 0.23392144 0.08121761 -0.012927258
0.015558036 0.04354548 0.064518474 0.04148717 0.061958272 0.14732224 -0.058938853 -0.01838064
-0.021822002 -0.060640488 -0.007294224 -0.06251903 -0.038737692 0.0688022 -0.066050395 -0.093073785
0.024068745 -0.09355681 -0.0019234464 0.2281394 0.038601834 -0.034503568 0.0034890866 0.16217142

net.4.weight f4 [4, 128]
00000000: 2fb0 80bb c81c c2be 5f6a 99be 9f4c 40bd
00000010: 1869 eabe 7546 d1be 35ff b13f 64bb ac3d
00000020: 48a3 ff3f 3939 a7be 6fe5 bfbe 83cf bebe
00000030: 137e 9ebe c263 0d40 daba f4be 71fe b0be
00000040: 65f9 c2be 2c88 a73c bc21 e6be e25e b4be
00000050: bd73 f13f 1cef 02bf 633d df3f da39 d0bf
00000060: c93f 21bf 86b6 6c3c c74d 02bf e8ec 17c0
00000070: 8beb 0440 f4dd e2be b484 b73f 991f 7ebe
00000080: c449 bfbe 4524 27c0 7c0d c8be 0a78 4dbe
00000090: 6e04 3cbf 50a4 b4be b7ef cabe bc1f 01bf
000000a0: 4dd7 d2be 88a0 a33f 0614 a8bf cd22 983f
000000b0: af1e 12bf bacd 9d3f a270 f0be 2e68 32be
000000c0: 25a8 fdbe f5e4 af3f f824 e63f 466c c0be
000000d0: 5ba7 c1be 2042 093f 2932 ebbe 7ef9 91be
000000e0: e229 d53e 2f55 0fbf 2c1e bcbe c2db e7be
000000f0: 08bb 1a40 3f66 cbbd df9b b1be 510e d1be
00000100: 1da4 50bf 1eae dabe 528c e8be a349 8ebf
00000110: 9374 d1be 4cb9 e6be 421d d2be eac9 a8bd
00000120: 0ee7 31bf 0bda b5be 70ac 81be 4eca debe
00000130: 933a 433f e6c3 8fbe c30d cf3f f696 b1be
00000140: 051b a6be ca8b 07bd 04ce c1be 13dd 5dbf
00000150: 7d65 2bbe e3bf 01bf 56c9 b1be c8a8 ddbe
00000160: 02c0 c8be 222f 6b3d f566 da3a 2113 aabe
00000170: 927d 0a40 48c2 33bf 4d6d 3d3e 4938 dabe
00000180: 8c70 06bf b565 97bc 97eb 87be 437d 473e
00000190: e7c3 fdbf fc4e be3f 2bc0 b8be 5fb9 12bf
000001a0: 5b79 8cbd bc54 62be 7acc dbbe bab4 f4be
000001b0: 3491 9ebe dd5f 363f 2e8c a1bf 3930 b4be
000001c0: e7ad f7be 0b74 80bd b875 d4be 36e9 293d
000001d0: b61e cbbe 3898 ccbe 4155 223d da5d 373c
000001e0: 1ec7 debe 7b3e e8be ed8a dbbe 36c2 c13f
000001f0: 7cfb eebe 0250 05bf 4876 e3be a4fc 83bd
00000200: 6ff3 5dbd 6126 3f3f a27d e3be 02df d63c
00000210: c24f f4be e41c e3be 6b76 7b3f 771d 82bd
00000220: e276 0d40 6a65 bdbe 5813 5bbe c19b 26bf
00000230: 7efd debe a215 fd3f 004d d9be 8d4a 21bd
00000240: 7f52 1cbd 917a 6fbd f426 0cbf 5c1f 10bf
00000250: e716 e33f 4a52 02bf 7d7a fc3f 4b87 9fbc
00000260: 672a 88be d844 4d3d 1ca5 4bbf b8aa 90bf
00000270: 79dc 0740 e321 96be 3576 ce3f 3bc1 eebe
00000280: f24c a3be bc64 fabf 484a 10bf c193 063e
00000290: 5440 d3be ac72 d5be 053f 68be c2c7 b4bf
000002a0: baac 80be 7472 9b3f 172c bcbf 5e0e c43f
000002b0: f557 71bf 8e48 5e3f 3f34 fbbe fb66 d3be
000002c0: 42b2 36bf a641 b53f 4f2f 0b40 29b9 62bf
000002d0: 087b e2be 2974 563f 470c 52bf fa3e 3bbf
000002e0: ca9a c33f 10e8 b0bf bf4e febe 217c b2be
000002f0: b8fd 2540 8bdc 5a3e 0b87 a0be 56a3 0bbf
00000300: 3faa 013f b466 f8be 3d10 11bf 5143 1bbf
00000310: 041c 11bf dd04 0cbf 7239 01bf 5c30 fb3c
00000320: eb5b 0bbf b48f 3ebe 19d2 0bbd 9158 abbe
00000330: da8f ccbc 1f1d 1fbf 9a78 b43f a0e3 99be
00000340: f968 1ebf 3e1e 8d3d 1f7d febe 283e 8fbf
00000350: a123 fdbe ad2c 07bf e803 10bf 4b14 09bf
00000360: e8ed ddbe 5929 ae3d 9cd9 a03c 859c 81be
00000370: 0f6f 1640 4070 973e b77f f03e 8ce4 10bf
00000380: 0834 78be 0f11 183d 233b 3ebe f4ac e13e
00000390: 10a5 fabf 48d9 6a3f f5d4 c8be af83 22bf
000003a0: 8251 8dbc cd14 27bf c05e 4fbe a2bf 78be
000003b0: a11a 7dbe 5e27 273f ef51 03c0 906e c3be
000003c0: 122e 2abe 9c28 a43d 0aa1 57be 9f82 1bbc
000003d0: da3f a1be 5d1b 3abe 2f92 0a3d c895 1c3c
000003e0: cc35 73be d1ac c7be 0ced 0abf abb9 c53f
000003f0: 8f1e 45be b45c 84be 212f f2be c66f 313e
-0.0039272527 -0.37912583 -0.29963967 -0.04694807 -0.45783305 -0.40874067 1.3906008 0.084341794
1.9971704 -0.32660845 -0.3747973 -0.37267694 -0.30955562 2.2092137 -0.47798806 -0.34569123
-0.38080898 0.020450674 -0.44947612 -0.3522864 1.8863446 -0.511461 1.7440609 -1.6267655
-0.62987953 0.014447814 -0.5089993 -2.3738346 2.0768764 -0.44309962 1.4337373 -0.24816741
-0.37360966 -2.6115887 -0.39072788 -0.20065323 -0.7344426 -0.3528161 -0.39636013 -0.5043905
-0.41179886 1.2783365 -1.3131111 1.188562 -0.5707807 1.2328408 -0.46960932 -0.17422554
-0.49542347 1.3741747 1.7980032 -0.37582606 -0.37822995 0.53616524 -0.45936707 -0.2851066
0.41633517 -0.55989355 -0.3674177 -0.4528485 2.4176655 -0.09931611 -0.34689233 -0.40831235
-0.81500417 -0.42710966 -0.45419556 -1.1116222 -0.40909252 -0.45063245 -0.41037947 -0.08241637
-0.69493186 -0.35517916 -0.25326872 -0.4351372 0.7626125 -0.28079146 1.6176075 -0.34685487
-0.3244249 -0.033092298 -0.3785249 -0.8666546 -0.16737933 -0.5068342 -0.3472392 -0.43292832
-0.3920899 0.057417996 0.0016662764 -0.3321772 2.1639142 -0.70218325 0.18498726 -0.42621067
-0.5251548 -0.018481115 -0.26546928 0.19481377 -1.982541 1.4867854 -0.36084113 -0.57314104
-0.06859084 -0.22102636 -0.4292944 -0.47794133 -0.30970156 0.71240026 -1.2620904 -0.3519304
-0.48374864 -0.062721334 -0.41496062 0.041482173 -0.39671868 -0.39959884 0.039632086 0.01119181
-0.4351129 -0.4536017 -0.4287943 1.5137393 -0.46676242 -0.5207521 -0.4442618 -0.06444672
-0.054187234 0.74667937 -0.44431788 0.026229385 -0.477171 -0.4435798 0.98227566 -0.06353276
2.210381 -0.36991435 -0.21394098 -0.6508141 -0.43552774 1.9772227 -0.4244156 -0.039377738
-0.038164612 -0.058466498 -0.5474694 -0.5629785 1.7741364 -0.50906813 1.972488 -0.019473692
-0.2659485 0.050114483 -0.7954881 -1.1302099 2.1228316 -0.2932273 1.6129824 -0.46631798
-0.31894642 -1.9561992 -0.56363344 0.13142301 -0.41260016 -0.4168905 -0.2268029 -1.4123461
-0.2513178 1.2144303 -1.4700955 1.5316885 -0.94274837 0.8682946 -0.49063298 -0.41289505
-0.7136575 1.4160659 2.1747625 -0.8856378 -0.4423449 0.83770996 -0.82049984 -0.7314297
1.5281613 -1.382082 -0.49669454 -0.34860328 2.5936108 0.21373193 -0.3135303 -0.54546106
0.506504 -0.48515856 -0.566654 -0.6064959 -0.56683373 -0.5469492 -0.5047828 0.030662708
-0.5443713 -0.18609506 -0.03413591 -0.33466008 -0.024970938 -0.6215381 1.4099305 -0.30056477
-0.61878926 0.06890534 -0.49704835 -1.1190844 -0.49441245 -0.52802545 -0.5625596 -0.5354659
-0.4334557 0.0850398 0.019635014 -0.25314727 2.3505285 0.29577827 0.4697244 -0.56598735
-0.24238598 0.037125643 -0.18577246 0.44077265 -1.9581623 0.91737795 -0.39224973 -0.63482183
-0.01725078 -0.65266114 -0.20250988 -0.24291852 -0.2471719 0.65294445 -2.0518758 -0.3817029
-0.16619137 0.08015558 -0.21057525 -0.009491592 -0.31494027 -0.18174501 0.033830818 0.009557195
-0.2375099 -0.38999036 -0.54267955 1.5447286 -0.19249938 -0.25851977 -0.47301582 0.17327794

net.4.bias f4 [4]
00000000: 5437 99bd 6436 aa3e 5a61 23bb dd89 1fbc
-0.07481256 0.33244622 -0.0024929852 -0.009737459
