SARSA/dsqn/800_model_weights.pth (torch, 75917 bytes, 6 tensors)

net.0.weight f4 [128, 8]
00000000: 92fd 223f d25c 5ebd 4df5 193f 7d0b eabe
00000010: 7d46 17bf abf9 ba3e 5c74 76bd 03e4 d1bb
00000020: bde5 af3f 9110 143e e3ef 633f 4e08 44bd
00000030: ee61 84be d10a 123e d110 89bd a789 d5be
00000040: 4977 a3bf 72fd a53f 1ce5 8dbe e0d7 02bf
00000050: 3035 8d3e 09f5 833e 2b34 5f3d 7c1f 83be
00000060: 733c 903e 949e 843f 0283 8d3e 46e1 30bf
00000070: 5222 8d3c 723f a53d 4512 9bbd 6868 efbd
00000080: efd6 e4be 3d5d a73d 8c1b d53d 84b6 9dbe
00000090: 8d38 373f dae4 803f b058 403f 076e a13e
000000a0: 63b9 48bf b1d2 c5be 9a6b 613f 5e8e e9be
000000b0: f67f bdbe 8b64 7dbf 13e7 e93e 2c80 89be
000000c0: 3aeb 9ebe be14 e9be 94e3 ba3e 86dd 28bf
000000d0: 2b55 d8bf 62dc 063f 156b 05bd ba70 ebbd
000000e0: dd6d 67bf f61f 443f 25b8 b03e 5992 883f
000000f0: 3ea3 95be c982 fe3d d9d7 813c 0b3e d13d
00000100: ba15 ffbc e9cb 09be 0ee9 c5be 8c9d 1cbf
00000110: 215d 653f 286f 4b3f 240c 1d3e c584 ad3e
00000120: 6415 9abf 66f0 f7bc f1bb bf3f ec27 713f
00000130: 2518 703e e829 e63e bbac 3f3e cf37 f8be
00000140: db64 253f 0542 cd3e caf0 dbbe b384 403f
00000150: fec5 84be 1ae0 a1be 996b ef3d 955d 8dbe
00000160: c0c3 bfbf d837 c3be 1cbf 9ebf bea6 553e
00000170: 9cac 9abe 1dc4 0fbd e8d7 243f 1f3a e03e
00000180: 7a15 09bf 8980 4c3f 696d 373e 435e 193f
00000190: 5002 a93e 9d2a 313f c102 673e ef0c d43e
000001a0: 5a05 99be b72d 1cbe 1152 25bf ef40 3f3d
000001b0: daed 613f ca2d 0d3f 48ca 173f a6cb 3ebe
000001c0: d060 afbe de41 9f3c 9401 f43e f41a 29bf
000001d0: ce47 dd3e c501 933f 72bb c73e 5572 483d
000001e0: e715 7abf bd4f 433e 022d 8dbe 3a37 cf3e
000001f0: ff91 23bf 4ddf 433e 5ed9 bc3e cdfd ba3c
00000200: f825 86bf fd64 8bbe 6f39 42be 663a a8be
00000210: c516 19bf f1f8 9e3e fbcd 443e 4b6b 02bf
00000220: de4c 8f3e 65e3 ecbc 376b 28bc f87d 373f
00000230: 0254 2ebe e657 f3bd 6791 233f a042 6a3f
00000240: 5075 ab3e 486c 303f 7efb 05bf 81c0 14bf
00000250: 4b34 13bf 838c d73f f949 9a3e 8a1b 33bf
00000260: bfd6 a23d 5630 aa3f ea86 c9be 7dfe 92be
00000270: 972f b1bf 9bf4 40bf 173d 8bbe 5373 aabf
00000280: 1f69 b6be 5f27 8abd 34e5 ff3e 8f91 9abe
00000290: f2e5 203f a404 c53f 96dc cb3d 2f1f 11be
000002a0: 9120 1b3e f1a4 8dbe 9285 5b3e d22c d73f
000002b0: 3bc3 ef3e 93ea 893f c416 093f cb7e 923e
000002c0: fc67 2fbe 707a e13e 56db 9cbe 9b7a 473c
000002d0: 0798 473f 7b52 ee3e 681d 213f 051c a33e
000002e0: d0e1 2bbf 051f 0fbe 349b 52bd 87c7 3fbf
000002f0: 6137 45be 5efd 3a3f bc5f 373e 4cd7 a1bd
00000300: 944c 7cbf 30d6 06be e8a0 b5bf 0994 903e
00000310: a19e 8bbe e8fd 1a3d e113 133f 48d2 54bd
00000320: 8f0f ae3e e333 103d 04c4 4e3e 8b83 26bf
00000330: 68dd fb3e 898f 493f db68 da3e 91f6 b53d
00000340: ac43 66bf 8a77 dcbf b4af 48bf 6aec 473e
00000350: aa6a ba3f 9c37 423f 9cbe 793e 9f5b 22bf
00000360: 10e1 913e 89f9 fd3c ce0c 88be 2982 513e
00000370: 023b d23e 9d25 8ebf a199 fbbd bce7 4dbb
00000380: 04a4 c83d 0f3f f9bd 9af8 af3e ea83 813d
00000390: 1edf 813f 9cc3 d93f 2d71 01bf a944 aabf
000003a0: 6189 0cbf 7edb abbc 2ca2 e9bc e249 65bf
000003b0: a8f3 0a3d ec95 313f 20fa 9f3e f64a 8dbd
000003c0: 2f01 d7be b9c5 3ebe 97bc 44bf d4f4 8fba
000003d0: 515e 1cbf ba7b bcbf 3903 623e f6ee 5b3f
000003e0: 16e9 e53f 96e6 58bd 94ca 193f a4af b73e
000003f0: daae 6abe 3ac8 c83d 1194 633c 2e3b 043d
0.6366817 -0.05428774 0.60139924 -0.4571189 -0.5909193 0.36518607 -0.060169563 -0.006405355
1.3741986 0.14459445 0.89037913 -0.047859482 -0.25855964 0.14261939 -0.066926606 -0.41706583
-1.2770778 1.296797 -0.2771386 -0.5111065 0.2757964 0.25772884 0.05449311 -0.25609958
0.2817112 1.0360894 0.27639014 -0.6909374 0.01722828 0.08068742 -0.07571844 -0.11689836
-0.4469523 0.08172081 0.10405645 -0.3080331 0.71570665 1.006984 0.75135326 0.31529257
-0.7840788 -0.38637307 0.8805481 -0.4561643 -0.3701169 -0.9898154 0.45684108 -0.268556
-0.3103884 -0.45523638 0.36501753 -0.6596302 -1.6900991 0.5268003 -0.032572825 -0.1149611
-0.90402013 0.7661127 0.3451549 1.0669662 -0.29226106 0.12427289 0.015849994 0.10216912
-0.03113829 -0.13456692 -0.3865437 -0.611779 0.8959523 0.79466486 0.15336663 0.33890358
-1.2037778 -0.030265998 1.497923 0.9420154 0.2344671 0.44953847 0.18718235 -0.4848008
0.6460702 0.4008943 -0.42957145 0.7520248 -0.25932306 -0.31616288 0.116904445 -0.2761046
-1.4981613 -0.38128543 -1.2402072 0.20864388 -0.30209816 -0.035099138 0.64391947 0.43794343
-0.53548396 0.7988363 0.1791283 0.59909457 0.33009577 0.6920565 0.22559644 0.41416118
-0.29886895 -0.15251814 -0.6457835 0.046692785 0.8825356 0.55147994 0.5929303 -0.18632373
-0.3425355 0.019440588 0.47657454 -0.6605675 0.43218845 1.1484915 0.39010197 0.04893716
-0.9768967 0.19073386 -0.275734 0.40471822 -0.6389465 0.19128151 0.36884588 0.0228261
-1.0480337 -0.27225485 -0.18967222 -0.32857054 -0.5980037 0.31049302 0.192192 -0.50944966
0.27988333 -0.028917024 -0.010279468 0.7167659 -0.17024234 -0.11882 0.6389374 0.9150791
0.3348794 0.68915224 -0.5233687 -0.5810624 -0.5750167 1.6839756 0.30134562 -0.69963896
0.07951116 1.3296001 -0.39360744 -0.28709784 -1.3842648 -0.7537324 -0.27195045 -1.3316444
-0.35627076 -0.06745791 0.49979556 -0.30189177 0.6285087 1.5392041 0.09954183 -0.14172052
0.15149142 -0.27664903 0.21437672 1.6810553 0.46828637 1.0774711 0.5355036 0.2861236
-0.1712951 0.44038725 -0.3063609 0.0121752275 0.7796635 0.46547303 0.62935495 0.31857315
-0.6714144 -0.13976677 -0.051417544 -0.7491383 -0.19259407 0.7304286 0.17907614 -0.07902393
-0.9855435 -0.13167644 -1.418973 0.28237942 -0.27269462 0.0378398 0.5745221 -0.051958352
0.33996245 0.035205733 0.20191962 -0.6504447 0.49192357 0.7873464 0.42658123 0.088849194
-0.8994701 -1.722398 -0.783931 0.19523779 1.4563801 0.75866103 0.24389118 -0.6342105
0.28492022 0.031002777 -0.2657227 0.20459808 0.41060644 -1.1105229 -0.12285162 -0.0031418642
0.097969085 -0.121702306 0.34369355 0.06323989 1.0146215 1.701282 -0.5056332 -1.3302203
-0.54897124 -0.020978685 -0.028519712 -0.8956586 0.033923775 0.6936939 0.31245518 -0.06899063
-0.4199309 -0.18630113 -0.76850265 -0.0010982999 -0.61081415 -1.4725258 0.22071542 0.859115
1.7961757 -0.05295428 0.60074735 0.3587619 -0.22918263 0.09803815 0.013890282 0.032283

net.0.bias f4 [128]
00000000: dac6 a63e 412a babd 891f e13d 0d93 633e
00000010: 1620 903e a8ff c7bc a2e7 1c3d 2b77 633e
00000020: 3b4e febe a28b b1bd d3a3 383f b0de 6f3d
00000030: 952b 8fbe f7b5 883e fa4a da3e 90a6 69be
00000040: a66a b4be 208d 963e a031 103f ddc2 4cbd
00000050: c075 013f 5654 ec3e e56d 4d3f 7f98 443f
00000060: 10eb e23e 920f e73e 4621 07bf c90c 6bbe
00000070: 5aa9 3c3e 3e8b 2d3f 549e c23e a49f e93c
00000080: f9f8 07bf b2a4 edbe 3243 153f c0ed ddbe
00000090: beac cc3d b318 0bbe 5504 ba3e a41c a23e
000000a0: a224 bdbe ecc3 ccbe ce60 3f3e e0d6 f3be
000000b0: 18d1 283f ad4e 12b9 5b8b 163f 85bb 1f3f
000000c0: afbf 8c3e e555 df3e 5cae 6f3e 84a7 2c3e
000000d0: 672a 843f 1820 983d f191 3e3c f26b 35bf
000000e0: 3d1e 533f febe a63e d65d 2e3f ca42 f5be
000000f0: a7fd 493f eab1 293e 6d1b 273f dc24 6c3f
00000100: 68d1 883e cb7e cc3d 2dd8 c4bd 8e89 cb3e
00000110: a789 5fbf 89a4 b9be 9f84 1abf 78ac ef3e
00000120: 2a63 5b3f 8e2b 96be bea9 613e 5f69 643e
00000130: a49c 91be fae7 433d e6ba ad3e e34a 2f3e
00000140: 5522 173f 973a f2be eae2 0ebf b72a 953e
00000150: 51d3 ae3e 6b6c 153d 3204 233f 38eb 913e
00000160: dac9 653e 67c4 2ebf d501 ba3e 9126 5fbf
00000170: 6bee f93e 4ea6 003f 8ec3 943e 0131 5f3e
00000180: 4df5 71be 4e81 6b3f 7514 13bf 90a3 17be
00000190: 722f 113f ee4f 383e 7ad5 7abe 439a debc
000001a0: 78a0 333f f1ad fb3e 83c0 a0bf 91e4 103f
000001b0: 49b6 5bbf 0d35 a6be 5f18 9e3f d7ea fdbe
000001c0: b8bb 073e cf00 b43e bcbf 0b3f 64e4 d73e
000001d0: 4c7d d1be 3a8f 9bbe 5b5b 583f ca14 4b3f
000001e0: 5ce1 743f e09d ed3e 8000 32bf c2a7 6e3f
000001f0: 492e 1c3e 2240 59be 1f0b d73c aeb9 77be
0.32573587 -0.090900905 0.10992343 0.22224064 0.2814948 -0.024413899 0.03830684 0.22213428
-0.4966906 -0.08669211 0.72124976 0.05856198 -0.27962938 0.26701328 0.42635328 -0.22817445
-0.35237616 0.29404545 0.5632572 -0.049990524 0.505703 0.46158093 0.8024581 0.7679519
0.44319963 0.45129067 -0.52785146 -0.22954096 0.18423977 0.6779059 0.3801142 0.028518505
-0.5311428 -0.46414715 0.58305657 -0.4334545 0.099938855 -0.13583641 0.3633143 0.31662476
-0.3694201 -0.39993227 0.18689272 -0.47624874 0.6594405 -0.00013952954 0.5880639 0.6239551
0.27489993 0.4362022 0.23406357 0.16860777 1.032544 0.074279964 0.011631475 -0.70867836
0.82468015 0.3256759 0.6811193 -0.4790252 0.7890267 0.16571775 0.65276223 0.9224374
0.26722264 0.09985121 -0.09611545 0.39753383 -0.87319416 -0.36258343 -0.60358614 0.4681127
0.8569819 -0.29330105 0.22037408 0.22305821 -0.2843982 0.047828652 0.33931655 0.17118411
0.5903676 -0.47310326 -0.55814993 0.2913415 0.34145597 0.03648035 0.63678277 0.2849977
0.22440282 -0.68268436 0.36329523 -0.8716822 0.4881471 0.5025376 0.29055446 0.21796037
-0.23628731 0.9199418 -0.5745309 -0.14808488 0.5671302 0.17999241 -0.24495497 -0.027173167
0.7016673 0.49156144 -1.255875 0.56598765 -0.8582502 -0.3246235 1.2351187 -0.4959323
0.13255203 0.35156867 0.5458944 0.42166436 -0.40915906 -0.3038271 0.845144 0.79328597
0.9565637 0.46409512 -0.6953201 0.9322473 0.15252031 -0.21215871 0.02625042 -0.24191925

net.2.weight f4 [128, 128]
00000000: 5ddd 603d ad5e 71bd 2359 85bd ff6a 9ebd
00000010: 3f10 a9bd da7d 5dbd 0d0b 92bd 7a97 563c
00000020: a8d2 b83c 40e6 b13b 30da eb3c f2a7 533c
00000030: d73f 3e3d f19e 453d c7f9 b7bd 5165 863d
00000040: 6288 293d 07c9 453d 267b bfbc 803c 993d
00000050: 5c84 c73c b179 3f3d 0af2 8b3a 3d13 1dbd
00000060: 79b2 8fbd 28e2 b13c 2e01 9dbd f62f 9ebd
00000070: 89bc 8d3d 31d1 9fbc 0fbe 06bc 9d1b 8d3d
00000080: 8c7c d43b 0ed8 2bbd 3cd4 2d3c f935 983d
00000090: ae45 1ebd 68f6 3ebd 48c3 febc 73b9 8c3c
000000a0: 524e 88bd 07eb 6fbd 29c3 853d 5474 81bd
000000b0: 9ae1 9bbd 7f60 993c d490 71bd 4509 773d
000000c0: 9cb7 4ebc 8dfd 6bbd 8dbf 6d3d 54de 373d
000000d0: 43d9 c4bd b877 f0bc 1af3 813d 203e f33c
000000e0: 528a 72bd 121e 833c 5fa7 593c f2b4 b4bd
000000f0: 8036 6d3a f0f9 243c 4a83 95bd 8e1c febc
00000100: af33 e03c 6d28 77bc c485 6c3d 6cdf c43c
00000110: 9639 2e3d 7f38 c4bd 3f5f 35bd b347 1c3d
00000120: ab4e edba fd35 f33c d08e c7bc bdfc 2c3d
00000130: 1636 153d 466b e6bc 1b10 86bd bbbb 1dbc
00000140: d85b be3c 4480 aabd cae6 6ebc 455a 99bd
00000150: 702c 0a3c ca74 90bd a0e4 423d 8441 c9bb
00000160: 80f6 5cba 3979 abbd b3fe ec3c 000f 4ebd
00000170: 4495 07bc 4f9c 8cbc 29ad 2d3d 26a6 033d
00000180: 1e03 85bc 5000 953d 4a16 1dbd 0d32 993d
00000190: 2bd8 a9bd 7241 43bd 8693 1a3d b58d 973d
000001a0: 189d 4d3d d407 04bc e9ca 8ebd 9c3d 4ebd
000001b0: 0b37 643d e3cc 5b3d fc16 02bd 5026 b8bd
000001c0: c321 1bbd 4583 5cbd 00c1 493d 679e 6b3d
000001d0: 1999 80bd 09b2 173d 58d9 66bd 6471 843c
000001e0: 2f88 bbbc 6976 82bd c8bf 2e3c 9561 733d
000001f0: df5b fd3c e5b5 8e3b 7e75 30bd 9603 70bd
00000200: 613c 02c0 3339 01c0 4423 f4be 456e 9bbe
00000210: f7e7 5d3e da4c 4dbe 1ea2 3a3f 73c7 94bf
00000220: c8ca ee3e b3b1 493d 6f30 c8bf 0628 0bbf
00000230: 964f 0fbf 63cc 2b3d 5d0a 803e ba88 93bc
00000240: 018c 473e 107c 35bf 965f 99bd bf15 94bf
00000250: 9a9d a43e 4ef8 0ebe fe66 07be 727a 4f3e
00000260: 5141 25bf 0431 9b3d e373 423f d344 bdbd
00000270: c69c 1abd 2df8 cf3b 594e aebf 5f3d 03c0
00000280: 8128 9e3e dfef 343f 48f7 45bf f335 fc3e
00000290: b8f6 10c0 33b4 10c0 d9ab aebe c184 69be
000002a0: 08da ccbe ac87 643e 7019 29be a145 173f
000002b0: f27e f4be d735 f93d 3bf7 86bd 0b1e f33c
000002c0: 0eb7 b33d b042 433d e7b6 b2bf 1e90 01c0
000002d0: 4418 37c0 5937 cd3e 0446 08be 92a5 dabf
000002e0: 3d96 84bc 615e 41bf e140 28be c6da fd3d
000002f0: cb95 23bf 5b48 393e 00b4 c1bf f523 febf
00000300: 85c5 dbbb 4d31 18c0 bcd6 e2bf 85f3 0cbf
00000310: b106 90bf 8f96 36bf 5278 bebf 7eaa fcbe
00000320: 9e17 81bf ae8c 04c0 7827 8bbe 606e a13e
00000330: e8b4 be3d 1c8b 2ebf 0a0a a7bf 1cbf 0e3f
00000340: feaf f3bc 8b67 783f 20e0 163f e4e6 2ec0
00000350: 7b65 90bc 3761 d4bd b072 2d3b 91ae 15bf
00000360: f5b5 f23e 1b86 753e 8aa5 65bf 2738 c83d
00000370: 48b2 6fbf b7a3 52be 9bb7 9abe 0276 53bf
00000380: 4e4a 12c0 23db c9be e185 013f 4951 b63e
00000390: 26ad 02be 9567 86be d130 623e 9f2c 56be
000003a0: 613b ee3d ebfe 61be 6d14 bfbf c964 ba3d
000003b0: 62d1 4ebe 4c1e dfbf b664 debf 02e7 a73e
000003c0: e602 95bd a0f6 173f 223a 8c3e 665a 16bf
000003d0: 0ae7 603e b593 3d3f 30b7 d0bf b185 103f
000003e0: 53ce 72be b60b 7cbe 5149 5c3d 5ae7 0fbf
000003f0: d2ef 1cbe 2899 d73d af3f c33e e113 b13e
0.05489861 -0.05892818 -0.06511142 -0.07735252 -0.08255052 -0.0540751 -0.07131014 0.013097638
0.022561386 0.0054290593 0.028790563 0.012918459 0.0464476 0.04824728 -0.08983188 0.06562293
0.04138983 0.048287418 -0.023374151 0.074822426 0.024355106 0.046746913 0.0010676992 -0.038348425
-0.07016463 0.021714285 -0.07666241 -0.077239916 0.06920726 -0.01950893 -0.008224024 0.068900324
0.0064845737 -0.041954093 0.010609683 0.074321695 -0.03864067 -0.04662171 -0.031098977 0.017178273
-0.066555634 -0.05857375 0.065313645 -0.06321016 -0.076113895 0.01872277 -0.05897601 0.060311574
-0.012617018 -0.05761485 0.058044005 0.044889763 -0.09611752 -0.029353961 0.06345196 0.02969271
-0.059213944 0.01600555 0.013284533 -0.08823575 0.00090489537 0.010069355 -0.07300432 -0.031019475
0.027368395 -0.015085322 0.057744756 0.024032317 0.042535387 -0.09581088 -0.044280287 0.038154315
-0.001810511 0.02968883 -0.02436009 0.042233218 0.036428533 -0.028127324 -0.065460406 -0.009627278
0.023237154 -0.08325246 -0.014581392 -0.07487921 0.008433446 -0.07053526 0.047581315 -0.0061418433
-0.00084290653 -0.08372731 0.028930044 -0.050307274 -0.008275334 -0.017164377 0.042401467 0.032140873
-0.016236838 0.0727545 -0.038351335 0.074802496 -0.08293184 -0.047669835 0.037738346 0.07400075
0.050198644 -0.008058507 -0.06972296 -0.050351724 0.055716556 0.053662192 -0.0317602 -0.089916825
-0.037873995 -0.053836126 0.049256325 0.05752411 -0.06279201 0.037035022 -0.05635962 0.01616735
-0.022892086 -0.06370241 0.010665841 0.059419233 0.030927597 0.0043551796 -0.0430808 -0.05859717
-2.0349352 -2.0191162 -0.47683156 -0.30357566 0.21670519 -0.20048848 0.7290362 -1.1623367
0.46639085 0.049241733 -1.5639781 -0.54357946 -0.55980814 0.041942965 0.25007907 -0.018009532
0.19487001 -0.7089243 -0.07488935 -1.1569136 0.3215149 -0.13961908 -0.13222882 0.20261553
-0.6455279 0.07577708 0.7595808 -0.09241643 -0.037747167 0.0063467235 -1.361766 -2.0506208
0.30890277 0.70678514 -0.77330446 0.4925991 -2.2650585 -2.2609985 -0.34115484 -0.22804548
-0.40010095 0.2231738 -0.1651361 0.5909062 -0.47753102 0.12168472 -0.06590124 0.029677412
0.08775149 0.04767102 -1.3962067 -2.0244212 -2.860856 0.4008129 -0.13307959 -1.7081778
-0.01618492 -0.75534636 -0.16431 0.12395243 -0.6390044 0.18094008 -1.5133057 -1.9854723
-0.006706896 -2.378009 -1.7721782 -0.5505908 -1.1252042 -0.71323484 -1.4880469 -0.49348825
-1.0085332 -2.0710864 -0.2717855 0.31529522 0.09311849 -0.68181014 -1.3049939 0.5576036
-0.029747006 0.97032994 0.5893574 -2.7328424 -0.017626515 -0.10370105 0.0026466064 -0.5846949
0.47404447 0.23976938 -0.8970572 0.09776335 -0.9363141 -0.20570265 -0.30218205 -0.8260194
-2.2857852 -0.39425 0.5059491 0.3560889 -0.12761363 -0.26250902 0.22088934 -0.20915459
0.116324194 -0.220699 -1.4928108 0.091012545 -0.2019706 -1.7431121 -1.7374485 0.32793432
-0.072759435 0.59360695 0.27388102 -0.5873169 0.21963134 0.7405351 -1.6305904 0.56453997
-0.23711519 -0.24613842 0.053780857 -0.5621239 -0.15325859 0.10527259 0.38134524 0.3458548

net.2.bias f4 [128]
00000000: de44 b4bd 3018 94bf a040 8dbc adb1 88bd
00000010: fd7f ae3d fd6b fe3c fbb1 503f c5cc d13c
00000020: 2815 c0be cc08 cabc 3fc5 733d 5a5c 903d
00000030: 6cd4 05bc 2ef9 f2bb 8ad1 5ebd 56c4 9c3d
00000040: 8bdb 443b 7fb7 6abc b488 0b3c 97fd 86bd
00000050: 830c 29be 86a0 b1bc aa47 683f c327 243e
00000060: 8417 2fbd 1092 bebd 848f 3c3d ab90 b7bd
00000070: fdcc 62be a323 d0bd abff 363f f512 443d
00000080: 9b98 d1bc 8fdc 95be 19ee 5dbd d420 0b3e
00000090: 0f3b 82be 9f0a 9f3b a43c 163d 7746 e5bd
000000a0: e2c5 3b3d fc1f 5d3d 9373 debd 663e e839
000000b0: f145 163a baac b93e 6c0f 6a3c d577 043d
000000c0: a38e aabb 0f9b 493f 556c 6dbe fd42 50bd
000000d0: 214e fc3c 7f2e 1f3f ea3d e73b 17ef 4e3d
000000e0: bcaa 203f 111a 323e b422 f4bc bfad 933d
000000f0: ad6b 76be 3945 a53d 65ee ed3c 4bc7 b93d
00000100: 7b8f 203e 5fc1 123b 73f7 09bd d845 febd
00000110: 7316 4bbd 625b 813d 2e28 9dbd 3c3c 47bb
00000120: 5b0d 29bc 567f 51bd c246 a93d e073 8ebc
00000130: b7eb 1c3e 4caf 0b3d 122d 413f 6d8f 803d
00000140: be90 babc 697e 5c3c c867 98bd eab5 593e
00000150: 3909 c63d 5eaf e43c 9387 053d 9d43 423d
00000160: a687 afbd 5b30 bbbd 52ed b9bd f9e2 a43b
00000170: 97c4 2ebe 7708 b1bd d3f2 973e 0806 9c3d
00000180: 8ef7 563d c6f9 b4bd 1c1c a13d 02d5 993e
00000190: d54e f7bc fb31 813e dec1 9c3d 335c 0ebc
000001a0: 22e7 7e3c 13d1 3d3d a425 803d 83f6 433d
000001b0: c5b9 513d cf68 1b3e 0c5d 6dbd e9ef b5bc
000001c0: 815d 95bc 2962 78bd 3f9a 42ba fa09 80bd
000001d0: b4f0 e4bc 975f 973d 6e45 87bd 789d bebd
000001e0: ef8e 913c 1e84 b7bd 4f8d 843b f2c2 523e
000001f0: 3cdc 2b3d 675e 2bbd 7ea9 e83b 84f1 1e3e
-0.08802198 -1.1569881 -0.01724273 -0.06674514 0.085205056 0.031057352 0.81521577 0.025610337
-0.3751614 -0.024662398 0.05951428 0.07048865 -0.008168321 -0.0074149584 -0.05439905 0.076546356
0.0030038084 -0.014325975 0.008516479 -0.06591337 -0.16508679 -0.021682989 0.9073435 0.16030793
-0.042747036 -0.09305203 0.046035305 -0.0896314 -0.2214851 -0.10163047 0.7148387 0.04786964
-0.025585463 -0.29269835 -0.054182146 0.13586742 -0.25435683 0.004853561 0.036678925 -0.11195081
0.045843013 0.05398558 -0.10861888 0.0004429698 0.0005732468 0.36264592 0.014285903 0.032340843
-0.005204992 0.78752226 -0.23185857 -0.050845135 0.030798974 0.6218032 0.0070569413 0.050520983
0.6276052 0.17392756 -0.029801704 0.07210874 -0.24064513 0.08069844 0.02904434 0.09071215
0.15679733 0.002239309 -0.03368325 -0.124156654 -0.049581956 0.06316258 -0.07673679 -0.0030400893
-0.010318126 -0.051146828 0.08265449 -0.017389238 0.15324293 0.034102723 0.75459397 0.06277356
-0.022774097 0.013457873 -0.0744167 0.21260801 0.09669728 0.027915653 0.032599997 0.047427762
-0.08570795 -0.091400824 -0.090784684 0.00503194 -0.1706718 -0.08644193 0.29677448 0.07618338
0.05248218 -0.08836703 0.078666896 0.30045325 -0.030188957 0.25233445 0.07654165 -0.008688974
0.015558036 0.046341967 0.062571794 0.047842514 0.051202554 0.151767 -0.057950065 -0.022209125
-0.018233063 -0.060640488 -0.0007423497 -0.06251903 -0.027946807 0.07391279 -0.066050395 -0.093073785
0.017768351 -0.08960746 0.0040451656 0.20582178 0.04195808 -0.041838076 0.007100283 0.15521818

net.4.weight f4 [4, 128]
00000000: 2fb0 80bb c81c c2be 72cd 98be 9f4c 40bd
00000010: 36b1 efbe 3325 d1be 211e b23f 64bb ac3d
00000020: c5e4 0040 dbe4 a3be 25d2 bfbe c63e bdbe
00000030: d767 9fbe 9bd4 1840 1b0b f7be e2ca b5be
00000040: a8ae dabe 2c88 a73c 9129 e7be 6cb5 b4be
00000050: 477a f03f bf41 04bf 1a30 e03f 4a44 cbbf
00000060: 8910 3bbf 86b6 6c3c 5665 03bf aebe 15c0
00000070: 8beb 0440 6669 e1be 9461 b73f 9c22 82be
00000080: 9d2e c1be 6321 2ec0 5634 cebe c675 5abe
00000090: 7fa1 20bf 504c b4be b4b1 c9be cf71 04bf
000000a0: e34a d2be 88a0 a33f e20e abbf 5fb7 9a3f
000000b0: f37b 0ebf 6f2d af3f c2b4 f1be 879d 35be
000000c0: d85d ffbe c565 b13f 15a7 e53f b3fd c1be
000000d0: 6fad c2be beed 083f d705 ecbe ec53 93be
000000e0: 9cc1 d53e bf4f 11bf 12bf c2be 4a64 e9be
000000f0: 08bb 1a40 e903 b0bd 5e9a b3be 3274 d0be
00000100: d3df 22bf 7101 dcbe 38d9 e8be cb51 92bf
00000110: 97ec d1be 77dd e8be bbc5 d5be eac9 a8bd
00000120: 4ce0 2fbf fa06 b6be ba07 89be 8209 e3be
00000130: 1172 603f f38d 90be 04fa ce3f a254 b1be
00000140: aca0 abbe ca8b 07bd 43e5 c3be 1c03 5ebf
00000150: 0d10 2bbe a4a8 02bf e57f b1be 6534 e2be
00000160: f07c cabe 222f 6b3d f566 da3a 5c1c a7be
00000170: 927d 0a40 e415 3abf 2251 433e 3814 ddbe
00000180: d64d 08bf b565 97bc abd6 88be 782b 4f3e
00000190: 81b8 04c0 bc47 bf3f 42a5 b9be 90e6 26bf
000001a0: 5b79 8cbd 136f 66be 2b2d d9be f94d f4be
000001b0: 65b7 a0be faf7 303f 7787 95bf 375a b3be
000001c0: a49b f8be 0b74 80bd 7e6f d9be 36e9 293d
000001d0: 0e2a cfbe f98f cebe 4155 223d da5d 373c
000001e0: 382e debe fe12 ebbe 3f04 ddbe 6bf2 c53f
000001f0: 256e f0be 6a09 09bf 226d e3be 26c7 85bd
00000200: 6ff3 5dbd 6126 3f3f ec7c e0be 02df d63c
00000210: fe0d f3be dcbf e2be 210a 7e3f 771d 82bd
00000220: d982 0d40 a92a b9be 24a2 55be bb94 26bf
00000230: c373 ddbe 6d90 fd3f d265 d9be d9b9 f5bc
00000240: cf69 bfbd 917a 6fbd d9fe 0bbf d261 10bf
00000250: 8bbc e33f 2d1c 03bf 4418 fd3f 83fc 32bd
00000260: 9306 8bbe d844 4d3d 565b 4dbf b4bc 8dbf
00000270: 79dc 0740 48fb 94be 272b cf3f dfd7 ecbe
00000280: 3a2f 9bbe aa52 fdbf 9f37 11bf 41b3 143e
00000290: bd3b e9be ee00 d3be 5044 66be d8f0 b7bf
000002a0: 6f70 7bbe cd8c a43f a07c c3bf 7615 bc3f
000002b0: 9767 86bf 80ff 6a3f 5109 fabe e77c d0be
000002c0: 0fa3 36bf 8908 b73f 8b94 0a40 1b70 67bf
000002d0: 83c0 e1be 1268 593f b0f2 52bf 2c40 3ebf
000002e0: 8f91 c53f bee1 b2bf f970 fabe ba74 b1be
000002f0: b8fd 2540 d47a 633e 0d2d a1be aaf9 0bbf
00000300: 5294 043f 658f fabe 0355 10bf 7081 1ebf
00000310: c3b1 10bf 37df 0cbf 32b4 00bf 5c30 fb3c
00000320: 4764 27bf 17f8 39be 7c3e e2bc 7324 a9be
00000330: 959a f3ba 5893 1fbf d49d b53f c891 96be
00000340: b8be 1cbf 3e1e 8d3d 402f fdbe 7419 91bf
00000350: b700 fdbe f9c9 06bf 34c3 0ebf 2448 08bf
00000360: 117f debe 5929 ae3d 9cd9 a03c d309 7bbe
00000370: 0f6f 1640 1263 a33e 0e42 f83e c6fa 0fbf
00000380: 7fcc 71be 0f11 183d 50d1 30be 3aa4 e83e
00000390: 87d9 febf 40e1 733f 9410 c8be 3753 25bf
000003a0: 8251 8dbc 5bae 28bf 6657 4cbe d0d8 73be
000003b0: 2ffc 7cbe 1a0f 383f 5f11 06c0 e6af c1be
000003c0: 1faf 21be 9c28 a43d 8465 52be 9f82 1bbc
000003d0: b352 98be a29c 34be 2f92 0a3d c895 1c3c
000003e0: eb1d 6fbe 2c80 c6be be85 0abf c8ec c83f
000003f0: 0639 3fbe 6fce 88be c564 f0be b421 443e
-0.0039272527 -0.37912583 -0.29844242 -0.04694807 -0.4681489 -0.40848693 1.3915445 0.084341794
2.013963 -0.3201054 -0.37465015 -0.36961955 -0.3113391 2.3879764 -0.4825066 -0.3550635
-0.42711377 0.020450674 -0.451489 -0.35294664 1.8787316 -0.5166282 1.751468 -1.5880215
-0.73072106 0.014447814 -0.513265 -2.3397632 2.0768764 -0.44025725 1.4326653 -0.2541703
-0.37730876 -2.7207878 -0.40274304 -0.2133399 -0.62746423 -0.35214472 -0.3939339 -0.5173616
-0.4107276 1.2783365 -1.3363917 1.208721 -0.5565788 1.368574 -0.4720822 -0.17735873
-0.49876285 1.3859183 1.7941614 -0.3788887 -0.38022944 0.53487766 -0.46098205 -0.28774965
0.41749275 -0.5676231 -0.380364 -0.45584327 2.4176655 -0.08594496 -0.3507871 -0.4071365
-0.6362278 -0.4296985 -0.45478225 -1.1431211 -0.41000816 -0.45481464 -0.4175242 -0.08241637
-0.68701625 -0.35552198 -0.26763707 -0.4434319 0.8767405 -0.282333 1.6170049 -0.34634882
-0.3352102 -0.033092298 -0.3826085 -0.86723495 -0.16705342 -0.51038575 -0.34667888 -0.441806
-0.39548445 0.057417996 0.0016662764 -0.32638824 2.1639142 -0.7268965 0.19073918 -0.43179488
-0.5324377 -0.018481115 -0.2672628 0.20231426 -2.0737612 1.4943767 -0.36258894 -0.6519556
-0.06859084 -0.22503309 -0.42417273 -0.47715738 -0.3138992 0.6912838 -1.1681966 -0.35029766
-0.48556244 -0.062721334 -0.42467874 0.041482173 -0.40461773 -0.40344217 0.039632086 0.01119181
-0.43394637 -0.45912927 -0.43167302 1.5464605 -0.46959034 -0.5352999 -0.444192 -0.06532125
-0.054187234 0.74667937 -0.43845308 0.026229385 -0.47471613 -0.44287002 0.99234205 -0.06353276
2.2111113 -0.3616536 -0.20862633 -0.65070695 -0.43252382 1.98097 -0.42460495 -0.029995846
-0.09346353 -0.058466498 -0.5468574 -0.5639926 1.7791914 -0.5121487 1.977303 -0.043697845
-0.27153453 0.050114483 -0.8021749 -1.1073213 2.1228316 -0.29097962 1.6185044 -0.46258447
-0.30309469 -1.9790852 -0.56725496 0.14521505 -0.4555339 -0.41211647 -0.22486997 -1.4370375
-0.24554609 1.2855469 -1.5272408 1.4694049 -1.0500363 0.9179611 -0.48835233 -0.40720293
-0.7134256 1.429948 2.1653163 -0.90405434 -0.44092187 0.84924424 -0.8240156 -0.7431667
1.5435046 -1.3975141 -0.48914316 -0.34659368 2.5936108 0.22214824 -0.31479684 -0.5467783
0.5178882 -0.48937526 -0.5637972 -0.61916256 -0.5652124 -0.550281 -0.50274956 0.030662708
-0.65387386 -0.18161045 -0.027617685 -0.3303562 -0.0018585498 -0.62334204 1.418879 -0.29408097
-0.61228514 0.06890534 -0.4945011 -1.1335893 -0.49414608 -0.52651936 -0.55766606 -0.5323508
-0.4345632 0.0850398 0.019635014 -0.24515466 2.3505285 0.31911522 0.48487896 -0.56242025
-0.23613165 0.037125643 -0.17267346 0.45437795 -1.9910134 0.9526558 -0.39075148 -0.645801
-0.01725078 -0.65891045 -0.19955215 -0.23813176 -0.24705575 0.71898043 -2.0948102 -0.37829512
-0.1578946 0.08015558 -0.20546538 -0.009491592 -0.29750594 -0.17637876 0.033830818 0.009557195
-0.23351257 -0.38769662 -0.54110324 1.569726 -0.18674096 -0.26719996 -0.4695188 0.19153482

net.4.bias f4 [4]
00000000: 79d5 9bbd 8dfd b13e 4e36 25bc 8a59 67bc
-0.07609076 0.34763756 -0.010083748 -0.014120469
