SARSA/dsqn/850_model_weights.pth (torch, 75917 bytes, 6 tensors)

net.0.weight f4 [128, 8]
00000000: 6c18 3b3f c255 e3bd 7770 0a3f 4e8a f6be
00000010: 0c87 16bf 9509 ac3e 6bb6 eabd 0215 15bd
00000020: c788 bd3f 825f ca3d 986e 483f 823e f43c
00000030: 8700 89be 9eec 313e 1de5 1abd 899e b8be
00000040: 6a99 a5bf 303e a43f 1fca 8dbe cafb 08bf
00000050: 542e 883e 8d10 983e bf66 723d 916b 9abe
00000060: dd11 9c3e 275d 883f 75a9 993e 1110 2dbf
00000070: 865a acbc 5601 a63d 92ee b9bd 10b5 bebd
00000080: b611 edbe 0fed ba3d 5ba1 563d 8353 a5be
00000090: b955 323f d51e 813f bd85 3e3f 9002 a63e
000000a0: 1f5d 54bf fb03 e3be 31a8 713f d290 f3be
000000b0: 16ff cdbe 39f7 7dbf b620 e13e 4c41 7ebe
000000c0: 80c4 bdbe 6ad9 cebe 15d4 463e ff75 17bf
000000d0: f920 e8bf 6d42 e63e 8c91 36bd c187 1ebe
000000e0: d7d3 76bf 6a6f 3b3f 4dbf b43e 63a9 8c3f
000000f0: 0540 89be ee1e 073e ccc3 e83c f334 f23d
00000100: 3fea 6dbb 95b6 0cbe 4ba1 cbbe d7ca 1dbf
00000110: 1592 6c3f 2efe 4b3f e7a9 233e 60e1 af3e
00000120: 445a 9fbf 48ee 46be efba b33f e857 573f
00000130: 4ff8 fe3d 6261 fa3e f76b 6e3e 93c0 00bf
00000140: c6c7 343f 2af9 d93e 38e7 e3be f914 543f
00000150: f312 61be cb28 a4be f561 903d eae7 aebe
00000160: f1bd c0bf cecc b1be e96c 9ebf c0ec 8f3e
00000170: 3a7c 8dbe 9694 f7bd 7fe8 1e3f ac06 e13e
00000180: f912 1fbf ba88 403f cb7e 293e 473c 243f
00000190: 8abb 723e 2847 393f 9328 703e 3859 d83e
000001a0: 5c94 b3be 8074 00be 231c 27bf 4b8f b73c
000001b0: 2cbc 5c3f df1b 0c3f 2b22 1a3f 36e5 45be
000001c0: d26c c6be c3f4 153d 0ea3 e03e 39f2 2cbf
000001d0: 9af0 d83e 3558 943f 6470 c23e 7fa1 4b3d
000001e0: c29d 74bf ecaa 353e a111 a7be d4aa dd3e
000001f0: 4c71 2dbf df47 1d3e 4b5c c23e 7cf9 c13c
00000200: 6f73 84bf d426 9abe e421 91be 7207 b2be
00000210: 51c7 12bf b692 993e 6280 503e 15f5 0dbf
00000220: 7dbf 913e 23a6 a03d 701d 3c3b b694 143f
00000230: 086f f4bd 9b33 bcbd ca39 1c3f f3e7 613f
00000240: df1d 933e 50ec 2b3f 7bee 15bf fe4d 04bf
00000250: 613b 00bf 0d48 da3f 6702 903e a1f3 33bf
00000260: 21c9 203e ea3b ac3f 57f5 dbbe fbee 3bbe
00000270: eb06 b2bf 3485 45bf af80 52be 9796 99bf
00000280: 0bbc d0be 483c 78bd 8322 ec3e 9bd4 b5be
00000290: 8128 0c3f 3029 c23f cf79 f53d 5cfb 08be
000002a0: 947d 4a3e 5649 8fbe dbde 2a3e 7883 d63f
000002b0: 94e7 053f 99ca 8b3f b620 073f cf4b 8a3e
000002c0: c5a7 73be 9138 df3e 2139 9dbe b476 733c
000002d0: bfc3 573f 6caf 033f d397 153f 8fc1 a83e
000002e0: cdbe 25bf 378a 00be ff51 c2bd fde6 41bf
000002f0: 0ee9 39be 3fd8 3b3f c17e 3a3e b082 b7bd
00000300: 218f 80bf 2a48 33ba 4ec7 bcbf a87f 6f3e
00000310: 00bb 66be 7269 f2bc df3f 043f 8335 8ebd
00000320: 1d80 a63e 77b2 133d ab2b 4e3e b563 26bf
00000330: fb3b fc3e 476a 4d3f b92a dc3e edcb bf3d
00000340: c0e8 5cbf 83a3 f1bf fdf4 55bf cb82 6a3e
00000350: 68c6 c63f 216c 3b3f 491e 893e f843 25bf
00000360: e78a 9c3e ef75 c73d eef2 6dbe 38be 7b3e
00000370: 913d f33e 4d0b 8abf 6ae4 eabd 98b0 3c3d
00000380: aa14 163e bd1f 05be 2ae1 a73e ada3 173d
00000390: 570b 8a3f 8632 db3f 0461 0ebf e13c bfbf
000003a0: afc5 08bf 883c 6a38 c90d adbd 9eef 68bf
000003b0: e084 443d dda4 313f a3ce a43e be90 a5bd
000003c0: 7493 d4be 7790 59be a0c7 3cbf 2e3a a8bd
000003d0: 5313 23bf e809 bbbf 5cb5 493e f6f6 593f
000003e0: cb57 ec3f 7a17 b2bd 9a24 0f3f 2d2c a53e
000003f0: 3260 53be dba3 8b3d 66e8 393c 0a97 ab3c
0.7308414 -0.111003414 0.5407786 -0.48152393 -0.58799815 0.3360106 -0.11460575 -0.036396988
1.4807366 0.09881498 0.7829375 0.029814962 -0.26758215 0.17375419 -0.037816156 -0.36058453
-1.2937443 1.2831478 -0.2769327 -0.535092 0.26597846 0.29700127 0.059180018 -0.30160192
0.3048238 1.0653428 0.30012098 -0.6760264 -0.021039259 0.081057236 -0.09078707 -0.09311879
-0.46302575 0.091272466 0.052399974 -0.32290277 0.6966205 1.0087534 0.7442282 0.3242383
-0.8295459 -0.44338974 0.94397265 -0.47571427 -0.40233678 -0.99205357 0.4397027 -0.24829596
-0.3706398 -0.4040025 0.1941684 -0.5916442 -1.8135062 0.44972554 -0.044572398 -0.15481474
-0.9641699 0.7321688 0.353022 1.0989193 -0.26806656 0.13195392 0.028413676 0.118265055
-0.0036302952 -0.13741525 -0.39771494 -0.61637634 0.92410403 0.7968472 0.15982781 0.34351635
-1.2449422 -0.19426835 1.4041423 0.8411851 0.12449705 0.48902422 0.23283373 -0.50293845
0.7061733 0.4257291 -0.44512343 0.828445 -0.21979885 -0.32062373 0.07049934 -0.3416131
-1.5057966 -0.34726566 -1.2376987 0.28110313 -0.2763384 -0.120888874 0.6207351 0.43950403
-0.62138325 0.7520863 0.16552274 0.64154476 0.23704353 0.723742 0.23452978 0.42255569
-0.35074127 -0.12544441 -0.6527731 0.022407195 0.8622463 0.5473003 0.60208386 -0.19325718
-0.38754898 0.036610376 0.438744 -0.675571 0.42371064 1.1589419 0.37976372 0.04971456
-0.9555322 0.17740983 -0.32630637 0.43294394 -0.67751 0.15359448 0.3796104 0.023678534
-1.0347728 -0.30107749 -0.2834617 -0.34771305 -0.5733538 0.29994744 0.20361474 -0.5545209
0.28466406 0.07844188 0.002870407 0.58039415 -0.1193524 -0.091895305 0.6102568 0.8824455
0.28733727 0.6715746 -0.5856702 -0.51681507 -0.50090605 1.7053238 0.28126833 -0.70293623
0.15701725 1.3455784 -0.42960617 -0.18352883 -1.3908361 -0.77156377 -0.20556901 -1.1999081
-0.40768465 -0.060604364 0.4612008 -0.35513768 0.54749304 1.516882 0.11986124 -0.13377136
0.19774467 -0.27985638 0.16686575 1.6758871 0.52306485 1.0921203 0.5278429 0.27010962
-0.23794468 0.43597844 -0.30707648 0.014859844 0.8428306 0.5143955 0.5843479 0.32960173
-0.64744264 -0.12552725 -0.09488296 -0.75743085 -0.1815531 0.7337684 0.18212415 -0.089604735
-1.004368 -0.00068390614 -1.4748323 0.2338854 -0.22532272 -0.029591296 0.5165996 -0.069438
0.32519618 0.03605887 0.20133846 -0.6499589 0.4926451 0.8024029 0.43001345 0.09365068
-0.8629265 -1.8878025 -0.8357695 0.22901456 1.5529299 0.73211867 0.26780918 -0.6455684
0.30574724 0.09739291 -0.23237202 0.24584281 0.4750791 -1.0784699 -0.11469348 0.04606685
0.1465632 -0.13000388 0.32788974 0.037021328 1.0784711 1.7124794 -0.55616784 -1.4940454
-0.5342664 5.584632e-05 -0.08449895 -0.90990627 0.047978282 0.69392186 0.321889 -0.08084248
-0.41518748 -0.21246515 -0.73742104 -0.08214222 -0.6370136 -1.4612398 0.1969809 0.8514246
1.8464292 -0.08695884 0.55915225 0.32260266 -0.20642164 0.06818362 0.011346912 0.020946044

net.0.bias f4 [128]
00000000: e144 cd3e 9a8d e8bd 12ee d33d 505d 483e
00000010: c9fa 923e 13ad 54bc c7ad 253c dc86 5b3e
00000020: cce9 01bf 35c6 b6bd 20c1 313f f220 523c
00000030: 78d8 8bbe 2aa7 823e 1b83 d73e 33ef 64be
00000040: a3c5 bebe 376f ab3e 643e 0f3f aeab 68be
00000050: ce31 033f c422 fd3e 6cb5 463f 4b7d 453f
00000060: 3766 dd3e db56 de3e 105a f7be 66c5 7ebe
00000070: 3818 493e 805c 2d3f 2133 cc3e 8024 4a3b
00000080: 4f17 09bf 21f4 e9be d94d 183f 4619 e7be
00000090: 18f5 803d 0162 dfbd 2c19 a73e f33e 9f3e
000000a0: 75e7 bcbe d6f0 ccbe b6ec 2d3e 9e26 f4be
000000b0: d8bc 273f 6bed b53c b2ac 153f 02bf 2b3f
000000c0: 57a6 663e c0c0 e23e dc73 7e3e 2096 243e
000000d0: 9660 8a3f 56d9 c53d bc12 99bc f26b 35bf
000000e0: 8fca 523f 6282 b23e 4190 2e3f d1da fdbe
000000f0: 642f 4d3f 818d 6f3e 28b2 293f 3818 6e3f
00000100: a7c0 893e 29e7 d13d 78e1 34be ccfa b93e
00000110: a789 5fbf 9888 a6be 44a9 12bf 571e e33e
00000120: 73a9 5c3f d67e 88be c456 743e c275 6f3e
00000130: b399 90be f5bc 193c 2b5b db3e b02e 353e
00000140: 37e9 173f 3edc f3be 321c 09bf 3ab6 903e
00000150: 7f5f b03e 714a 833d e2a0 203f 1172 863e
00000160: e631 403e 5348 38bf 6fd2 ac3e a1b2 63bf
00000170: ad15 ee3e ea59 fa3e dbae 9c3e 0476 633e
00000180: 62b0 6abe d72c 6d3f c6e2 0dbf f49f 37be
00000190: 7e2c 103f 08e8 343e 2537 78be 94ac 38bd
000001a0: e112 353f d52d f93e 0c67 a1bf d3f0 133f
000001b0: 953f 5cbf 9b18 aebe 6a01 a13f f9ed 0abf
000001c0: e39e 0e3e 6d5c b03e f9fb 0c3f 79dd d43e
000001d0: d740 dabe cb33 a9be efc0 5d3f 3905 4f3f
000001e0: 35d9 733f 96b8 dc3e cec4 39bf b91b 713f
000001f0: 6483 1b3e 1d25 5fbe 34fe 293d 59c7 64be
0.40091613 -0.11355133 0.10348143 0.19566846 0.2870696 -0.012980717 0.0101122325 0.21438164
-0.5074737 -0.08924524 0.6943531 0.012825238 -0.2731359 0.2551816 0.42092213 -0.22356872
-0.3726016 0.33483288 0.55954576 -0.2272174 0.5124787 0.49440587 0.7762058 0.77144307
0.43242046 0.4342564 -0.483109 -0.24879989 0.19638145 0.6771927 0.39882758 0.003084451
-0.5355119 -0.45694068 0.59493786 -0.4513647 0.06296748 -0.10907365 0.32636392 0.31102714
-0.36895338 -0.40027493 0.1698483 -0.47685713 0.6552253 0.022207936 0.5846664 0.6708833
0.22524391 0.44287682 0.24848884 0.16072893 1.0810726 0.09660594 -0.018685691 -0.70867836
0.8234033 0.348651 0.68188864 -0.49581006 0.8015044 0.23393823 0.6628747 0.93005705
0.26904795 0.102491684 -0.17664135 0.36324155 -0.87319416 -0.32526088 -0.5728953 0.44359085
0.8619606 -0.26659268 0.23861223 0.23384765 -0.28242263 0.00938343 0.42842993 0.17693591
0.5934023 -0.4762897 -0.5355865 0.28264028 0.34447858 0.06410683 0.6274549 0.262589
0.18769035 -0.7198536 0.33754298 -0.8894444 0.46500912 0.48896724 0.30602154 0.22212988
-0.22918847 0.92646545 -0.55424154 -0.17932111 0.5631789 0.17666638 -0.24239786 -0.04508646
0.7073193 0.4866778 -1.2609572 0.57789344 -0.8603452 -0.34003147 1.2578557 -0.5426937
0.13927798 0.34445515 0.5507198 0.4157522 -0.42627594 -0.33047327 0.8662252 0.80867344
0.95253307 0.43109578 -0.72565925 0.94182926 0.1518684 -0.21791501 0.041502193 -0.2234167

net.2.weight f4 [128, 128]
00000000: 5ddd 603d ad5e 71bd 2359 85bd ff6a 9ebd
00000010: 3f10 a9bd da7d 5dbd 0d0b 92bd 7a97 563c
00000020: a8d2 b83c 40e6 b13b 30da eb3c f2a7 533c
00000030: d73f 3e3d f19e 453d c7f9 b7bd 5165 863d
00000040: 6288 293d 07c9 453d 267b bfbc 803c 993d
00000050: 5c84 c73c b179 3f3d 0af2 8b3a 3d13 1dbd
00000060: 79b2 8fbd 28e2 b13c 2e01 9dbd f62f 9ebd
00000070: 89bc 8d3d 31d1 9fbc 0fbe 06bc 9d1b 8d3d
00000080: 8c7c d43b 0ed8 2bbd 3cd4 2d3c f935 983d
00000090: ae45 1ebd 68f6 3ebd 48c3 febc 73b9 8c3c
000000a0: 524e 88bd 07eb 6fbd 29c3 853d 5474 81bd
000000b0: 9ae1 9bbd 7f60 993c d490 71bd 4509 773d
000000c0: 9cb7 4ebc 8dfd 6bbd 8dbf 6d3d 54de 373d
000000d0: 43d9 c4bd b877 f0bc 1af3 813d 203e f33c
000000e0: 528a 72bd 121e 833c 5fa7 593c f2b4 b4bd
000000f0: 8036 6d3a f0f9 243c 4a83 95bd 8e1c febc
00000100: af33 e03c 6d28 77bc c485 6c3d 6cdf c43c
00000110: 9639 2e3d 7f38 c4bd 3f5f 35bd b347 1c3d
00000120: ab4e edba fd35 f33c d08e c7bc bdfc 2c3d
00000130: 1636 153d 466b e6bc 1b10 86bd bbbb 1dbc
00000140: d85b be3c 4480 aabd cae6 6ebc 455a 99bd
00000150: 702c 0a3c ca74 90bd a0e4 423d 8441 c9bb
00000160: 80f6 5cba 3979 abbd b3fe ec3c 000f 4ebd
00000170: 4495 07bc 4f9c 8cbc 29ad 2d3d 26a6 033d
00000180: 1e03 85bc 5000 953d 4a16 1dbd 0d32 993d
00000190: 2bd8 a9bd 7241 43bd 8693 1a3d b58d 973d
000001a0: 189d 4d3d d407 04bc e9ca 8ebd 9c3d 4ebd
000001b0: 0b37 643d e3cc 5b3d fc16 02bd 5026 b8bd
000001c0: c321 1bbd 4583 5cbd 00c1 493d 679e 6b3d
000001d0: 1999 80bd 09b2 173d 58d9 66bd 6471 843c
000001e0: 2f88 bbbc 6976 82bd c8bf 2e3c 9561 733d
000001f0: df5b fd3c e5b5 8e3b 7e75 30bd 9603 70bd
00000200: 613c 02c0 3339 01c0 4423 f4be 456e 9bbe
00000210: f7e7 5d3e da4c 4dbe 1ea2 3a3f 73c7 94bf
00000220: c8ca ee3e b3b1 493d 6f30 c8bf 0628 0bbf
00000230: 964f 0fbf 63cc 2b3d 5d0a 803e ba88 93bc
00000240: 018c 473e 107c 35bf 965f 99bd bf15 94bf
00000250: 9a9d a43e 4ef8 0ebe fe66 07be 727a 4f3e
00000260: 5141 25bf 0431 9b3d e373 423f d344 bdbd
00000270: c69c 1abd 2df8 cf3b 594e aebf 5f3d 03c0
00000280: 8128 9e3e dfef 343f 48f7 45bf f335 fc3e
00000290: b8f6 10c0 33b4 10c0 d9ab aebe c184 69be
000002a0: 08da ccbe ac87 643e 7019 29be a145 173f
000002b0: f27e f4be d735 f93d 3bf7 86bd 0b1e f33c
000002c0: 0eb7 b33d b042 433d e7b6 b2bf 1e90 01c0
000002d0: 4418 37c0 5937 cd3e 0446 08be 92a5 dabf
000002e0: 3d96 84bc 615e 41bf e140 28be c6da fd3d
000002f0: cb95 23bf 5b48 393e 00b4 c1bf f523 febf
00000300: 85c5 dbbb 4d31 18c0 bcd6 e2bf 85f3 0cbf
00000310: b106 90bf 8f96 36bf 5278 bebf 7eaa fcbe
00000320: 9e17 81bf ae8c 04c0 7827 8bbe 606e a13e
00000330: e8b4 be3d 1c8b 2ebf 0a0a a7bf 1cbf 0e3f
00000340: feaf f3bc 8b67 783f 20e0 163f e4e6 2ec0
00000350: 7b65 90bc 3761 d4bd b072 2d3b 91ae 15bf
00000360: f5b5 f23e 1b86 753e 8aa5 65bf 2738 c83d
00000370: 48b2 6fbf b7a3 52be 9bb7 9abe 0276 53bf
00000380: 4e4a 12c0 23db c9be e185 013f 4951 b63e
00000390: 26ad 02be 9567 86be d130 623e 9f2c 56be
000003a0: 613b ee3d ebfe 61be 6d14 bfbf c964 ba3d
000003b0: 62d1 4ebe 4c1e dfbf b664 debf 02e7 a73e
000003c0: e602 95bd a0f6 173f 223a 8c3e 665a 16bf
000003d0: 0ae7 603e b593 3d3f 30b7 d0bf b185 103f
000003e0: 53ce 72be b60b 7cbe 5149 5c3d 5ae7 0fbf
000003f0: d2ef 1cbe 2899 d73d af3f c33e e113 b13e
0.05489861 -0.05892818 -0.06511142 -0.07735252 -0.08255052 -0.0540751 -0.07131014 0.013097638
0.022561386 0.0054290593 0.028790563 0.012918459 0.0464476 0.04824728 -0.08983188 0.06562293
0.04138983 0.048287418 -0.023374151 0.074822426 0.024355106 0.046746913 0.0010676992 -0.038348425
-0.07016463 0.021714285 -0.07666241 -0.077239916 0.06920726 -0.01950893 -0.008224024 0.068900324
0.0064845737 -0.041954093 0.010609683 0.074321695 -0.03864067 -0.04662171 -0.031098977 0.017178273
-0.066555634 -0.05857375 0.065313645 -0.06321016 -0.076113895 0.01872277 -0.05897601 0.060311574
-0.012617018 -0.05761485 0.058044005 0.044889763 -0.09611752 -0.029353961 0.06345196 0.02969271
-0.059213944 0.01600555 0.013284533 -0.08823575 0.00090489537 0.010069355 -0.07300432 -0.031019475
0.027368395 -0.015085322 0.057744756 0.024032317 0.042535387 -0.09581088 -0.044280287 0.038154315
-0.001810511 0.02968883 -0.02436009 0.042233218 0.036428533 -0.028127324 -0.065460406 -0.009627278
0.023237154 -0.08325246 -0.014581392 -0.07487921 0.008433446 -0.07053526 0.047581315 -0.0061418433
-0.00084290653 -0.08372731 0.028930044 -0.050307274 -0.008275334 -0.017164377 0.042401467 0.032140873
-0.016236838 0.0727545 -0.038351335 0.074802496 -0.08293184 -0.047669835 0.037738346 0.07400075
0.050198644 -0.008058507 -0.06972296 -0.050351724 0.055716556 0.053662192 -0.0317602 -0.089916825
-0.037873995 -0.053836126 0.049256325 0.05752411 -0.06279201 0.037035022 -0.05635962 0.01616735
-0.022892086 -0.06370241 0.010665841 0.059419233 0.030927597 0.0043551796 -0.0430808 -0.05859717
-2.0349352 -2.0191162 -0.47683156 -0.30357566 0.21670519 -0.20048848 0.7290362 -1.1623367
0.46639085 0.049241733 -1.5639781 -0.54357946 -0.55980814 0.041942965 0.25007907 -0.018009532
0.19487001 -0.7089243 -0.07488935 -1.1569136 0.3215149 -0.13961908 -0.13222882 0.20261553
-0.6455279 0.07577708 0.7595808 -0.09241643 -0.037747167 0.0063467235 -1.361766 -2.0506208
0.30890277 0.70678514 -0.77330446 0.4925991 -2.2650585 -2.2609985 -0.34115484 -0.22804548
-0.40010095 0.2231738 -0.1651361 0.5909062 -0.47753102 0.12168472 -0.06590124 0.029677412
0.08775149 0.04767102 -1.3962067 -2.0244212 -2.860856 0.4008129 -0.13307959 -1.7081778
-0.01618492 -0.75534636 -0.16431 0.12395243 -0.6390044 0.18094008 -1.5133057 -1.9854723
-0.006706896 -2.378009 -1.7721782 -0.5505908 -1.1252042 -0.71323484 -1.4880469 -0.49348825
-1.0085332 -2.0710864 -0.2717855 0.31529522 0.09311849 -0.68181014 -1.3049939 0.5576036
-0.029747006 0.97032994 0.5893574 -2.7328424 -0.017626515 -0.10370105 0.0026466064 -0.5846949
0.47404447 0.23976938 -0.8970572 0.09776335 -0.9363141 -0.20570265 -0.30218205 -0.8260194
-2.2857852 -0.39425 0.5059491 0.3560889 -0.12761363 -0.26250902 0.22088934 -0.20915459
0.116324194 -0.220699 -1.4928108 0.091012545 -0.2019706 -1.7431121 -1.7374485 0.32793432
-0.072759435 0.59360695 0.27388102 -0.5873169 0.21963134 0.7405351 -1.6305904 0.56453997
-0.23711519 -0.24613842 0.053780857 -0.5621239 -0.15325859 0.10527259 0.38134524 0.3458548

net.2.bias f4 [128]
00000000: de44 b4bd 3018 94bf a482 14bc adb1 88bd
00000010: a21a c23d e6c0 c63c eba8 523f c5cc d13c
00000020: da7f d3be 1207 e8bc 7fca 4f3d 41e4 983d
00000030: 1425 10bc 3bf9 8a3b c3ec 30bd 5fe5 7a3d
00000040: ad49 b63c 7fb7 6abc 0cb5 b03b 071c 81bd
00000050: 830c 29be 8d14 febc 6a93 693f 0da5 1f3e
00000060: 4d79 80bd 1092 bebd fbe6 423d ba17 b8bd
00000070: fdcc 62be 51a5 c5bd 8568 373f 6c91 2e3d
00000080: 27bb 76bc ff8b 95be cbd8 34bd 79f2 1d3e
00000090: 069e 85be 113d 823b 0ca6 1b3d 1157 f8bd
000000a0: c2e2 2f3d ab38 003d 233f f2bd 8c00 693a
000000b0: a913 563c bf40 e03e fea6 c43b 4b84 ff3c
000000c0: ec79 53bc 3bfa 4c3f 556c 6dbe 4ce5 0abd
000000d0: 68ec e43c ae02 223f 03dc 543b 01f0 6b3d
000000e0: 0816 163f 574f 133e df3f 52bc de36 8a3d
000000f0: ad6b 76be 2a5e 8f3d 6ba5 f63c 6d86 b93d
00000100: f9b3 313e d403 a93b ca12 0ebd a64e 06be
00000110: f2ca 28bd 8aab 833d e6c4 a5bd 3c3c 47bb
00000120: ca9c 48bb 718a 41bd 8c50 b33d ddce cfbc
00000130: f507 223e f107 193d f007 403f 1f60 723d
00000140: 1271 debb 697e 5c3c 0e73 a9bd cef0 563e
00000150: 556f cf3d eb53 c43c 75f9 143d 1f78 5e3d
00000160: 8b7b a6bd 5b30 bbbd 52ed b9bd f1e6 543b
00000170: 97c4 2ebe c1ce b6bd 96df 9f3e 69e1 873d
00000180: ccb5 2d3d c6f9 b4bd e390 973d 3807 a23e
00000190: 2314 b4bc 7868 8a3e 9751 ad3d 825a cebc
000001a0: 22e7 7e3c fdfa 4e3d 34b5 733d 22ce 2b3d
000001b0: f683 373d 1d30 213e 2897 66bd d4ce 34bc
000001c0: 0751 c4bc 2962 78bd 061d 32bc fa09 80bd
000001d0: bad1 1cbc 7922 843d 6e45 87bd 789d bebd
000001e0: cc04 bf3c 4d70 cbbd 61a2 8eba 5e6b 143e
000001f0: 75e7 0d3d 5981 23bd 78b1 9b3b cde8 1f3e
-0.08802198 -1.1569881 -0.00906435 -0.06674514 0.09477736 0.024261903 0.82289 0.025610337
-0.4130848 -0.028323684 0.050730225 0.07465411 -0.008797903 0.0042411364 -0.043194544 0.0612539
0.022251928 -0.014325975 0.005392676 -0.06304174 -0.16508679 -0.031015659 0.9124056 0.15590306
-0.06273136 -0.09305203 0.04758356 -0.089889005 -0.2214851 -0.09650672 0.7164386 0.042619154
-0.015059269 -0.2920837 -0.044152062 0.15424527 -0.26097125 0.003974565 0.03800015 -0.121259816
0.042940862 0.031304043 -0.118284486 0.0008888326 0.013066211 0.43799397 0.0060013523 0.031191012
-0.012907486 0.8006932 -0.23185857 -0.03391008 0.027944759 0.6328534 0.003247977 0.057601932
0.58627367 0.14385734 -0.012832611 0.06748746 -0.24064513 0.07000382 0.030108174 0.09058843
0.1735381 0.005157927 -0.034685887 -0.1311594 -0.04120917 0.06429203 -0.08094196 -0.0030400893
-0.0030611032 -0.04725117 0.087555975 -0.025367195 0.15823348 0.03736109 0.7501211 0.0591737
-0.0067883814 0.013457873 -0.08273898 0.20990297 0.10128657 0.023965796 0.036370713 0.054313775
-0.08129033 -0.091400824 -0.090784684 0.0032486285 -0.1706718 -0.08926154 0.3122527 0.066347905
0.042409703 -0.08836703 0.07400682 0.31646132 -0.021982258 0.27032828 0.08462828 -0.025189642
0.015558036 0.05053233 0.05949898 0.04194463 0.044803582 0.1574101 -0.056296498 -0.01103564
-0.023964418 -0.060640488 -0.010871178 -0.06251903 -0.009571487 0.06451888 -0.066050395 -0.093073785
0.023317717 -0.09933529 -0.0010882133 0.14494082 0.034644563 -0.039918277 0.0047513805 0.1561615

net.4.weight f4 [4, 128]
00000000: 2fb0 80bb c81c c2be deca 9dbe 9f4c 40bd
00000010: 30c0 f3be 58fc d3be 3fa5 b23f 64bb ac3d
00000020: 04aa 0140 5133 a8be 22f3 c0be 40fd c1be
00000030: 47ff a2be fa07 1f40 f92d fdbe 6546 b6be
00000040: 3857 e6be 2c88 a73c 7ffb e9be 6928 b6be
00000050: 477a f03f e0cb 06bf 41d1 e03f a258 d6bf
00000060: 46aa 4dbf 86b6 6c3c e1fa 02bf 6c65 0cc0
00000070: 8beb 0440 7b1f e5be b412 b83f feb4 86be
00000080: 3c52 c7be 31f1 39c0 c54b d7be 4d7f 5dbe
00000090: b4ef fdbe 6a70 b7be c57d cabe 4164 04bf
000000a0: ee48 d4be 88a0 a33f 0565 a8bf 8d0e 9a3f
000000b0: f3fa 16bf c38d ae3f 6674 f3be bb2e 38be
000000c0: 297c 02bf bed7 b13f 15a7 e53f 7410 c3be
000000d0: f60d c8be fd84 0a3f e9ad f1be 78c6 91be
000000e0: 9bd8 c33e 0a52 bbbe e618 ccbe 6eaf ecbe
000000f0: 08bb 1a40 4349 4ebd 3e4a b7be 4933 cfbe
00000100: 2813 09bf b093 e0be e3a6 edbe 2f3a 95bf
00000110: 0ed0 d7be d60b f1be 1578 d8be eac9 a8bd
00000120: 1208 3cbf d719 c0be 8999 88be 39c7 e4be
00000130: 5bc6 5f3f 810c 93be a35c cf3f eced b4be
00000140: dcee afbe ca8b 07bd 7922 c8be 3f53 62bf
00000150: 02da 2abe fa74 04bf d96f b3be 0e3b e8be
00000160: 8f5f d2be 222f 6b3d f566 da3a 8442 aabe
00000170: 927d 0a40 47dd 39bf 117f 523e e223 e3be
00000180: 4362 0abf b565 97bc 844d 8dbe c60a 5f3e
00000190: bde0 0cc0 cf32 c13f a776 bfbe c32e 41bf
000001a0: 5b79 8cbd 50be 6abe 4a30 e0be c6ee f8be
000001b0: a8fb a1be 8778 413f a765 91bf 67c5 b7be
000001c0: ff1e fcbe 0b74 80bd 330b dcbe 36e9 293d
000001d0: 019e d3be 7789 cebe 4155 223d da5d 373c
000001e0: 9736 e2be b6dd f0be 463a e0be f6dd c83f
000001f0: b7b3 f3be 2ae8 0dbf d89e e8be fd7c 65bd
00000200: 6ff3 5dbd 6126 3f3f 6768 e5be 02df d63c
00000210: 5b82 f7be 64a7 e7be f832 7f3f 771d 82bd
00000220: c7f9 0f40 5ddd bdbe 08b1 5ebe 0a98 2abf
00000230: 1fb8 e0be 9d4e 0340 d1a7 ddbe b774 3abd
00000240: fd1f fbbd 917a 6fbd 51d4 0dbf a972 13bf
00000250: 8bbc e33f 8c92 06bf 37ae fc3f 3666 8b3d
00000260: 59fb 9abe d844 4d3d 1996 50bf fcea 8abf
00000270: 79dc 0740 9870 98be 8188 d03f 54b5 f6be
00000280: 3235 98be 862f fcbf 0592 10bf 7f90 093e
00000290: f24e 03bf 39a3 d7be a8e4 7bbe 7baf bdbf
000002a0: abfe 7cbe 9097 af3f fbb7 c3bf 29ba b53f
000002b0: c5ca 8dbf b5bf 7f3f a643 febe 89f4 dcbe
000002c0: 1ad8 3abf da02 b63f 8b94 0a40 4524 6cbf
000002d0: 409e e7be 7e6f 5b3f e050 54bf 8094 42bf
000002e0: 5ea6 c73f accb 97bf a117 fcbe 1fd1 b4be
000002f0: b8fd 2540 9f55 9e3e 9b40 a9be 2148 0fbf
00000300: 7ee2 073f 4756 03bf da6d 12bf 1eb9 1dbf
00000310: d509 14bf 432f 11bf 5aa5 04bf 5c30 fb3c
00000320: 5f5a 39bf 68b6 44be 7339 5abd 8c2d aebe
00000330: 47e9 f53c 76bd 23bf bc38 b73f e3a8 9abe
00000340: b8ad 21bf 3e1e 8d3d f7e0 01bf 82ec 92bf
00000350: dfe0 04bf 611f 09bf 0e92 11bf 6856 0bbf
00000360: c010 e6be 5929 ae3d 9cd9 a03c 26d2 82be
00000370: 0f6f 1640 3a9c a93e c66f fe3e c0e1 12bf
00000380: e89a 75be 0f11 183d 9415 39be 7da3 ee3e
00000390: b702 ffbf ae6f 803f 195d d0be 972e 30bf
000003a0: 8251 8dbc 8409 2ebf eca9 69be d6ff 75be
000003b0: 272b 91be b78d 463f 06af 06c0 0ea7 c9be
000003c0: 704a 22be 9c28 a43d 542d 5cbe 9f82 1bbc
000003d0: 936b 97be 227e 40be 2f92 0a3d c895 1c3c
000003e0: 2e64 76be b550 ccbe 7f1c 0ebf 6580 d23f
000003f0: 12ec 40be a678 8ebe ad1e f2be 5af5 483e
-0.0039272527 -0.37912583 -0.30818838 -0.04694807 -0.47607565 -0.4140346 1.3956679 0.084341794
2.026002 -0.3285165 -0.37685496 -0.37888527 -0.31835386 2.4848619 -0.49449137 -0.35600582
-0.44988418 0.020450674 -0.4569969 -0.35577706 1.8787316 -0.5265484 1.7563859 -1.6745799
-0.8033794 0.014447814 -0.5116406 -2.1936903 2.0768764 -0.4475058 1.4380708 -0.2630996
-0.38929927 -2.9053462 -0.42049995 -0.21630593 -0.4959694 -0.35827953 -0.3954908 -0.51715475
-0.4146189 1.2783365 -1.3155829 1.203569 -0.5897667 1.3637012 -0.47549742 -0.17986576
-0.50970703 1.3893964 1.7941614 -0.3809849 -0.3907315 0.54109174 -0.47202995 -0.28471732
0.38251194 -0.36586028 -0.39862746 -0.46227592 2.4176655 -0.050362837 -0.3579883 -0.40468815
-0.53544855 -0.43862677 -0.46416387 -1.1658381 -0.4215092 -0.47079343 -0.42279115 -0.08241637
-0.73449814 -0.37519714 -0.26679638 -0.44683245 0.8741204 -0.28720477 1.6200145 -0.3533777
-0.34361923 -0.033092298 -0.390888 -0.88408273 -0.16684726 -0.5174099 -0.3504627 -0.45357555
-0.4108853 0.057417996 0.0016662764 -0.33253872 2.1639142 -0.7260327 0.20556284 -0.44363314
-0.54056185 -0.018481115 -0.27598202 0.21781453 -2.201217 1.509363 -0.37395212 -0.7546198
-0.06859084 -0.22924161 -0.43786842 -0.4861967 -0.3163731 0.75574535 -1.1359147 -0.35892794
-0.49242398 -0.062721334 -0.42977294 0.041482173 -0.41331485 -0.40339252 0.039632086 0.01119181
-0.44182274 -0.47044152 -0.4379446 1.5692737 -0.4759805 -0.5543238 -0.45433688 -0.0560274
-0.054187234 0.74667937 -0.44806215 0.026229385 -0.4834164 -0.45244896 0.9968715 -0.06353276
2.2496202 -0.3708295 -0.2174722 -0.66638243 -0.43890473 2.0516732 -0.43292096 -0.045521464
-0.12261961 -0.058466498 -0.55402094 -0.5759683 1.7791914 -0.5256736 1.9740666 0.068066046
-0.30269888 0.050114483 -0.8147903 -1.0852962 2.1228316 -0.29773402 1.6291658 -0.48185217
-0.29728085 -1.9702003 -0.5647281 0.13434027 -0.51292336 -0.42116717 -0.24598944 -1.4819177
-0.24706523 1.3718128 -1.5290521 1.4197437 -1.1077505 0.99901897 -0.49660987 -0.43155316
-0.72985995 1.421962 2.1653163 -0.9224284 -0.45237923 0.85717 -0.82935905 -0.76007843
1.5597646 -1.1859031 -0.49236777 -0.35315797 2.5936108 0.309247 -0.33057103 -0.55969435
0.53079975 -0.51303524 -0.5719887 -0.6161059 -0.578275 -0.5671274 -0.51814806 0.030662708
-0.7240352 -0.19210207 -0.053277444 -0.34019125 0.030018462 -0.6396097 1.4314189 -0.30206975
-0.631557 0.06890534 -0.50733894 -1.1478426 -0.51905626 -0.53563505 -0.56863487 -0.5442872
-0.44934654 0.0850398 0.019635014 -0.25550956 2.3505285 0.33127004 0.4969465 -0.5737572
-0.23984873 0.037125643 -0.18074638 0.46609107 -1.9922704 1.0034082 -0.40696028 -0.6882109
-0.01725078 -0.6798327 -0.22818726 -0.24023375 -0.28353235 0.7755999 -2.1044326 -0.39385265
-0.15848708 0.08015558 -0.21501666 -0.009491592 -0.2957426 -0.18798116 0.033830818 0.009557195
-0.24061653 -0.39905325 -0.5551223 1.6445433 -0.18840054 -0.27826422 -0.4728903 0.19624844

net.4.bias f4 [4]
00000000: d98f 96bd 797d b33e b619 dd3b f58f d7bc
-0.073516555 0.35056666 0.0067474497 -0.026313761
