SARSA/dsqn/900_model_weights.pth (torch, 75917 bytes, 6 tensors)

net.0.weight f4 [128, 8]
000000 2d 40 3b 3f 83 34 12 be 88 6b 06 3f 1b 7f d8 be
       0.731448 -0.14277844 0.5250783 -0.42284474
000010 58 ad 17 bf 93 c7 a2 3e 79 b9 01 be 7e dd 4b bd
       -0.59248877 0.31792888 -0.12668408 -0.04977178
000020 92 d7 c4 3f 90 a6 7f 3d 0b 45 38 3f a9 02 73 3d
       1.5378287 0.062414706 0.7198035 0.05932871
000030 74 19 ae be 17 bd 13 3e 00 ed f6 3b 49 81 ce be
       -0.34003794 0.14427601 0.007535577 -0.40333012
000040 0e ae aa bf 25 55 a3 3f 70 b9 85 be e1 45 0a bf
       -1.3334367 1.2760359 -0.2611804 -0.54012877
000050 c6 c9 86 3e 08 ab 96 3e 26 52 97 3d 19 70 a1 be
       0.26325816 0.2942736 0.073887154 -0.31530836
000060 48 22 c3 3e fe 6e 8d 3f 81 0a 8c 3e d0 56 32 bf
       0.38112092 1.1049497 0.27351764 -0.69663715
000070 25 89 2c bd ed e8 7c 3d 1c c2 b5 bd 22 05 9f bd
       -0.04212298 0.061745573 -0.08874914 -0.07764651
000080 3c e3 fd be bc 78 ac 3d 6b db 87 3c 78 8c a0 be
       -0.4958743 0.08421466 0.016584119 -0.3135717
000090 b8 1c 38 3f c0 26 81 3f 6d f0 3b 3f dc 68 aa 3e
       0.7191882 1.008995 0.73413736 0.33283126
0000a0 2c 54 68 bf e4 81 f6 be 6b c9 77 3f 8e a1 08 bf
       -0.90753436 -0.48145974 0.96791714 -0.5337151
0000b0 da d2 d8 be 0f a9 7b bf 37 ac df 3e 98 fd 3e be
       -0.42348367 -0.9830484 0.43686077 -0.18651426
0000c0 70 3b df be 88 9c 8d be 63 00 9b bc 1d 9c ff be
       -0.43600035 -0.27658486 -0.018921083 -0.49923792
0000d0 e3 91 f4 bf a1 72 c4 3e b8 35 2b 3c 4b 32 1e be
       -1.9107021 0.38368705 0.010449819 -0.15448873
0000e0 73 db 80 bf ca e1 29 3f bc 22 9f 3e 76 3b 90 3f
       -1.006697 0.6636015 0.31081188 1.1268146
0000f0 01 4e 83 be db da 0a 3e 16 c5 36 3d 94 6b 02 3e
       -0.2564545 0.13560049 0.04462155 0.1273635
000100 4e 45 4a 3c ac f1 06 be 53 37 bf be e1 24 22 bf
       0.012345625 -0.13178128 -0.37346897 -0.6333752
000110 2b 7a 6e 3f f8 b5 49 3f 3d 61 21 3e 32 6f b7 3e
       0.93155164 0.7879329 0.1575975 0.35827023
000120 99 5c a4 bf c3 76 f3 be b5 c5 9e 3f c0 d5 55 3f
       -1.2840759 -0.47551546 1.2404085 0.8352928
000130 f7 b1 26 bd df 7b f9 3e 0d 12 92 3e 20 93 fd be
       -0.040697064 0.4872732 0.28529397 -0.4952631
000140 e7 4c 51 3f 41 ad 95 3e 0d 1e fa be ce 26 6b 3f
       0.8175797 0.29233745 -0.48851052 0.91856086
000150 dc ac 69 be 7b 01 ae be 3f 08 9e 3d 34 97 bb be
       -0.22819847 -0.33985505 0.077164166 -0.36638796
000160 0d 08 bb bf 06 99 e8 be 27 61 a4 bf 7a 1a e1 3e
       -1.4611832 -0.45429248 -1.2842149 0.43965513
000170 62 29 90 be d4 df 48 be da 4b 18 3f 57 3a df 3e
       -0.28156573 -0.19616634 0.5949074 0.43599197
000180 ca 89 31 bf ee b6 3d 3f 0a 77 a3 3d 66 05 31 3f
       -0.69350874 0.74107254 0.07981689 0.6914886
000190 45 b9 d2 3d 29 c8 41 3f 04 3d 81 3e 59 88 d7 3e
       0.102892436 0.75696045 0.25241864 0.42096213
0001a0 1f 48 c2 be 7e 6d a8 bd 8b 25 26 bf 80 b7 8e 3d
       -0.3794565 -0.08224009 -0.64901036 0.069685936
0001b0 2b 3e 5f 3f dd 37 0a 3f 07 54 1a 3f 55 b3 47 be
       0.87204236 0.5399149 0.60284466 -0.19502003
0001c0 f3 ee f4 be 8a 87 22 3d 89 fb e2 3e ad f8 26 bf
       -0.47838554 0.03968004 0.4433253 -0.652232
0001d0 76 ce e9 3e 49 14 94 3f e5 f0 be 3e f0 ca 5b 3d
       0.4566533 1.156869 0.37293163 0.053660333
0001e0 01 53 6f bf 0f eb 34 3e e5 ef 95 be 01 b7 1a 3f
       -0.9348603 0.17667793 -0.29284588 0.6043549
0001f0 7f 29 34 bf 6d 05 09 3e 07 ac c5 3e af ed e6 3c
       -0.7037582 0.13380976 0.3860781 0.028189508
000200 ca 32 7c bf 04 a2 a0 be 84 dd af be 6c e6 c5 be
       -0.98515 -0.31373608 -0.3434869 -0.3865236
000210 ce b1 09 bf 37 7c 92 3e 81 f9 78 3e 1b 1e 11 bf
       -0.53786933 0.28610393 0.24313928 -0.5668656
000220 7b d8 ae 3e b8 d2 ad 3d 0f 18 bd 3b 25 78 01 3f
       0.34149536 0.08487457 0.0057706903 0.5057395
000230 72 f0 02 be d0 23 b1 bd 98 88 1b 3f 99 a2 58 3f
       -0.12787035 -0.08649409 0.607553 0.84623104
000240 d6 cc 7c 3e 0f aa 29 3f 5d ee 26 bf 7b db ec be
       0.24687514 0.66275114 -0.65207464 -0.462612
000250 14 c1 f9 be 99 aa db 3f f7 c6 90 3e fd 60 38 bf
       -0.4878012 1.7161437 0.28276798 -0.7202299
000260 76 59 72 3e 19 fe ad 3f 19 81 e3 be 49 e2 ce bd
       0.23666939 1.359317 -0.4443443 -0.10101754
000270 ca 9a a6 bf a4 0a 46 bf 83 2c 37 be 06 6d 96 bf
       -1.3015988 -0.77359986 -0.17888074 -1.1752021
000280 9b ba ec be 6b 64 6b bd 77 15 e5 3e 31 c3 b8 be
       -0.4623612 -0.057468813 0.4474294 -0.3608642
000290 02 a4 0f 3f dd a9 c1 3f 8d f6 fc 3d 42 fd 06 be
       0.5610963 1.5129963 0.12351713 -0.13182548
0002a0 60 67 93 3e a4 88 63 be 1b 91 3e bc 61 b3 e9 3f
       0.28789806 -0.22220093 -0.0116312755 1.8257867
0002b0 d5 f8 03 3f 23 78 89 3f 77 70 02 3f 82 0a 8c 3e
       0.5155156 1.0739788 0.5095286 0.27351767
0002c0 c8 62 99 be 83 38 de 3e c6 07 9b be 52 eb 07 3c
       -0.29958177 0.4340249 -0.30279368 0.008295851
0002d0 7c 67 60 3f 33 c3 06 3f 69 1d 0d 3f dd 70 a8 3e
       0.87657905 0.526416 0.55123 0.32898608
0002e0 76 56 1d bf 46 17 ee bd 93 a8 0a be 48 ca 42 bf
       -0.61460054 -0.11625533 -0.13540868 -0.76089907
0002f0 4c a6 3a be ac 31 3b 3f e0 16 3e 3e 89 65 ba bd
       -0.182275 0.7312267 0.18563414 -0.091013975
000300 a6 09 6d bf 55 74 87 3d cb 5a c5 bf 0a 27 8e 3e
       -0.9259285 0.066139854 -1.5418333 0.2776416
000310 e1 ff 6a be 20 5b 02 be a8 fa ea 3e 3b 08 a3 bd
       -0.22949173 -0.12730074 0.4589436 -0.07960554
000320 53 5b 97 3e 35 ba 14 3d cb c7 57 3e 68 ed 24 bf
       0.29561862 0.036310393 0.21072309 -0.64424753
000330 9a 26 fb 3e cb 9b 4a 3f ff d1 dc 3e 71 81 c0 3d
       0.49052888 0.7914397 0.43128964 0.09399689
000340 67 ad 59 bf a5 66 08 c0 9f f0 5e bf 9e 19 95 3e
       -0.85030216 -2.131265 -0.8708591 0.29121107
000350 e9 eb ce 3f 35 22 3d 3f 7e 05 8f 3e e2 23 29 bf
       1.6165744 0.7388032 0.27933878 -0.6607038
000360 56 03 80 3e 43 31 05 3e 06 7f 1e be cf 5c 58 3e
       0.25002545 0.13007073 -0.15478143 0.21129154
000370 fe 46 10 3f 2a 6f 81 bf 3c 8e b0 bd d1 63 f1 3d
       0.56358325 -1.011205 -0.08620879 0.117866166
000380 bf d5 02 3e 5e ed e2 bd b1 cf c4 3e 42 58 a7 3d
       0.1277685 -0.110804304 0.38439706 0.08171131
000390 46 84 96 3f bb 24 de 3f d2 26 1b bf af 2b ca bf
       1.1759117 1.7354959 -0.6060611 -1.5794581
0003a0 56 e3 02 bf e0 98 9a 3c fe a9 09 be 29 09 6a bf
       -0.5112814 0.018871725 -0.13443753 -0.9142023
0003b0 8f cd 40 3d 41 ea 2e 3f 2d 51 aa 3e b6 6f b4 bd
       0.047071036 0.68326193 0.33265057 -0.0881037
0003c0 b3 47 e7 be 09 f4 a1 be 76 df 36 bf d9 e8 04 be
       -0.4517189 -0.31631497 -0.71434724 -0.1297945
0003d0 ca 1b 25 bf bd db b7 bf 8d f8 36 3e 4c 7f 59 3f
       -0.6449553 -1.4363934 0.17868252 0.84959865
0003e0 ef 38 ed 3f af af 1c be 0c c7 18 3f 15 b1 8c 3e
       1.8533 -0.15301393 0.5967872 0.27478853
0003f0 2c 42 82 be 3e f8 5e 3d c4 51 f5 3c f6 3f e9 3c
       -0.2544111 0.05443596 0.029946215 0.028472882

net.0.bias f4 [128]
000000 77 a5 d7 3e 7e a0 bc bd 31 f6 ef 3d 45 32 46 3e
       0.42118427 -0.09210299 0.11716879 0.19355114
000010 83 8b 98 3e 27 67 40 3d 0e 16 c1 bb 89 e7 58 3e
       0.2979394 0.046973374 -0.0058925217 0.21182074
000020 a0 b0 04 bf 49 64 93 bd d2 84 2c 3f 5a db 41 bc
       -0.5183201 -0.07196862 0.6739017 -0.011832083
000030 b3 41 82 be ec fb 85 3e dd 13 d1 3e 6a a0 68 be
       -0.2544075 0.26168764 0.40835467 -0.22717443
000040 41 be cb be 9c fe a6 3e 3d 57 0d 3f e7 6a b5 be
       -0.3979359 0.32616127 0.5521124 -0.35433123
000050 cc d0 01 3f c3 ad 00 3f 76 78 45 3f f6 7b 45 3f
       0.50709224 0.5026514 0.77136934 0.77142274
000060 ff 08 c7 3e 64 ab dc 3e 90 44 dc be 68 af 8f be
       0.3887405 0.4309951 -0.4302106 -0.28063512
000070 0f 68 23 3e af fa 2b 3f 65 4f ca 3e 78 71 1f 3c
       0.15957664 0.6717939 0.39513698 0.009731643
000080 53 71 09 bf fa f8 e4 be a4 f6 21 3f 3d ea f8 be
       -0.53688544 -0.44721204 0.6326697 -0.4861621
000090 dd b4 81 3d b1 0e 00 be f6 9f ab 3e b0 3b a0 3e
       0.06333325 -0.12505604 0.33520478 0.31295538
0000a0 ff 1c c1 be 5c 3b cb be f0 2b 3d 3e 60 94 fa be
       -0.37717435 -0.39693725 0.18473792 -0.48941326
0000b0 de 24 25 3f 2c a1 db bc 55 ab 0f 3f e9 77 30 3f
       0.6450938 -0.026810251 0.56120807 0.6893297
0000c0 b2 ba 33 3e 10 2f e3 3e 57 1c 85 3e ed 38 34 3e
       0.17551687 0.44371843 0.25998184 0.1759984
0000d0 cb df 87 3f 48 b2 a2 3d ee 12 18 b9 f2 6b 35 bf
       1.0615171 0.07944161 -0.00014502901 -0.70867836
0000e0 98 c5 53 3f 4f 54 b6 3e 3c 0e 2f 3f fe 5b fe be
       0.8272338 0.35611197 0.68381095 -0.4967956
0000f0 99 73 4e 3f 0f 82 a9 3e 3a 64 2a 3f 12 2a 70 3f
       0.8064514 0.3310704 0.66559184 0.93814194
000100 46 8c 89 3e 01 2a 8f 3d 0c d2 62 be 8a af a2 3e
       0.26864833 0.069904335 -0.22150439 0.3177455
000110 a7 89 5f bf 80 b0 bb be 60 32 07 bf 14 7e e2 3e
       -0.87319416 -0.36658096 -0.5281124 0.44236815
000120 4a 20 5c 3f 37 f3 7e be 43 a5 74 3e a5 02 69 3e
       0.8598677 -0.24897467 0.23891167 0.22754915
000130 96 e6 8d be ef 65 88 3c a4 c4 fd 3e fd 22 09 3e
       -0.27714986 0.016650168 0.49564087 0.13392253
000140 9f 11 1a 3f 24 e8 f0 be 5f 31 0a bf d2 cf 89 3e
       0.6018314 -0.4705211 -0.53981584 0.26916367
000150 7e 7e b4 3e a3 da 2b 3d 3d b6 22 3f 48 e8 8e 3e
       0.35252756 0.041956555 0.63559324 0.27911592
000160 a0 1c 2f 3e e2 82 37 bf b2 6e a4 3e 9f cc 66 bf
       0.17100763 -0.71684086 0.32115704 -0.90155977
000170 74 7f e7 3e 8a 6f fe 3e d8 87 a4 3e 0d 94 60 3e
       0.45214427 0.49694473 0.3213489 0.21931477
000180 55 ee 6a be 56 61 6d 3f 5e be 12 bf 80 0f 38 be
       -0.22942479 0.9272665 -0.5732173 -0.17974663
000190 07 d1 13 3f 19 56 1f 3e 17 e3 83 be 6d ba 2b bd
       0.57740825 0.15560187 -0.25759193 -0.041925836
0001a0 81 c4 2f 3f b0 78 f7 3e 9d 59 a2 bf b6 57 11 3f
       0.68659216 0.48334265 -1.2683598 0.5677446
0001b0 6b 8c 5d bf 62 fa b4 be 8f c2 9d 3f f4 e0 10 bf
       -0.86542386 -0.35347277 1.2325 -0.5659325
0001c0 88 1d 0c 3e 42 a9 b0 3e d4 cc 0c 3f f3 59 d7 3e
       0.1368314 0.34504133 0.5500004 0.42060813
0001d0 e7 11 de be 4a 5d bb be 75 41 5c 3f 0d 66 52 3f
       -0.43373033 -0.3659461 0.8603738 0.8218697
0001e0 62 b5 72 3f 78 f1 e4 3e 43 6f 3b bf e6 5b 70 3f
       0.9480802 0.44715476 -0.73216647 0.93890226
0001f0 87 df 11 3e ac 67 63 be 4a 23 59 3d c1 b2 54 be
       0.14245425 -0.22207516 0.05301217 -0.20771314

net.2.weight f4 [128, 128]
000000 5d dd 60 3d ad 5e 71 bd 23 59 85 bd ff 6a 9e bd
       0.05489861 -0.05892818 -0.06511142 -0.07735252
000010 3f 10 a9 bd da 7d 5d bd 0d 0b 92 bd 7a 97 56 3c
       -0.08255052 -0.0540751 -0.07131014 0.013097638
000020 a8 d2 b8 3c 40 e6 b1 3b 30 da eb 3c f2 a7 53 3c
       0.022561386 0.0054290593 0.028790563 0.012918459
000030 d7 3f 3e 3d f1 9e 45 3d c7 f9 b7 bd 51 65 86 3d
       0.0464476 0.04824728 -0.08983188 0.06562293
000040 62 88 29 3d 07 c9 45 3d 26 7b bf bc 80 3c 99 3d
       0.04138983 0.048287418 -0.023374151 0.074822426
000050 5c 84 c7 3c b1 79 3f 3d 0a f2 8b 3a 3d 13 1d bd
       0.024355106 0.046746913 0.0010676992 -0.038348425
000060 79 b2 8f bd 28 e2 b1 3c 2e 01 9d bd f6 2f 9e bd
       -0.07016463 0.021714285 -0.07666241 -0.077239916
000070 89 bc 8d 3d 31 d1 9f bc 0f be 06 bc 9d 1b 8d 3d
       0.06920726 -0.01950893 -0.008224024 0.068900324
000080 8c 7c d4 3b 0e d8 2b bd 3c d4 2d 3c f9 35 98 3d
       0.0064845737 -0.041954093 0.010609683 0.074321695
000090 ae 45 1e bd 68 f6 3e bd 48 c3 fe bc 73 b9 8c 3c
       -0.03864067 -0.04662171 -0.031098977 0.017178273
0000a0 52 4e 88 bd 07 eb 6f bd 29 c3 85 3d 54 74 81 bd
       -0.066555634 -0.05857375 0.065313645 -0.06321016
0000b0 9a e1 9b bd 7f 60 99 3c d4 90 71 bd 45 09 77 3d
       -0.076113895 0.01872277 -0.05897601 0.060311574
0000c0 9c b7 4e bc 8d fd 6b bd 8d bf 6d 3d 54 de 37 3d
       -0.012617018 -0.05761485 0.058044005 0.044889763
0000d0 43 d9 c4 bd b8 77 f0 bc 1a f3 81 3d 20 3e f3 3c
       -0.09611752 -0.029353961 0.06345196 0.02969271
0000e0 52 8a 72 bd 12 1e 83 3c 5f a7 59 3c f2 b4 b4 bd
       -0.059213944 0.01600555 0.013284533 -0.08823575
0000f0 80 36 6d 3a f0 f9 24 3c 4a 83 95 bd 8e 1c fe bc
       0.00090489537 0.010069355 -0.07300432 -0.031019475
000100 af 33 e0 3c 6d 28 77 bc c4 85 6c 3d 6c df c4 3c
       0.027368395 -0.015085322 0.057744756 0.024032317
000110 96 39 2e 3d 7f 38 c4 bd 3f 5f 35 bd b3 47 1c 3d
       0.042535387 -0.09581088 -0.044280287 0.038154315
000120 ab 4e ed ba fd 35 f3 3c d0 8e c7 bc bd fc 2c 3d
       -0.001810511 0.02968883 -0.02436009 0.042233218
000130 16 36 15 3d 46 6b e6 bc 1b 10 86 bd bb bb 1d bc
       0.036428533 -0.028127324 -0.065460406 -0.009627278
000140 d8 5b be 3c 44 80 aa bd ca e6 6e bc 45 5a 99 bd
       0.023237154 -0.08325246 -0.014581392 -0.07487921
000150 70 2c 0a 3c ca 74 90 bd a0 e4 42 3d 84 41 c9 bb
       0.008433446 -0.07053526 0.047581315 -0.0061418433
000160 80 f6 5c ba 39 79 ab bd b3 fe ec 3c 00 0f 4e bd
       -0.00084290653 -0.08372731 0.028930044 -0.050307274
000170 44 95 07 bc 4f 9c 8c bc 29 ad 2d 3d 26 a6 03 3d
       -0.008275334 -0.017164377 0.042401467 0.032140873
000180 1e 03 85 bc 50 00 95 3d 4a 16 1d bd 0d 32 99 3d
       -0.016236838 0.0727545 -0.038351335 0.074802496
000190 2b d8 a9 bd 72 41 43 bd 86 93 1a 3d b5 8d 97 3d
       -0.08293184 -0.047669835 0.037738346 0.07400075
0001a0 18 9d 4d 3d d4 07 04 bc e9 ca 8e bd 9c 3d 4e bd
       0.050198644 -0.008058507 -0.06972296 -0.050351724
0001b0 0b 37 64 3d e3 cc 5b 3d fc 16 02 bd 50 26 b8 bd
       0.055716556 0.053662192 -0.0317602 -0.089916825
0001c0 c3 21 1b bd 45 83 5c bd 00 c1 49 3d 67 9e 6b 3d
       -0.037873995 -0.053836126 0.049256325 0.05752411
0001d0 19 99 80 bd 09 b2 17 3d 58 d9 66 bd 64 71 84 3c
       -0.06279201 0.037035022 -0.05635962 0.01616735
0001e0 2f 88 bb bc 69 76 82 bd c8 bf 2e 3c 95 61 73 3d
       -0.022892086 -0.06370241 0.010665841 0.059419233
0001f0 df 5b fd 3c e5 b5 8e 3b 7e 75 30 bd 96 03 70 bd
       0.030927597 0.0043551796 -0.0430808 -0.05859717
000200 f3 3a 00 c0 33 39 01 c0 14 ea e3 be a2 e3 8a be
       -2.003598 -2.0191162 -0.44514525 -0.27126795
000210 e2 60 7e 3e da 4c 4d be 1e a2 3a 3f 73 c7 94 bf
       0.24841645 -0.20048848 0.7290362 -1.1623367
000220 26 15 ff 3e 6b 59 a5 3d 6f 30 c8 bf 06 28 0b bf
       0.49820822 0.08073696 -1.5639781 -0.54357946
000230 5c 2f 07 bf 32 d2 96 3d 18 45 90 3e ba 88 93 bc
       -0.5280664 0.0736431 0.28177714 -0.018009532
000240 01 8c 47 3e 34 5a 2d bf 19 77 30 bd bf 15 94 bf
       0.19487001 -0.67715764 -0.04308233 -1.1569136
000250 76 dd b4 3e 06 05 dd bd f0 87 cd bd 39 f6 6f 3e
       0.3532521 -0.10791974 -0.10035694 0.2343377
000260 51 41 25 bf f8 0f dc 3d f4 89 4a 3f d3 44 bd bd
       -0.6455279 0.10745233 0.7911675 -0.09241643
000270 59 ca c6 bb 71 e5 1b 3d 59 4e ae bf 5f 3d 03 c0
       -0.006066602 0.03806061 -1.361766 -2.0506208
000280 dc 81 ae 3e 29 99 3a 3f 48 f7 45 bf 1a 34 06 3f
       0.3408345 0.72889954 -0.77330446 0.5242325
000290 b8 f6 10 c0 0b b4 0e c0 c0 7a 9e be c1 84 69 be
       -2.2650585 -2.229739 -0.30953026 -0.22804548
0002a0 08 da cc be ac 87 64 3e 48 8f 08 be 47 72 1f 3f
       -0.40010095 0.2231738 -0.13335907 0.6228375
0002b0 83 d3 e2 be c1 93 1c 3e 1b e6 0b bd 1e 11 7b 3d
       -0.44301996 0.15290739 -0.034154993 0.06129562
0002c0 0d d6 f4 3d b0 42 43 3d e7 b6 b2 bf 1e 90 01 c0
       0.119548894 0.04767102 -1.3962067 -2.0244212
0002d0 c1 0c 35 c0 5e 91 dd 3e 4f 3e cf bd 92 a5 da bf
       -2.8289034 0.4327497 -0.10119306 -1.7081778
0002e0 82 21 80 3c 61 5e 41 bf 35 a6 07 be 7c 68 1f 3e
       0.015640978 -0.75534636 -0.13246997 0.15567201
0002f0 ef 7d 1b bf 01 26 59 3e 00 b4 c1 bf f5 23 fe bf
       -0.60739034 0.21205904 -1.5133057 -1.9854723
000300 85 c5 db bb 4d 31 18 c0 bc d6 e2 bf 85 f3 0c bf
       -0.006706896 -2.378009 -1.7721782 -0.5505908
000310 b1 06 90 bf 8f 96 36 bf 52 78 be bf 32 ce eb be
       -1.1252042 -0.71323484 -1.4880469 -0.46055752
000320 60 de 79 bf 2a 84 02 c0 78 27 8b be ae b3 b1 3e
       -0.9760494 -2.0393167 -0.2717855 0.34707397
000330 e8 b4 be 3d 36 58 26 bf 0a 0a a7 bf b4 d9 16 3f
       0.09311849 -0.6497835 -1.3049939 0.5892594
000340 1f 09 08 3b ca 43 80 3f ca 9e 1e 3f e4 e6 2e c0
       0.002075739 1.0020688 0.6196104 -2.7328424
000350 2b c0 67 3c 37 61 d4 bd d7 4f 0d 3d 91 ae 15 bf
       0.0141449375 -0.10370105 0.03449997 -0.5846949
000360 7c 74 01 3f 83 11 8b 3e b3 70 5d bf 27 38 c8 3d
       0.50568366 0.27161798 -0.8650009 0.09776335
000370 03 ff 66 bf 1c dd 31 be 9b b7 9a be 53 4b 4b bf
       -0.90232867 -0.17369503 -0.30218205 -0.7941181
000380 4e 4a 12 c0 8f 8f b9 be e1 85 01 3f 64 ad c6 3e
       -2.2857852 -0.3624234 0.5059491 0.38804162
000390 af 3d c4 bd 88 df 6b be f3 68 81 3e 9f 2c 56 be
       -0.09582078 -0.23034489 0.25275382 -0.20915459
0003a0 38 ac 17 3e 75 42 41 be 6d 14 bf bf 06 59 fb 3d
       0.1481179 -0.18873008 -1.4928108 0.12272839
0003b0 62 d1 4e be 4c 1e df bf b6 64 de bf c7 39 b8 3e
       -0.2019706 -1.7431121 -1.7374485 0.3598158
0003c0 e6 02 95 bd a0 f6 17 3f 77 7b 9c 3e b9 27 0e bf
       -0.072759435 0.59360695 0.30562946 -0.5552936
0003d0 2d ae 80 3e b7 af 45 3f e5 48 ce bf 6d a6 18 3f
       0.25132886 0.77221245 -1.6115996 0.59628946
0003e0 e4 3d 52 be c0 7b 5b be 6c 2d af 3d 57 c2 07 bf
       -0.20531422 -0.21433926 0.085535854 -0.53030914
0003f0 5d 9e f8 bd d1 57 0c 3e 8e 86 d3 3e e1 13 b1 3e
       -0.121395804 0.13705374 0.41313595 0.3458548

net.2.bias f4 [128]
000000 de 44 b4 bd 81 07 90 bf d4 46 8e bc ad b1 88 bd
       -0.08802198 -1.125229 -0.017367758 -0.06674514
000010 07 c2 cb 3d 0a 2d 98 3c a9 32 54 3f 00 c0 83 3c
       0.09949117 0.018576164 0.828898 0.016082764
000020 d6 88 ca be e8 83 1b bd 77 d8 4d 3d 81 90 8c 3d
       -0.39557523 -0.037967592 0.050255265 0.068634994
000030 52 3a 36 bc cf 56 7c 3c b1 88 54 bd a8 9a 92 3d
       -0.011122303 0.015401556 -0.05188817 0.071584046
000040 ca b8 38 3d 7f b7 6a bc 18 bf 74 bb c7 93 82 bd
       0.045098104 -0.014325975 -0.0037345346 -0.063758425
000050 7d ce 32 be d4 da 10 bd f1 09 6b 3f 23 9a 2e 3e
       -0.17461582 -0.03536494 0.91812044 0.17050986
000060 54 cf 85 bd 10 92 be bd cc 87 3e 3d d3 26 9b bd
       -0.06533685 -0.09305203 0.046516225 -0.075757645
000070 fd cc 62 be 13 89 d1 bd f8 18 36 3f 30 36 26 3d
       -0.2214851 -0.10231223 0.7113185 0.04057902
000080 4e d7 91 bb c5 2b 9d be d8 c4 ad bc e9 9a 27 3e
       -0.004450715 -0.30697456 -0.021212026 0.16367687
000090 5d 51 8a be ae 39 c0 b9 5a cd 32 3d c5 cf 07 be
       -0.270152 -0.00036664068 0.04365287 -0.13262852
0000a0 3d 97 17 3d 6a 06 9f 3c f0 ac f6 bd f3 7b f0 3b
       0.037009466 0.019412238 -0.12044704 0.0073389946
0000b0 22 2e 0e 3d 2f 99 f0 3e c5 56 34 b9 71 ba f5 3c
       0.034711964 0.4699187 -0.00017198462 0.029996129
0000c0 50 46 a8 bc 91 1a 4a 3f 55 6c 6d be 8d 69 eb bc
       -0.02054134 0.7894679 -0.23185857 -0.028736854
0000d0 55 6b bb 3c a7 5c 22 3f d9 89 76 3c 52 f3 69 3d
       0.022878328 0.63422626 0.015047514 0.057116814
0000e0 f2 36 11 3f 11 41 cd 3d d3 25 d2 3b 3c 65 8b 3d
       0.56724465 0.10022176 0.0064132004 0.06806418
0000f0 ad 6b 76 be c0 09 72 3d ac 5d ad 3c b6 d8 ad 3d
       -0.24064513 0.05909133 0.02116283 0.084886
000100 fb 3b 72 3e 60 8f ec ba 7b 5a 0d bd cd b4 03 be
       0.23655693 -0.00180481 -0.034510117 -0.12861939
000110 9b 52 4a bd 67 0c 77 3d 87 53 a7 bd 3c 3c 47 bb
       -0.049395185 0.060314562 -0.081702285 -0.0030400893
000120 b0 35 9a 3b 6d b2 37 bd cd 24 d1 3d 26 3c c3 bc
       0.004706107 -0.044847894 0.10212097 -0.023832392
000130 26 7d 3a 3e b7 f5 10 3d 29 3e 3f 3f bb 11 4a 3d
       0.18211803 0.035390582 0.74704224 0.049333315
000140 02 ba 52 3b 69 7e 5c 3c 70 53 b6 bd 8a c7 65 3e
       0.0032154326 0.013457873 -0.08902633 0.224394
000150 97 1c cc 3d 2c c8 c7 3c db 05 df 3c 98 21 56 3d
       0.099663906 0.024387442 0.027224472 0.05227813
000160 5d fe aa bd 5b 30 bb bd 52 ed b9 bd 14 d1 a9 3b
       -0.08349297 -0.091400824 -0.090784684 0.0051823948
000170 97 c4 2e be d9 6a a9 bd 58 fe a0 3e e3 11 72 3d
       -0.1706718 -0.08272333 0.3144405 0.05909909
000180 51 46 35 3d c6 f9 b4 bd e4 b8 96 3d 2c 5b a3 3e
       0.044256512 -0.08836703 0.07359484 0.31905496
000190 49 4a 67 bc 1e 94 89 3e 30 20 a8 3d 25 ab d8 bc
       -0.014116832 0.26870817 0.08209264 -0.026448796
0001a0 22 e7 7e 3c 8a 97 52 3d a3 a1 8b 3d 36 81 16 3d
       0.015558036 0.05141405 0.06817939 0.03674432
0001b0 bf 19 40 3d 44 3c 2b 3e 8d ef 89 bd b9 a5 94 bc
       0.046899553 0.16722208 -0.06735144 -0.018145429
0001c0 c1 f6 b4 bc 29 62 78 bd 31 f7 b4 bb fa 09 80 bd
       -0.022090318 -0.060640488 -0.0055226316 -0.06251903
0001d0 72 6d ac bb ff c4 83 3d 6e 45 87 bd 78 9d be bd
       -0.0052620703 0.064340584 -0.066050395 -0.093073785
0001e0 6b ee 9f 3c cb dc cf bd 43 a9 bc bb aa 93 f8 3d
       0.019522866 -0.10149535 -0.0057574823 0.1213754
0001f0 6b 1a 0a 3d 2f 37 38 bd bf 47 83 3b 48 fb 1c 3e
       0.0337166 -0.044974502 0.0040063555 0.15330231

net.4.weight f4 [4, 128]
000000 2f b0 80 bb c8 1c c2 be 5a c3 aa be 9f 4c 40 bd
       -0.0039272527 -0.37912583 -0.33352166 -0.04694807
000010 56 47 fb be 8d 56 d8 be 7c e9 b2 3f 64 bb ac 3d
       -0.49077863 -0.42253533 1.3977504 0.084341794
000020 2f e3 00 40 b9 6e ab be cf dd c2 be d9 2e c6 be
       2.0138662 -0.33482912 -0.38059852 -0.38707617
000030 f7 2e aa be d7 2b 1d 40 24 44 02 bf c0 26 ba be
       -0.33238956 2.4558008 -0.50885224 -0.3635769
000040 69 d0 e0 be 2c 88 a7 3c 08 c3 ef be cf 6d c0 be
       -0.43909004 0.020450674 -0.46828485 -0.37583777
000050 47 7a f0 3f 13 27 0a bf 09 98 e1 3f 98 5b e3 bf
       1.8787316 -0.5396587 1.7624522 -1.7762327
000060 34 fa 5e bf 86 b6 6c 3c 45 60 08 bf ba 8a 0b c0
       -0.8710053 0.014447814 -0.53271896 -2.1803422
000070 8b eb 04 40 ca bc e7 be 49 10 b8 3f 9b e9 8d be
       2.0768764 -0.45261222 1.437997 -0.2771729
000080 ab 2d cc be 0f 5f 3b c0 a9 25 dc be 05 1c 5c be
       -0.39878592 -2.927677 -0.42997482 -0.21495064
000090 84 2d 0e bf 51 7e bc be 85 85 cd be df 91 03 bf
       -0.555382 -0.36815122 -0.4014093 -0.51394457
0000a0 14 f2 d6 be 88 a0 a3 3f 4d 93 a1 bf 8b fe 9a 3f
       -0.41981566 1.2783365 -1.2623078 1.210893
0000b0 93 a5 23 bf fe b9 b3 3f 94 95 f7 be 0f c1 4a be
       -0.6392452 1.4041135 -0.48356307 -0.19800209
0000c0 32 7d 06 bf 8b ee b2 3f 15 a7 e5 3f 13 f1 c9 be
       -0.5253478 1.3979048 1.7941614 -0.39441738
0000d0 bc c7 cf be 82 0c 0a 3f ee 39 f6 be 35 ef 99 be
       -0.40582073 0.53925335 -0.48091072 -0.30065313
0000e0 7d 68 fe 3e ec 7d 25 be 8c e2 cf be 93 a9 f1 be
       0.49689093 -0.16161317 -0.4060253 -0.47199687
0000f0 08 bb 1a 40 a6 ed 12 bd fe f3 bf be 25 05 d1 be
       2.4176655 -0.03587117 -0.3749084 -0.40824237
000100 55 65 c6 be 58 c6 e3 be bc 8d f4 be e1 3a 9c bf
       -0.38749185 -0.44487262 -0.47764385 -1.2205468
000110 4f 9f dc be 27 d6 f7 be a1 26 df be ea c9 a8 bd
       -0.43090293 -0.48405573 -0.4358416 -0.08241637
000120 78 5f 4c bf 1e a4 ca be 0a 9a 8a be 95 b0 ea be
       -0.79833174 -0.39578336 -0.27070647 -0.45837846
000130 3b 51 6d 3f 09 4b 9c be df 0b cf 3f 31 18 b9 be
       0.9270207 -0.30525997 1.6175498 -0.3615127
000140 3b ac b3 be ca 8b 07 bd 2a bc cc be 67 c9 69 bf
       -0.3509234 -0.033092298 -0.39987308 -0.9132294
000150 14 fc 3d be 01 2e 07 bf 36 68 b6 be c6 d9 f0 be
       -0.18553191 -0.5280457 -0.35626382 -0.47041148
000160 3f b0 db be 22 2f 6b 3d f5 66 da 3a 30 93 ad be
       -0.42907903 0.057417996 0.0016662764 -0.33901358
000170 92 7d 0a 40 c3 68 38 bf 73 cd 57 3e 44 64 eb be
       2.1639142 -0.72034854 0.21074466 -0.45974934
000180 c2 4d 0c bf b5 65 97 bc 06 67 91 be 2b 8a 64 3e
       -0.5480615 -0.018481115 -0.28398913 0.22318332
000190 a7 fa 12 c0 9f c0 c2 3f b9 16 c8 be 96 ab 62 bf
       -2.2965486 1.5215033 -0.39079836 -0.8854307
0001a0 5b 79 8c bd bf 64 77 be a5 bc e2 be 1d 24 fd be
       -0.06859084 -0.24159525 -0.4428455 -0.49441615
0001b0 ac e6 a2 be 19 c0 64 3f 14 b3 94 bf a5 76 b9 be
       -0.31816614 0.8935562 -1.161715 -0.3622333
0001c0 f9 c6 ff be 0b 74 80 bd 4f 48 e1 be 36 e9 29 3d
       -0.49956492 -0.062721334 -0.4400048 0.041482173
0001d0 5b c9 d9 be 57 84 d1 be 41 55 22 3d da 5d 37 3c
       -0.42536435 -0.4092128 0.039632086 0.01119181
0001e0 bc 0a e9 be d6 88 f6 be 4b 7e e4 be bf c1 cc 3f
       -0.45516002 -0.48151273 -0.44627604 1.5996627
0001f0 f4 6a f7 be 3c 0b 1e bf ec 2f ef be 21 7e 4c bd
       -0.48323786 -0.6173589 -0.4671625 -0.049924973
000200 6f f3 5d bd f0 03 48 3f a8 b8 f1 be 02 df d6 3c
       -0.054187234 0.7813101 -0.47211194 0.026229385
000210 03 4b 00 bf 08 74 f0 be 74 e9 80 3f 77 1d 82 bd
       -0.5011446 -0.46963525 1.0071244 -0.06353276
000220 df 04 11 40 b5 0a ca be c0 d0 72 be 92 64 32 bf
       2.2659223 -0.39461294 -0.23712444 -0.6968471
000230 28 99 e9 be 98 a0 02 40 e5 ff e6 be c2 24 4e bd
       -0.4562466 2.0410519 -0.45117107 -0.050328024
000240 a8 15 2c be 91 7a 6f bd f9 53 11 bf af b7 19 bf
       -0.16805136 -0.058466498 -0.5676876 -0.60045904
000250 2b 85 e2 3f a0 bb 0b bf b6 01 fe 3f 25 ca 2d 3e
       1.769689 -0.5458317 1.9844272 0.16971643
000260 7b c0 ac be d8 44 4d 3d ed d0 57 bf f6 68 8b bf
       -0.337406 0.050114483 -0.8430317 -1.0891407
000270 79 dc 07 40 b9 b3 9f be 2f 88 d0 3f 86 5a 02 bf
       2.1228316 -0.31191805 1.629156 -0.5091938
000280 78 82 92 be 89 67 00 c0 ef 9c 13 bf 21 22 06 3e
       -0.28615165 -2.0063193 -0.57661337 0.13098957
000290 b5 0d 16 bf 84 24 df be fd 4d 91 be d9 83 c5 bf
       -0.58614665 -0.43582547 -0.28379813 -1.5430862
0002a0 23 46 81 be 15 d2 bb 3f 61 0b c7 bf e0 49 b1 3f
       -0.25248823 1.4673487 -1.5550348 1.385067
0002b0 78 0e 9a bf 04 6e 8c 3f af f5 02 bf ad 77 ec be
       -1.2035666 1.0971074 -0.51156133 -0.46185055
0002c0 6d 31 42 bf 55 d1 b6 3f 8b 94 0a 40 a4 f2 74 bf
       -0.7585667 1.4282633 2.1653163 -0.9568274
0002d0 b5 93 f2 be 10 e7 5d 3f 0e 5e 56 bf 78 1f 4a bf
       -0.47378317 0.866807 -0.83737266 -0.7895427
0002e0 ab 06 cc 3f e9 d8 46 bf 4c f3 02 bf 82 24 bb be
       1.5939535 -0.7767473 -0.5115249 -0.3655129
0002f0 b8 fd 25 40 16 f3 d2 3e 24 0a b8 be f0 d8 13 bf
       2.5936108 0.41201085 -0.35945237 -0.57752895
000300 36 56 06 3f 4d 18 0c bf 33 c9 16 bf 20 cb 1e bf
       0.524753 -0.5472458 -0.58900756 -0.62028694
000310 c6 08 1b bf 46 27 1a bf cc 59 0a bf 5c 30 fb 3c
       -0.6056026 -0.60216177 -0.5404327 0.030662708
000320 70 a4 51 bf e2 c5 5b be 49 d3 8c bd de b1 b4 be
       -0.81891537 -0.21462205 -0.06876237 -0.35291952
000330 c0 56 30 3d ae 21 2b bf 3e 70 b7 3f 48 5b a6 be
       0.04305148 -0.66848266 1.4331129 -0.32491517
000340 96 77 29 bf 3e 1e 8d 3d c9 1a 07 bf da fd 97 bf
       -0.661981 0.06890534 -0.52775246 -1.1874344
000350 45 8a 0d bf a0 cb 0d bf 2a d6 16 bf 35 e5 13 bf
       -0.5528911 -0.5538883 -0.5892054 -0.5777162
000360 c1 41 f7 be 59 29 ae 3d 9c d9 a0 3c cf 5f 90 be
       -0.48292354 0.0850398 0.019635014 -0.28198096
000370 0f 6f 16 40 05 f3 b1 3e 91 5a 02 3f b1 90 18 bf
       2.3505285 0.34755722 0.50919443 -0.5959578
000380 aa ec 7a be 0f 11 18 3d 29 60 4f be e1 4d f5 3e
       -0.24504343 0.037125643 -0.20251526 0.4791098
000390 bd 33 01 c0 ee 70 84 3f 00 e3 e0 be f7 e6 42 bf
       -2.0187829 1.0346963 -0.43923187 -0.76133674
0003a0 82 51 8d bc 9e 3d 36 bf c9 da 8f be 29 7f 7d be
       -0.01725078 -0.7118777 -0.28096607 -0.24755539
0003b0 c6 fc a8 be 11 65 53 3f da a7 09 c0 a7 bc d4 be
       -0.3300535 0.8257609 -2.1508698 -0.4155018
0003c0 2d 0f 24 be 9c 28 a4 3d 02 22 63 be 9f 82 1b bc
       -0.16021414 0.08015558 -0.22180942 -0.009491592
0003d0 c1 5d 9b be bd 9f 49 be 2f 92 0a 3d c8 95 1c 3c
       -0.30344966 -0.19689842 0.033830818 0.009557195
0003e0 2c 5a 83 be 5b 0b d5 be 2f c3 13 bf 66 80 de 3f
       -0.25654733 -0.41610226 -0.577197 1.7382934
0003f0 da 92 44 be c4 0f 9f be 72 04 f8 be c1 f4 50 3e
       -0.19196644 -0.31066716 -0.48440892 0.20405866

net.4.bias f4 [4]
000000 20 c5 99 bd 20 a8 b5 3e e1 b8 0e 3c 44 f3 ff bc
       -0.07508302 0.35479832 0.008711071 -0.031243928
