SARSA/dsqn/950_model_weights.pth (torch, 75917 bytes, 6 tensors)

net.0.weight f4 [128, 8]
00000000: ddae 543f d9c6 4ebe 1e47 f23e 270a acbe
00000010: 7339 24bf 87fa a23e c788 b1bd e2ef 45bd
00000020: 59d7 c63f 8b7a 823d 3092 2c3f d004 d23d
00000030: b1db b9be a06f fa3d e9eb 8b3c b7d6 d2be
00000040: 072c aebf f82d a53f fdde 6bbe 0ed3 0ebf
00000050: 5cd1 793e fe1c 8c3e 9273 833d acad b1be
00000060: 746b cb3e 494a 923f 0618 933e ac93 38bf
00000070: 65b2 20bd 1058 7a3d 04b3 cebd 10e3 7ebd
00000080: 4b51 01bf 60b5 863d e80a 42bb 1b7d 95be
00000090: a5a1 383f 3833 843f 1629 3a3f 989d a63e
000000a0: c02f 7fbf 9d62 d0be 8e44 683f 19b8 28bf
000000b0: c4cf f7be dbb0 71bf d305 e43e b93a 07be
000000c0: 13fe d4be 37cb 52be f71a b5bd d1c1 cebe
000000d0: af8c 01c0 2768 963e c783 dd3c f560 1bbe
000000e0: e7c7 82bf 86c6 043f 9f2c 9e3e f5bd 9d3f
000000f0: 798b 80be 5f03 0f3e a3ea 573d dd88 f73d
00000100: cf41 a4bc 3ae8 04be 2195 bfbe 3c35 20bf
00000110: 286e 753f 17f6 483f bc4e 223e b7f0 bc3e
00000120: 858d 9abf 59f7 1cbf e7a8 9e3f 233d 553f
00000130: 18a4 81bd 1e92 043f 0a45 993e 2a72 fbbe
00000140: f27f 663f 5902 583e 799a 01bf d9ed 7b3f
00000150: aea7 53be d070 97be 0cc0 c63d ff61 bebe
00000160: 4b14 babf 713f 0cbf 415a abbf c0c7 1f3f
00000170: 8707 a1be bb14 66be ea53 153f a70c da3e
00000180: 387e 4bbf db63 2f3f 4a9c 453d 3939 483f
00000190: eb52 3ebc ae09 403f 778d 893e 1ce0 da3e
000001a0: a544 b6be b710 c1bd 0dc2 1cbf b78e 043e
000001b0: 8d0e 6a3f b940 0d3f 16cf 183f e13c 57be
000001c0: a96e 02bf 1c4a 133d c93d d93e 1fc6 22bf
000001d0: 8a58 ea3e 5704 923f 1129 c03e a67c 4d3d
000001e0: be1a 63bf 8358 fb3d 4ed0 53be 10ad 3f3f
000001f0: 93d0 33bf df09 da3d 0e50 ce3e 1a7f 4a3d
00000200: b4e6 7abf 1a15 f2be 98e8 9cbe 4bb0 b7be
00000210: 3178 02bf fa56 8e3e 0482 883e 7072 1abf
00000220: a873 b03e 7dc0 f43d 17b8 6c3b 34da fc3e
00000230: 9b86 f0bd 826b b4bd c70a 183f 03e3 4f3f
00000240: 378d 583e a4f6 273f facd 2fbf ceed d6be
00000250: 4535 f1be 6c76 dd3f fdba 933e a3be 3abf
00000260: 428f c43e 4781 a43f c11c e7be 1e6d 9d3d
00000270: 786a 9abf 43d6 4ebf 1edc 14be b847 9abf
00000280: 463c fcbe a078 81bd 7816 e23e 4a5c adbe
00000290: b326 103f 2b2a c43f 493f f63d 872f 0fbe
000002a0: 263c c53e 4f64 9abe 60ba d0bd 9c24 0140
000002b0: 1dbe 173f a719 873f 1616 f93e 7e1d 923e
000002c0: 3861 a3be eb02 dc3e f834 a0be 4041 6a3c
000002d0: c651 693f 1bcb 083f acf1 093f 9972 aa3e
000002e0: 96e2 1bbf 30bd f9bd d69d 17be 7100 40bf
000002f0: 00d0 2dbe c79a 383f f1b7 433e dfbc bcbd
00000300: e42e 63bf c42d dd3d a58b d8bf adb2 bc3e
00000310: a0d3 87be 9280 3dbe 0f4b d23e 85b7 c0bd
00000320: cad0 843e 25fc c03c 1ffb 4f3e cf93 20bf
00000330: 74e9 f33e e7bd 473f 8257 dc3e 125c b03d
00000340: b3df 54bf ab37 16c0 07e7 47bf 334f a93e
00000350: 8190 d03f b087 423f ab77 883e 9772 36bf
00000360: 3ae0 fa3d 5226 1c3e a74f 05be e630 923e
00000370: 9a2a 203f 7f68 75bf f10a 7abd ea75 133e
00000380: a9bd 0a3e 0396 dcbd 1583 df3e ef89 2b3e
00000390: 3c64 9a3f 73c5 df3f 6fa9 1abf 042e ccbf
000003a0: 7a29 03bf 48d3 613c ebc5 11be 4fc9 67bf
000003b0: 82c6 633d b610 2c3f 19cc af3e 8a91 c1bd
000003c0: 67ef ddbe bf63 b2be 20cf 3dbf 0f92 5cbe
000003d0: ac30 2bbf 231d b9bf 8813 2d3e 5b53 5a3f
000003e0: 23d2 ec3f aa9e e9bd 9098 1c3f 7c95 6f3e
000003f0: 2208 87be bfac 523d f05d 253d 2060 4d3b
0.8307932 -0.20193042 0.47319883 -0.33601496 -0.6415016 0.31831762 -0.08668666 -0.048324473
1.5534469 0.063710295 0.67410564 0.10254824 -0.36300424 0.12228322 0.017080264 -0.4117944
-1.3607186 1.2904654 -0.23034282 -0.55790794 0.2439627 0.2736587 0.06418528 -0.34702814
0.39730418 1.142892 0.28729266 -0.7210033 -0.03923263 0.06111914 -0.10092738 -0.062228262
-0.5051467 0.06577563 -0.0029608551 -0.2919701 0.7212165 1.0328131 0.7271894 0.3254211
-0.99682236 -0.40700236 0.90729606 -0.6590591 -0.484007 -0.94410485 0.44535694 -0.13205995
-0.41600093 -0.20585333 -0.08843034 -0.40382245 -2.0242116 0.29376337 0.027040375 -0.15173705
-1.0217255 0.5186542 0.30893418 1.2323595 -0.2510641 0.1396613 0.052714 0.120866515
-0.020050911 -0.12979212 -0.37418464 -0.6258123 0.9587121 0.78500503 0.15850347 0.369024
-1.2074438 -0.6131492 1.2395295 0.8329641 -0.063301265 0.5178546 0.29935485 -0.49110538
0.9003898 0.21094646 -0.5062633 0.984098 -0.20669433 -0.29578257 0.09704599 -0.3718414
-1.4537443 -0.54784304 -1.3386918 0.6241417 -0.31451055 -0.22468846 0.5833117 0.42587778
-0.7948947 0.6851174 0.048244752 0.78212315 -0.011616449 0.7501477 0.26865742 0.42749107
-0.35599247 -0.09427016 -0.612336 0.12945066 0.9142845 0.55176884 0.5969099 -0.21019317
-0.50950104 0.035959348 0.4242995 -0.6358356 0.45770675 1.1407574 0.3753133 0.050167702
-0.8871268 0.12272742 -0.2068493 0.7487345 -0.70240134 0.10646414 0.40295452 0.04943762
-0.98008275 -0.47281724 -0.30646205 -0.35876688 -0.5096465 0.27800733 0.26661694 -0.6033087
0.3446324 0.11950777 0.0036120468 0.49385226 -0.11744424 -0.08809568 0.59391445 0.8120577
0.21147619 0.6561072 -0.6867367 -0.41978306 -0.47110954 1.7301764 0.28853598 -0.7294714
0.38390547 1.2851952 -0.45139125 0.07686828 -1.2063742 -0.8079569 -0.14537093 -1.2053137
-0.49264735 -0.063218355 0.44157767 -0.33859473 0.5630905 1.5325369 0.120237894 -0.13982974
0.38522452 -0.30154654 -0.10191798 2.0178595 0.59274465 1.0554703 0.48649663 0.28538126
-0.3191011 0.42970976 -0.31290412 0.014297783 0.911404 0.53434914 0.53884387 0.33290556
-0.6089262 -0.12194288 -0.14806303 -0.75000674 -0.16973877 0.7211117 0.19113137 -0.09215712
-0.88743424 0.10799745 -1.6917616 0.3685507 -0.26528645 -0.18506077 0.4107289 -0.094100036
0.25940543 0.023557732 0.20310639 -0.6272554 0.47639048 0.78024143 0.43035513 0.08611311
-0.8315384 -2.3471477 -0.78086895 0.33068237 1.6294099 0.7598829 0.266538 -0.712686
0.12249799 0.15248993 -0.13018666 0.28552932 0.62565005 -0.95862573 -0.06104559 0.1440045
0.13548912 -0.107708 0.43654695 0.16751836 1.2061839 1.7482132 -0.60414785 -1.5951543
-0.51235163 0.0137832835 -0.14235656 -0.9054155 0.055609234 0.67213 0.34335402 -0.094515875
-0.43346712 -0.34841725 -0.7414417 -0.21540092 -0.6687114 -1.4462017 0.16901982 0.8528344
1.8501629 -0.11407216 0.6117029 0.23396868 -0.26373392 0.051434275 0.04037279 0.0031337813

net.0.bias f4 [128]
00000000: 2061 db3e a823 b6bd 787f 053e d11e 373e
00000010: 5301 983e 2a84 933d f7ff efbc 48ec 4d3e
00000020: 7515 06bf 0e21 94bd 700f 2d3f ca57 7cbc
00000030: 585a 70be 4aa6 883e f41b d43e 0ae4 5cbe
00000040: eab0 debe baf3 a03e d96c 0b3f 8441 07bf
00000050: e552 fa3e 7e8e fa3e 1226 433f 04ce 463f
00000060: 2846 a93e aece dd3e 534b dfbe fed2 a1be
00000070: d8fa 2c3e e97b 2b3f 12d7 cd3e e895 c43c
00000080: a72b 05bf 14ec d8be c500 2b3f 4bf7 fabe
00000090: 02dd 9e3d 9277 06be 7ef3 ac3e c9c5 9b3e
000000a0: 0ea3 c5be 58e5 cfbe d2fb 473e 7cf1 f9be
000000b0: 3290 233f 1d6c 34bd 3d90 0e3f f7a4 363f
000000c0: 5bac ea3d 2f49 dd3e 4dad 893e a283 373e
000000d0: f15e 883f 1738 3f3d 82c8 c6bc f26b 35bf
000000e0: 319e 533f 6c86 c03e c977 2a3f a4da fbbe
000000f0: 076e 503f bc80 c13e 09bd 2a3f ace6 713f
00000100: da20 833e fb02 a93d 1b74 5ebe 5bc1 983e
00000110: a789 5fbf 5155 cbbe 1e87 f3be a593 d93e
00000120: 1834 5a3f 3f3b 80be f545 7b3e 77b2 5f3e
00000130: e873 89be 533e e0bc aabf 053f d716 143e
00000140: b104 1c3f 8409 f4be 0c2c 07bf cb89 753e
00000150: f836 b43e cf8c 3f3d 1b42 233f 5b0b 9a3e
00000160: dec3 273e 2b6c 31bf bce7 983e 9fcc 66bf
00000170: 6082 dc3e 8e21 fc3e 465c a53e 060e 4b3e
00000180: e32b 70be 7fcb 6d3f ee47 13bf 087c 5ebe
00000190: ea6d 133f dec1 f73d ebd3 94be a226 a7bd
000001a0: e11b 2b3f dad1 ef3e 946d a1bf c55f 123f
000001b0: 1fbf 64bf e9d4 b5be 42a3 a03f 3526 10bf
000001c0: 29a2 1c3e c486 b53e ba84 083f 5c22 da3e
000001d0: fec3 ddbe bdff d1be 5ba4 5c3f 2eed 523f
000001e0: eb76 713f 0710 e93e fffb 38bf dc27 703f
000001f0: e912 013e 5f4c 7ebe 114d 683d d539 54be
0.42847538 -0.0889352 0.13036907 0.1788285 0.2968851 0.07202943 -0.029296858 0.20109665
-0.5237649 -0.07232867 0.6760168 -0.01540179 -0.23471963 0.26689368 0.41427577 -0.21571365
-0.4349435 0.3143595 0.54462963 -0.52834344 0.48891369 0.48936838 0.76229966 0.77658105
0.33061337 0.43321747 -0.43612155 -0.31606287 0.16892564 0.66985947 0.40203148 0.023997262
-0.52019733 -0.42367613 0.6679805 -0.49016795 0.07756998 -0.1313155 0.3377952 0.30424336
-0.38600963 -0.40604663 0.19529656 -0.4881705 0.638919 -0.044048417 0.5568884 0.71345466
0.114586554 0.43219897 0.2689003 0.17921308 1.0653974 0.04668435 -0.024265531 -0.70867836
0.82663256 0.37602556 0.6658903 -0.49190247 0.8141789 0.3779353 0.66694695 0.944926
0.25611 0.082525216 -0.21723978 0.2983502 -0.87319416 -0.3971353 -0.47564024 0.42495456
0.8523574 -0.250452 0.24538405 0.21845423 -0.26846242 -0.027373469 0.5224558 0.14461838
0.6094466 -0.4766351 -0.52801585 0.23978345 0.35198188 0.046765145 0.63772744 0.3008679
0.16383311 -0.69305676 0.298643 -0.90155977 0.43068218 0.4924435 0.32296962 0.19829568
-0.23454241 0.92888635 -0.5753163 -0.21727002 0.5758959 0.12097524 -0.2906793 -0.081616655
0.66839415 0.46839792 -1.2611566 0.5717738 -0.8935413 -0.35514 1.2549822 -0.563083
0.15296234 0.3545438 0.53327525 0.4260434 -0.43313593 -0.41015425 0.86188287 0.8239316
0.9432208 0.4552004 -0.72259516 0.9381082 0.1260487 -0.24833821 0.05671412 -0.20725186

net.2.weight f4 [128, 128]
00000000: 5ddd 603d ad5e 71bd 2359 85bd ff6a 9ebd
00000010: 3f10 a9bd da7d 5dbd 0d0b 92bd 7a97 563c
00000020: a8d2 b83c 40e6 b13b 30da eb3c f2a7 533c
00000030: d73f 3e3d f19e 453d c7f9 b7bd 5165 863d
00000040: 6288 293d 07c9 453d 267b bfbc 803c 993d
00000050: 5c84 c73c b179 3f3d 0af2 8b3a 3d13 1dbd
00000060: 79b2 8fbd 28e2 b13c 2e01 9dbd f62f 9ebd
00000070: 89bc 8d3d 31d1 9fbc 0fbe 06bc 9d1b 8d3d
00000080: 8c7c d43b 0ed8 2bbd 3cd4 2d3c f935 983d
00000090: ae45 1ebd 68f6 3ebd 48c3 febc 73b9 8c3c
000000a0: 524e 88bd 07eb 6fbd 29c3 853d 5474 81bd
000000b0: 9ae1 9bbd 7f60 993c d490 71bd 4509 773d
000000c0: 9cb7 4ebc 8dfd 6bbd 8dbf 6d3d 54de 373d
000000d0: 43d9 c4bd b877 f0bc 1af3 813d 203e f33c
000000e0: 528a 72bd 121e 833c 5fa7 593c f2b4 b4bd
000000f0: 8036 6d3a f0f9 243c 4a83 95bd 8e1c febc
00000100: af33 e03c 6d28 77bc c485 6c3d 6cdf c43c
00000110: 9639 2e3d 7f38 c4bd 3f5f 35bd b347 1c3d
00000120: ab4e edba fd35 f33c d08e c7bc bdfc 2c3d
00000130: 1636 153d 466b e6bc 1b10 86bd bbbb 1dbc
00000140: d85b be3c 4480 aabd cae6 6ebc 455a 99bd
00000150: 702c 0a3c ca74 90bd a0e4 423d 8441 c9bb
00000160: 80f6 5cba 3979 abbd b3fe ec3c 000f 4ebd
00000170: 4495 07bc 4f9c 8cbc 29ad 2d3d 26a6 033d
00000180: 1e03 85bc 5000 953d 4a16 1dbd 0d32 993d
00000190: 2bd8 a9bd 7241 43bd 8693 1a3d b58d 973d
000001a0: 189d 4d3d d407 04bc e9ca 8ebd 9c3d 4ebd
000001b0: 0b37 643d e3cc 5b3d fc16 02bd 5026 b8bd
000001c0: c321 1bbd 4583 5cbd 00c1 493d 679e 6b3d
000001d0: 1999 80bd 09b2 173d 58d9 66bd 6471 843c
000001e0: 2f88 bbbc 6976 82bd c8bf 2e3c 9561 733d
000001f0: df5b fd3c e5b5 8e3b 7e75 30bd 9603 70bd
00000200: 9a2f fabf 3339 01c0 3060 cabe 72bc 62be
00000210: 44bd 983e da4c 4dbe 1ea2 3a3f 73c7 94bf
00000220: d650 0c3f 0c1a 063e 6f30 c8bf 0628 0bbf
00000230: d1e3 f4be 3b22 fd3d b4cb a93e ba88 93bc
00000240: 018c 473e 0a83 20bf b312 de3b bf15 94bf
00000250: 2d69 ce3e e2ef 6dbd f6c5 4ebd c48a 913e
00000260: 5141 25bf bc0d 213e 2f45 573f d344 bdbd
00000270: bb83 333d c120 b43d 594e aebf 5f3d 03c0
00000280: a828 c83e 2999 3a3f 48f7 45bf 5011 133f
00000290: b8f6 10c0 9a7a 0bc0 7492 84be c184 69be
000002a0: 08da ccbe ac87 643e 3db5 aabd 4437 2c3f
000002b0: 8be0 c9be b83c 4f3e 2a9a 803c f956 e33d
000002c0: e766 2d3e b042 433d e7b6 b2bf 8454 00c0
000002d0: 7fda 31c0 c811 f73e 7815 53bd 92a5 dabf
000002e0: e432 863d 615e 41bf 304f a9bd 2398 523e
000002f0: 12a7 0ebf 850a 863e 00b4 c1bf f523 febf
00000300: 85c5 dbbb 4d31 18c0 bcd6 e2bf 85f3 0cbf
00000310: b106 90bf 8f96 36bf 5278 bebf 09d0 d1be
00000320: e32f 6dbf 6e13 ffbf 7827 8bbe f844 cb3e
00000330: e8b4 be3d 4793 19bf a33a a3bf e2bb 233f
00000340: 1fbe 543d eb9f 863f 37f1 233f e4e6 2ec0
00000350: 503b 833d 3761 d4bd 23c4 ac3d 91ae 15bf
00000360: d75a 0e3f afc0 a43e 26aa 50bf 2738 c83d
00000370: 2917 5abf 97ad fdbd 9bb7 9abe 54d3 3fbf
00000380: 4e4a 12c0 a230 a0be e185 013f e753 e03e
00000390: e12b 3cbd bbc2 38be 2ef0 9a3e 9f2c 56be
000003a0: 17ed 4a3e ef37 0ebe 6d14 bfbf 6bcf 303e
000003b0: 62d1 4ebe 4c1e dfbf b664 debf fbd1 d13e
000003c0: e602 95bd a0f6 173f 6905 b63e 425e 01bf
000003d0: aa1d 9a3e a56d 523f ab8a c7bf 9260 253f
000003e0: 2544 1fbe 7b5c 28be 87ca 0a3e 8001 f6be
000003f0: d268 92bd e46d 3f3e 881c ed3e e113 b13e
0.05489861 -0.05892818 -0.06511142 -0.07735252 -0.08255052 -0.0540751 -0.07131014 0.013097638
0.022561386 0.0054290593 0.028790563 0.012918459 0.0464476 0.04824728 -0.08983188 0.06562293
0.04138983 0.048287418 -0.023374151 0.074822426 0.024355106 0.046746913 0.0010676992 -0.038348425
-0.07016463 0.021714285 -0.07666241 -0.077239916 0.06920726 -0.01950893 -0.008224024 0.068900324
0.0064845737 -0.041954093 0.010609683 0.074321695 -0.03864067 -0.04662171 -0.031098977 0.017178273
-0.066555634 -0.05857375 0.065313645 -0.06321016 -0.076113895 0.01872277 -0.05897601 0.060311574
-0.012617018 -0.05761485 0.058044005 0.044889763 -0.09611752 -0.029353961 0.06345196 0.02969271
-0.059213944 0.01600555 0.013284533 -0.08823575 0.00090489537 0.010069355 -0.07300432 -0.031019475
0.027368395 -0.015085322 0.057744756 0.024032317 0.042535387 -0.09581088 -0.044280287 0.038154315
-0.001810511 0.02968883 -0.02436009 0.042233218 0.036428533 -0.028127324 -0.065460406 -0.009627278
0.023237154 -0.08325246 -0.014581392 -0.07487921 0.008433446 -0.07053526 0.047581315 -0.0061418433
-0.00084290653 -0.08372731 0.028930044 -0.050307274 -0.008275334 -0.017164377 0.042401467 0.032140873
-0.016236838 0.0727545 -0.038351335 0.074802496 -0.08293184 -0.047669835 0.037738346 0.07400075
0.050198644 -0.008058507 -0.06972296 -0.050351724 0.055716556 0.053662192 -0.0317602 -0.089916825
-0.037873995 -0.053836126 0.049256325 0.05752411 -0.06279201 0.037035022 -0.05635962 0.01616735
-0.022892086 -0.06370241 0.010665841 0.059419233 0.030927597 0.0043551796 -0.0430808 -0.05859717
-1.9545777 -2.0191162 -0.3952651 -0.22142199 0.29831898 -0.20048848 0.7290362 -1.1623367
0.54810846 0.13095874 -1.5639781 -0.54357946 -0.4783006 0.123600446 0.33163226 -0.018009532
0.19487001 -0.6269995 0.0067771315 -1.1569136 0.40314618 -0.0580901 -0.05048176 0.28426182
-0.6455279 0.15727895 0.8408994 -0.09241643 0.0438268 0.0879531 -1.361766 -2.0506208
0.39093518 0.72889954 -0.77330446 0.5744829 -2.2650585 -2.179358 -0.25892985 -0.22804548
-0.40010095 0.2231738 -0.0833535 0.6727183 -0.39429125 0.20238006 0.015698511 0.11100573
0.16933785 0.04767102 -1.3962067 -2.0051584 -2.778961 0.48255754 -0.051534146 -1.7081778
0.06552675 -0.75534636 -0.08267057 0.20565848 -0.5572368 0.261799 -1.5133057 -1.9854723
-0.006706896 -2.378009 -1.7721782 -0.5505908 -1.1252042 -0.71323484 -1.4880469 -0.4097903
-0.92651194 -1.9927804 -0.2717855 0.39701056 0.09311849 -0.5999035 -1.275227 0.6395856
0.051939126 1.0517553 0.6403994 -2.7328424 0.06407797 -0.10370105 0.084358476 -0.5846949
0.5560736 0.32178256 -0.81509626 0.09776335 -0.8519159 -0.12386625 -0.30218205 -0.74931836
-2.2857852 -0.31287104 0.5059491 0.43814012 -0.045940284 -0.18043034 0.30261368 -0.20915459
0.19817005 -0.13888524 -1.4928108 0.17266624 -0.2019706 -1.7431121 -1.7374485 0.40980515
-0.072759435 0.59360695 0.35551003 -0.5053445 0.30100757 0.82198554 -1.5589193 0.6460048
-0.15553339 -0.16441528 0.1355382 -0.4804802 -0.07148899 0.18694264 0.4631083 0.3458548

net.2.bias f4 [128]
00000000: de44 b4bd c7a5 89bf 7ddd b1bc adb1 88bd
00000010: 98db cd3d e292 b73c 2407 543f 00c0 833c
00000020: 2a28 ddbe ab97 25bd 5d1e 463d 8313 693d
00000030: 9de7 5ebc 7a7a b03c e7b4 6ebd 6759 8e3d
00000040: 5c5b 843d 7fb7 6abc 3c21 8739 8110 7fbd
00000050: 18e3 3fbe 90b5 edbc fc62 6c3f 8cd7 303e
00000060: 3132 65bd 1092 bebd 2c15 413d f30d 8bbd
00000070: fdcc 62be 067d e3bd 3321 353f 6a95 1a3d
00000080: 8412 a73c ea26 96be 12d7 59bc c7d0 203e
00000090: fa9d 94be c22f a6ba 79af 253d bd2a 05be
000000a0: c733 1e3d c14d c63b 3d92 0cbe d258 d1bb
000000b0: c89b 173d bbc9 023f 811f 893b 6c66 013d
000000c0: def4 8bbc c386 4a3f 556c 6dbe 3f37 ddbc
000000d0: d943 9c3c 6800 233f dbaf 083d d46b 723d
000000e0: 2a71 0f3f 3ddc a23d 7c20 da3b d2f8 823d
000000f0: ad6b 76be 8dc1 763d b17b 7c3c 36b1 bf3d
00000100: e7f7 7b3e 295e 47bc abdf 21bd e9d8 00be
00000110: f450 7cbd a82f 713d 27be aebd 3c3c 47bb
00000120: a26c 093c b7e3 01bd 74b5 d43d 2652 d9bc
00000130: 9241 2e3e 4cf2 153d 01bc 3e3f 1d6c 303d
00000140: 983b 5f3c 697e 5c3c b582 afbd aa6a 6d3e
00000150: a5b4 d53d ecc8 c03c d9dd 413c 1138 443d
00000160: f6df b0bd 5b30 bbbd 52ed b9bd 6ad0 5b3c
00000170: 97c4 2ebe 1252 b1bd dba4 a23e b3fe 823d
00000180: ae7d 3d3d c6f9 b4bd 33c3 953d f25d a53e
00000190: 2e2b 55bc 710b 8d3e 3562 a23d bbc8 d3bc
000001a0: 22e7 7e3c 0abf 5b3d 35d9 ab3d 7ee4 233d
000001b0: b4be 493d 7e7b 383e eddd 7bbd 8edc e7bc
000001c0: 67e7 b1bc 2962 78bd e63f a8bb fa09 80bd
000001d0: 8860 7abb afdd 803d 6e45 87bd 789d bebd
000001e0: ac0c ae3c 3442 c6bd 9fe4 eabb 8821 103e
000001f0: 2a2c 113d e086 30bd e7a5 daba 28df 183e
-0.08802198 -1.0753716 -0.02171206 -0.06674514 0.1005165 0.022408906 0.82823396 0.016082764
-0.43194705 -0.040427845 0.0483688 0.056903373 -0.013605026 0.021542776 -0.05827799 0.06950646
0.06462738 -0.014325975 0.00025773968 -0.0622716 -0.18738973 -0.02901724 0.9233854 0.17269725
-0.05595607 -0.09305203 0.04713933 -0.0678977 -0.2214851 -0.11107831 0.70753783 0.03774015
0.020394571 -0.29326564 -0.013295906 0.15704642 -0.29026777 -0.0012679028 0.040450547 -0.13004585
0.038623597 0.0060517495 -0.1372766 -0.006388762 0.0370138 0.51089066 0.0041846638 0.031591818
-0.017084535 0.7911188 -0.23185857 -0.027003882 0.019075321 0.63672495 0.033370834 0.059184864
0.5603205 0.07952163 0.0066567045 0.06395115 -0.24064513 0.06024318 0.01541035 0.09359972
0.24606286 -0.012168446 -0.039519947 -0.12582745 -0.06160064 0.05888334 -0.085323624 -0.0030400893
0.0083877165 -0.031711306 0.10386172 -0.02652843 0.170172 0.036608025 0.7450562 0.043071855
0.013625048 0.013457873 -0.08569852 0.2318522 0.10434846 0.023533307 0.011832678 0.04790503
-0.08636467 -0.091400824 -0.090784684 0.013416389 -0.1706718 -0.08658232 0.317664 0.06396236
0.046262436 -0.08836703 0.07312622 0.32298237 -0.013010783 0.27547792 0.07928888 -0.025852552
0.015558036 0.053648986 0.08391038 0.04001283 0.049254134 0.18015859 -0.06149094 -0.02830341
-0.021716787 -0.060640488 -0.0051345704 -0.06251903 -0.003820451 0.06292283 -0.066050395 -0.093073785
0.021246277 -0.09680596 -0.007168367 0.14075291 0.03544251 -0.043097377 -0.0016681523 0.14928877

net.4.weight f4 [4, 128]
00000000: 2fb0 80bb c81c c2be 6a09 e0be 9f4c 40bd
00000010: 170f 02bf 8f4f d8be 3b9b b33f 64bb ac3d
00000020: faeb 0340 34cb b6be fb99 c7be c3e4 cbbe
00000030: 1050 acbe 54ce 1b40 f0ea 0cbf 6eb9 c3be
00000040: 1b16 c7be 2c88 a73c 743d edbe d6f8 c3be
00000050: 477a f03f 4062 0abf 17b0 e23f 2f48 ecbf
00000060: ac4a 80bf 86b6 6c3c 5879 09bf 55f9 09c0
00000070: 8beb 0440 ec0c f1be a89b b83f 842c 90be
00000080: 1293 cbbe 79f0 39c0 33f9 e4be 00f8 5ebe
00000090: 75ac 6cbf 2a21 bfbe b890 d5be 0547 00bf
000000a0: 26f7 d7be 88a0 a33f 633c 9cbf 9032 9c3f
000000b0: a810 2bbf a43a c23f bd43 f6be cbc6 5abe
000000c0: 415b 05bf db1b b43f 15a7 e53f 874b cbbe
000000d0: 7de3 d2be 7c33 0a3f 6497 fabe ca5d 99be
000000e0: 1dfe f03e b1d8 2b3e 32b1 d5be fa50 f5be
000000f0: 08bb 1a40 302e 15bd 0211 efbe 5164 c9be
00000100: f725 a7be 426b eabe 90aa f7be e361 a0bf
00000110: ed94 ebbe c830 01bf 8c79 e3be eac9 a8bd
00000120: 5870 43bf e546 d1be 4ef6 8dbe f159 f0be
00000130: 5fbd 6f3f 9d21 9fbe 3254 cf3f b59a c3be
00000140: ea2e babe ca8b 07bd 99a1 cdbe f0d3 6cbf
00000150: 0430 47be e7fd 07bf e4cd b9be 5511 fdbe
00000160: 1c11 edbe 222f 6b3d f566 da3a f278 b7be
00000170: 927d 0a40 2ce1 39bf ea9b 623e 022c ecbe
00000180: ee5b 0dbf b565 97bc 353d 97be 4093 6f3e
00000190: bd44 1ac0 0f65 c63f dd89 d8be b128 85bf
000001a0: 5b79 8cbd ba67 7abe 3c09 dcbe 84bf febe
000001b0: 7cdb a8be a00a 893f 88cb 9bbf 5b3f babe
000001c0: b64b 01bf 0b74 80bd b160 e9be 36e9 293d
000001d0: 376c debe 906b d6be 4155 223d da5d 373c
000001e0: d13e f4be c7e0 f8be 5eee e2be be9d d03f
000001f0: 52a5 f9be 3aed 39bf 100a f1be 44ef 1abd
00000200: 6ff3 5dbd 9623 553f 314c ffbe 02df d63c
00000210: d4e7 00bf 958c f2be b660 823f 771d 82bd
00000220: db7c 1040 d584 dabe b34b 85be 63ae 36bf
00000230: bc89 eebe da92 0840 8d51 efbe 8e34 14bd
00000240: d261 60be 917a 6fbd b4e1 11bf 626a 1cbf
00000250: 882f e23f 7873 0dbf af51 0040 413a 7a3e
00000260: cc4d b6be d844 4d3d 581b 59bf 6c3b 8bbf
00000270: 79dc 0740 94db a3be ef4b cf3f 9bd8 03bf
00000280: c0f5 92be 7d8f 02c0 4bcb 18bf aa43 053e
00000290: 2aa5 1cbf 4d51 e0be c1bd 9abe cee4 c8bf
000002a0: bdcb 7dbe cd4e c93f baa0 cdbf b9c5 b33f
000002b0: 3966 9fbf 404c 9a3f b4f8 03bf 55b9 f0be
000002c0: b590 45bf f2d3 b93f 8b94 0a40 6302 79bf
000002d0: 8eef f4be a4bb 5f3f 5289 58bf df52 4cbf
000002e0: 18bc d03f 1297 27bf ec1c 07bf 1a98 bebe
000002f0: b8fd 2540 9c9c e43e 86c5 c5be 1f51 14bf
00000300: a98d 063f 4831 14bf 331f 18bf bb8f 1abf
00000310: b1d4 20bf bbe0 22bf 1dc4 0cbf 5c30 fb3c
00000320: 41d1 62bf 472d 6dbe eccb 90bd 3ed7 b4be
00000330: d698 6c3d b932 2ebf 898e b63f 49c9 b2be
00000340: 2a56 2fbf 3e1e 8d3d d961 08bf 8f6b 98bf
00000350: bc80 10bf 2281 0fbf bd95 1bbf e9b6 1cbf
00000360: 0f39 03bf 5929 ae3d 9cd9 a03c c105 99be
00000370: 0f6f 1640 2ead bd3e 27f5 023f 0f92 1abf
00000380: 5e4c 77be 0f11 183d 8122 67be d115 f73e
00000390: d60d 03c0 1512 873f 36e3 efbe 4e56 49bf
000003a0: 8251 8dbc 5bd6 39bf c447 a2be 517b 7abe
000003b0: 0150 b6be e902 663f 952f 0cc0 9015 ddbe
000003c0: 9d10 1dbe 9c28 a43d 416e 5dbe 9f82 1bbc
000003d0: d133 9bbe 5950 40be 2f92 0a3d c895 1c3c
000003e0: dd15 8dbe b6f0 d6be 9ba2 17bf 5a93 e33f
000003f0: 2d7c 41be 16c3 a4be e67e f9be 226e 523e
-0.0039272527 -0.37912583 -0.43757182 -0.04694807 -0.50804275 -0.42248198 1.4031748 0.084341794
2.0612779 -0.35701907 -0.38984665 -0.3982297 -0.33654833 2.4344683 -0.55045986 -0.3822741
-0.38884053 0.020450674 -0.46335948 -0.38275784 1.8787316 -0.5405617 1.7709988 -1.8459529
-1.0022788 0.014447814 -0.5370078 -2.155843 2.0768764 -0.4708017 1.4422503 -0.28158963
-0.39760643 -2.9053023 -0.44721374 -0.21774292 -0.9245065 -0.3732999 -0.41711974 -0.5010837
-0.42180747 1.2783365 -1.2205929 1.220293 -0.6682229 1.5174146 -0.48098555 -0.21364896
-0.5209237 1.4071001 1.7941614 -0.3970606 -0.41189185 0.5398481 -0.48943627 -0.29954368
0.47068873 0.1678188 -0.41736752 -0.47913343 2.4176655 -0.036421 -0.46692663 -0.39334348
-0.32646152 -0.45784956 -0.48372316 -1.2529873 -0.4601206 -0.5046506 -0.4442867 -0.08241637
-0.763433 -0.408744 -0.27726978 -0.4694362 0.9364833 -0.31080332 1.6197569 -0.3820397
-0.36363918 -0.033092298 -0.40162352 -0.9251089 -0.1945191 -0.531218 -0.36289895 -0.49427286
-0.46302116 0.057417996 0.0016662764 -0.3583446 2.1639142 -0.7260921 0.22129789 -0.46127325
-0.552184 -0.018481115 -0.29538885 0.23396015 -2.4104455 1.5499591 -0.4229268 -1.0403043
-0.06859084 -0.24453631 -0.42975795 -0.4975549 -0.32979953 1.0706367 -1.2171488 -0.3637646
-0.5050615 -0.062721334 -0.45581582 0.041482173 -0.43441936 -0.4187894 0.039632086 0.01119181
-0.47704175 -0.48608992 -0.44322485 1.6298139 -0.48758942 -0.72627604 -0.4707799 -0.037825838
-0.054187234 0.83257425 -0.49862817 0.026229385 -0.5035374 -0.4737288 1.0185764 -0.06353276
2.2576206 -0.42679468 -0.26034316 -0.71359843 -0.46589458 2.133963 -0.46741906 -0.036182933
-0.21912315 -0.058466498 -0.5698502 -0.6109983 1.7670755 -0.55254316 2.0049856 0.24436285
-0.3560623 0.050114483 -0.8480735 -1.0877509 2.1228316 -0.32003462 1.6195048 -0.5150239
-0.28703117 -2.0400078 -0.596852 0.13014093 -0.6118952 -0.43812028 -0.30222896 -1.5694826
-0.24784751 1.5727173 -1.6064675 1.4044715 -1.2453071 1.205452 -0.51551366 -0.47016397
-0.7717393 1.4517806 2.1653163 -0.97269267 -0.47839016 0.8739569 -0.84584534 -0.7981395
1.6307402 -0.6546489 -0.52778506 -0.3722542 2.5936108 0.44650733 -0.3862726 -0.5793628
0.52559906 -0.578877 -0.59422606 -0.60375565 -0.6282454 -0.6362416 -0.54986745 0.030662708
-0.88600546 -0.23161803 -0.07070145 -0.35320467 0.057762943 -0.68046147 1.4262248 -0.34919193
-0.6849085 0.06890534 -0.53274304 -1.1907824 -0.56446433 -0.56056416 -0.6077536 -0.612166
-0.5125894 0.0850398 0.019635014 -0.29887202 2.3505285 0.37046188 0.5115532 -0.6037912
-0.24150226 0.037125643 -0.22571756 0.48258832 -2.0477195 1.0552393 -0.46853036 -0.78647316
-0.01725078 -0.72592705 -0.31695378 -0.24461104 -0.35607913 0.8984819 -2.1904042 -0.43180513
-0.15338369 0.08015558 -0.2162409 -0.009491592 -0.3031297 -0.1878065 0.033830818 0.009557195
-0.27555743 -0.41980523 -0.5923249 1.7779343 -0.18895026 -0.3218009 -0.48729628 0.20549825

net.4.bias f4 [4]
00000000: 190a 9abd 2f21 b83e 0a26 333c 9352 1cbd
-0.07521457 0.35962817 0.010934362 -0.038164686
