SARSA/dsqn/model_weights.pth (torch, 75869 bytes, 6 tensors)

net.0.weight f4 [128, 8]
0	0x3f90d6d7	1.1315564
1	0x3ef600ff	0.48047635
2	0x3ecb8330	0.39748526
3	0xbebaca4d	-0.36482468
4	0xbf88ef65	-1.0698057
5	0x3e5507dd	0.20803781
6	0xbe0b050e	-0.13576147
7	0xbe976931	-0.29572442
8	0x3fa9966f	1.3249034
9	0x3e569644	0.2095576
10	0x3f8fc6fd	1.1232601
11	0x3e935180	0.28773117
12	0xbf3099e0	-0.68984795
13	0x3e93aab5	0.28841177
14	0x3d405971	0.046960298
15	0xbd6680cb	-0.05627517
16	0xbfe7e498	-1.8116636
17	0x3f91c686	1.138871
18	0x3e5f3e68	0.2180115
19	0xbdc2ed4d	-0.09517918
20	0x3d8d0744	0.068861514
21	0x3c49ec18	0.012324356
22	0x3d7c5887	0.061607864
23	0xbead7869	-0.33880928
24	0x3f10fef1	0.5663901
25	0x3fa7af87	1.3100442
26	0x3e7295f2	0.23690012
27	0xbf31dec6	-0.6948055
28	0xbd8e21db	-0.06940051
29	0x3de79dd0	0.11309397
30	0x3c593190	0.0132564455
31	0x3dd135a9	0.10215313
32	0xbed1719d	-0.40906993
33	0xbde8ea7c	-0.11372849
34	0xbd950dd5	-0.07278029
35	0xbd697c94	-0.057003573
36	0x3f4091d6	0.7522253
37	0x3f76d669	0.96420914
38	0x3f3a9007	0.7287602
39	0x3eb594af	0.35465
40	0xbfd743af	-1.681753
41	0xbe104c7d	-0.14091678
42	0x3d588dbc	0.052869543
43	0xbf12546f	-0.57160085
44	0xbefcbdb1	-0.49363473
45	0xbf88eac9	-1.0696651
46	0x3ea70b03	0.3262559
47	0x3d22feab	0.03979365
48	0xbc801f2e	-0.015639868
49	0x3c40ca28	0.011766948
50	0xbf25356b	-0.64534634
51	0x3de4a13b	0.11163565
52	0xc0123f57	-2.285116
53	0xbe843021	-0.2581797
54	0xbd78b310	-0.060717642
55	0xbd0534c2	-0.032521017
56	0xbfb5f860	-1.4216423
57	0xbe7dd2a9	-0.24787392
58	0xbdd75014	-0.105133206
59	0x3ef99da4	0.48753083
60	0xbe061e9c	-0.13097614
61	0x3e9eef83	0.31042108
62	0x3de62043	0.11236622
63	0xbd12cddb	-0.03584085
64	0x3d3c3502	0.04594899
65	0xbe014b77	-0.12626444
66	0xbe268303	-0.16260915
67	0xbe8f79fb	-0.2802275
68	0x3f91dc3e	1.1395338
69	0x3f500ee6	0.81272733
70	0x3e5b66a6	0.21425876
71	0x3e935cd8	0.28781772
72	0xbfcbaaf7	-1.5911549
73	0xbf10c28d	-0.5654686
74	0x3ee9f865	0.45697322
75	0xbe43480c	-0.19070452
76	0xbf89e4b6	-1.0772922
77	0x3e936ec0	0.28795433
78	0x3e946ea6	0.28990668
79	0xbf1f072e	-0.6212033
80	0x3fe9df9e	1.8271368
81	0xbd131d51	-0.03591663
82	0xbea81508	-0.32828546
83	0x3faa3973	1.3298782
84	0x3e97ff56	0.29686993
85	0x3e51fa8f	0.20505737
86	0xbccf5bbc	-0.025312297
87	0xbf6c3fe8	-0.92285013
88	0xbf5ee48e	-0.87067497
89	0xbfa03c0f	-1.2518328
90	0xc02595a8	-2.5872593
91	0x3ee0f1c9	0.43934467
92	0x3ec53059	0.3851345
93	0xbded54e6	-0.11588459
94	0x3f34d714	0.70640683
95	0x3ee1758b	0.4403499
96	0xbf5cf24c	-0.86307216
97	0x3e6f9729	0.23397507
98	0xbe85dab6	-0.26143426
99	0x3fb5e70b	1.4211134
100	0xbf4a171c	-0.7894151
101	0x3f45721e	0.77127254
102	0x3eb46f88	0.35241342
103	0x3f092b2e	0.5358151
104	0xbdbd3dda	-0.09240313
105	0x3b8b6af9	0.0042546955
106	0xbe898615	-0.2686011
107	0x3e8011f1	0.25013688
108	0x3f7a6b20	0.9781971
109	0x3f1ca98a	0.61196196
110	0x3f1bfa61	0.6092892
111	0xbea9ad94	-0.33140242
112	0xbf043fde	-0.51659954
113	0x3d0c9c5d	0.034328807
114	0x3ee244a6	0.44193
115	0xbf16821d	-0.5879229
116	0x3ec63a67	0.38716432
117	0x3f84fabf	1.0389022
118	0x3ec3a030	0.3820815
119	0xbcc30649	-0.023806708
120	0xbf394ac5	-0.72379714
121	0xbebf4f05	-0.37364975
122	0xbefb05a0	-0.4902773
123	0x3f471df2	0.7778007
124	0xbef7ebd2	-0.48422104
125	0x3cebfe92	0.028807912
126	0x3f0f4b8e	0.5597466
127	0x3e124e16	0.142876
128	0xbf5db843	-0.86609286
129	0xbeb8eea5	-0.3611957
130	0xbe0fe69f	-0.14052819
131	0xbf30d574	-0.69075704
132	0xbf5d89cd	-0.8653839
133	0xbe899335	-0.26870123
134	0xbd026ec5	-0.03184392
135	0xbf10748b	-0.5642783
136	0x3eb33511	0.35001424
137	0x3e2d09dc	0.16898292
138	0xbc79f6fd	-0.0152566405
139	0x3eafa0ea	0.34302455
140	0xbdb45591	-0.08805383
141	0x3d781054	0.060562447
142	0x3f103f23	0.5634634
143	0x3f49adad	0.78780633
144	0x3f0b01c0	0.54299545
145	0x3f32cbe2	0.6984235
146	0xbf5d0814	-0.8634045
147	0xbe68e841	-0.22744848
148	0xbf09673d	-0.53673154
149	0x3fe9b285	1.8257605
150	0x3ed8e04d	0.42358628
151	0xbf369f4a	-0.71336806
152	0x3f4b72ab	0.79471844
153	0x3ef410bb	0.47669014
154	0xbe5193ed	-0.20466585
155	0x3fa94f8e	1.3227403
156	0xbf584a4d	-0.84488374
157	0xbed05f5e	-0.4069776
158	0xbe8a8f6f	-0.27062556
159	0xbf9a47b8	-1.2053137
160	0xbf1375c2	-0.5760156
161	0xbe2334b7	-0.15938078
162	0x3ec54867	0.385318
163	0xbea9b139	-0.33143023
164	0x3eedc1a0	0.46436787
165	0x3fb6dee2	1.4286768
166	0x3e048e74	0.12944967
167	0xbdcadf9e	-0.09905933
168	0x3eb583ac	0.3545202
169	0xbfbad539	-1.459632
170	0xbe988d00	-0.29795074
171	0x3fc866f3	1.5656418
172	0x3ee5ae68	0.44859624
173	0x3f905717	1.1276578
174	0x3ede42d3	0.43410358
175	0x3e61a806	0.22036752
176	0xbed21a5f	-0.41035745
177	0x3ecb393c	0.39692104
178	0xbed89746	-0.42302912
179	0x3e0cab68	0.13737261
180	0x3f842a20	1.0325356
181	0x3ef91a71	0.48652986
182	0x3ee5d4a1	0.44888785
183	0x3e7a198b	0.24423806
184	0xbf1b7bc3	-0.6073572
185	0xbd6012a4	-0.054705277
186	0xbdcb8adc	-0.09938595
187	0xbf475ffa	-0.77880824
188	0xbe4a3c9b	-0.19749682
189	0x3f2fd975	0.6869119
190	0x3e6c3f8b	0.23071115
191	0xbdc1101c	-0.09426901
192	0xbf4dbe9e	-0.80368984
193	0x3df8e79d	0.12153552
194	0xc00cb7b7	-2.198713
195	0x3ec7f0e2	0.39050967
196	0xbf03dff1	-0.5151358
197	0xbe5d606e	-0.21618816
198	0x3e97994f	0.29609153
199	0xbd8d0300	-0.06885338
200	0x3e7e61ce	0.24841997
201	0xbd185b46	-0.03719642
202	0x3e55beb1	0.20873524
203	0xbf2a400f	-0.66503996
204	0x3ed1332a	0.40859348
205	0x3f305e6f	0.68894094
206	0x3ef6395e	0.48090643
207	0x3dc098f4	0.094041735
208	0xbf591354	-0.8479512
209	0xc0897d1d	-4.2965226
210	0xbe572826	-0.21011409
211	0xbe7fd3e3	-0.24983172
212	0x3faafd69	1.3358585
213	0x3f5d401c	0.8642595
214	0x3ef1dab5	0.47237173
215	0xbf90d15b	-1.131389
216	0x3dd5d22e	0.10440479
217	0x3c8ad73d	0.016948337
218	0x3daf6433	0.08564033
219	0x3f297a71	0.66202456
220	0x3f3ce641	0.7378884
221	0xbf89c893	-1.0764335
222	0xbe0b66b5	-0.13613398
223	0x3e99db76	0.30050248
224	0xbf94bd2b	-1.162023
225	0x3e1d1fe5	0.15344198
226	0x3dc9d7af	0.098555915
227	0x3dc3bfe2	0.09558083
228	0x3f3592a8	0.70926905
229	0x3fed89e0	1.8557701
230	0xbf156391	-0.5835505
231	0xbffdb3ad	-1.9820458
232	0xbf0aaa22	-0.5416585
233	0x3df769bb	0.12080713
234	0xbd0b208e	-0.033966593
235	0xbf764060	-0.9619198
236	0xbc8b80d6	-0.017029207
237	0x3f195665	0.5989745
238	0x3ecc83df	0.3994436
239	0xbe064dc6	-0.13115606
240	0xbf296f32	-0.66185296
241	0xbe80006a	-0.25000316
242	0xbf3ce79a	-0.73790896
243	0xbec5b4e8	-0.38614583
244	0xbf01b551	-0.5066729
245	0xbfcc08d9	-1.59402
246	0x3de64928	0.11244422
247	0x3f25696d	0.6461399
248	0x40136bbe	2.303451
249	0xbe4d6bf0	-0.20060706
250	0x3f09adda	0.537809
251	0x3e90818d	0.2822384
252	0xbd299b42	-0.04140783
253	0x3e1392e5	0.14411505
254	0xbb4bdcf4	-0.003110704
255	0xbb05756e	-0.0020364183

net.0.bias f4 [128]
0	0x3eec926a	0.46205455
1	0xbe51250d	-0.2042429
2	0x3e0336ea	0.12813917
3	0x3d835686	0.064129874
4	0x3ea21070	0.31653166
5	0xbdade99a	-0.084918216
6	0xbe7fb89b	-0.24972765
7	0x3e97a00e	0.296143
8	0xbf047fda	-0.51757586
9	0x3ec55433	0.385408
10	0x3f3222d3	0.6958439
11	0xbe012b3e	-0.12614152
12	0xbe9818b3	-0.29706344
13	0x3ec5b37e	0.38613504
14	0x3ee80521	0.45316413
15	0xbe193cf0	-0.14964652
16	0xbf45e12e	-0.7729672
17	0x3e9b0872	0.3027988
18	0x3ebf2f4d	0.37340775
19	0xbfa43c18	-1.2830839
20	0x3f100fbb	0.56274
21	0x3f5dd8d8	0.86659
22	0x3f439daf	0.7641248
23	0x3f3f4320	0.747118
24	0x3ee3081e	0.4434213
25	0x3ebc369c	0.36760414
26	0xbebee1bd	-0.372816
27	0xbece0b13	-0.40242824
28	0x3d6effca	0.05834941
29	0x3f1bb217	0.6081862
30	0x3f15bbcb	0.58489674
31	0x3d8416fa	0.06449695
32	0xbf124efa	-0.5715176
33	0xbebf00b8	-0.37305236
34	0x3f298d6f	0.66231436
35	0xbf0cf1ff	-0.55056757
36	0x3e3c8950	0.18411756
37	0xbe640b65	-0.22269972
38	0x3ea61d42	0.32444197
39	0x3ef7109e	0.48254865
40	0xbeb26704	-0.3484422
41	0xbef0a6f6	-0.4700238
42	0x3dd0347a	0.10166259
43	0xbf053ac0	-0.5204277
44	0x3f25ce80	0.6476822
45	0x3ccbf719	0.024898099
46	0x3eea1c83	0.45724878
47	0x3f6093c8	0.87725496
48	0xbe54b680	-0.20772743
49	0x3ee90937	0.45514843
50	0x3e968f50	0.29406214
51	0x3e5c1959	0.21494044
52	0x3f96592d	1.1745964
53	0x3bd5a546	0.0065199463
54	0xbee83c2b	-0.45358405
55	0xbf356bf2	-0.70867836
56	0x3f41b139	0.75661045
57	0x3eeb99a5	0.4601566
58	0x3f289e16	0.6586622
59	0xbeee15b5	-0.46500936
60	0x3f5d492d	0.8643978
61	0x3f38834f	0.7207536
62	0x3f43fdd2	0.76559174
63	0x3f7974a8	0.9744363
64	0x3ed0e95f	0.40803048
65	0x3e78fd8a	0.24315467
66	0xbe898ad2	-0.26863724
67	0x3e8db569	0.27677467
68	0xbeda6e6a	-0.42662364
69	0xbeaa84b4	-0.3330437
70	0xbed2367e	-0.410572
71	0x3e82ba00	0.25532532
72	0x3f449577	0.76790565
73	0xbe805e10	-0.25071764
74	0x3ec96f65	0.393428
75	0x3ed223e1	0.41042998
76	0xbea6efa0	-0.32604694
77	0xbec789b3	-0.38972244
78	0x3f17f306	0.593552
79	0x3e8d6447	0.27615568
80	0x3efeef4f	0.49791953
81	0xbed91d82	-0.42405325
82	0xbecf8005	-0.4052736
83	0x3ec9d7ba	0.394224
84	0x3e8d7a92	0.27632576
85	0x3e6ac519	0.2292675
86	0x3f0a5f0d	0.54051286
87	0x3efc6fcc	0.49304044
88	0x3e23d38e	0.1599867
89	0xbf6a549b	-0.9153535
90	0xbcceee4c	-0.025260113
91	0xbf693d26	-0.9110893
92	0x3e5e79f4	0.21726209
93	0x3ed52c9e	0.41635603
94	0x3eca1b73	0.39474067
95	0x3d3f4f96	0.04670676
96	0x3d77c365	0.060489077
97	0x3f6b02f3	0.91801375
98	0xbf180cbf	-0.5939445
99	0xbf052abc	-0.5201833
100	0x3ef67d32	0.4814239
101	0xb992c8c7	-0.0002799688
102	0xbeb25cb3	-0.3483635
103	0xbdc0b3e6	-0.09409313
104	0x3f1d50d5	0.61451465
105	0x3eaa0432	0.33206326
106	0xbfa7b4c6	-1.3102043
107	0x3ebb5117	0.36585304
108	0xbf5b2776	-0.8560709
109	0xbec8518b	-0.39124712
110	0x3fbbae97	1.4662656
111	0xbf0eb217	-0.55740494
112	0x3e1a3c93	0.1506217
113	0x3efa5fa1	0.48901084
114	0x3f0a7bd1	0.5409518
115	0x3e8f1dd3	0.27952442
116	0xbf1179dc	-0.5682657
117	0xbf330060	-0.6992245
118	0x3f60fa1b	0.8788163
119	0x3f5a8ea1	0.85373884
120	0x3f6f0aa8	0.93375635
121	0x3f14bc8e	0.5810021
122	0xbf2acf33	-0.6672241
123	0x3f60896b	0.87709683
124	0x3e216da0	0.15764475
125	0xbe9ba4fc	-0.3039931
126	0x3cc63b92	0.024198327
127	0xbe0cd619	-0.13753547

net.2.weight f4 [128, 128]
0	0x3d60dd5d	0.05489861
1	0xbd715ead	-0.05892818
2	0xbd855923	-0.06511142
3	0xbd9e6aff	-0.07735252
4	0xbda9103f	-0.08255052
5	0xbd5d7dda	-0.0540751
6	0xbd920b0d	-0.07131014
7	0x3c56977a	0.013097638
8	0x3cb8d2a8	0.022561386
9	0x3bb1e640	0.0054290593
10	0x3cebda30	0.028790563
11	0x3c53a7f2	0.012918459
12	0x3d3e3fd7	0.0464476
13	0x3d459ef1	0.04824728
14	0xbdb7f9c7	-0.08983188
15	0x3d866551	0.06562293
16	0x3d298862	0.04138983
17	0x3d45c907	0.048287418
18	0xbcbf7b26	-0.023374151
19	0x3d993c80	0.074822426
20	0x3cc7845c	0.024355106
21	0x3d3f79b1	0.046746913
22	0x3a8bf20a	0.0010676992
23	0xbd1d133d	-0.038348425
24	0xbd8fb279	-0.07016463
25	0x3cb1e228	0.021714285
26	0xbd9d012e	-0.07666241
27	0xbd9e2ff6	-0.077239916
28	0x3d8dbc89	0.06920726
29	0xbc9fd131	-0.01950893
30	0xbc06be0f	-0.008224024
31	0x3d8d1b9d	0.068900324
32	0x3bd47c8c	0.0064845737
33	0xbd2bd80e	-0.041954093
34	0x3c2dd43c	0.010609683
35	0x3d9835f9	0.074321695
36	0xbd1e45ae	-0.03864067
37	0xbd3ef668	-0.04662171
38	0xbcfec348	-0.031098977
39	0x3c8cb973	0.017178273
40	0xbd884e52	-0.066555634
41	0xbd6feb07	-0.05857375
42	0x3d85c329	0.065313645
43	0xbd817454	-0.06321016
44	0xbd9be19a	-0.076113895
45	0x3c99607f	0.01872277
46	0xbd7190d4	-0.05897601
47	0x3d770945	0.060311574
48	0xbc4eb79c	-0.012617018
49	0xbd6bfd8d	-0.05761485
50	0x3d6dbf8d	0.058044005
51	0x3d37de54	0.044889763
52	0xbdc4d943	-0.09611752
53	0xbcf077b8	-0.029353961
54	0x3d81f31a	0.06345196
55	0x3cf33e20	0.02969271
56	0xbd728a52	-0.059213944
57	0x3c831e12	0.01600555
58	0x3c59a75f	0.013284533
59	0xbdb4b4f2	-0.08823575
60	0x3a6d3680	0.00090489537
61	0x3c24f9f0	0.010069355
62	0xbd95834a	-0.07300432
63	0xbcfe1c8e	-0.031019475
64	0x3ce033af	0.027368395
65	0xbc77286d	-0.015085322
66	0x3d6c85c4	0.057744756
67	0x3cc4df6c	0.024032317
68	0x3d2e3996	0.042535387
69	0xbdc4387f	-0.09581088
70	0xbd355f3f	-0.044280287
71	0x3d1c47b3	0.038154315
72	0xbaed4eab	-0.001810511
73	0x3cf335fd	0.02968883
74	0xbcc78ed0	-0.02436009
75	0x3d2cfcbd	0.042233218
76	0x3d153616	0.036428533
77	0xbce66b46	-0.028127324
78	0xbd86101b	-0.065460406
79	0xbc1dbbbb	-0.009627278
80	0x3cbe5bd8	0.023237154
81	0xbdaa8044	-0.08325246
82	0xbc6ee6ca	-0.014581392
83	0xbd995a45	-0.07487921
84	0x3c0a2c70	0.008433446
85	0xbd9074ca	-0.07053526
86	0x3d42e4a0	0.047581315
87	0xbbc94184	-0.0061418433
88	0xba5cf680	-0.00084290653
89	0xbdab7939	-0.08372731
90	0x3cecfeb3	0.028930044
91	0xbd4e0f00	-0.050307274
92	0xbc079544	-0.008275334
93	0xbc8c9c4f	-0.017164377
94	0x3d2dad29	0.042401467
95	0x3d03a626	0.032140873
96	0xbc85031e	-0.016236838
97	0x3d950050	0.0727545
98	0xbd1d164a	-0.038351335
99	0x3d99320d	0.074802496
100	0xbda9d82b	-0.08293184
101	0xbd434172	-0.047669835
102	0x3d1a9386	0.037738346
103	0x3d978db5	0.07400075
104	0x3d4d9d18	0.050198644
105	0xbc0407d4	-0.008058507
106	0xbd8ecae9	-0.06972296
107	0xbd4e3d9c	-0.050351724
108	0x3d64370b	0.055716556
109	0x3d5bcce3	0.053662192
110	0xbd0216fc	-0.0317602
111	0xbdb82650	-0.089916825
112	0xbd1b21c3	-0.037873995
113	0xbd5c8345	-0.053836126
114	0x3d49c100	0.049256325
115	0x3d6b9e67	0.05752411
116	0xbd809919	-0.06279201
117	0x3d17b209	0.037035022
118	0xbd66d958	-0.05635962
119	0x3c847164	0.01616735
120	0xbcbb882f	-0.022892086
121	0xbd827669	-0.06370241
122	0x3c2ebfc8	0.010665841
123	0x3d736195	0.059419233
124	0x3cfd5bdf	0.030927597
125	0x3b8eb5e5	0.0043551796
126	0xbd30757e	-0.0430808
127	0xbd700396	-0.05859717
128	0xc0083008	-2.1279316
129	0xc00307e1	-2.047356
130	0xbeda5e74	-0.42650187
131	0xbdbb33a3	-0.09140708
132	0x3eea9480	0.45816422
133	0xbe4d4cda	-0.20048848
134	0x3ed815de	0.42204183
135	0xbfce11ed	-1.609922
136	0x3f3e1430	0.74249554
137	0xbdbf2a44	-0.093342334
138	0xc00c39ef	-2.191036
139	0xbf04e465	-0.51911
140	0xbe6c0605	-0.23049171
141	0x3e50676f	0.20351957
142	0x3ef95350	0.48696375
143	0x3d48c8b0	0.049019516
144	0x3dd0643f	0.101753704
145	0xbf25ca4a	-0.64761794
146	0x3df80b79	0.12111563
147	0xbf9415bf	-1.1569136
148	0x3f0cc29b	0.54984444
149	0x3d08b6ec	0.033377573
150	0x3d4bb627	0.04973426
151	0x3ed597fc	0.41717517
152	0xbf6c9ee4	-0.9242995
153	0x3e9dc76a	0.30816203
154	0x3f7763d5	0.96636707
155	0xbdbd44d3	-0.09241643
156	0x3df3dbc5	0.11907152
157	0x3e68ed1c	0.227467
158	0xbf9f8b4b	-1.2464384
159	0xc01e97ba	-2.4780107
160	0x3f04c2e5	0.51859885
161	0x3f65a952	0.8971149
162	0xbf659c83	-0.8969194
163	0x3f2de8b0	0.6793318
164	0xc012c590	-2.2933083
165	0xc01b7544	-2.4290323
166	0xbea0e0f8	-0.31421638
167	0xbf72655c	-0.9468591
168	0xbeccda08	-0.40010095
169	0x3e479d69	0.19493641
170	0x3df3ce8a	0.119046286
171	0x3f5093c6	0.81475484
172	0xbf1de27a	-0.616737
173	0x3e24c03f	0.16088961
174	0x3e3bc1ba	0.1833562
175	0x3de6e891	0.11274827
176	0x3e9ae0aa	0.3024953
177	0x3d4342b0	0.04767102
178	0xc006359f	-2.0970228
179	0xc005b1cf	-2.0889776
180	0xc02a5a23	-2.6617515
181	0x3f04f1d2	0.5193149
182	0x3ee3b511	0.4447408
183	0xbfdaa592	-1.7081778
184	0x3e35fcf2	0.17772272
185	0xbfb6e654	-1.428904
186	0xbcafa346	-0.02144016
187	0x3ec86005	0.39135757
188	0xbf0af6e5	-0.5428298
189	0xbda591c2	-0.08084442
190	0xbfcbf9ff	-1.5935668
191	0xc06695f3	-3.6029022
192	0xbe78c39d	-0.2429337
193	0xc018314d	-2.378009
194	0xbfe67227	-1.8003587
195	0xbf845f65	-1.0341612
196	0xbf95ec1d	-1.1712681
197	0xbf648231	-0.89261156
198	0xbfbe7852	-1.4880469
199	0xbef5b397	-0.4798858
200	0xbf80ba89	-1.0056926
201	0xbfed209a	-1.8525574
202	0xc0150eda	-2.3290315
203	0x3ef74798	0.4829681
204	0x3dbeb4e8	0.09311849
205	0xbe36d094	-0.17853004
206	0xc01467b2	-2.318829
207	0x3f16c4d7	0.58894104
208	0x3e2eb9db	0.17063086
209	0x3f96eb41	1.1790544
210	0x3f0e2e35	0.55539256
211	0xc08e3d4f	-4.444984
212	0x3e5e7106	0.21722803
213	0x3efa3710	0.48870134
214	0x3e6b47da	0.22976628
215	0xc004f830	-2.0776482
216	0x3f0f2877	0.5592112
217	0x3f05a0bd	0.5219839
218	0xbf32fdbc	-0.6991842
219	0x3dc83827	0.09776335
220	0xbfcbcd08	-1.5921946
221	0x3ceba69c	0.028765969
222	0xbec7f920	-0.39057255
223	0xbf3fd354	-0.74931836
224	0xc00e6116	-2.2246757
225	0xbf05a19a	-0.5219971
226	0x3f06f049	0.52710396
227	0x3f0acfe5	0.5422347
228	0x3dc6d7a0	0.09709096
229	0xbd8ee298	-0.06976813
230	0x3ed05957	0.4069316
231	0xbe562c9f	-0.20915459
232	0x3ebbfc4f	0.36715934
233	0xbd0a486c	-0.033760473
234	0xbfbf146d	-1.4928108
235	0x3ebb1eee	0.36547035
236	0xbe4ed162	-0.2019706
237	0xbfe2a7ce	-1.770746
238	0xc0151801	-2.32959
239	0x3f09713e	0.5368842
240	0xbfa87a22	-1.3162272
241	0xbeb01bf8	-0.34396338
242	0x3f043d71	0.5165625
243	0xbef66375	-0.48122755
244	0xbe0c26fb	-0.13686745
245	0x3f6e5f81	0.9311448
246	0xbfd92f1e	-1.6967504
247	0x3f351ca4	0.7074683
248	0xbdd6faaf	-0.10497033
249	0xbd19bebd	-0.037535418
250	0x3e907090	0.28210878
251	0xbed12f33	-0.40856323
252	0x3d684df7	0.056714978
253	0x3ec99bd9	0.39376715
254	0x3f23946a	0.63898337
255	0x3ed74aac	0.42049158

net.2.bias f4 [128]
0	0xbdb444de	-0.08802198
1	0xbf8ff388	-1.1246195
2	0xbc80694d	-0.015675211
3	0xbd88b1ad	-0.06674514
4	0x3d8a723c	0.0676007
5	0x3d28b59d	0.041188825
6	0x3f4c53c2	0.79815304
7	0x3c83c000	0.016082764
8	0xbf3934c3	-0.72346133
9	0xbb02ecd3	-0.0019977584
10	0x3dc3f0bc	0.09567401
11	0x3dd7acf8	0.10531038
12	0x3d42b1d7	0.047532883
13	0x3d4007f4	0.046882585
14	0xbd8f9203	-0.070102714
15	0xba8840ab	-0.0010395249
16	0x3e64057c	0.22267717
17	0xbc6ab77f	-0.014325975
18	0x3d8b1cec	0.06792626
19	0x3c8f21cc	0.01747217
20	0xbe49a539	-0.19691934
21	0x3be4ac64	0.0069785584
22	0x3f7b4a96	0.98160684
23	0x3dc95f01	0.09832574
24	0xbdc0396d	-0.09385953
25	0xbdcb0540	-0.09913111
26	0x3df0ba7e	0.117543206
27	0xbde6ce46	-0.11269812
28	0xbe62ccfd	-0.2214851
29	0xbe19daff	-0.15024947
30	0x3f1ea1bf	0.61965555
31	0x3d8556f6	0.06510727
32	0x3d19895b	0.037484508
33	0xbefa1a82	-0.4884835
34	0xbd615e13	-0.055021357
35	0x3d9aae7f	0.07552814
36	0xbe96b4d4	-0.29434836
37	0x3d9ca429	0.076484986
38	0x3d71ad12	0.059002943
39	0xbe0dcb73	-0.13847141
40	0x3db66a3e	0.08906983
41	0x3c1a0e55	0.009402831
42	0xbe351344	-0.1768313
43	0xbe00ab73	-0.12565403
44	0x3c3c1798	0.011480235
45	0x3f2d3ec8	0.6767392
46	0x3d43d031	0.04780597
47	0x3d212740	0.039344072
48	0x3cca13f4	0.024667718
49	0x3f58c016	0.846681
50	0xbe6d6c55	-0.23185857
51	0x3d876e71	0.06612862
52	0x3da2f7d0	0.07957423
53	0x3f1d62d5	0.6147893
54	0x3dac45ac	0.08411726
55	0x3e0e83fb	0.13917534
56	0x3f0af25b	0.54276055
57	0x3e2bcbd0	0.16776967
58	0x3d06543c	0.032795176
59	0x3e02b552	0.1276448
60	0xbe766bad	-0.24064513
61	0x3dcb8a33	0.09938469
62	0x3cae93b1	0.02131066
63	0x3e19dde5	0.15026052
64	0x3db4fec8	0.08837658
65	0x3c6fc76c	0.014634948
66	0xbc2005ae	-0.009766979
67	0xbdbd3b41	-0.092398174
68	0xbcfa4c8d	-0.03055408
69	0x3c874bea	0.01651569
70	0xbd2c43d6	-0.04205688
71	0xbb473c3c	-0.0030400893
72	0x3d3e768b	0.04649977
73	0x3d125d33	0.035733413
74	0x3d893a1c	0.067005366
75	0x3af0b236	0.0018363658
76	0x3e3257e9	0.17416348
77	0x3db5519a	0.08853455
78	0x3f355b8b	0.7084281
79	0x3c6b8176	0.014374128
80	0x3c718809	0.014741906
81	0x3c5c7e69	0.013457873
82	0x3c0d7b35	0.008635332
83	0x3e921fe8	0.28539968
84	0x3e1cb63b	0.1530389
85	0x3d7c2853	0.061561894
86	0xbc0d1261	-0.008610339
87	0x3d6b1249	0.057390485
88	0xbdc00229	-0.09375412
89	0xbdbb305b	-0.091400824
90	0xbdb9ed52	-0.090784684
91	0x3d23efae	0.0400235
92	0xbe2ec497	-0.1706718
93	0xbdee2423	-0.11627986
94	0x3ea5da8e	0.32393306
95	0x3df01a5b	0.11723777
96	0x3da81ae0	0.08208251
97	0xbdb4f9c6	-0.08836703
98	0x3e288beb	0.16459624
99	0x3ec9590a	0.39325744
100	0xbe43e042	-0.19128516
101	0x3eb0465d	0.34428683
102	0x3dd7452a	0.10511239
103	0xbcb2e7ba	-0.021839011
104	0x3c7ee722	0.015558036
105	0x3de3bf91	0.11120523
106	0xbd187344	-0.0372193
107	0x3d9495ea	0.07255156
108	0xbb4485c0	-0.0029986948
109	0x3e86c7f0	0.26324415
110	0xbe1b8e2d	-0.15190955
111	0x3c13e937	0.009027771
112	0x3d853b54	0.065054566
113	0xbd786229	-0.060640488
114	0x3d058765	0.032599825
115	0xbd8009fa	-0.06251903
116	0x3cc80ce0	0.024420202
117	0x3da9135c	0.08255646
118	0xbd87456e	-0.066050395
119	0xbdbe9d78	-0.093073785
120	0x3d0897f0	0.033348024
121	0xbd2cfa19	-0.0422307
122	0xbc1289a0	-0.008943945
123	0xbd32598d	-0.043542434
124	0x3d8f8850	0.070084214
125	0xbcdbab55	-0.026815096
126	0x3d519a02	0.051172264
127	0x3df182bc	0.11792514

net.4.weight f4 [4, 128]
0	0xbb80b02f	-0.0039272527
1	0xbec21cc8	-0.37912583
2	0xbf85dc5e	-1.0457876
3	0xbd404c9f	-0.04694807
4	0xbf2f2e29	-0.6842981
5	0xbf0e9cc7	-0.55707973
6	0x3fb7a29d	1.4346501
7	0x3dacbb64	0.084341794
8	0x4029891a	2.648993
9	0xbf015602	-0.5052186
10	0xbef20b51	-0.4727426
11	0xbef78a0e	-0.48347515
12	0xbeb028cb	-0.34406123
13	0x400ae831	2.1704218
14	0xbf87a039	-1.0595771
15	0xbf2f613e	-0.68507755
16	0xbcfb2573	-0.030657506
17	0x3ca7882c	0.020450674
18	0xbefe0eb6	-0.496206
19	0xbeb9dd42	-0.3630162
20	0x3ff07a47	1.8787316
21	0xbf473c12	-0.77826035
22	0x3fede1fd	1.8584591
23	0xc048b7ce	-3.1362185
24	0xbfb847b1	-1.4396878
25	0x3c6cb686	0.014447814
26	0xbef03050	-0.4691186
27	0xc07822cf	-3.8771245
28	0x4004eb8b	2.0768764
29	0xbf75a2a0	-0.9595127
30	0x3fba9e21	1.4579507
31	0xbe9e57de	-0.30926412
32	0xbf3e7cb1	-0.74409014
33	0xc0386072	-2.8808866
34	0xbee8a7d2	-0.45440537
35	0xbe4e17be	-0.20126244
36	0xc015b4a0	-2.3391495
37	0xbec2516d	-0.37952748
38	0xbf34cad8	-0.70622015
39	0xbf0f9846	-0.56091726
40	0xbed69908	-0.4191363
41	0x3fa3a088	1.2783365
42	0xbf9c63fd	-1.2218014
43	0x3fc00100	1.5000305
44	0xbf3c6284	-0.7358782
45	0x4008775f	2.1322858
46	0xbef9ba26	-0.48774832
47	0xbe78c812	-0.24295071
48	0xbf23fe26	-0.64059675
49	0x3fb323bf	1.3995284
50	0x3fe5a715	1.7941614
51	0xbeb864fb	-0.36014542
52	0xbee8105e	-0.45324987
53	0x3f0b2147	0.5434765
54	0xbf03a70f	-0.51426786
55	0xbe806043	-0.25073442
56	0x3f0214d2	0.5081302
57	0x3f3f4797	0.7471861
58	0xbf06ce26	-0.5265831
59	0xbf04491d	-0.5167406
60	0x401abb08	2.4176655
61	0xbdbffd58	-0.09374493
62	0xbf890bb0	-1.0706692
63	0xbe97f29e	-0.2967729
64	0xbfadeec5	-1.3588492
65	0xbf570b67	-0.84001774
66	0xbef1dca2	-0.47238642
67	0xbfce4101	-1.6113588
68	0xbf669668	-0.9007325
69	0xbf341ae1	-0.70353514
70	0xbedc06d5	-0.42973962
71	0xbda8c9ea	-0.08241637
72	0xbf8ced24	-1.100987
73	0xbf095a2d	-0.5365322
74	0xbf15cce5	-0.5851577
75	0xbef9e11a	-0.4880455
76	0x3fa6541d	1.2994419
77	0xbe8d3b8e	-0.275845
78	0x3fcea3d7	1.614375
79	0xbfa6463b	-1.2990183
80	0xbef12b1e	-0.47103208
81	0xbd078bca	-0.033092298
82	0xbed33a12	-0.41255242
83	0xbf8f6c98	-1.1205015
84	0xbe1ec230	-0.15503764
85	0xbf02d2bf	-0.51102823
86	0xbeebe1e5	-0.4607078
87	0xbf6b7b66	-0.91985166
88	0xbf7d076a	-0.9883944
89	0x3d6b2f22	0.057417996
90	0x3ada66f5	0.0016662764
91	0xbf32d1b0	-0.6985121
92	0x400a7d92	2.1639142
93	0xbf47f9e1	-0.7811566
94	0x3eba8c3d	0.36435118
95	0xbf169de9	-0.588347
96	0xbf156d35	-0.5836976
97	0xbc9765b5	-0.018481115
98	0xbf5d5fdb	-0.8647439
99	0x3eaca1b3	0.33717117
100	0xc040a7e0	-3.0102463
101	0x3fd60a59	1.6721908
102	0xbf2af0c3	-0.66773623
103	0xbffe2685	-1.9855505
104	0xbd8c795b	-0.06859084
105	0xbe4da8f2	-0.20083979
106	0xbf67e3f5	-0.9058221
107	0xbf0cd49c	-0.55011916
108	0xbed940d2	-0.42432266
109	0x3fbcface	1.476404
110	0xbfdb47ef	-1.7131327
111	0xbf05538f	-0.52080625
112	0xbf207de6	-0.62692106
113	0xbd80740b	-0.062721334
114	0xbf6da24c	-0.9282577
115	0x3d29e936	0.041482173
116	0xbee297e9	-0.44256523
117	0xbf0a1090	-0.5393152
118	0x3d225541	0.039632086
119	0x3c375dda	0.01119181
120	0xbf618250	-0.88089466
121	0xbf189123	-0.5959646
122	0xbf35e8c7	-0.71058315
123	0x4000ea65	2.0143063
124	0xbf0a0fb3	-0.53930205
125	0xbfa803f1	-1.3126203
126	0xbf2e9545	-0.6819652
127	0x3ca1b455	0.01973931
128	0xbd5df36f	-0.054187234
129	0x3fa50f6e	1.2895334
130	0xbf3d633c	-0.73979545
131	0x3cd6df02	0.026229385
132	0xbf2f81d8	-0.685575
133	0xbf2bd3df	-0.67120165
134	0x3f9fe0c4	1.2490468
135	0xbd821d77	-0.06353276
136	0x402d2a9f	2.7057264
137	0xbf1a9dbd	-0.6039694
138	0xbef2ce1a	-0.47422868
139	0xbf535726	-0.8255485
140	0xbefb2f73	-0.49059638
141	0x4056dad1	3.3571055
142	0xbf25eab1	-0.64811236
143	0xbd8445d6	-0.06458633
144	0xbf396bed	-0.72430307
145	0xbd6f7a91	-0.058466498
146	0xbf1d4286	-0.6142963
147	0xbf223844	-0.63367105
148	0x3fe0f753	1.7575477
149	0xbf1e33af	-0.6179761
150	0x401305a6	2.2972198
151	0x3f3b37ba	0.73131907
152	0xbf052563	-0.5201017
153	0x3d4d44d8	0.050114483
154	0xbf64c5b2	-0.8936416
155	0xc014153b	-2.3137958
156	0x4007dc79	2.1228316
157	0xbf13ec03	-0.57782
158	0x3fd87857	1.6911725
159	0xbf15313b	-0.58278245
160	0xbf3ef79e	-0.74596584
161	0xc00cc876	-2.1997352
162	0xbf42139f	-0.7581119
163	0x3e0b16e7	0.13582955
164	0xbf4fd163	-0.81178874
165	0xbef81c13	-0.4845892
166	0xbeff0f14	-0.4981619
167	0xbff3ab97	-1.903674
168	0xbe8e1493	-0.27750072
169	0x3ff951c4	1.9478078
170	0xbffcb51a	-1.9742768
171	0x3fb5d199	1.4204589
172	0xbfc2367f	-1.5172881
173	0x400000a5	2.0000393
174	0xbf0fafe5	-0.5612777
175	0xbf1d259a	-0.613855
176	0xbf5bb592	-0.8582393
177	0x3fc05019	1.5024444
178	0x400a948b	2.1653163
179	0xbf8e0218	-1.1094389
180	0xbefeb5b1	-0.49747995
181	0x3f6e1d9f	0.9301395
182	0xbf718387	-0.9434132
183	0xbf58891c	-0.8458421
184	0x400a9cd4	2.165822
185	0xbf7c2fe8	-0.985106
186	0xbf2b0140	-0.6679878
187	0xbed8842a	-0.42288333
188	0x4025fdb8	2.5936108
189	0x3ef4af57	0.47790024
190	0xbf1032cb	-0.56327504
191	0xbf26d5d8	-0.6517005
192	0x3f14806b	0.5800845
193	0xbf66cf61	-0.90160185
194	0xbf397d72	-0.7245704
195	0xbf3acb62	-0.7296659
196	0xbf65a693	-0.897073
197	0xbf55c047	-0.83496517
198	0xbf222e0a	-0.633515
199	0x3cfb305c	0.030662708
200	0xbf9e424d	-1.2363983
201	0xbedbbb84	-0.429165
202	0xbf1c8a32	-0.6114837
203	0xbecd825e	-0.40138525
204	0x3ed5b41b	0.41738972
205	0xbf43160d	-0.7620552
206	0x3f9a232e	1.2041986
207	0xbf1a42ee	-0.60258377
208	0xbf5ba1a5	-0.85793525
209	0x3d8d1e3e	0.06890534
210	0xbf2c333a	-0.67265666
211	0xbfa761f6	-1.307677
212	0xbf27e668	-0.6558595
213	0xbf19efd2	-0.6013156
214	0xbf6eeff3	-0.93334883
215	0xbf4cf558	-0.80061865
216	0xbf2ebb65	-0.6825469
217	0x3dae2959	0.0850398
218	0x3ca0d99c	0.019635014
219	0xbf08afae	-0.53393066
220	0x40166f0f	2.3505285
221	0x3ee49488	0.4464457
222	0x3f43f3de	0.76543987
223	0xbf401746	-0.7503551
224	0xbe8996e2	-0.26872927
225	0x3d18110f	0.037125643
226	0xbf07bdb3	-0.53023833
227	0x3f4c142d	0.79718286
228	0xc016b6d5	-2.3549092
229	0x3f971606	1.1803596
230	0xbf2344ff	-0.63777155
231	0xbf80f76e	-1.007551
232	0xbc8d5182	-0.01725078
233	0xbf48b07f	-0.7839431
234	0xbf1d2aa0	-0.61393166
235	0xbe919b85	-0.28438964
236	0xbf1c1d4c	-0.60982203
237	0x3fae726f	1.3628672
238	0xc01dda7c	-2.4664602
239	0xbf1282f5	-0.57231075
240	0xbe3731e4	-0.17890126
241	0x3da4289c	0.08015558
242	0xbee3cc14	-0.44491637
243	0xbc1b829f	-0.009491592
244	0xbeba3f3f	-0.36376378
245	0xbeaf1c73	-0.34201393
246	0x3d0a922f	0.033830818
247	0x3c1c95c8	0.009557195
248	0xbedd9b1f	-0.4328241
249	0xbf039784	-0.5140307
250	0xbf510e2d	-0.81662256
251	0x401b0c10	2.4226112
252	0xbe84a4e2	-0.25907046
253	0xbeeb4173	-0.4594837
254	0xbf2b4b4a	-0.66911757
255	0x3e99caed	0.30037633

net.4.bias f4 [4]
0	0xbe12e3b7	-0.14344679
1	0x3ea612f2	0.3243633
2	0x3dcb8ccd	0.09938965
3	0xbdf4a7d2	-0.11946072
